ckpt/1101_23/model_epoch2.pth (torch, 16378 bytes, 6 tensors)

fc1.weight f4 [32, 63]
00000000: b024 d1be 894e 44bf f7dd 383d d7ca 9cbf
00000010: a77f 4c3e b4d2 91bf d5e2 9abf 7eaf 143f
00000020: 5571 86bf 6042 7f3c 2ce0 a83e 51d3 8e3e
00000030: ccfc 0b40 2682 00bf 8a48 e23f 58d5 99be
00000040: 7500 7e3e 96ce eabe da52 52be c0ad b93e
00000050: f9f2 4fbf b3d4 1cbf de3d 04be 723d 8dbf
00000060: 0c15 aabf 48aa dbbe 420c 2cbf b376 073f
00000070: 2c0f 103e 69db 7d3e 0be7 10be ec50 71bb
00000080: 26f3 163f b4f7 323d b7ff 823e 33db ad3e
00000090: 2dba e23e 4567 713f 4454 b03e 2772 6d3f
000000a0: 376b 30bd a7c4 233f 08f3 fb3e 0c01 a7be
000000b0: 3266 193f 3108 183f 8a06 b5be 51de a0bd
000000c0: 4805 663f f24c aabc ea0e 8abe 7a39 7f3f
000000d0: d6d0 33be 7e7d 493f 3e1f 2e3f bada 0b3e
000000e0: ae2b 51be ffc7 20bf 26b3 6b3c f73b cbbe
000000f0: f0a4 b0bf 40e9 eabe 8d7f c1be e01c fcbe
00000100: 6147 a6bf 658a b13f 54a6 1fbf 254f b3be
00000110: c874 a33f ec2a 3abe 66b8 64be a58a b33e
00000120: e1b6 3a3e 1148 9d3d 4690 fdbe b141 883e
00000130: 89a6 ca3e 3f85 50bf 865c 5c3e ee4c 953e
00000140: e453 2dbf 52c1 1a3f 8fa0 8a3f d7d3 cbbf
00000150: 45f0 6c3e db4f 273f 2a50 4abf 838f afbe
00000160: 7b49 8abe e506 2a3f d7fc 663e 21de 423e
00000170: 517c 02bf 56f5 063f 8382 903e c2c6 86bf
00000180: 4ee7 a1be eb9b f6be 6bb7 193f 2318 87bf
00000190: 52a2 b5bf 1452 0240 69a5 683e e2ec 303e
000001a0: 3802 f9be 964c bc3e 6c89 123f f188 7fbf
000001b0: f543 b7be 3b2b 1abe 0ec0 9d3e 6fc6 0ebf
000001c0: d115 05bf 44c2 8d3f fada 783e 05cf a73e
000001d0: 6242 c2bd 18fe a23e 67e3 283f fe00 14bf
000001e0: 47bd 163e 58b7 883e a693 a1be 3130 083e
000001f0: 1456 febd b77a 2ebe 8948 b3be 582b ae3d
00000200: 613e 2a3f 3f67 2a3e d9e4 e3be 0f8c 823e
00000210: 22a1 513e 1459 b1be 4ca5 d7bc 6e53 133f
00000220: 4ddf 863e 44cc 83bf 36eb 9e3f 9597 0e40
00000230: a49a 87c0 74aa d23c 5d41 243e 6de7 9bbe
00000240: 146a eabe b2b9 9a3e eef3 b73e 2530 babe
00000250: 3548 edbe 481e 093f 32ad ad3e c95e 76bf
00000260: d357 c03e 833e 9d3e 9e16 1b3e 99ae 42bf
00000270: 333a 1fbf 097a 09be 06e5 073f c2e2 d2be
00000280: ec7c 373e c816 8b3f aeb7 bd3d 38c1 133d
00000290: 12c9 423e 3e83 3e3f d6ed 053e 1aa0 27bf
000002a0: 9c67 0ebf 8bfa 433e 96a4 343f e6fe 07bf
000002b0: 4e94 c13c 21b7 a33f 3d91 1dbd 65ff 14bf
000002c0: 7274 283f 6365 243f b308 9d3e a94a 3ebf
000002d0: 7ca2 21be c2a2 2cbe 1747 063e 492e e9be
000002e0: cc65 5abf e85f 4e3f bd29 7abd 85ca a0bf
000002f0: 3edc 973f fe0e eebe 64f3 56bf 38f7 193f
00000300: 3c38 e2be 55f3 54bd 1247 8c3f 7340 a3be
00000310: 35c5 f4bd 580d 683f 7d7e b23d 8cf3 d6bd
00000320: 0bfb 1fbe c4be 843f 9963 203f 9494 c9bf
00000330: 20dd 3a3e bb74 153e 18c1 453f e1ba 063f
00000340: ff38 603e 6003 473d d4f8 2dbe 36ee 12bf
00000350: eb75 3cbd ed04 88bf da8b a0bf 7a95 353f
00000360: 81d5 053f 2d89 033e c52d c63d 24ee 9abe
00000370: 4091 ac3e 1630 243f 0e22 e83d c238 1d3e
00000380: 827e 973e 1c24 4c3f 4728 7b3e 41fd 38be
00000390: ec8f 113f 84aa a4bd 8e3f 85be db50 993d
000003a0: fb52 523e 201a 40bf 773d d83d 8f08 a23e
000003b0: 97c2 5cbf b9a1 ab3e f22b 1d3f 9773 88bf
000003c0: b557 8b3e 61ed 433e 0f4d 4ebf 3c68 583d
000003d0: a874 e73d 7b55 c3bf 33dd 90be 527c ddbd
000003e0: 00ba 293b 6c1a 32bf fcc0 1cbf 0668 9e3f
000003f0: f2cb ab3e e5ce 053f 0d74 26be b9cb 913e
-0.40848303 -0.76682335 0.045133557 -1.2249402 0.1997057 -1.1392426 -1.2100474 0.5808028
-1.0503336 0.01557979 0.3298353 0.27895597 2.1873045 -0.5019859 1.7678387 -0.3004558
0.24804862 -0.45860738 -0.20539418 0.36265373 -0.8123012 -0.61262053 -0.12914225 -1.1034377
-1.3287673 -0.42903352 -0.67206204 0.52915496 0.14068288 0.2479073 -0.14150636 -0.0036821915
0.58964765 0.04369326 0.2558572 0.33956298 0.44282666 0.942982 0.3443929 0.9275231
-0.043070998 0.6397194 0.49208856 -0.32617986 0.5992156 0.593875 -0.3535655 -0.078549035
0.8985181 -0.020788644 -0.26964504 0.9969708 -0.17560133 0.7870711 0.6801642 0.13657656
-0.20426819 -0.6280517 0.014385974 -0.39694187 -1.3800335 -0.4588108 -0.37792626 -0.4924078
-1.2990533 1.387036 -0.6236317 -0.3502132 1.2770014 -0.18180436 -0.22335967 0.35066715
0.18233825 0.07679761 -0.49524134 0.2661262 0.3958018 -0.8145332 0.2151967 0.29160255
-0.6770613 0.60451233 1.0830249 -1.5924023 0.2313853 0.65356225 -0.7902857 -0.34289178
-0.27009186 0.6641677 0.22557388 0.19030048 -0.5097094 0.527181 0.28224573 -1.0529406
-0.31621784 -0.4816583 0.600455 -1.0554241 -1.4190161 2.0362597 0.22719349 0.17277864
-0.48634505 0.3677718 0.5724094 -0.9981833 -0.35794035 -0.15055554 0.3081059 -0.55771536
-0.51986414 1.107491 0.24302283 0.3277513 -0.09485318 0.31834483 0.6597199 -0.57814014
0.14720641 0.2670238 -0.3155796 0.13299634 -0.12418762 -0.17039 -0.35016277 0.08504361
0.6650143 0.16640948 -0.44510534 0.2549748 0.20471624 -0.34638274 -0.026323937 0.5754918
0.2634224 -1.0296712 1.2415531 2.2280018 -4.237627 0.025716044 0.16040559 -0.3045
-0.45784056 0.302198 0.3592829 -0.36364856 -0.46344152 0.5356183 0.339212 -0.9623838
0.37567005 0.30711755 0.15145347 -0.76047665 -0.6219818 -0.13425459 0.5308384 -0.41188627
0.17918748 1.0866327 0.0926355 0.03607294 0.19022015 0.7441901 0.13079008 -0.6547867
-0.55626845 0.19138543 0.7056364 -0.5312332 0.023630287 1.2790262 -0.03846859 -0.582022
0.6580268 0.64217204 0.306707 -0.7433267 -0.15784639 -0.16858962 0.13113056 -0.45543125
-0.8531158 0.8061509 -0.06107496 -1.2561804 1.1864088 -0.46495813 -0.83965135 0.6014285
-0.44183528 -0.051989872 1.0959189 -0.31885108 -0.11951677 0.9064536 0.08715532 -0.10495672
-0.15623109 1.0370717 0.62651974 -1.5748467 0.18248415 0.1459531 0.7724776 0.52628905
0.21896742 0.048587203 -0.16989452 -0.5739473 -0.046010893 -1.0626503 -1.2542679 0.7093121
0.52278906 0.12845297 0.096766986 -0.30259812 0.33704567 0.64135873 0.113346204 0.15353683
0.29588705 0.797426 0.24527083 -0.18065359 0.5686023 -0.08040336 -0.2602505 0.07486125
0.20539467 -0.75039864 0.105585985 0.31647155 -0.8623442 0.33521822 0.6139518 -1.0660275
0.27215353 0.19133522 -0.8058633 0.05283378 0.11301547 -1.5260462 -0.28293762 -0.10814728
0.0025898218 -0.69571567 -0.6123197 1.2375495 0.33554035 0.5226882 -0.16255207 0.2847574

fc1.bias f4 [32]
00000000: 2c8b 073e 03e7 203e 926c 06bf 987e c83c
00000010: dc79 2d3e 1b25 8fbd fb44 febd 501b 003e
00000020: 17d8 793e 2221 513b ea2f 20bd 39bd dabe
00000030: 70d3 0e3f b61b b53c f1a0 e23d 54f0 7abf
00000040: e9a4 463d 9776 86be 16e5 313f f71d 7abe
00000050: 65cc 733e ddc2 e7be 3ba4 a7bd cd79 1abe
00000060: 622d 053e e8bd 273d f274 3e3f f03c bbbe
00000070: 6be6 03bf da6f 4cbd 9fa2 08be a7bb fc3c
0.13236684 0.15713124 -0.52509415 0.024474427 0.16941017 -0.06989499 -0.12415501 0.12510419
0.24398838 0.0031910618 -0.039108194 -0.4272249 0.5579138 0.02210794 0.110658534 -0.9802296
0.048497114 -0.26262352 0.6949018 -0.24425493 0.23808439 -0.45265856 -0.08185621 -0.15085526
0.13005593 0.040952593 0.74397194 -0.3656993 -0.51523465 -0.049911357 -0.13343285 0.030851198

fc2.weight f4 [32, 32]
00000000: c1b2 073f bb8a 5d3e 4416 e9be 9006 9b3f
00000010: dc38 47be d1aa c1be 624b 753e 7b9c 95be
00000020: ab10 e0bc ff56 ccbc 5eaa 2c3f e93d 2cbf
00000030: 7582 873e 9e72 8abe 535c e33d 2676 81be
00000040: edce 25bd 1af5 97bd f3f3 57bf 7cd4 fabe
00000050: 756a 01bf f1b7 71bd b2d8 19be 0af5 b73e
00000060: a289 47bb 5042 6b3c 270d bbbd c611 c3be
00000070: dd4c 1cbe 59c3 193e 583a 73be 1bb4 c3bd
00000080: 4a52 013f ec32 2fbc 2f00 86bf d5a4 503e
00000090: 653c ab3d 4bab 013f c4b2 043e 03a9 a0bd
000000a0: 7c53 80bf 9e83 dabc d2df fc3d 65b9 97bf
000000b0: 4b82 39bf 41bf 7bbd e640 89be 5531 acbf
000000c0: d361 8cbc 8587 773f 412a 263e 819c 5c3e
000000d0: fd75 e5be 2ce6 c6bd d981 05be 0ff7 363f
000000e0: b46d 1d3e f515 233e 059e 06bf a8b8 5c3b
000000f0: 2405 3fbe 866c c4bc 0301 6bbd 758f 2dbd
00000100: 7251 98bd ba3c 9bbe 8093 7d3e 40ef c2be
00000110: 34f5 433e b49f d8bd 3c2e 0abf ccbd 27bf
00000120: a4e9 21be 6e0b 0b3e c829 f33e e0bc a23e
00000130: 120c a3be be30 35be 417d 38be f95a e5be
00000140: a43f 05be c67d fe3e c2e7 23be 349c f0be
00000150: bc2b 8e3e b590 35bf 8903 a63d bbad 83bd
00000160: ccb7 18bf 6dfb 113c 14a1 af3e 323d 6a3e
00000170: 0b6f 613e b150 573f b751 70bd 86a7 013e
00000180: a7b6 9e3e c68c 2fbe 7780 47bf 588d 9ebb
00000190: fa29 bf3e 4adc 243e f7ed a4be 2536 d53d
000001a0: 0caa f6be 2404 3cbd c5b6 96bd 07f3 2abe
000001b0: ba5b 68bf cd3b 4f3f dc7c c1be c8ca 02bf
000001c0: 776d 73bd d5ae b8be 6446 e73e 7391 723e
000001d0: e487 24bf 3a3e 223e a82c da3d 8df5 b63e
000001e0: 8d42 debe 07f7 21be 9c81 ffbe 9abd 3d3d
000001f0: bc14 15bf ee57 743e af82 093f 54e1 b9bc
00000200: abbd c43e dfd1 c9bf bfa6 6cbe de82 0c3f
00000210: f111 073d 7e64 eb3e 5f04 51be 1355 e73e
00000220: 9ca6 79be aa2a 923d e8d6 fdbd 9ed4 12bd
00000230: 7e3c eabe cfd9 28bf a9a4 f4bd 86d7 92be
00000240: 9364 30be cc02 4d3f 40bb 063f d5a4 f73e
00000250: 4b35 0ebf 7d8e 84bf af96 133e cc77 c53e
00000260: 6ba8 453f cb17 e03d a690 1bbf db7a 4cbf
00000270: 3ec4 90bf db01 6f3f 2343 613f e907 053d
00000280: 7827 7fbd d9dc 003f b480 80bf 9019 9abe
00000290: e4e0 7f3f 0e33 6d3d db2a 10bf 67a8 a43d
000002a0: 02f6 f3be 751f 2e3d 9368 be3e 5932 90bf
000002b0: bbf7 a8be ecd1 193f 5397 afbd 8ac3 51bf
000002c0: ada6 6abd e2f5 8cbf 2f52 173f e0ec 5abd
000002d0: 4d0a c1bb 414c 4a3f 94f7 27be 9f48 b4be
000002e0: f2fe 14bf 40af 553c 0c08 81be e921 623f
000002f0: 116e 39be 3a2e 0abf 1948 bbbf de11 23be
00000300: 183e ca3b a9b9 aabd f49e 253f 6e65 d73e
00000310: a874 6bbf e82a afbe 2492 873e b219 6bbf
00000320: 6794 0ebd f125 86bd e021 c1bd 0b45 39be
00000330: 964d 7f3e 6ee4 28bf b388 0b3f 965b 053e
00000340: 2862 98bb be41 593e e108 a4bf 3af7 a7be
00000350: 07d2 673f fd22 663e d28b b5bc 712e 85be
00000360: 206a 493f b3ae 203e 152d be3e 1eb9 bfbe
00000370: 9ae7 303f 0c13 2a3e b6ca 80be 7d72 6c3c
00000380: 484b 5ebe f9b8 78bf c76b ed3e aeac fc3e
00000390: f292 4dbe 9d27 e5be ed5f 89bf ede5 c9be
000003a0: dd76 8e3e 4c8d c6bd 8240 503e ab2d 8a3e
000003b0: abb4 ac3e ee3d eabe 1375 983e 0def 1c3f
000003c0: 4af1 053c 9186 0a3f 263e d0be d506 48bf
000003d0: b937 133f 6e27 91bf d2e7 00bd 3375 723e
000003e0: 2d80 f9be ef81 df3c a0a8 4ebf f5ad e0be
000003f0: f6fb 00bf cfaa 1e3e 5cca 223f 3d94 2cbe
0.5300713 0.21634953 -0.455248 1.2111378 -0.19455284 -0.37825635 0.23954538 -0.29220948
-0.027351698 -0.024943827 0.6744746 -0.6728197 0.26466718 -0.2704057 0.11101594 -0.25285453
-0.040480543 -0.07419796 -0.8435661 -0.48990238 -0.50553066 -0.05901331 -0.15024069 0.35929137
-0.0030447026 0.014359072 -0.09133368 -0.38099498 -0.15263696 0.15015925 -0.23752725 -0.09555837
0.5051619 -0.010693293 -1.0468806 0.20375378 0.08361129 0.50652 0.12958819 -0.078447364
-1.0025477 -0.026674088 0.12347378 -1.1853453 -0.72464436 -0.06146169 -0.26807326 -1.3452555
-0.01713649 0.9669116 0.16227056 0.21544077 -0.4481658 -0.097118706 -0.13037814 0.7147073
0.1537388 0.15926345 -0.5258487 0.00336794 -0.18654305 -0.02397753 -0.05737401 -0.04237314
-0.074374095 -0.30319768 0.24763298 -0.38073158 0.19136506 -0.10577336 -0.539768 -0.6552398
-0.15811783 0.13578579 0.47492814 0.31784725 -0.31845146 -0.17694375 -0.1801653 -0.4479597
-0.13012558 0.49705333 -0.16006377 -0.46994174 0.27767742 -0.7092393 0.08106143 -0.06429621
-0.5965545 0.008910042 0.3430258 0.22874907 0.22015016 0.841075 -0.05867168 0.12661561
0.30998728 -0.17143545 -0.77930397 -0.004838627 0.37336713 0.16099659 -0.32212803 0.10410718
-0.4817661 -0.045902386 -0.07359079 -0.1669427 -0.90764964 0.80950624 -0.37790573 -0.5109067
-0.059430566 -0.36070886 0.4517089 0.23688297 -0.6426985 0.1584405 0.10653049 0.35734215
-0.4341015 -0.1581689 -0.49903572 0.046323396 -0.58234763 0.23861668 0.5371503 -0.022690453
0.38425955 -1.5767173 -0.23110484 0.5488719 0.032976095 0.45975107 -0.20411824 0.45182094
-0.24379963 0.07137044 -0.12394506 -0.0358473 -0.45749277 -0.6595735 -0.11945469 -0.28680056
-0.17225866 0.8008239 0.5262947 0.48367944 -0.5555007 -1.0355984 0.1441295 0.3856796
0.7721011 0.10942038 -0.6076759 -0.7987496 -1.1309888 0.93362206 0.8799307 0.032478247
-0.0622935 0.50336987 -1.0039277 -0.30097628 0.9995253 0.057910018 -0.5631539 0.08039933
-0.47648627 0.04251047 0.3718916 -1.1265365 -0.33001503 0.6008594 -0.08573785 -0.81938994
-0.05728786 -1.1012537 0.5910978 -0.053448558 -0.0058911205 0.79022604 -0.16403037 -0.35211655
-0.58201516 0.013042271 -0.25201452 0.8833299 -0.18108393 -0.53976786 -1.4631377 -0.15924785
0.006171953 -0.08336193 0.6469567 0.42069572 -0.9197488 -0.34212422 0.26478684 -0.9183608
-0.034809496 -0.065502055 -0.09430289 -0.18092744 0.2493194 -0.65973556 0.5450546 0.13023219
-0.004650373 0.21216485 -1.281521 -0.32805806 0.9055485 0.22474284 -0.022161398 -0.26011994
0.7867756 0.15691642 0.3714377 -0.3744592 0.69103396 0.16608828 -0.25154656 0.014431593
-0.21708405 -0.97157246 0.4637129 0.49350494 -0.20075586 -0.44756785 -1.0732399 -0.39433232
0.2782506 -0.09694919 0.20337108 0.26987967 0.3373159 -0.45750374 0.2977682 0.6130226
0.008175204 0.5411158 -0.40672415 -0.78135425 0.575069 -1.1340158 -0.03147108 0.2367752
-0.48730603 0.027283637 -0.8072605 -0.4388272 -0.5038446 0.15494846 0.63590026 -0.16853423

fc2.bias f4 [32]
00000000: 027c 4b3e aea6 1a3f ecfe 063e 5931 8c3f
00000010: 1f50 513f 5620 813f 1fc1 25be 7e69 e83e
00000020: 4728 19be e65b 22bf ee1e ec3e 0950 b4bf
00000030: 9fe8 02bf d96e ccbe 2266 b8be 80b3 50bf
00000040: 9c5b fe3d 1185 11bf f247 943f 6de0 213e
00000050: 62a3 1abf 0260 20bf c7e3 0cbe 1cbf cf3f
00000060: cdd2 bebe 46cb 33bf 0879 35be 43d0 31bf
00000070: 108e febe c70c e73e afe2 46bf 231e 01bf
0.19871524 0.60410583 0.13183182 1.095256 0.8176288 1.0087993 -0.16186951 0.45392984
-0.14956771 -0.63421476 0.46117347 -1.4086925 -0.511362 -0.3992832 -0.3601542 -0.81523895
0.12419817 -0.5684367 1.1584456 0.15808268 -0.6040555 -0.62646496 -0.13758765 1.6230197
-0.37270203 -0.70232046 -0.17721951 -0.6945841 -0.4971776 0.45126936 -0.7768964 -0.5043661

fc3.weight f4 [10, 32]
00000000: 4c68 6d3f f2c3 ff3e 9bff a13d 87e1 57bf
00000010: bc81 07bf ef0b 33bd 4020 083f 46be 04bf
00000020: 7878 31bc f197 343f 820f 6ebf 72fb cbbe
00000030: 8d17 11be 331c 4b3f 353f 28bf 69b4 433f
00000040: 9e44 e2be ccce 87be 588c 37bf aec1 13bf
00000050: 0e61 15bf 7ea1 603f 4bb2 243f 8c75 903e
00000060: 2a1f 0a3f 9520 27bf 3dc7 5c3f eb5a d0be
00000070: 21a5 1abf 91e2 b43e a70a 13be f0d7 073f
00000080: 8892 c33d 061a c23e 65a3 aebe 54be 333f
00000090: 6051 31bf 938a a03f 9128 a83d 980f c9bd
000000a0: d5b3 41be 573f 0d3d c9eb 93be 9b83 95be
000000b0: 0d63 a6bd 1a37 05bf 290d 6a3e 7ff1 f73e
000000c0: 7878 4bbd b001 8abe bef8 233f 3d37 b63e
000000d0: a294 88be fe43 2bbf 6d1a 86be 06bb 703e
000000e0: 00ce 023e 1cdb 1b3e e2fd 203e c9e2 0a3f
000000f0: a8b1 cf3e bc6b c83e 07a0 06be 1f11 42be
00000100: 9db2 6a3e a531 723f d839 a43e b98f 293f
00000110: 7134 993f 0987 88be 0b0b 82bd a6dd a73e
00000120: da39 3ebe c8a7 6abe f792 353f 49e5 47be
00000130: 5658 083f 0bcf 9cbe 3236 a53e b45b dc3c
00000140: f223 483e 19ad b13e b18e 443f ed4e 0dbe
00000150: 1fd3 103d 3c0d 75bf d90c 1d3e 4231 593e
00000160: 6637 42be f8a0 98be 20b0 01be cc6b 10be
00000170: 801c 1b3f d4fe 5fbf 0a85 79be 8f3d e4be
00000180: 7f82 9d3e 59d3 0cbf dfca 70be 6508 013f
00000190: ef78 ba3f c769 4ebf 88d7 303f 48c3 ef3e
000001a0: 230f 043e 6832 ecbe 6876 583f 4ed2 033e
000001b0: 4687 1d3f d1ef 683d 26cf e03d d5b9 273f
000001c0: 202a 11be 843a 4fbd 8217 4a3f f368 51bd
000001d0: d5ef d2be ffef 47be f9c9 00be 7fdd 7c3e
000001e0: 45b9 7e3e 3b14 a8be 719a 27bf c35d 673d
000001f0: 0c6a 52bf 58dc 113f 5d27 58bd e24d 1cbe
00000200: 5c4b f2be 0d36 a8bf df42 aebe a802 c0be
00000210: 14e8 743f 55a9 b7bf 31cd b4bf 664a 023f
00000220: d9ce 103d 6d5b 253e 00ed a23e a30e 5e3e
00000230: 3f34 433f dcfd 02bd cec0 b4bd 1280 28bf
00000240: f84e a4be 2e50 88bf 2f6e 053d 8060 513f
00000250: 9105 afbe a98a c7be 5f66 83be 4f41 9cbd
00000260: 98d0 f23e 6845 233e 9f2b 81be a391 b6be
00000270: 2cc0 a3be 401a bd3f e9af 68bf bb39 b7be
00000280: 3edf 42bf cc34 a2bf e567 363e a943 1bbf
00000290: 455c ce3e b249 88bf 8cd1 14bf 8c5b dd3f
000002a0: 334c ec3d b4d5 dd3e 29e3 913d 77cd 4c3f
000002b0: a78c ea3d b979 dbbe cd84 18bf c28f bebe
000002c0: 483f d13e 7e35 c33e 52f5 31be 5ff5 2bbe
000002d0: bca3 093f 324d 01bf 7381 bdbe 8e11 48bf
000002e0: a8ad 96bf 8ba1 a6bd 14f8 9bbf ab3a b33e
000002f0: 85d0 163e 1e86 7f3f e309 133e 4fed babf
00000300: 5710 79be 0af0 12bf f6af 0abf b915 3a3d
00000310: 4d4c b0bf 16b0 5d3f 64fa 713e c68a 53bf
00000320: d639 073e e359 a93e 1be7 f5be 2296 a63e
00000330: 2416 8fbe 3eb6 213e 4864 76be ba23 89be
00000340: 50da 443e fd5a df3d d9dd c2be 4860 ff3e
00000350: e296 203f 3ff0 d43e 298e 64be d684 09bf
00000360: 983f 203f 5c28 aa3e 2b22 b4be 27d1 ac3f
00000370: 329e 82be 2e1b a23d c855 8a3e 4931 283f
00000380: 0e36 bd3e fb47 483f 78ae 5b3f 1b70 df3d
00000390: 86a8 dabe 8c9d a2be 1ab7 da3e 03b6 4fbe
000003a0: 1d48 5c3e 671b 12bf 8fd9 7a3d 3c47 02bf
000003b0: 7b43 0cbf af2b b03e 5db5 f5bc 6f71 c0be
000003c0: 6f4c 2d3f 406a 4e3f ac68 55bf 3278 4dbf
000003d0: c480 2dbf e65f 1f3f edeb b8be 55e6 a13f
000003e0: a10c 6b3d ded8 2fbf f6f7 183f 731f 47bf
000003f0: b77a a13e 147b 6dbf d5ef 423e 7776 7d3e
0.9273727 0.49954182 0.07910081 -0.843285 -0.52932334 -0.043712553 0.5317421 -0.51852834
-0.010831945 0.70544344 -0.92992413 -0.39840275 -0.1416914 0.79339904 -0.65721446 0.7644716
-0.44192976 -0.2652496 -0.7169852 -0.57717407 -0.5835122 0.8774642 0.64334553 0.2821468
0.539538 -0.6528409 0.86241513 -0.40694365 -0.60408217 0.35329106 -0.14359532 0.5306387
0.09549433 0.3791048 -0.34109035 0.7021229 -0.69264793 1.254229 0.082108624 -0.098174274
-0.18916257 0.034484234 -0.28890827 -0.2920197 -0.08124361 -0.52037203 0.22856583 0.48426434
-0.049675435 -0.26954412 0.64051425 0.35589018 -0.26675898 -0.6690062 -0.26192036 0.23508844
0.12773895 0.15220302 0.15721849 0.54252297 0.40565228 0.39144695 -0.13146983 -0.18951844
0.22919698 0.94607 0.3207538 0.6623493 1.1969129 -0.26665524 -0.063497625 0.32786292
-0.18576756 -0.22915566 0.70927376 -0.19521059 0.5325979 -0.3062671 0.3226791 0.026899196
0.19544962 0.34702376 0.7678023 -0.13799639 0.03535759 -0.9572332 0.15336932 0.21210197
-0.18966445 -0.2981031 -0.12664843 -0.14103621 0.6059036 -0.8749821 -0.24367157 -0.44578215
0.30763623 -0.5500999 -0.23514889 0.50403434 1.4568156 -0.80630153 0.69078875 0.46828675
0.12896399 -0.46132207 0.84555674 0.12873194 0.61534536 0.05686933 0.109770104 0.6551793
-0.14176226 -0.050592914 0.7894212 -0.051125478 -0.41198602 -0.19525145 -0.12577046 0.24693869
0.24875362 -0.32827935 -0.65470034 0.056485903 -0.82193065 0.5697684 -0.052771915 -0.15264085
-0.4732312 -1.3141495 -0.34035394 -0.37502027 0.95666623 -1.4348551 -1.412512 0.50894773
0.035353515 0.16148157 0.31821442 0.21685271 0.76251596 -0.03198038 -0.08825837 -0.6582042
-0.32091498 -1.0649469 0.032575782 0.8178787 -0.34183934 -0.38972977 -0.2566404 -0.07629644
0.4742477 0.15944445 -0.25228593 -0.35657987 -0.31982553 1.4773636 -0.9089342 -0.35786232
-0.7612189 -1.2672362 0.1781307 -0.60650116 0.4030477 -1.064749 -0.58132243 1.7293563
0.11537971 0.43327105 0.071234055 0.80001014 0.114526086 -0.42866305 -0.5957764 -0.37219054
0.40868592 0.3812675 -0.17378739 -0.1679282 0.53765464 -0.50508416 -0.37012824 -0.78151786
-1.1771746 -0.081362806 -1.2185082 0.35005698 0.14727981 0.9981402 0.1435924 -1.4603671
-0.2432264 -0.5739752 -0.54174745 0.045430873 -1.3773285 0.8659681 0.23630673 -0.82633626
0.13205656 0.3307639 -0.48027882 0.32536417 -0.2794658 0.15792176 -0.24061692 -0.2678507
0.19223905 0.109060265 -0.3805988 0.49878144 0.6273023 0.41589543 -0.22319855 -0.53718317
0.62597036 0.33233917 -0.35182318 1.3501328 -0.25511318 0.0791534 0.2701857 0.65700203
0.36955303 0.78234833 0.85813093 0.10910054 -0.42706698 -0.31760824 0.4271782 -0.20284276
0.21511884 -0.5707306 0.061242636 -0.50889945 -0.5479047 0.34408328 -0.029993707 -0.37586543
0.67694753 0.80630875 -0.8336284 -0.8026153 -0.67774606 0.62255704 -0.36117497 1.2648417
0.05738509 -0.6869029 0.5975336 -0.7778236 0.31538936 -0.9276593 0.19036801 0.24752222

fc3.bias f4 [10]
00000000: 23cb 94be 7f2b 823f c76c 633d 4aa2 493e
00000010: ec4f 223f c70c 7bbf 52fd 24bf 7d67 8a3f
00000020: aaa8 9bbf 638b 9ebe
-0.2906123 1.0169524 0.05552366 0.19690815 0.634032 -0.9806637 -0.64449036 1.0812832
-1.2160847 -0.3096572
