ckpt/1101_23/model_epoch8.pth (torch, 16378 bytes, 6 tensors)

fc1.weight f4 [32, 63]
00000000: fc76 82be 3db4 e9be 33d9 bd3e 874a d6bf
00000010: fde1 3b3f 4b28 76bf 4512 1cc0 3ca8 953f
00000020: a7a0 acbf fb29 d2be fa86 ab3d 386c 693e
00000030: 6033 6a40 646a d3bf b847 0a40 5aeb 6ebf
00000040: 5be9 033f 481f 2fbf 97d3 66bd d0f3 043f
00000050: a009 0cbf bde7 97bf 160f 933d 7a73 82bf
00000060: 152c 20c0 e2e9 8c3e cedc 02bf a952 0f3f
00000070: 44ed 883d 51f9 513e f428 3ebd 2c21 acbd
00000080: 4ab4 ee3e 2c58 4fbe 33c2 2d3e 9527 f0bd
00000090: a7bd a03e ee89 883f 17b9 723d a1f8 a33f
000000a0: f291 c4be 241c 213f 954d 813f b0c9 35bf
000000b0: 03c8 9a3f f6d4 9b3f 98d6 3cbf c8f0 c13e
000000c0: 7362 0540 dc43 96be b474 f33d c20e cb3f
000000d0: 5c6b 41bf cf38 073f 14ed ae3f d8bf 653e
000000e0: fb1e 3ebd bdcd b9bf 5cc1 093f 8eeb 03bf
000000f0: eed6 50c0 951b 853e 3a96 81bf 83c7 39bf
00000100: 48b5 c2bf 1948 0140 3701 19bf 1c42 cfbe
00000110: 0205 dd3f 10a7 48be d261 0bbf 0434 f63e
00000120: 5cb7 1b3e d6f1 8e3d 0ff8 75bf 382a d63e
00000130: 0db6 903f 5f1e 5abf 87cf 803e 8e48 c73e
00000140: bd7a 3ebf b6a1 473f 8012 fa3f 939a 29c0
00000150: 44f0 ae3e e340 723f abbc afbf 34b1 02bf
00000160: 49dc 82bf eef4 a03f 5050 323e 2a05 8f3d
00000170: bfc4 fcbe 36a6 b63e b962 6a3f 05fa b8bf
00000180: 8b86 d7be 7374 16bf c0f8 4e3f c857 71bf
00000190: 8531 1bc0 c089 2440 8a1b 58bb d09c bbbd
000001a0: 9a48 c3be 94e8 e13e f911 533f d4e8 e6bf
000001b0: 9eec e8be 6173 82be e1f7 083f 68e7 26bf
000001c0: a8cc 93bf 9e51 0440 55a5 04be 7e0f 36bc
000001d0: e278 6b3e d0f3 893e f401 833f 1f10 98bf
000001e0: 28ef b73e c49a 273f 3524 7ebf 5f3f 1c3f
000001f0: 7bb9 eebc 82f4 42bf e0cd 30bf 07b9 be3e
00000200: d3ac 943f 7932 b03e 93d7 1cbf 0b8c 6c3d
00000210: 2e8a 65be 9e98 f1be d23a fc3d 80dd ca3e
00000220: 4a9a df3d c2ac 6ebf d703 0440 97d4 4240
00000230: 8946 c0c0 6928 86be 644e d43e 82b3 0dbf
00000240: dbd0 3fbf 6663 1a3f faa2 cf3e 9c97 ebbe
00000250: 8631 eebe 1bff 4a3f f564 1d3f 337b 92bf
00000260: 4473 d73e d20d 003f b4c9 9c3e 9cfc 82bf
00000270: 332e 76bf 46f2 f9be f36c 913f 7325 09bf
00000280: 7b60 973d 797b ce3f 789e fa3e c7db c43e
00000290: e777 8dbe b6f6 a03f a817 9b3e 78f9 8dbf
000002a0: 78da 26bf c066 383e 8be2 843f 9cc9 2cbf
000002b0: 4492 143e fa0f d13f de1e 323e b183 17bf
000002c0: 0c89 d23e f243 b13f d434 143f 4175 bcbf
000002d0: c758 923d 8973 85be de87 d4be 3e0a 65bf
000002e0: 82a1 8ebf 8e47 593f c68a 5cbf 127a d3bf
000002f0: c06d e03f d58f 25bf 9613 cebf 004a d23e
00000300: 6e8b abbe 1f11 0f3f 9de5 863f e683 21be
00000310: 2619 80be 6483 8e3f 461d 53be b732 03bf
00000320: ee62 583e 9e83 5d3f 16e3 ff3e 1684 f0bf
00000330: 3976 c9bd aa8a c93e a05f 693f 5057 b53f
00000340: 0c1f e93e a810 1ebf 4bff 39bd 4662 0fbf
00000350: 8a6d bcbe 8bf5 fdbf 10c0 e2bf a9c9 b23f
00000360: a564 9f3e a755 353e 599b b63e 65e3 6dbf
00000370: d23a 7b3e 36b3 703f 7bc8 7e3e 9778 8e3e
00000380: 9251 693f 3b26 e33f ed2b 323f e399 553f
00000390: 05cb 0a3f 66c4 30be 8355 1cbe 0c2f ba3b
000003a0: 6c8a 243e 94fd a7bf e31c 703e 464e fe3e
000003b0: c775 c3bf 1010 0a3f 05e9 a23f 80e7 babf
000003c0: ec3e 063f 8c8b 8b3e a591 6fbf 5844 c83e
000003d0: 1eca ba3e 58d7 31c0 09a6 ebbe 4ba4 9cbe
000003e0: 79e0 443e ef35 b6bf 8f47 aebf a744 4740
000003f0: 480d 3d3f 5f9c 2a3f 4e69 d9be 55fe 823e
-0.25481403 -0.45645323 0.37079772 -1.6741494 0.73391706 -0.9615523 -2.438615 1.1691966
-1.3486527 -0.41047654 0.08375354 0.22795188 3.6593857 -1.6516843 2.1606274 -0.9332787
0.5152795 -0.68407106 -0.05635413 0.5193453 -0.54702187 -1.1867596 0.07180612 -1.0191491
-2.5026906 0.27522188 -0.5111817 0.55985504 0.0668588 0.20505263 -0.046425775 -0.084047645
0.46621925 -0.20248479 0.16968612 -0.117263 0.31394693 1.0667093 0.059258547 1.281025
-0.38392597 0.62933564 1.0101801 -0.71010876 1.2092289 1.2174366 -0.73764944 0.37879014
2.0841339 -0.29348648 0.11887494 1.5863879 -0.7555444 0.5282106 1.36661 0.22436464
-0.046416264 -1.4515911 0.5381067 -0.515313 -3.2631183 0.25997606 -1.012397 -0.72570056
-1.5211573 2.0200255 -0.5976748 -0.40480125 1.7267153 -0.1959498 -0.54446137 0.4808656
0.15206665 0.0697972 -0.9608163 0.41829085 1.1305557 -0.8520259 0.2515833 0.38922542
-0.74406034 0.77981126 1.9536896 -2.6500595 0.34167683 0.9463026 -1.3729452 -0.5105164
-1.0223476 1.2574747 0.1741345 0.06983407 -0.49368855 0.35673684 0.9155689 -1.44513
-0.42094836 -0.5877144 0.8084831 -0.9427457 -2.4248974 2.5709076 -0.00329754 -0.09160769
-0.38141328 0.44122756 0.824493 -1.8039804 -0.45493025 -0.25478652 0.53503233 -0.6519685
-1.1546831 2.0674815 -0.12953694 -0.011112092 0.22995332 0.26943827 1.0234971 -1.187992
0.3592465 0.6547053 -0.99274 0.61034197 -0.029141178 -0.7615434 -0.6906414 0.3725054
1.1615242 0.34413508 -0.6126644 0.057750743 -0.22415993 -0.4718675 0.123159066 0.39622116
0.109181 -0.9323236 2.0627344 3.0442255 -6.0086102 -0.26202706 0.41466057 -0.5535203
-0.74928063 0.6030792 0.4055403 -0.46014106 -0.46522158 0.7929551 0.61482173 -1.1443847
0.42080128 0.5002109 0.30622637 -1.023334 -0.96164244 -0.48817652 1.1361374 -0.5357277
0.07391449 1.6131431 0.48949027 0.38448927 -0.2763054 1.257529 0.30291486 -1.1091757
-0.65177107 0.18007946 1.0381635 -0.6749513 0.14508921 1.6333001 0.17394587 -0.5918532
0.41120183 1.384886 0.5789311 -1.4723283 0.07145839 -0.2606471 -0.41509908 -0.89468753
-1.1143038 0.8487481 -0.8614925 -1.6521628 1.7533493 -0.64672595 -1.6099727 0.41072083
-0.33504814 0.558855 1.0538822 -0.15772972 -0.25019187 1.1133847 -0.20616636 -0.5124926
0.21131489 0.86528957 0.4997794 -1.879031 -0.09837002 0.39363605 0.9116154 1.4167271
0.455315 -0.61744165 -0.045409482 -0.5600933 -0.36802322 -1.9840559 -1.7714863 1.3967792
0.31131473 0.17708455 0.35665396 -0.929251 0.24534157 0.94023454 0.24881165 0.27826378
0.9114009 1.7746042 0.69598275 0.8343794 0.54216033 -0.1726242 -0.15266995 0.005681878
0.16068429 -1.3124261 0.2344852 0.49669093 -1.5270318 0.5393076 1.2727362 -1.4601898
0.5243976 0.27254903 -0.9358161 0.39114642 0.36482328 -2.7787685 -0.46025112 -0.30594096
0.19226255 -1.4235209 -1.3615588 3.1135652 0.7384839 0.66644853 -0.42463154 0.25584665

fc1.bias f4 [32]
00000000: e13a d1bd 8057 023f 3e9f 42bf 80ff 3a3e
00000010: f277 9b3d bdb8 c1b9 8812 9cbe e314 92be
00000020: c5cd eabd 2221 513b b730 2fbe 9197 2fbf
00000030: 34db 573f b02c 43bd 5cdf 29be f2b1 bbbf
00000040: c845 3f3d 0033 98be 04fc 473f cfbe 44bf
00000050: ed2d e03e 544d 07bf ee31 acbd 497a d4be
00000060: 0c4c 6b3d e8bd 273d 3331 ce3f 7928 ffbe
00000070: e323 8abf f754 133d d537 59be 3b11 ef3c
-0.102163084 0.50914764 -0.76024234 0.18261528 0.07591237 -0.0003694947 -0.30482888 -0.2853156
-0.11465029 0.0031910618 -0.17108427 -0.68590647 0.8431885 -0.04765004 -0.16589111 -1.466368
0.046697408 -0.2972641 0.7811892 -0.7685365 0.4378504 -0.5285237 -0.08407961 -0.41499546
0.05744557 0.040952593 1.6108764 -0.49835566 -1.0792202 0.0359697 -0.21212704 0.02918302

fc2.weight f4 [32, 32]
00000000: 8f6b eb3e 4b96 85be 02d2 29bf 75f5 993f
00000010: 2341 56bf 0c9d 84be 3451 073f bd40 7dbe
00000020: 26a8 f63c ff56 ccbc 7c80 553f 7f3c cbbd
00000030: 5f4e 8dbe 90c9 58bf 6173 843e 72f7 5abe
00000040: 8307 26bd b16d 9d3e f1ea 79bf 6439 9fbf
00000050: d4a0 34bf 902e 69be 0cca 19be 1134 8b3e
00000060: b300 773f 5042 6b3c 4141 213e 623a 99bf
00000070: 9bd2 1dba c38a 0d3f 4a0d 673f 8197 c3bd
00000080: 7825 c83e 66af cc3c 69df 9abf 2bd0 d53e
00000090: f118 9b3d 96e2 493e 9da8 543e 76d9 febe
000000a0: 1e6d 64bf 9e83 dabc f521 813f 5fce b8bf
000000b0: d600 8bbf 587f a8bf aaf2 3ebe 262a d6bf
000000c0: 588d 8cbc 4294 963f 1a78 993e 3353 ebbe
000000d0: 8be3 d03d a085 333d 0b86 05be 1f81 273f
000000e0: 5beb 35bf f515 233e d3e7 ffbe 02b1 63bc
000000f0: 875b 10bf f35e 2c3f 0deb 79be 1abb 2dbd
00000100: 31e2 2bbf 87f5 49bf 43f4 d73e d6ac 66bd
00000110: f111 fa3e 1e1d 76bf 9753 31bf 689a 65bf
00000120: 55d7 d3be 6e0b 0b3e 45ee 483f d3f1 babc
00000130: 1f9c eabe f51d f4be b3e4 69be cb55 b2be
00000140: 3e4f 05be 7e25 b8bd 707e 84be 2d14 0bbf
00000150: 0cb0 303f bccd 84bf 8903 a63d 8c44 8dbd
00000160: 0d0b 1abf 6dfb 113c 3347 6f3e 2591 6b3e
00000170: d4d7 0a3f 23e0 8b3f 552a 83bd 86a7 013e
00000180: 072d 77bc 9bb1 783e 73c4 9cbf 89f7 6dbe
00000190: 8947 0d3f 57e8 adbd d771 31bf d5a8 05be
000001a0: 45f0 78bf 2404 3cbd c162 15be d30c e6be
000001b0: 3a12 c9bf b56b 073f 1bba 73bf 94f0 81bf
000001c0: 776d 73bd 15a4 8b3e 8547 563e 0aab 213f
000001d0: 766d 3dbf cc3d 68bc bc2c da3d 2f66 5d3f
000001e0: 81a4 90bd 07f7 21be 49de 59bf db7e 2a3d
000001f0: 6589 1bbf c01f 403e c341 773f 54e1 b9bc
00000200: 7a78 653e cb29 e5bf e1ae 0a3d 560c 0d3f
00000210: 4354 51be dc05 883e f4c1 0dbf a0b9 073f
00000220: c0c0 0fbe aa2a 923d 03fa 803e ff26 143e
00000230: 122b bebe 3d2d a0bf 3c58 7dbd 8b81 56be
00000240: 5864 30be f562 673f 61c0 d83e faef cd3e
00000250: 002f 93be 4103 aabf b996 133e 0b16 123f
00000260: 25d6 3e3e cb17 e03d 9df6 14bf 4213 67bf
00000270: 4e3e 9ebf ef0e 8a3f 4cb0 403f e507 053d
00000280: 4708 dc3e 92f6 e93e b22b 79bf 8f92 0f3e
00000290: 2c3f 423f 19d7 ff3e 1060 fcbe ba4b 2bbf
000002a0: c14e 94bf 751f 2e3d ec60 02be 165a 8bbf
000002b0: b00f 92be caab 893f 9e43 b1be 388c 8bbf
000002c0: 6f97 6abd eaa5 8fbf 99a1 5d3f 7bd2 5abe
000002d0: a55b f9bd 217a 4d3f 94f7 27be 2216 e7be
000002e0: 765f 53bf 40af 553c a746 ebbe 6cb1 513f
000002f0: f87e 90be e7bc 2bbf c40a 9cbf 000b 23be
00000300: 3344 b6be 7860 4ebf 3b5a 0d3f 37d0 2a3f
00000310: 70ac 67bf 311d 2ebf a16b 993e 64b1 cabe
00000320: 7c10 80be f125 86bd f4cc 64be 9a69 2cbd
00000330: bbb1 9b3e 822d 74bf e5f6 bb3d 7a56 cf3e
00000340: 05ad 98bb 09c2 143e e9be 11c0 c8ed 07be
00000350: bef4 833f c830 47bf 0084 b5bc 3941 4d3e
00000360: e5df d63d b3ae 203e 75f8 323d d227 43bf
00000370: 2a2d 7a3f 07d3 dcbb 0909 04be 7d72 6c3c
00000380: 2fb1 b1bf 6272 e2bf 942b 3b3f 2754 bbbe
00000390: ffea 1dbf 6df3 8bbf 0359 b7bf d267 08be
000003a0: 033b ae3f 4c8d c6bd 35a8 b33e a681 f83e
000003b0: 673b e93e 6704 3dbf ceba 6d3f af43 423f
000003c0: 6617 023c 75e3 a43e 3bfd 93bf d20d e1bf
000003d0: cff2 c03f b1a5 cfbf d2e7 00bd 1fde 973e
000003e0: 6aac 5cbf ef81 df3c 2da0 5abf 09cc 24bf
000003f0: d1c2 a9bf 5ce1 043d ea6b da3e 3b94 2cbe
0.45980498 -0.26091227 -0.6633607 1.2028033 -0.8369314 -0.25901067 0.5285828 -0.24731727
0.030109476 -0.024943827 0.83399177 -0.09923648 -0.27598855 -0.8468256 0.25869277 -0.21383455
-0.040534507 0.3074775 -0.9762412 -1.2439389 -0.70557904 -0.22771668 -0.15018481 0.2718816
0.9648544 0.014359072 0.15747549 -1.1970942 -0.00060204574 0.5528986 0.9025465 -0.095503815
0.39091086 0.02498598 -1.2099429 0.41760382 0.075731166 0.19715342 0.20767446 -0.49775285
-0.89229 -0.026674088 1.0088488 -1.443798 -1.085963 -1.3163862 -0.18647256 -1.6731613
-0.017157242 1.1763995 0.29974443 -0.45961913 0.101996504 0.043828607 -0.13039415 0.654314
-0.7106225 0.15926345 -0.49981555 -0.013897182 -0.5638966 0.6733238 -0.24406071 -0.042414762
-0.67142016 -0.7889027 0.42178544 -0.056317173 0.48841813 -0.9613818 -0.6926817 -0.8968873
-0.41375223 0.13578579 0.7848857 -0.022820389 -0.45822236 -0.47679105 -0.22841148 -0.3483108
-0.1301851 -0.08991526 -0.25877714 -0.5432766 0.69018626 -1.0375285 0.08106143 -0.0689784
-0.6017311 0.008910042 0.23367004 0.23004587 0.5423558 1.0927776 -0.064045586 0.12661561
-0.015086419 0.24286501 -1.2247452 -0.23238958 0.5518728 -0.08491581 -0.6931433 -0.13052686
-0.9724162 -0.045902386 -0.14588453 -0.4493166 -1.5708687 0.5289872 -0.9520585 -1.0151544
-0.059430566 0.27273622 0.2092572 0.6315161 -0.7399515 -0.01417489 0.10653064 0.86484045
-0.07062627 -0.1581689 -0.85104805 0.041624885 -0.6075652 0.18762112 0.9658472 -0.022690453
0.2240924 -1.7903379 0.033858184 0.5509695 -0.204423 0.2656697 -0.55374074 0.53017616
-0.14038372 0.07137044 0.25190744 0.14468001 -0.37142235 -1.2513806 -0.061851725 -0.20947854
-0.17225778 0.9038537 0.42334273 0.4022215 -0.28746796 -1.3282243 0.14412965 0.57064885
0.18636377 0.10942038 -0.581888 -0.9026376 -1.2362764 1.0785807 0.7526901 0.032478232
0.42975065 0.4569593 -0.973323 0.14020751 0.7587764 0.49968794 -0.4929204 -0.66912425
-1.1586534 0.04251047 -0.12732285 -1.0886867 -0.28527594 1.0755551 -0.346219 -1.0902166
-0.057273325 -1.1222508 0.86574703 -0.21369354 -0.12175683 0.8026448 -0.16403037 -0.45134073
-0.82567537 0.013042271 -0.4595234 0.8191135 -0.2822187 -0.6708512 -1.2190785 -0.15922165
-0.35598907 -0.8061595 0.55215806 0.6672396 -0.90497494 -0.6801329 0.29964927 -0.39588463
-0.25012577 -0.065502055 -0.22343808 -0.042092897 0.30409035 -0.9538194 0.09177951 0.40495664
-0.0046592974 0.14527144 -2.2772772 -0.132743 1.0309064 -0.7780881 -0.022157669 0.20044412
0.10491923 0.15691642 0.04369398 -0.76232636 0.97725165 -0.0067390236 -0.12894072 0.014431593
-1.3882197 -1.7691157 0.7311337 -0.3658764 -0.616867 -1.0933663 -1.4324039 -0.13320854
1.3611759 -0.09694919 0.3508927 0.48536414 0.45553133 -0.7383484 0.92863166 0.75884527
0.007940149 0.32204786 -1.1561655 -1.7582343 1.5074099 -1.622244 -0.03147108 0.29661652
-0.86200583 0.027283637 -0.8540066 -0.6437383 -1.3262578 0.032441482 0.42660457 -0.1685342

fc2.bias f4 [32]
00000000: 3102 5fbf f076 473f e250 b23e 92a7 b73f
00000010: 2c78 563e 958a 0240 750b ecba 10cf c13e
00000020: 410b ccbe a400 04bf b9b7 3e3f 52f4 06c0
00000030: 48eb 53bf 1cca 51bf 8b14 6ebf e8b6 07c0
00000040: 0df6 893d bc54 8ebf 2fde d13f e008 b33f
00000050: a68b a6bf 91e6 83bf 523a 95bf c53a 2340
00000060: 9218 39bf b8ac b0bf 0125 b4be 2f33 48bf
00000070: 1485 633e 0351 b43f 7a22 d9bf 0c31 a2bf
-0.8711272 0.7791586 0.34827334 1.4348013 0.2094428 2.0397084 -0.0018008786 0.3785329
-0.39852336 -0.5156348 0.7449909 -2.1086621 -0.82780886 -0.8194902 -0.93000096 -2.1205387
0.067363836 -1.1119609 1.639593 1.3987083 -1.3011367 -1.0304738 -1.1658423 2.550462
-0.72303116 -1.380271 -0.35184482 -0.782031 0.22218734 1.4087223 -1.6963646 -1.2671218

fc3.weight f4 [10, 32]
00000000: 3a1a 2c3f 0ab2 4b3f 183f 29bc ca3f 12bf
00000010: 25c4 2fbf a8a1 ef3d 206b ee3d b799 34bf
00000020: 2c11 84be 01b8 e73e 7c24 0abf 8a23 15bf
00000030: 8f41 b8be a297 4a3f 3acb 03bf de3f 0e3f
00000040: 57ef 24bf 38c6 f5be f279 b5be fef4 08bf
00000050: 8ae0 4abf b3fa 133f dfdd f83e db71 abbe
00000060: f4b9 da3e f31f 40bf 8aa2 323f cdf3 a2bd
00000070: 3fda 19bf b847 023e 81b5 d7be 48c8 0d3e
00000080: c231 dabd d307 473f 8c05 77be 3169 f23e
00000090: 6540 06bf 90a6 863f 5afc c93d 4684 d33e
000000a0: a615 3dbe bce0 403d db41 8dbe 886e 6ebd
000000b0: c052 4d3c 0277 55be 2cb6 bb3e e6da e13e
000000c0: f174 54be 497d 053e 28d5 c03e ad45 963e
000000d0: 5948 bc3c 83a1 e3be 8d22 dcbe c20c 703e
000000e0: 782a c33e db08 013d 4874 ab3e 5972 f93e
000000f0: 36cf 083f e928 7a3e b161 053e 2528 f6bc
00000100: 602b df3d 9764 de3e 3248 3a3d c6ce 4e3f
00000110: 438d 363f f53d b3be a175 d33d fa5e 0c3f
00000120: d8e1 06be 2a11 2b3d a308 ce3e bdb5 30bd
00000130: 693b 043f d06d 8bbe 55ed f93e b542 413e
00000140: 8a8e ae3e 7e50 8e3e 57a3 5d3f 9ffa bdbb
00000150: 248c dabd 5e6e 6abf 3e02 bc3e 365a a43e
00000160: 6d54 34bc 59c1 d03d d1ec d73d 59b2 b83d
00000170: daca f43e 6fe6 e6be 0f82 e23c 7782 dfbd
00000180: dac4 2c3f 53b7 46bf c99b abbe 6e86 923d
00000190: ca78 8b3f 7453 b1be 3f2b 743f ce2f f2bd
000001a0: fa4f 203f f6bd a8be 672c 3b3f 439f 343e
000001b0: 2d19 0a3f 2329 60bd 0db2 883c 8dd1 003f
000001c0: 8619 7ebd 0d21 96bd 00a0 5f3f f323 f03e
000001d0: 9297 3fbe c8cf d23d ce2d 8b3d cdea b33d
000001e0: a150 0bbe 2219 bb3e da71 3dbf 8ee1 cdbe
000001f0: 39cb 98be 1426 f63e 1ad7 9abe ad7f 98be
00000200: d114 ffbe 5c13 d9bf dbb6 03bf 56e7 3dbf
00000210: 5dc7 363f 7fc0 c6bf 5bbe 85bf aa13 10be
00000220: a9a6 c9be 034c c33e e63d 753e ff0b c33e
00000230: c7a8 843e 08dd 20bf 86f0 10bf aa2d 80bf
00000240: e571 a8be 6b50 41bf 4fa4 4f3e 8082 7a3f
00000250: f17a 08be 22b0 afbe acc6 fdbe 2e36 b0be
00000260: d25e d83e 5c40 a6be d590 69bd 3f4b bfbe
00000270: ef89 6bbe 76ac b03f c947 99bf 66cb 9bbe
00000280: 082e 07bf 2c1c afbf 9b3f e5bd fb41 85bf
00000290: 2b50 a73e 951f 8bbf 235c cabe a6f7 bc3f
000002a0: 8829 2a3e 18f8 823e 30a0 b1be 7c30 e43e
000002b0: 33e0 e93e 837d ddbe 3e58 5abf 77cb 86bd
000002c0: f9ed 9e3e f5bb 123f 991a 49bf 892f f83e
000002d0: 2a87 343d 59cf 03bf 5b83 5cbf e8ae 2fbf
000002e0: 3661 2abf 0598 91be 3c3b a0bf 09f7 9b3d
000002f0: 4ed0 59bd 2d2d 6a3f d8b1 14be 92b5 acbf
00000300: ff4a 55be 3667 903e 37e9 093e d0e2 003f
00000310: ef76 10be e958 eb3e adfb 4a3e 9dbe 74bd
00000320: d6bc 1abe 6fff 2b3e 1a4f 0ebf bf69 a6bd
00000330: 7395 0c3e 8840 1d3e 4031 03bd 2a04 3cbd
00000340: 3674 2f3e 8202 92be 4d5b 79bb f5e0 76bd
00000350: 4cfc 003f 2eb0 953e 6a5b 37be 1afa 20bf
00000360: 49f9 673e 2fe3 1f3f 209f 05bf 63a1 843f
00000370: 4cc9 d2be 3b8a 053f 9cfd 6c3e 3d8f 703f
00000380: e13e 9f3e f1ba 0f3f 8af0 2b3f dbec 8d3e
00000390: b87c 66bf a1a0 45bd 4d80 013d b0b8 2cbf
000003a0: 9966 873e 009d 1fbf 9f09 4d3e 80f2 b0be
000003b0: 4b3c 67bf 5626 c03e e77d fc3d 84af 49bd
000003c0: e032 dc3e 2d40 143f 0bc1 66bf b7de 61bf
000003d0: d1b0 27bf bf6c d83e 0f2f 16bd e5e0 4a3f
000003e0: 49e1 33be fece e3be 4b55 fc3e 7b74 e4be
000003f0: 42bc 143e 92e6 92bf 34ef 223f 5104 48be
0.6722752 0.7956854 -0.010329984 -0.57128584 -0.6865867 0.11700755 0.11641526 -0.7054705
-0.2579435 0.4525757 -0.5396192 -0.58257353 -0.35987517 0.79137623 -0.51481974 0.55566204
-0.64427704 -0.4800279 -0.354446 -0.5349883 -0.7924887 0.5780441 0.48606774 -0.33485302
0.42719996 -0.7504875 0.69779265 -0.079566576 -0.6009864 0.12722671 -0.42130664 0.13845932
-0.10654022 0.77746314 -0.2412321 0.4734588 -0.5244201 1.0519581 0.09862585 0.41311854
-0.1846529 0.047089323 -0.27589306 -0.05821088 0.012531936 -0.20846179 0.36662424 0.4411232
-0.20747735 0.13036074 0.37662625 0.29350033 0.022983717 -0.4445916 -0.4299511 0.23442367
0.3811834 0.031502586 0.33487153 0.48720053 0.5344118 0.24429668 0.13025548 -0.03004844
0.10896945 0.4343612 0.045479007 0.8078426 0.713093 -0.35008207 0.1032517 0.5483242
-0.1317209 0.041764416 0.40240964 -0.04314207 0.5165315 -0.27232218 0.48813882 0.18873103
0.34093124 0.27795786 0.8657736 -0.0057976986 -0.10671261 -0.91574657 0.3672046 0.32100075
-0.011006457 0.10193128 0.10543216 0.09018392 0.47811013 -0.45097682 0.027649907 -0.10913556
0.6748787 -0.7762348 -0.33517292 0.07154547 1.0896237 -0.34633982 0.9537849 -0.11825524
0.62622035 -0.3295743 0.7311463 0.17638879 0.53944665 -0.05472673 0.016686464 0.5031975
-0.06203606 -0.07330523 0.87353516 0.46902427 -0.18710163 0.102935374 0.06795846 0.08785019
-0.13604976 0.36542612 -0.7400185 -0.40211147 -0.29842547 0.48075926 -0.30242234 -0.2978491
-0.4982057 -1.6959033 -0.5145089 -0.74181116 0.71397954 -1.5527495 -1.0448717 -0.14070001
-0.39384964 0.3814393 0.23949394 0.3809509 0.25910017 -0.62837267 -0.5661701 -1.0013936
-0.32899395 -0.75513333 0.20277523 0.9785538 -0.13328148 -0.34314066 -0.49565637 -0.34416336
0.42259842 -0.32470977 -0.05702289 -0.37362096 -0.23001836 1.3802631 -1.1975032 -0.30428618
-0.52804613 -1.3680472 -0.111937724 -1.0410761 0.3267835 -1.0869013 -0.3952342 1.4763076
0.16617405 0.25579906 -0.34692526 0.4456824 0.45678863 -0.4325982 -0.85290897 -0.065817766
0.31040934 0.5731805 -0.7855621 0.48473766 0.044074215 -0.5148826 -0.8613793 -0.6862626
-0.6655458 -0.28436294 -1.2518077 0.076154776 -0.05317717 0.9147518 -0.14520967 -1.3492911
-0.2082939 0.28203744 0.1346787 0.5034609 -0.1410787 0.4596627 0.19822569 -0.059752095
-0.15111098 0.16796659 -0.5558945 -0.08125638 0.13728885 0.15356648 -0.03202939 -0.04590241
0.17134175 -0.28517538 -0.0038048804 -0.06027313 0.50384974 0.29235977 -0.17905965 -0.62881625
0.22653688 0.6245603 -0.5219593 1.0361751 -0.41169202 0.5216405 0.2314362 0.93968564
0.3110266 0.56144625 0.6716391 0.2771977 -0.90034056 -0.04824889 0.031616498 -0.6746931
0.26445463 -0.6234894 0.20023201 -0.34560013 -0.90326375 0.37529248 0.123287015 -0.04923965
0.43007565 0.57910424 -0.9013831 -0.8823046 -0.65504175 0.42270467 -0.036665972 0.7924941
-0.17566408 -0.4449386 0.49283823 -0.44620118 0.1452494 -1.1476614 0.63646245 -0.19532897

fc3.bias f4 [10]
00000000: ba3e 4d3f f60a 393f 7783 a6bf d7df 4fbe
00000010: 65df c93f eeda 97bf 5a42 4cbf 0b64 0f40
00000020: 6576 18c0 d689 9e3d
0.8017384 0.7228235 -1.300887 -0.20300232 1.57713 -1.1863687 -0.79788744 2.2404811
-2.3822262 0.07741134
