ckpt/1108_19/model_epoch9.pth (torch, 9729 bytes, 8 tensors)

fc1.weight f4 [16, 63]
-0.77139765 1.1912249 -0.10945782 0.5744889 -1.2115206 0.9679646 0.80223805 -0.79814214
0.47793162 -0.39250478 1.159356 -0.97130066 -1.7236537 6.3281617 0.30918804 -0.72462505
0.69519275 0.6134871 -0.4922957 1.4192724 1.9050496 0.6328163 -1.8145355 -0.09303105
0.63352054 -2.760152 -1.1052544 -0.29727137 0.2887381 -0.16136295 -0.5762429 0.39396256
-0.056862656 0.1655735 -0.85926116 -0.09442565 0.15211092 -0.23408845 0.05163908 0.83385617
-0.2739401 -0.9840039 -2.2285044 2.0519474 0.9009903 -0.07118222 -0.42866346 0.68331456
2.1884835 -3.964085 -0.24024346 2.2628832 -0.7075785 -0.72628784 -1.0065848 0.37917888
0.32793698 -0.48686936 -1.0255524 0.014844223 1.0799702 -3.502245 -0.4086487 0.36920413
0.06566249 -0.11006629 0.3584745 -0.033302072 -0.32037628 0.31802946 -0.1361648 -0.2762579
0.6674395 -0.1453135 -0.79151255 1.04149 -0.31375247 -0.98469526 0.043248218 -0.03217461
-0.26932248 -0.25998622 0.24070579 0.31168103 -0.112076655 0.17754538 0.13724187 -0.28487918
0.16596578 0.114376694 -0.077933654 0.011253123 -0.24343617 -0.54070234 0.16565724 0.32727534
-0.5827151 0.28737006 0.5180146 -0.7651784 0.2718331 0.4436868 -0.05707335 0.16371608
-0.14643168 -0.47600466 0.19888063 0.26088282 -0.63747525 0.09176228 0.59549415 -0.5986371
-0.07456684 0.49508712 0.113095045 -0.006834736 -0.0136716645 -0.21143654 0.06254229 0.30161557
-0.5987712 0.06314746 0.5283034 -0.551658 -0.13223818 0.62927496 -0.98819715 -3.5630448
-5.350147 -0.46892813 1.0800014 1.9376876 0.70391315 -0.3523667 -0.69571364 -0.25778723
-0.83807784 -1.4801624 -1.1687366 -0.093447074 0.3522176 0.6863243 0.8594228 -0.13550983
1.6410211 1.8454112 1.3680693 0.43670446 0.74666494 0.05519669 -1.4352095 -2.3515575
-1.7470443 0.11411117 0.65507495 0.62940633 0.308929 0.55505294 1.1054299 -0.79175776
-0.5058717 -0.06609111 -1.3721938 -0.8188762 -0.14062211 -0.10026818 0.99871886 1.949701
2.3290784 0.14922571 -0.20524341 1.8707762 0.75886637 -1.0781932 1.1717079 2.2571924
0.061148766 -0.4612993 1.5534325 3.8930657 2.8099253 1.4875757 1.3277218 0.1548955
-0.8359351 -1.7292491 -4.0863285 -3.643541 -3.1806054 6.6435976 0.35735548 -1.8490263
-0.5252176 -0.5961185 0.9102959 1.0606623 0.24308611 -0.21795233 0.28321457 0.18539318
-0.69145215 -1.8918883 -0.116670065 0.5434649 -1.649889 -0.1412223 1.4468968 -6.936837
-0.8786848 -0.8541559 -2.8591652 -0.34553358 -1.0385774 3.8843167 0.7116739 1.1264118
-1.0219059 0.35402793 1.1020895 0.15437904 -0.19396482 -0.9262383 3.3479092 0.36123204
-1.2246351 4.058246 -0.25912675 0.13362202 -1.2811865 0.27327725 0.28940478 -0.8195627
-0.4814363 -0.20822652 0.22885107 0.3209069 -0.051499665 -0.44234592 0.12078065 0.5939578
-2.1476908 0.15538135 0.18678793 -3.414556 -0.81043696 0.34533647 0.01529444 0.13627419
-0.26990715 2.2469773 0.12132235 0.05036916 0.30609712 -0.2752306 0.2953611 1.1902664
00000000: 517a 45bf 0f7a 983f 6c2b e0bd b411 133f
00000010: 1b13 9bbf 87cc 773f 795f 4d3f 0b53 4cbf
00000020: 74b3 f43e 63f6 c8be c765 943f 29a7 78bf
00000030: afa0 dcbf 4d80 ca40 e54d 9e3e 0781 39bf
00000040: 27f8 313f 7e0d 1d3f 2f0e fcbe b8aa b53f
00000050: aad8 f33f 4000 223f b342 e8bf 1087 bebd
00000060: 672e 223f 55a6 30c0 fa78 8dbf f433 98be
00000070: 7bd5 933e 543c 25be a884 13bf 76b5 c93e
00000080: d1e8 68bd 198c 293e 8af8 5bbf 3c62 c1bd
00000090: f7c2 1b3e e2b4 6fbe 8083 533d 9977 553f
000000a0: e041 8cbe aee7 7bbf d19f 0ec0 1b53 0340
000000b0: 4da7 663f fcc7 91bd c779 dbbe b4ed 2e3f
000000c0: 1d10 0c40 92b3 7dc0 6202 76be 14d3 1040
000000d0: dd23 35bf 00ee 39bf c5d7 80bf bc23 c23e
000000e0: 5be7 a73e f146 f9be 4d45 83bf 2f35 733c
000000f0: 773c 8a3f c824 60c0 673a d1be 5308 bd3e
00000100: 0e7a 863d 6f6a e1bd f889 b73e c167 08bd
00000110: 5c08 a4be c2d4 a23e c96e 0bbe ad71 8dbe
00000120: 51dd 2a3f 10cd 14be 91a0 4abf 8b4f 853f
00000130: 2aa4 a0be fd14 7cbf 0b25 313d 86c9 03bd
00000140: a3e4 89be ea1c 85be 947b 763e a894 9f3e
00000150: 7288 e5bd 75ce 353e 2289 0c3e afdb 91be
00000160: eff2 293e 543e ea3d ae9b 9fbd 055f 383c
00000170: 5547 79be 786b 0abf 0da2 293e a290 a73e
00000180: d12c 15bf 2b22 933e 9b9c 043f bbe2 43bf
00000190: b52d 8b3e eb2a e33e bfc5 69bd 30a5 273e
000001a0: 30f2 15be e2b6 f3be 5da7 4b3e 6f92 853e
000001b0: 9431 23bf dded bb3d 4e72 183f 4840 19bf
000001c0: 80b6 98bd 0f7c fd3e 609e e73d ecf5 dfbb
000001d0: 1eff 5fbc d282 58be 2c16 803d 5b6d 9a3e
000001e0: 1249 19bf 7553 813d e43e 073f 7539 0dbf
000001f0: 7269 07be 2a18 213f 7dfa 7cbf ed08 64c0
00000200: 6734 abc0 5917 f0be 7c3d 8a3f 2606 f83f
00000210: a733 343f 6869 b4be 4a1a 32bf b0fc 83be
00000220: 458c 56bf f675 bdbf 2999 95bf 2e61 bfbd
00000230: de55 b43e f3b2 2f3f 2203 5c3f 17c3 0abe
00000240: fb0c d23f 6f36 ec3f e51c af3f ba97 df3e
00000250: 6f25 3f3f ed15 623d f2b4 b7bf eb7f 16c0
00000260: 269f dfbf 1eb3 e93d feb2 273f c620 213f
00000270: f12b 9e3e f317 0e3f ba7e 8d3f a3b0 4abf
00000280: cf80 01bf c75a 87bd 0ca4 afbf dfa1 51bf
00000290: 3eff 0fbe 6759 cdbd 0aac 7f3f cd8f f93f
000002a0: 9f0f 1540 a0ce 183e 542b 52be 9875 ef3f
000002b0: 1145 423f 3c02 8abf 86fa 953f d775 1040
000002c0: 2177 7a3d 6c2f ecbe e0d6 c63f fd27 7940
000002d0: d1d5 3340 e168 be3f caf2 a93f ed9c 1e3e
000002e0: d8ff 55bf 0958 ddbf 34c3 82c0 c72f 69c0
000002f0: 0a8f 4bc0 5a98 d440 4cf7 b63e e5ac ecbf
00000300: a974 06bf 399b 18bf 2709 693f c8c3 873f
00000310: 91eb 783e e52e 5fbe 8001 913e b6d7 3d3e
00000320: 0203 31bf 6529 f2bf b7f0 eebd 8420 0b3f
00000330: 902f d3bf 949c 10be ea33 b93f 92fa ddc0
00000340: 7df1 60bf f6a9 5abf 90fc 36c0 c7e9 b0be
00000350: 1bf0 84bf a598 7840 4330 363f 432e 903f
00000360: d0cd 82bf 2643 b53e 4511 8d3f 8a15 1e3e
00000370: b79e 46be f41d 6dbf 2544 5640 68f3 b83e
00000380: d8c0 9cbf 27dd 8140 43ac 84be 36d4 083e
00000390: ebfd a3bf ffea 8b3e dd2c 943e dcce 51bf
000003a0: d27e f6be 5539 55be ef57 6a3e e94d a43e
000003b0: 50f1 52bd 2a7b e2be d85b f73d 9e0d 183f
000003c0: c473 09c0 4a1c 1f3e 5645 3f3e 1688 5ac0
000003d0: cc78 4fbf f1cf b03e 8895 7a3c 768b 0b3e
000003e0: 4531 8abe 7ace 0f40 da77 f83d e44f 4e3d
000003f0: c3b8 9c3e 06eb 8cbe 9239 973e a65a 983f

fc1.bias f4 [16]
0.63638216 0.00077816343 0.30872205 0.09358697 -0.19852167 -0.28828403 1.0968513 -3.1044044
0.24221559 1.6393902 -0.33541134 -0.6254743 0.953647 -0.26874048 1.2735351 -1.7920675
00000000: f1e9 223f aafd 4b3a d110 9e3e 86aa bf3d
00000010: 4449 4bbe f799 93be a065 8c3f 90ae 46c0
00000020: 5d07 783e 8ad7 d13f 09bb abbe 151f 20bf
00000030: 3622 743f 5a98 89be 3303 a33f 7862 e5bf

fc2.weight f4 [16, 16]
-0.095837094 0.06903566 -0.25787395 0.6049957 0.6829322 0.37747216 -1.5908885 0.21152523
0.06929682 0.3767212 -0.52563256 -2.4956245 0.39269122 -0.60140586 0.025605539 -0.52567375
-0.17616796 0.0635418 1.8771198 -0.4199277 -0.6561905 0.028147679 0.27535063 0.43718278
0.07978305 0.34420702 0.29862615 0.9783292 0.38014787 0.70872676 -1.7386284 -0.7876187
0.5628853 1.0229212 0.09315531 0.8218626 -1.1577182 -0.0677181 0.72011185 0.46876717
1.0774837 0.16166575 0.6336404 0.28304234 0.44359472 0.26838523 0.91707414 0.68927884
0.7292413 0.4634734 -1.7111158 -0.5567014 -1.8361098 0.517879 0.69121426 0.09861067
-0.8571458 -1.1293311 -0.42754382 -1.5067768 -1.7839149 -1.486717 1.6487608 -0.3430093
-0.4854461 -0.2969138 0.7645443 -0.3303338 0.9825486 -0.17963186 -0.52566427 -0.57317734
0.0408708 -1.8957934 0.58177155 0.2815163 0.9348514 0.31932873 -0.5033025 -0.9521372
0.053155072 0.047965016 0.8617992 1.4157777 -0.106408425 1.14044 -0.033708088 -0.002265888
-0.7410438 0.3297577 -1.0024768 -0.6866215 -0.8028786 -0.049838822 1.325716 1.8413225
-0.05703369 0.14001814 -2.378503 -1.0139796 -0.7161318 -0.7119032 0.26652622 0.7460057
0.4849142 -2.110322 0.23965518 -1.2428002 0.04197487 -0.5717105 -0.18789627 -0.6987496
0.6598053 1.0207255 -1.8499888 -1.0366014 -0.7002353 1.2873005 0.73835623 0.85144037
-1.1821046 -2.4601274 0.8812747 0.5021918 1.0352117 -0.6580747 0.39513507 0.040628433
1.0739362 0.83576447 0.32408008 0.26738378 -0.7866707 0.34202537 1.3127697 1.3795388
-0.8558646 0.11421167 -1.0765735 -0.32363683 -0.6378047 -0.028637763 -0.316818 -0.24052037
-2.3589077 -1.3349023 0.45271352 -0.50619566 0.90092146 -0.9832752 -1.9624928 -2.1394954
0.8560525 1.6389822 0.6065469 0.63451314 0.37655035 -0.12582439 -0.80528605 -0.95754975
-1.1935519 -0.5394548 1.2578652 1.3235669 0.6105969 0.3783121 -1.5322001 -1.1173744
0.16796781 1.0343691 -0.55202657 -0.25625777 -0.9531368 1.4458034 0.29237974 0.5081378
0.13576862 0.46918333 1.0915217 0.84209025 -0.25607842 -0.41776854 -0.12679532 -0.004485872
-1.2311654 0.66978925 -2.4878454 -2.7677906 -2.5119638 1.4989039 -0.2913584 0.5944359
-0.55936676 -0.33532453 0.146026 0.034699406 0.24703674 -0.13092406 -0.18397295 -0.25687602
0.49489972 -0.33971617 0.612425 0.53805935 -2.4404624 0.041401718 -0.042919245 0.76952773
-0.09860554 0.60478777 -0.017327644 -2.2917027 0.75317156 -2.2452166 -0.3834343 -0.07013587
0.12884116 -0.13952334 0.34165594 0.17862123 0.29810226 1.2652192 -2.274627 -2.3142545
0.120933674 0.52433634 -0.81931365 -1.0080041 -0.90090024 -3.1368778 0.25906405 0.23099068
1.7329965 0.668969 0.4543218 0.31170732 0.5571419 -2.583126 -0.6752616 -0.954438
-0.10169371 0.16234706 0.99284196 0.67696434 -0.9319829 0.12632789 -0.8403173 0.8620831
-1.53394 -0.17261718 -1.1752819 0.45661196 -0.1224561 -0.5297546 -0.7728386 0.27123356
00000000: 3d46 c4bd 9162 8d3d 0e08 84be 00e1 1a3f
00000010: a5d4 2e3f 0844 c13e 3ca2 cbbf 129a 583e
00000020: 7eeb 8d3d 9ae1 c03e db8f 06bf 50b8 1fc0
00000030: d30e c93e bcf5 19bf b5c2 d13c 8e92 06bf
00000040: 6065 34be 3422 823d 7645 f03f c300 d7be
00000050: 1afc 27bf f695 e63c c2fa 8c3e 6cd6 df3e
00000060: 4c65 a33d e73b b03e 87e5 983e c873 7a3f
00000070: bea2 c23e 1e6f 353f 608b debf 61a1 49bf
00000080: 4019 103f 15ef 823f 36c8 be3d 9665 523f
00000090: 1c30 94bf caaf 8abd 4059 383f 4002 f03e
000000a0: fcea 893f b58b 253e 4236 223f edea 903e
000000b0: d91e e33e ca69 893e 5fc5 6a3f 9474 303f
000000c0: 8faf 3a3f 634c ed3e d805 dbbf fc83 0ebf
000000d0: a505 ebbf b893 043f 6bf3 303f 64f4 c93d
000000e0: e86d 5bbf ec8d 90bf 06e7 dabe 10de c0bf
000000f0: 5357 e4bf be4c bebf 980a d33f ea9e afbe
00000100: 648c f8be 1605 98be 2db9 433f 8321 a9be
00000110: 4e88 7b3f 6af1 37be ef91 06bf c0bb 12bf
00000120: 2468 273d 5ca9 f2bf fbee 143f e822 903e
00000130: 6c52 6f3f 0e7f a33e 6fd8 00bf 43bf 73bf
00000140: 22b9 593d f776 443d df9e 5c3f 3438 b53f
00000150: a9ec d9bd f0f9 913f 7e11 0abd 4b7f 14bb
00000160: 0cb5 3dbf 00d6 a83e 2951 80bf 6dc6 2fbf
00000170: 7489 4dbf cb23 4cbd 10b1 a93f 75b0 eb3f
00000180: 299c 69bd ea60 0f3e 6539 18c0 15ca 81bf
00000190: 6a54 37bf 4a3f 36bf 2076 883e 3bfa 3e3f
000001a0: ad46 f83e 840f 07c0 2b68 753e 1414 9fbf
000001b0: d7ed 2b3d 9f5b 12bf e167 40be 41e1 32bf
000001c0: 00e9 283f 22a7 823f 6fcc ecbf 5baf 84bf
000001d0: 9f42 33bf 43c6 a43f ea04 3d3f fff7 593f
000001e0: 344f 97bf ba72 1dc0 389b 613f a48f 003f
000001f0: d181 843f 9577 28bf 254f ca3e 006a 263d
00000200: be76 893f a9f4 553f d3ed a53e 87e6 883e
00000210: 4063 49bf f31d af3e d608 a83f ba94 b03f
00000220: f119 5bbf cfe7 e93d 29cd 89bf bab3 a5be
00000230: 2b47 23bf be99 eabc f835 a2be f94a 76be
00000240: 58f8 16c0 14de aabf 11ca e73e 0a96 01bf
00000250: caa2 663f ecb7 7bbf f732 fbbf 7eed 08c0
00000260: 4226 5b3f 2bca d13f a846 1b3f 746f 223f
00000270: 35cb c03e 1cd8 00be 3a27 4ebf fb21 75bf
00000280: 4fc6 98bf b619 0abf ba01 a13f a46a a93f
00000290: 1450 1c3f 20b2 c13e 221f c4bf 2006 8fbf
000002a0: c1ff 2b3e 3566 843f 9d51 0dbf 3834 83be
000002b0: c600 74bf 1610 b93f ccb2 953e 5215 023f
000002c0: ee06 0b3e cc38 f03e fcb6 8b3f 3a93 573f
000002d0: b61c 83be c2e5 d5be a2d6 01be 39fe 92bb
000002e0: d496 9dbf 4f77 2b3f dc38 1fc0 7b23 31c0
000002f0: 04c4 20c0 15dc bf3f ee2c 95be f32c 183f
00000300: a932 0fbf a8af abbe d787 153e f720 0e3d
00000310: 33f7 7c3e f510 06be 6863 3cbe 4185 83be
00000320: 7f63 fd3e 47ef adbe e3c7 1c3f 42be 093f
00000330: 8930 1cc0 d994 293d 17cc 2fbd c5ff 443f
00000340: b4f1 c9bd 5fd3 1a3f b4f2 8dbc 42ab 12c0
00000350: dacf 403f a1b1 0fc0 8051 c4be 65a3 8fbd
00000360: f0ee 033e 35df 0ebe 87ed ae3e 7ce8 363e
00000370: dca0 983e b4f2 a13f 7d93 11c0 bf1c 14c0
00000380: 13ac f73d e83a 063f 8abe 51bf 4706 81bf
00000390: 66a1 66bf 9bc2 48c0 0ba4 843e d288 6c3e
000003a0: d4d2 dd3f 8d41 2b3f de9c e83e 1a98 9f3e
000003b0: daa0 0e3f f051 25c0 f2dd 2cbf 0c56 74bf
000003c0: cb44 d0bd 4f3e 263e e42a 7e3f 894d 2d3f
000003d0: 6e96 6ebf 195c 013e 091f 57bf 7ab1 5c3f
000003e0: 2558 c4bf 8fc2 30be a36f 96bf 0bc9 e93e
000003f0: 44ca fabd ff9d 07bf c0d8 45bf 20df 8a3e

fc2.bias f4 [16]
-1.3713509 -5.0281334 -6.157549 2.955997 0.8157801 -3.3451838 1.0694559 -1.1010895
-2.7068987 3.2001355 0.031752706 3.85815 -0.83908725 5.214099 -0.99612564 -1.626416
00000000: 6d88 afbf 78e6 a0c0 a40a c5c0 0e2f 3d40
00000010: f7d6 503f 7e17 56c0 eee3 883f 80f0 8cbf
00000020: d43d 2dc0 05cf 4c40 200f 023d eeeb 7640
00000030: 6cce 56bf e6d9 a640 1702 7fbf 662e d0bf

fc3.weight f4 [16, 16]
0.38598895 -0.4678013 -1.6567976 -0.29558432 0.17277247 -0.3526531 -0.0700605 -0.20854162
-1.18842 -0.1931944 0.3492837 0.64591974 -0.063460104 -0.59720796 -0.35735834 0.053118546
-0.4452061 -0.7719488 -0.43161806 -0.60363793 -1.542098 0.29262915 -0.15030882 0.5249511
0.21563219 -0.16202413 0.13930474 -0.39907154 -1.1033651 -1.0597005 -0.6908553 0.37787
-0.9193356 -1.059896 0.11995653 0.91140974 -0.66263676 0.62528 -0.40593278 0.5392982
-0.31603122 -0.70123255 -0.87988716 -0.7457668 -0.99056137 -1.0208919 -1.3093108 0.4222685
-0.49917674 0.1825261 0.068701774 -1.1311038 0.23030776 -1.2045741 -0.47220203 0.040635265
-0.72516435 0.17946574 0.054509126 0.12518597 0.1346358 0.5889129 0.24641165 -0.12958859
-0.810935 -0.29346833 0.22324608 0.26467785 -0.81788397 0.048225075 -0.18572205 0.04695226
0.58357203 -0.8368173 -0.35309926 0.17816055 -0.72792387 -0.24179238 -0.16282941 0.47392827
0.45248106 0.39982837 0.9384901 -0.42150986 -0.15509894 -0.18969405 -0.056995746 0.31329605
-0.29334536 -0.38784042 -0.19768095 -1.273112 0.2532174 -0.6408729 -0.27033114 0.4799362
-0.09944548 0.73587084 0.42525667 -0.7074757 -1.1870011 0.294382 -1.1906741 -0.81470215
-0.12509958 -0.24027987 -0.07579603 0.44867054 -0.23139289 -0.3952999 1.176873 -0.24147768
-0.32771268 0.29591563 -1.4728829 -0.64421225 -0.30449247 0.85247755 -0.14225869 -0.06722237
0.40135825 -0.33041736 0.48375747 -0.9064133 -0.9528819 0.2911502 0.48095483 -0.6995903
-0.0698758 0.058627263 0.24249949 -0.29730758 0.3031723 -0.5399614 -0.4874236 -0.12892643
-0.71712196 0.5221987 -0.52245945 -0.97042245 0.020161154 -1.3090034 -0.38058496 0.23274952
-0.17787915 -0.52713233 -0.6171541 0.08863665 -0.20322615 -1.2865334 0.5558989 -1.1224964
-0.38508183 0.7836116 -0.19916147 -0.07818827 0.13480005 0.39319903 -0.56263965 0.13542587
0.13447158 -0.003578288 -0.10322807 -0.33834618 -0.5384675 -0.10507403 -0.5512111 -0.06032356
-0.2049342 -0.022873342 -0.13363811 0.024834968 -0.20635554 -1.748773 -0.6101558 -0.37802354
-0.076054014 0.22245997 -1.5177615 0.54552174 -0.14424226 -1.5721383 -0.37722617 0.52935034
-0.13758151 -0.045925945 -0.9917493 0.9116087 -0.26264647 0.26361606 -0.830177 0.22300944
0.20279387 -0.2837044 -0.41060147 0.4567866 -1.4204311 -0.910114 0.59476024 -0.06984797
0.4237398 -0.57477 -0.826849 -0.18170746 -0.31410652 0.3335002 0.10350968 0.009396948
-0.24003644 0.4428191 -0.2551724 0.1649112 0.43790692 -0.07986444 -0.566621 0.3358293
-0.7687773 -1.2840172 0.19982912 -0.14223638 0.5710217 0.15685952 -0.97537476 -0.9570975
-0.060956057 0.557138 -0.02121545 -0.269857 -0.15240629 -1.4966336 -0.057601314 0.21525803
-0.19974351 -0.7016956 -1.1241577 -0.87384456 -0.33281147 0.2288937 0.32014883 -0.23662572
0.41757533 -0.5853025 -0.11782644 -1.0066129 0.041919492 0.23734097 -1.3163539 -0.7647292
-0.81166404 0.3377303 0.5841457 -1.4215002 0.5662291 -1.5582423 -0.94420797 -0.23210864
00000000: 58a0 c53e a783 efbe f211 d4bf d456 97be
00000010: 44eb 303e f28e b4be e17b 8fbd ef8b 55be
00000020: 261e 98bf c1d4 45be 50d5 b23e ff5a 253f
00000030: 5ff7 81bd 9fe2 18bf acf7 b6be d592 593d
00000040: 0ef2 e3be 709e 45bf 0bfd dcbe 0488 1abf
00000050: 7863 c5bf 7dd3 953e 8eea 19be 3263 063f
00000060: afce 5c3e a7e9 25be e7a5 0e3e 1b53 ccbe
00000070: 113b 8dbf 44a4 87bf e5db 30bf 2d78 c13e
00000080: 9459 6bbf acaa 87bf c5ab f53d 2652 693f
00000090: 90a2 29bf 5a12 203f 6cd6 cfbe 720f 0a3f
000000a0: d8ce a1be fa83 33bf 4940 61bf 93ea 3ebf
000000b0: 6e95 7dbf 96ac 82bf 7f97 a7bf 9433 d83e
000000c0: 1894 ffbe 1fe8 3a3e 84b3 8c3d 02c8 90bf
000000d0: ccd5 6b3e 7c2f 9abf 77c4 f1be 2a71 263d
000000e0: 5fa4 39bf dec5 373e f644 5f3d c030 003e
000000f0: f8dd 093e ffc2 163f 5653 7c3e dfb2 04be
00000100: 7099 4fbf 7b41 96be 9f9a 643e db83 873e
00000110: d860 51bf a887 453d ec2d 3ebe 0351 403d
00000120: fa64 153f a939 56bf 6dc9 b4be b86f 363e
00000130: 3859 3abf 6c98 77be c1bc 26be baa6 f23e
00000140: 99ab e73e 4eb6 cc3e e340 703f 24d0 d7be
00000150: 42d2 1ebe 283f 42be 5f74 69bd 5768 a03e
00000160: 5d31 96be 0593 c6be e06c 4abe 56f5 a2bf
00000170: b6a5 813e 3f10 24bf d868 8abe 33ba f53e
00000180: 12aa cbbd 0862 3c3f 3ebb d93e 211d 35bf
00000190: a7ef 97bf 3db9 963e 0268 98bf 5290 50bf
000001a0: 1b1a 00be ed0b 76be f33a 9bbd 25b8 e53e
000001b0: 42f2 6cbe c064 cabe c6a3 963f ed45 77be
000001c0: f5c9 a7be 4182 973e 6d87 bcbf 18eb 24bf
000001d0: 70e6 9bbe f83b 5a3f 43ac 11be e2ab 89bd
000001e0: d47e cd3e 772c a9be 0faf f73e b40a 68bf
000001f0: 11f0 73bf a411 953e b63f f63e 5a18 33bf
00000200: 0b1b 8fbd 2423 703d c951 783e b338 98be
00000210: 6639 9b3e e93a 0abf 968f f9be 4a05 04be
00000220: 4e95 37bf d0ae 053f e7bf 05bf 9b6d 78bf
00000230: 0129 a53c 6c8d a7bf 08dc c2be e455 6e3e
00000240: f425 36be 25f2 06bf d0fd 1dbf 2287 b53d
00000250: 841a 50be 20ad a4bf 644f 0e3f f6ad 8fbf
00000260: 7229 c5be c59a 483f fcf0 4bbe 2c21 a0bd
00000270: 0609 0a3e 6251 c93e 2709 10bf 14ad 0a3e
00000280: ebb2 093e b681 6abb 3d69 d3bd b63b adbe
00000290: 02d9 09bf 0e31 d7bd 2c1c 0dbf d615 77bd
000002a0: 45da 51be e060 bbbc 6ed8 08be b472 cb3c
000002b0: de4e 53be cbd7 dfbf 2c33 1cbf 4d8c c1be
000002c0: 35c2 9bbd 8ccc 633e 0246 c2bf 50a7 0b3f
000002d0: 3eb4 13be d43b c9bf ca23 c1be 8183 073f
000002e0: 2be2 0cbe d81c 3cbd 48e3 7dbf 305f 693f
000002f0: 9979 86be aff8 863e 7b86 54bf 965c 643e
00000300: 32a9 4f3e b441 91be 5b3a d2be efdf e93e
00000310: b0d0 b5bf 3bfd 68bf 3542 183f 740c 8fbd
00000320: 6cf4 d83e 2024 13bf 60ac 53bf 8511 3abe
00000330: 92d2 a0be 8ac0 aa3e e2fc d33d a8f5 193c
00000340: 1dcc 75be 2fb9 e23e f5a5 82be 7bde 283e
00000350: 5635 e03e f88f a3bd 130e 11bf d1f1 ab3e
00000360: 97ce 44bf ad5a a4bf 01a0 4c3e 6aa6 11be
00000370: 7a2e 123f c89f 203e 29b2 79bf 5704 75bf
00000380: 0fad 79bd 99a0 0e3f 06cc adbc b22a 8abe
00000390: 6510 1cbe b191 bfbf 5bef 6bbd 9a6c 5c3e
000003a0: 9089 4cbe 53a2 33bf 66e4 8fbf 47b4 5fbf
000003b0: 4466 aabe 1c63 6a3e 8cea a33e 034e 72be
000003c0: 6fcc d53e 62d6 15bf fd4e f1bd b1d8 80bf
000003d0: c6b3 2b3d 8309 733e 497e a8bf 4bc5 43bf
000003e0: 37c9 4fbf fcea ac3e 938a 153f b8f3 b5bf
000003f0: 64f4 103f 7c74 c7bf 9db7 71bf e3ad 6dbe

fc3.bias f4 [16]
2.4728894 1.6427593 0.8397329 -0.6259232 -1.9060806 -0.66372985 -2.4872684 -1.1974119
2.9936528 0.37016195 -0.3667249 -0.8112746 0.7252733 1.065168 2.183974 1.0694745
00000000: d243 1e40 f045 d23f bcf8 563f 813c 20bf
00000010: 73fa f3bf 33ea 29bf 682f 1fc0 cb44 99bf
00000020: 0298 3f40 de85 bd3e 5ec3 bbbe b1af 4fbf
00000030: 83ab 393f 6d57 883f 3bc6 0b40 8ae4 883f

fc4.weight f4 [10, 16]
0.13377409 0.23240282 0.12081478 -1.0508527 0.27832955 -0.20267639 0.5152355 0.43947402
-0.97420025 -0.489075 0.7099517 -0.35015392 -0.6055977 -0.0006579683 -0.47656313 0.35367945
0.2731918 -0.07842794 0.15490943 0.21177003 0.4534477 0.07161007 0.25942117 0.2761141
0.8793258 0.43156037 0.37961084 -0.12268119 0.41974986 -0.26383877 0.02367339 0.6797434
-0.047417186 -0.76684916 -0.39355513 0.9056368 0.20203435 -0.12965384 -0.17976879 0.049687658
0.14560902 0.6903813 -0.005657558 0.005565463 -0.02049579 -0.15898079 0.25315621 -0.12217996
-0.36349002 0.08897392 0.02435662 0.5928746 -0.20822512 -0.25767514 0.20186678 -0.4135113
-0.19055174 0.07711489 -0.462341 0.40250906 0.4828575 0.22801577 1.1377811 -0.1642318
-0.59054804 0.12921776 0.11513563 0.16301736 -0.12247562 -0.3679056 -0.63095474 -0.03305481
-0.3456916 -0.046261203 -0.8423666 -0.13218915 0.9449885 -0.25894806 1.0190542 -0.9907576
-0.08187751 -0.119797505 -0.2721244 -0.5990679 0.50164837 -0.8372988 -0.20483615 -0.36763486
-0.33184576 0.033890065 -0.85481656 0.7238239 0.92483664 -0.29490548 0.025455577 -1.4091924
-0.16596869 0.3787037 0.9191497 -0.025549743 0.20267999 0.54095685 0.0062745768 -0.1785099
0.37238094 -0.50428134 0.29086357 0.054306667 -0.2901976 0.17011724 -0.2139527 0.31866428
0.74842554 0.2111975 -0.0075605204 -0.5564895 -0.29470822 -0.18586718 0.23915333 0.19734533
-0.34013578 -0.19287302 0.76848775 -0.521308 -0.858273 0.23290907 -0.6948229 0.45758605
-0.14991814 -0.5117196 0.28662515 0.22633015 0.07824764 0.7637461 0.038482122 -0.29739338
0.65049684 -0.04067006 -0.4746682 0.12692505 -0.6823467 -0.1285541 0.3902872 0.19761465
0.2540311 -0.33431113 -0.026831936 0.0294991 -0.39254475 0.22989501 0.02830658 -0.23910043
0.01445125 -0.08298897 0.42261302 -0.47861657 -0.4913532 0.15313327 -1.0292532 1.1946818
00000000: 13fc 083e 01fb 6d3e bd6d f73d 5782 86bf
00000010: 3681 8e3e 668a 4fbe 79e6 033f bd02 e13e
00000020: 3065 79bf 0a68 fabe 65bf 353f 6047 b3be
00000030: 7308 1bbf 817b 2cba 1500 f4be 7915 b53e
00000040: ccdf 8b3e d49e a0bd 94a0 1e3e 3eda 583e
00000050: 4c2a e83e 4da8 923d dad2 843e d45e 8d3e
00000060: 7f1b 613f 7bf5 dc3e 5a5c c23e 4740 fbbd
00000070: 74e9 d63e e015 87be b2ee c13c aa03 2e3f
00000080: 8638 42bd 3a50 44bf 0f80 c9be d0d7 673f
00000090: 18e2 4e3e fac3 04be 4f15 38be 4985 4b3d
000000a0: 881a 153e d4bc 303f 0963 b9bb 7d5e b63b
000000b0: c9e6 a7bc dccb 22be b19d 813e 7d39 fabd
000000c0: 5d1b babe f537 b63d 8987 c73c a1c6 173f
000000d0: f738 55be ffed 83be 2ab6 4e3e c1b7 d3be
000000e0: ff1f 43be 69ee 9d3d f6b7 ecbe ab15 ce3e
000000f0: 1939 f73e f77c 693e d0a2 913f 622c 28be
00000100: 282e 17bf a951 043e 3bcc eb3d 06ee 263e
00000110: 7fd4 fabd 1f5e bcbe 4086 21bf 7b64 07bd
00000120: 7dfe b0be 637c 3dbd 56a5 57bf 985c 07be
00000130: c4ea 713f d794 84be 5e70 823f 4aa2 7dbf
00000140: 65af a7bd 6558 f5bd e453 8bbe 845c 19bf
00000150: 076c 003f 3759 56bf 91c0 51be a33a bcbe
00000160: b0e7 a9be 4fd0 0a3d 42d5 5abf 864c 393f
00000170: 18c2 6c3f dafd 96be 3788 d03c 6b60 b4bf
00000180: b2f3 29be 74e5 c13e 654d 6b3f b24d d1bc
00000190: 588b 4f3e 267c 0a3f f79a cd3b 4dcb 36be
000001a0: b7a8 be3e 9518 01bf 12ec 943e ab70 5e3d
000001b0: c894 94be 3733 2e3e 6b16 5bbe f727 a33e
000001c0: d198 3f3f 2844 583e 3ebe f7bb 1976 0ebf
000001d0: ffe3 96be f753 3ebe 9ce4 743e e514 4a3e
000001e0: 4726 aebe 8180 45be 9dbb 443f 7174 05bf
000001f0: c8b7 5bbf b77f 6e3e eadf 31bf b848 ea3e
00000200: 2484 19be 0e00 03bf 88c0 923e 17c3 673e
00000210: 4c40 a03d dd84 433f 6e9f 1d3d f243 98be
00000220: f686 263f a695 26bd b607 f3be a4f8 013e
00000230: 46ae 2ebf b0a3 03be b9d3 c73e 7f5b 4a3e
00000240: 5d10 823e d42a abbe a6ce dbbc 19a8 f13c
00000250: a0fb c8be 9969 6b3e 33e3 e73c bed6 74be
00000260: f0c4 6c3c 1ff6 a9bd bc60 d83e 3b0d f5be
00000270: a692 fbbe f8ce 1c3e 92be 83bf 55eb 983f

fc4.bias f4 [10]
1.7179257 -0.84199554 -0.27178603 -0.45134583 0.36080483 -1.7522258 -0.50198513 2.1392527
-0.7875048 0.36702096
00000000: fde4 db3f 058d 57bf 8a27 8bbe cd16 e7be
00000010: 69bb b83e ef48 e0bf 1982 00bf 84e9 0840
00000020: ea99 49bf 2cea bb3e
