ckpt/1108_19/model_epoch15.pth (torch, 9739 bytes, 8 tensors)

fc1.weight f4 [16, 63]
-1.4710846 1.2414203 0.07743163 0.652456 -1.4479908 0.8827438 0.95091075 -1.0373356
0.3150495 -0.5517164 0.95742995 -1.3350908 -2.6903617 7.8114142 0.90633726 -0.5290013
1.0796193 0.6392591 -0.70022476 2.5672257 2.224467 0.91063225 -2.0559473 -0.20193401
0.7109044 -3.559078 -1.3091493 -0.35017812 0.405975 -0.20230068 -0.23008601 0.17873551
0.16597848 0.19659366 -1.2143351 -0.060826343 -0.27891296 -0.09359194 -0.047719676 0.78718203
-0.34465647 -1.071366 -2.661186 1.7894852 0.8790668 -0.1639691 -0.5294876 0.6943866
2.850234 -4.4570613 -0.36670414 2.11323 -0.78872913 -0.4229797 -1.0023056 0.03296908
0.4351819 -0.41017306 -0.7463855 0.051313892 1.5315684 -2.9718626 -0.20148407 0.009780107
0.37521988 0.35876808 0.27100286 0.03298478 -0.2071633 -0.525246 -0.030843237 0.34288186
1.1584795 -0.39349696 -1.5510441 4.2791505 -1.1935883 -4.4888053 0.34684783 0.043418236
-0.6849463 -0.59417707 0.3192499 0.76423997 -0.5848445 0.17005879 0.6191151 -0.38326663
0.094440185 0.41917238 0.29512337 0.03473018 -1.0835351 -0.4731643 0.123807125 0.28441122
-1.3547815 0.410065 1.1875092 -1.3522254 0.38917154 0.74783033 0.42916825 0.11465366
-1.1741269 -0.4561177 0.6657162 -0.22026278 -1.443439 0.8292465 1.3145772 -1.2469164
0.526347 1.4273043 0.831294 -0.30322292 -0.86236554 0.19784431 0.04285938 -0.21990073
-1.1913778 -0.00084450934 1.2044278 -1.3976448 -0.49212384 1.9513426 -0.8957836 -4.0571823
-6.08413 -1.10371 1.4087292 3.440288 0.50835025 -0.6053212 0.119854815 -0.06015041
-1.2840229 -1.7148811 -0.7852109 -0.21045978 -0.58941716 0.7376942 1.0281264 -0.33336166
2.207641 2.0866194 1.3812424 0.71265954 0.3206434 -0.32933784 -2.2725787 -3.586685
-2.3297896 0.36889318 0.62230283 0.3353701 0.07613472 0.8200832 1.3674151 -0.9006883
0.19840056 0.8773343 -1.29366 0.297889 0.85149246 0.1375678 0.99727184 1.861564
2.5223699 -0.105257966 -0.34986502 2.2859848 0.81319237 -1.1034966 1.5403095 2.7306285
0.004106355 -0.7586136 1.7723278 4.2405925 2.7421188 1.7141863 1.7064703 -0.0071414243
-1.0787176 -1.2623805 -4.7548394 -4.74195 -3.1702387 6.715772 -0.21819755 -2.1169004
-0.74445343 -0.49763 1.2449208 1.9568373 0.45627302 -0.4511727 0.4098015 0.15867014
-0.90317285 -2.4683907 -0.12736742 0.63281065 -1.632349 0.06294656 1.6681191 -8.64951
-0.7226402 -1.1142359 -3.3641922 -0.36332214 -1.141246 4.950041 0.5996862 1.6714791
-1.0702275 0.5484103 1.2216889 0.4746211 -0.42111364 -0.94983435 4.0113816 0.21146443
-1.3869922 3.920008 -0.48494178 0.3791921 -1.2251791 0.5050488 0.3063527 -0.5127287
-0.6634926 -0.3127394 0.7577786 0.5965242 -0.07194074 -0.2556859 0.6317293 0.80215317
-1.9557468 0.63919914 0.393288 -3.9998927 -0.7340033 0.8176178 -0.22428606 0.18693258
-0.2797918 2.198594 0.0002612395 -0.012405202 1.4810156 -0.67431647 0.4636673 1.0621692
00000000: 804c bcbf dce6 9e3f 7994 9e3d 5b07 273f
00000010: c357 b9bf 7ffb 613f e36e 733f 6ac7 84bf
00000020: 2b4e a13e 493d 0dbf 211a 753f 41e4 aabf
00000030: e32e 2cc0 1bf7 f940 b805 683f a16c 07bf
00000040: f730 8a3f 7ca6 233f ee41 33bf 6d4d 2440
00000050: ab5d 0e40 321f 693f a494 03c0 cac7 4ebe
00000060: d5fd 353f efc7 63c0 3492 a7bf 8c4a b3be
00000070: f5db cf3e e927 4fbe ab9b 6bbe 7106 373e
00000080: 43f6 293e d94f 493e 556f 9bbf 0b25 79bd
00000090: aecd 8ebe 22ad bfbd b575 43bd c384 493f
000000a0: d076 b0be 8522 89bf df50 2ac0 da0d e53f
000000b0: 860a 613f 84e7 27be 808c 07bf 52c3 313f
000000c0: 3c6a 3640 3fa0 8ec0 a5c0 bbbe 293f 0740
000000d0: 27ea 49bf cc90 d8be 8d4b 80bf 960a 073d
000000e0: 29d0 de3e 3402 d2be 1f13 3fbf 842e 523d
000000f0: 6f0a c43f ff32 3ec0 d751 4ebe be3c 203c
00000100: d21c c03e 73b0 b73e e3c0 8a3e 0c1b 073d
00000110: 9e22 54be 8676 06bf f5aa fcbc 368e af3e
00000120: 0e49 943f 6f78 c9be 9d88 c6bf cdee 8840
00000130: 80c7 98bf 4ba4 8fc0 0a96 b13e 52d7 313d
00000140: a458 2fbf fd1b 18bf b974 a33e 3ba5 433f
00000150: 5fb8 15bf e423 2e3e 547e 1e3f 863b c4be
00000160: db69 c13d c39d d63e 691a 973e 3c41 0e3d
00000170: 47b1 8abf 9742 f2be 978e fd3d 599e 913e
00000180: 7b69 adbf 0af4 d13e 4d00 983f b915 adbf
00000190: 7e41 c73e cf71 3f3f f1bb db3e 8acf ea3d
000001a0: ca49 96bf 4288 e9be 606c 2a3f 918c 61be
000001b0: 9cc2 b8bf 8049 543f 1144 a83f f59a 9fbf
000001c0: adbe 063f e8b1 b63f afcf 543f 0940 9bbe
000001d0: fdc3 5cbf b397 4a3e 518d 2f3d a82d 61be
000001e0: 117f 98bf 1062 5dba b12a 9a3f 06e6 b2bf
000001f0: a8f7 fbbe 98c5 f93f 1352 65bf 70d4 81c0
00000200: 31b1 c2c0 5f46 8dbf 3d51 b43f ae2d 5c40
00000210: 3e23 023f 55f6 1abf 7176 f53d 4760 76bd
00000220: dd5a a4bf 3981 dbbf 9503 49bf c582 57be
00000230: 0be4 16bf 87d9 3c3f a599 833f 61ae aabe
00000240: fd49 0d40 2c8b 0540 8dcc b03f db70 363f
00000250: 5f2b a43e f89e a8be ee71 11c0 3f8c 65c0
00000260: 461b 15c0 91df bc3e 3d4f 1f3f a1b5 ab3e
00000270: 85ec 9b3d f9f0 513f 7507 af3f 8293 66bf
00000280: 8429 4b3e fb98 603f a796 a5bf e884 983e
00000290: 69fb 593f 93de 0c3e 354d 7f3f bb47 ee3f
000002a0: 826e 2140 7d91 d7bd 8221 b3be 934d 1240
000002b0: 602d 503f 603f 8dbf dd28 c53f 9ec2 2e40
000002c0: 9a8e 863b 8034 42bf a3db e23f efb2 8740
000002d0: e07e 2f40 756a db3f 9e6d da3f 9c02 eabb
000002e0: 6b13 8abf af95 a1bf a527 98c0 0ebe 97c0
000002f0: 31e5 4ac0 9be7 d640 2e6f 5fbe 4c7b 07c0
00000300: 8094 3ebf 5cc9 febe 9159 9f3f a579 fa3f
00000310: 9e9c e93e 1c00 e7be 81d1 d13e 6d7a 223e
00000320: 5636 67bf 1dfa 1dc0 9b6c 02be e1ff 213f
00000330: d0f0 d0bf 20ea 803d ed84 d53f 6564 0ac1
00000340: f3fe 38bf 489f 8ebf ed4e 57c0 5c05 babe
00000350: 5914 92bf bc66 9e40 0985 193f 07f3 d53f
00000360: 37fd 88bf 9e64 0c3f 4d60 9c3f 8901 f33e
00000370: 359c d7be 5828 73bf 3d5d 8040 228a 583e
00000380: f688 b1bf 69e1 7a40 4a4a f8be 7825 c23e
00000390: abd2 9cbf e14a 013f 43da 9c3e 3042 03bf
000003a0: a7da 29bf 611f a0be c7fd 413f cfb5 183f
000003b0: ab55 93bd 43e9 82be 03b9 213f e959 4d3f
000003c0: e955 fabf 8ea2 233f 0b5d c93e 3efe 7fc0
000003d0: a4e7 3bbf 664f 513f 3fab 65be 416b 3f3e
000003e0: df40 8fbe c4b5 0c40 f9f6 8839 303f 4bbc
000003f0: eb91 bd3f 01a0 2cbf cd65 ed3e 29f5 873f

fc1.bias f4 [16]
0.6194457 -0.1743154 0.3047363 0.2838345 -0.35547593 -0.58796 1.7995651 -3.5138822
-0.044257164 1.2094535 -0.33492032 -0.35311186 1.2395778 0.4355661 1.0210911 -2.068077
00000000: fe93 1e3f bc7f 32be 6506 9c3e c152 913e
00000010: f100 b6be 8c84 16bf 2658 e63f 72e3 60c0
00000020: 0047 35bd 5fcf 9a3f ad7a abbe 14cb b4be
00000030: 7caa 9e3f 8502 df3e 1db3 823f 605b 04c0

fc2.weight f4 [16, 16]
0.22911079 0.7370852 -0.3610223 0.5765249 0.47251168 0.061987024 -1.4706867 0.50492316
-0.17180315 0.35113487 -0.40221196 -3.3831728 0.18299621 -0.6812747 -0.14485249 -0.68362576
-0.05479645 0.91135085 2.021792 -0.38269487 -0.56495214 0.014740498 0.4225553 0.5746179
-0.11961398 0.4948976 0.43957216 0.7876564 0.14446752 0.6578073 -1.1811116 -0.8053169
0.7687164 0.807166 -0.18160166 0.74513465 -1.3050431 -0.14111681 0.78181094 0.60451156
1.1664468 0.34536928 0.55667025 0.6674877 0.4959408 0.31738487 1.0252781 0.7313129
0.93829733 0.8628357 -1.9503334 -0.55255723 -0.90334845 0.41223618 0.5704913 0.54442465
-0.775706 -1.1508905 -0.81437397 -2.3397486 -2.222469 -1.5010527 1.6189895 -0.23034415
0.031505454 -0.090431966 0.76712805 -0.46193323 0.6744486 -0.14342245 -0.49708125 -0.49778134
-0.4324267 -2.5700617 0.7142982 0.32965773 1.0663983 1.1302428 -0.4752774 -1.1497303
-0.20818388 0.29733804 0.5489924 1.5961095 -0.61619973 1.8043352 -0.012901125 -0.19578783
-1.0070482 0.1598469 -0.96354115 -0.641005 -0.61155754 -0.20382217 1.2915272 1.9153942
-0.05723516 0.2655133 -2.9736376 -1.1789218 -1.6849607 -0.9261463 0.3451892 1.1049286
0.5602998 -1.87489 0.030171016 -0.77393377 -0.6577204 -0.5724175 -0.22106527 -0.6778566
0.9323488 1.2709628 -0.9351657 -0.32944655 -0.5256412 0.9294361 1.1304362 0.86399764
-0.8758837 -1.1369439 0.36149487 0.25087094 0.49128443 -0.5707655 -0.070006035 -0.1155808
1.2029461 1.3639948 0.68008906 0.5677369 -1.293155 0.2035337 1.1671847 1.3367404
-1.3364598 0.16301659 -1.8038545 -0.5796793 -0.7574105 0.2930362 -1.0138509 -0.19650552
-2.306167 -2.044637 0.46078014 0.053702857 1.0977304 -0.89900297 -2.397577 -2.2107759
0.6679325 1.2867686 0.52922344 0.45374298 0.42606497 -0.02558521 -0.3727488 -0.6692762
-1.1885197 -0.87651503 1.143275 1.36771 1.2616369 0.52511567 -1.6402402 -1.0117893
-0.24520083 0.8095835 -0.90613633 -0.4739203 -1.0261339 1.1029634 0.7976279 0.91946095
0.033750698 0.2272813 1.670629 0.5898446 0.7395739 -0.39295918 0.15707998 0.085327275
-1.3867815 0.74741757 -2.6196005 -2.9300935 -2.6446478 1.4725814 0.1867877 0.95447725
-0.33248684 0.036703307 0.30270547 0.044200163 0.057099216 0.4801689 -0.22809523 -0.8697263
0.7351485 -0.661177 0.2882129 0.16618066 -3.5686867 -0.029694065 -0.18749209 0.8536821
-0.036475793 0.29008937 0.24105008 -2.2540133 0.64372456 -2.8462203 -0.15646467 0.055520162
0.39314833 -0.17829002 0.10063241 0.06663264 0.13453728 1.8160441 -2.3205152 -2.3787127
0.3827601 0.5729978 -0.30404633 -1.1407869 -0.7084235 -2.8370738 0.6125879 0.15313096
1.2327255 0.9756288 0.35795763 0.2580584 0.5963705 -2.7548823 -1.2069169 -1.2158319
-0.021499952 0.9681668 1.0382972 0.82833415 -2.0362391 0.3407983 -0.88441306 0.36239058
-1.7260939 -0.9856556 -0.90008944 0.3947254 -0.0398046 -0.4731697 -0.25691485 -0.027827399
00000000: 059c 6a3e 9eb1 3c3f ead7 b8be 2397 133f
00000010: 0ded f13e 1be6 7d3d 763f bcbf a542 013f
00000020: 2aed 2fbe f3c7 b33e baee cdbe e785 58c0
00000030: 5c63 3b3e 0568 2ebf 3654 14be 1902 2fbf
00000040: 3e72 60bd 4a4e 693f 0a65 0140 95f0 c3be
00000050: b4a0 10bf 2182 713c 2b59 d83e 291a 133f
00000060: 2df8 f4bd 3863 fd3e 9a0f e13e daa3 493f
00000070: 4bef 133e 0f66 283f aa2e 97bf 4029 4ebf
00000080: 99ca 443f 6ea2 4e3f c9f5 39be 25c1 3e3f
00000090: a70b a7bf ed80 10be c324 483f 45c1 1a3f
000000a0: 214e 953f 3ed4 b03e f181 0e3f 79e0 2a3f
000000b0: f4eb fd3e 4580 a23e 503c 833f 5237 3b3f
000000c0: 4134 703f cde2 5c3f 86a4 f9bf 6474 0dbf
000000d0: d841 67bf 9f10 d33e b80b 123f 6a5f 0b3f
000000e0: ab94 46bf 6150 93bf d07a 50bf 71be 15c0
000000f0: ef3c 0ec0 7f22 c0bf 0c3b cf3f 56df 6bbe
00000100: dd0b 013d 6534 b9bd 8162 443f 8382 ecbe
00000110: aaa8 2c3f 56dd 12be 6f81 febe 32dd febe
00000120: 0867 ddbe e47b 24c0 3fdc 363f e6c8 a83e
00000130: bd7f 883f ccab 903f 8f57 f3be 5d2a 93bf
00000140: 282e 55be b13c 983e c48a 0c3f 514d cc3f
00000150: 44bf 1dbf 75f4 e63f 3d5f 53bc 9b7c 48be
00000160: f5e6 80bf e8ae 233e a2aa 76bf e718 24bf
00000170: 098f 1cbf c2b6 50be c350 a53f a32b f53f
00000180: 6a6f 6abd 5cf1 873e 1450 3ec0 e9e6 96bf
00000190: cbac d7bf ed17 6dbf a4bc b03e 4d6e 8d3f
000001a0: cf6f 0f3f 65fc efbf 3529 f73c 8620 46bf
000001b0: 5d60 28bf f489 12bf ef5e 62be 0388 2dbf
000001c0: 69ae 6e3f e9ae a23f 0567 6fbf 38ad a8be
000001d0: 6c90 06bf 86ef 6d3f 22b2 903f f32e 5d3f
000001e0: ea39 60bf 6187 91bf db15 b93e 2872 803e
000001f0: a289 fb3e b01d 12bf 535f 8fbd a0b5 ecbd
00000200: 23fa 993f 6297 ae3f 511a 2e3f 3557 113f
00000210: 1a86 a5bf 236b 503e 4f66 953f 4f1a ab3f
00000220: 1d11 abbf d2ed 263e b4e4 e6bf dd65 14bf
00000230: a8e5 41bf d708 963e dec5 81bf be38 49be
00000240: 3d98 13c0 55db 02c0 60eb eb3e 87f7 5b3d
00000250: 6e82 8c3f 0f25 66bf e771 19c0 5a7d 0dc0
00000260: a0fd 2a3f d5b4 a43f 307b 073f 0051 e83e
00000270: 3025 da3e 1398 d1bc eed8 bebe af55 2bbf
00000280: 6a21 98bf 4a63 60bf d656 923f 1f11 af3f
00000290: 517d a13f fb6d 063f 64f3 d1bf 5082 81bf
000002a0: ed15 7bbe dd40 4f3f 8df8 67bf aea5 f2be
000002b0: 5b58 83bf e82d 8d3f 5831 4c3f cb61 6b3f
000002c0: 2c3e 0a3d 6ebc 683e 2cd7 d53f 0e00 173f
000002d0: b754 3d3f f231 c9be 93d9 203e 11c0 ae3d
000002e0: 0e82 b1bf c256 3f3f 89a7 27c0 a786 3bc0
000002f0: e941 29c0 8c7d bc3f 4645 3f3e 9f58 743f
00000300: b73b aabe 3556 163d 36fc 9a3e 3b0b 353d
00000310: dee0 693d b3d8 f53e cc91 69be 62a6 5ebf
00000320: b132 3c3f e542 29bf a490 933e 432b 2a3e
00000330: 5d65 64c0 f840 f3bc edfd 3fbe e98a 5a3f
00000340: a467 15bd 9886 943e d5d5 763e c141 10c0
00000350: 22cb 243f 7928 36c0 4638 20be 1c69 633d
00000360: bd4a c93e a991 36be 5d18 ce3d b276 883d
00000370: 24c4 093e 2274 e83f 5283 14c0 d43c 18c0
00000380: 22f9 c33e fcaf 123f f6ab 9bbe 4e05 92bf
00000390: 3e5b 35bf 9e92 35c0 90d2 1c3f 5dce 1c3e
000003a0: f3c9 9d3f cfc2 793f 3946 b73e 3b20 843e
000003b0: bdab 183f fe4f 30c0 417c 9abf 61a0 9bbf
000003c0: ab20 b0bc c8d9 773f ece6 843f b50d 543f
000003d0: be51 02c0 1d7d ae3e e568 62bf 428b b93e
000003e0: a5f0 dcbf ed53 7cbf 436c 66bf 7319 ca3e
000003f0: 260a 23bd 4d43 f2be 588a 83be 49f6 e3bc

fc2.bias f4 [16]
-1.8405589 -6.6066985 -8.915007 2.7987568 1.4706762 -4.511319 0.8434375 -1.7361205
-2.9324276 4.956928 0.19595444 5.242323 -1.0312575 6.2192 -1.6329179 -1.3668088
00000000: 6f97 ebbf 136a d3c0 dea3 0ec1 d51e 3340
00000010: 1e3f bc3f ba5c 90c0 85eb 573f 3239 debf
00000020: e5ac 3bc0 279f 9e40 48a8 483e 1cc1 a740
00000030: 3f00 84bf b003 c740 7403 d1bf 97f3 aebf

fc3.weight f4 [16, 16]
0.3156053 -0.6039261 -1.7664253 -0.49948072 0.26144037 -0.82773465 0.07858813 -0.4591791
-0.9260834 -0.12964484 0.36501247 0.7180715 0.11868907 -1.0330819 -0.6251524 0.3773515
-0.6651617 -0.838404 -0.7775925 -0.61041975 -1.3284762 -0.03755729 -0.3313582 0.67725843
0.400039 -0.19907491 -0.76986086 -0.565593 -1.5211236 -1.1289126 -0.9315302 0.47039896
-0.9452991 -1.1829369 0.31912443 0.7366751 -0.43373513 0.57709956 -0.27195862 0.47835064
-0.18726535 -0.8601948 -0.57618964 -0.6632254 -0.30326232 -1.2924588 -1.2979704 0.5043926
-0.18969262 0.8756145 -0.072005354 -1.3605227 0.36493313 -1.3708638 -0.6569551 -0.3734689
-0.54323953 -0.008726259 -0.43450856 -0.13855475 0.15165414 0.22579549 0.62283665 -0.43929285
-0.42580238 -0.17657019 0.26125738 0.42373434 -0.6371151 0.18030195 -0.19759995 -0.1630094
0.6467932 -0.79796076 -0.53508055 0.13847731 -0.9825232 -0.07775741 0.014732176 0.18792062
0.33023927 0.52959967 0.8145587 -0.5899285 0.1854562 -0.7362608 -0.318203 0.22848368
-0.5871039 -0.44212285 -0.9804891 -0.87461907 0.38887125 -0.9920722 -0.21484753 0.58357
-0.25862518 0.51002854 0.5700913 -0.49065706 -1.2165506 0.27987474 -1.128712 -1.0310168
0.08284951 -0.29684016 0.051194694 0.56222016 -0.39785612 -0.5598805 0.91278976 -0.7250568
-0.84221184 0.14796643 -1.4319444 -1.0317407 -0.38555485 0.81651115 -0.54110044 -0.16183317
0.71886116 -0.63567823 0.2540853 -0.6400996 -1.2511165 0.31680542 0.22749922 -0.81590134
-0.34864628 -0.06382759 -0.08294667 -0.2275241 -0.0023813767 -0.5389168 -0.5676109 0.13515455
-1.1887032 0.51205635 -0.7874787 -1.4155294 0.10356578 -1.557196 -0.2776289 0.16726343
-0.15526988 -0.35409752 -0.32606456 -0.028133726 -0.22297879 -1.4344276 -0.121923774 -0.68238467
-0.8628473 0.6504408 -0.20479245 -0.17234641 0.36370373 0.65680516 -0.5846941 0.28878367
0.075939044 -0.0031196026 -0.10313931 -0.33834618 -0.5384515 -0.12629989 -0.5512111 -0.06031629
-0.2049342 -0.036195304 -0.13352711 0.0017309665 -0.20635554 -1.748773 -0.6101558 -0.37802354
0.30757943 0.3202463 -0.9096703 0.2572952 0.3348291 -1.5898753 -0.36196408 0.47486082
0.10680139 -1.0293192 -1.1209103 0.7458111 -0.22946043 0.26634872 -0.4875352 0.060222536
0.0928159 -0.28556326 -0.37270522 0.22493836 -1.222203 -1.1080313 0.20661116 0.18446627
0.3967072 -1.2366191 -1.0007288 -0.08945044 -0.58848757 0.40500683 0.23231952 -0.18825431
-0.89560795 0.00900063 -0.6224291 0.22038527 0.6208765 -0.08474404 -0.63207453 -0.08005183
-0.51483613 -1.2131687 0.005920804 -0.007127809 0.21990252 0.5150415 -1.1782824 -0.8675565
-0.1299959 0.30298147 -0.06719432 -0.16335078 -0.3070099 -1.8176488 0.26058975 0.13590941
-0.43655258 -0.5109985 -1.4264305 -1.0098485 -0.18898833 0.3038835 0.2853044 -0.13021855
0.39118508 -0.612663 0.09707122 -0.70605636 0.043852843 0.36109102 -1.3253292 -1.1802912
-0.9371485 0.38331047 0.5231553 -1.5443927 0.45430923 -1.5983576 -1.5553066 -0.10445468
00000000: 0597 a13e e79a 1abf 391a e2bf f0bb ffbe
00000010: 83db 853e 6be6 53bf d0f2 a03d 8619 ebbe
00000020: cd13 6dbf 9ec1 04be eae2 ba3e 89d3 373f
00000030: 4113 f33d 073c 84bf fd09 20bf 3734 c13e
00000040: 0a48 2abf a5a1 56bf 4d10 47bf 7844 1cbf
00000050: 820b aabf acd5 19bd c8a7 a9be cf60 2d3f
00000060: e9d1 cc3e 4bda 4bbe 9a15 45bf b4ca 10bf
00000070: 2eb4 c2bf 3580 90bf c378 6ebf 22d8 f03e
00000080: 1fff 71bf 7a6a 97bf 4764 a33e bd96 3c3f
00000090: 8812 debe ccbc 133f 293e 8bbe 60ea f43e
000000a0: 7dc2 3fbe ba35 5cbf 2a81 13bf 24c9 29bf
000000b0: 3345 9bbe 4a6f a5bf e523 a6bf e01f 013f
000000c0: c83e 42be 4628 603f 8b77 93bd 9c25 aebf
000000d0: 84d8 ba3e 7778 afbf 362e 28bf 5137 bfbe
000000e0: bf11 0bbf 95f8 0ebc e877 debe 4ce1 0dbe
000000f0: 394b 1b3e ef36 673e 3972 1f3f feea e0be
00000100: c502 dabe d1ce 34be 87c3 853e b5f3 d83e
00000110: fa19 23bf 13a1 383e a457 4abe f0eb 26be
00000120: 3d94 253f 2847 4cbf 0afb 08bf ffcc 0d3e
00000130: a486 7bbf 473f 9fbd 3a5f 713c 436e 403e
00000140: 1f15 a93e d893 073f eb86 503f 8e05 17bf
00000150: 3be8 3d3e 967b 3cbf 81eb a2be a0f7 693e
00000160: 714c 16bf ed5d e2be 5501 7bbf 09e7 5fbf
00000170: 221a c73e 72f8 7dbf fe00 5cbe d864 153f
00000180: 856a 84be 3b91 023f 81f1 113f 6737 fbbe
00000190: eeb7 9bbf be4b 8f3e a379 90bf 5cf8 83bf
000001a0: 01ad a93d 6ffb 97be 87b1 513d a9ed 0f3f
000001b0: ccb3 cbbe 5454 0fbf 97ac 693f 539d 39bf
000001c0: 329b 57bf 8384 173e f449 b7bf 1410 84bf
000001d0: 7267 c5be e006 513f 8f85 0abf 98b7 25be
000001e0: 4907 383f cfbb 22bf 7817 823e 91dd 23bf
000001f0: 9624 a0bf 5234 a23e 8ef5 683e e9de 50bf
00000200: c481 b2be 0ab8 82bd f2df a9bd 14fc 68be
00000210: df10 1cbb 74f6 09bf f34e 11bf f465 0a3e
00000220: 6d27 98bf 2016 033f 3498 49bf 1130 b5bf
00000230: 4c1a d43d 3352 c7bf 6025 8ebe 1b47 2b3e
00000240: 11ff 1ebe 454c b5be eff1 a6be b378 e6bc
00000250: 8d54 64be 539b b7bf 2cb3 f9bd c3b0 2ebf
00000260: 90e3 5cbf 4a83 263f 1db5 51be 947b 30be
00000270: 6037 ba3e 6224 283f 83ae 15bf 74db 933e
00000280: ee85 9b3d 3f72 4cbb b43a d3bd b63b adbe
00000290: f5d7 09bf c254 01be 2c1c 0dbf 370e 77bd
000002a0: 45da 51be 8741 14bd 55bb 08be 99e1 e23a
000002b0: de4e 53be cbd7 dfbf 2c33 1cbf 4d8c c1be
000002c0: 0d7b 9d3e 53f7 a33e 27e0 68bf 32bc 833e
000002d0: b86e ab3e 0981 cbbf 5b53 b9be f520 f33e
000002e0: b0ba da3d bbc0 83bf fd79 8fbf 7aed 3e3f
000002f0: adf7 6abe dc5e 883e 379e f9be e8ab 763d
00000300: 4316 be3d 5935 92be 38d3 bebe 3e56 663e
00000310: 2671 9cbf f8d3 8dbf e091 533e bae4 3c3e
00000320: 351d cb3e 8949 9ebf e217 80bf cb31 b7bd
00000330: 1fa7 16bf 0e5d cf3e 2be5 6d3e bdc5 40be
00000340: 9046 65bf 6177 133c 8357 1fbf adac 613e
00000350: c3f1 1e3f 498e adbd a3cf 21bf 37f2 a3bd
00000360: 4dcc 03bf 1d49 9bbf 4e03 c23b 6590 e9bb
00000370: 202e 613e c2d9 033f f5d1 96bf 2f18 5ebf
00000380: a51d 05be 6320 9b3e 2d9d 89bd 6d45 27be
00000390: 6730 9dbe b7a8 e8bf 056c 853e d62b 0b3e
000003a0: d283 dfbe ccd0 02bf 4695 b6bf b742 81bf
000003b0: 2886 41be 9e96 9b3e 6b13 923e 0358 05be
000003c0: 6949 c83e 7bd7 1cbf 47cd c63d 1cc0 34bf
000003d0: 0a9f 333d ece0 b83e 63a4 a9bf c813 97bf
000003e0: f7e8 6fbf 4541 c43e 81ed 053f a9ae c5bf
000003f0: 389b e83e fb96 ccbf 4914 c7bf 56ec d5bd

fc3.bias f4 [16]
3.5496216 1.5405426 0.09341037 -0.9907711 -2.9403555 -0.7674004 -3.0158203 -1.4273012
3.9747431 0.46289632 -0.37626007 -1.743007 0.43388006 1.4977814 3.1140199 0.7003706
00000000: 002d 6340 8030 c53f f04d bf3d 2da3 7dbf
00000010: c92e 3cc0 5a74 44bf 3303 41c0 ceb1 b6bf
00000020: 3162 7e40 bf00 ed3e 29a5 c0be da1a dfbf
00000030: 8725 de3e 4db7 bf3f 1a4c 4740 7d4b 333f

fc4.weight f4 [10, 16]
0.32031682 -0.09087548 -0.018998265 -0.8510286 0.25153905 -0.4154407 0.487545 0.40908313
-0.942158 -0.9180701 0.7094158 -0.41873863 -0.77764666 0.11570802 -0.65270174 0.3280782
0.2518989 -0.1649265 0.12575501 0.1937655 0.44578904 0.081416234 0.27304077 0.1206169
0.8645609 0.4599304 0.36614668 -0.06453285 0.2723631 -0.33263582 -0.056737237 0.6225577
-0.19866191 -0.56109816 -0.37639675 0.653844 0.17440209 -0.019774567 -0.04342869 -0.14048758
0.1828036 0.9411466 -0.005744218 0.08044045 0.14385661 -0.0057213623 0.4029624 0.023507575
0.05310613 0.16999073 0.036921505 0.96024406 -0.064084984 0.012991567 0.12225335 -0.12780462
-0.24733996 0.16348016 -0.46234524 0.3932889 0.30661228 0.41182098 0.95865417 -0.15642142
-0.31890625 0.36924937 0.35527202 0.25247785 -0.20198889 -0.13148393 -0.38910115 0.008357707
-0.30141634 -0.15801916 -0.842367 -0.072566785 0.91762996 -0.30412444 0.9856216 -0.9637686
-0.65375274 -0.068303265 -0.22692598 -0.39286414 0.33358383 -0.80448496 -0.27313697 -0.43278918
-0.35465014 -0.38093358 -0.8548166 0.73126906 0.9405609 -0.51129293 0.17762642 -1.4157765
-0.45898703 0.346793 0.72164756 -0.21037214 0.28694406 0.20372127 0.047718138 -0.049003296
0.25001568 -0.07578063 0.29084015 0.21659996 0.021901488 0.15805855 -0.24192569 0.32595113
0.75748444 -0.25867352 -0.2330322 -0.70044243 -0.3946665 -0.23183577 0.07938374 0.12207814
-0.40552947 -0.27742746 0.76156986 -0.37681016 -0.9518751 0.14731778 -0.70283955 0.38939917
0.08002247 -0.3728688 0.51701856 0.35460535 0.056786593 0.8285195 0.059393305 -0.21703133
0.6770099 0.06781379 -0.4748501 -0.029395353 -0.23268196 0.18584885 0.5291274 0.4278927
0.17786887 -0.13983373 0.01968591 -0.36224172 -0.1896451 0.101661555 -0.09038159 -0.25950992
0.15698771 0.05495284 0.44382784 -0.7510353 -0.8158548 -0.18650886 -0.9640453 0.9346112
00000000: 9100 a43e ec1c babd 40a2 9bbc 03dd 59bf
00000010: bac9 803e a5b4 d4be 809f f93e 5873 d13e
00000020: 4431 71bf a406 6bbf 469c 353f e964 d6be
00000030: da13 47bf 54f8 ec3d 7617 27bf def9 a73e
00000040: e5f8 803e 7ee2 28be ecc5 003e 776a 463e
00000050: 763e e43e 8ebd a63d 00cc 8b3e fe05 f73d
00000060: dd53 5d3f ff7b eb3e 9477 bb3e cd29 84bd
00000070: 2d73 8b3e 3e4f aabe 4e65 68bd f15f 1f3f
00000080: 076e 4bbe 21a4 0fbf 13b7 c0be 5262 273f
00000090: 7696 323e 46fe a1bc 48e2 31bd fadb 0fbe
000000a0: de30 3b3e fcee 703f fe39 bcbb f6bd a43d
000000b0: 264f 133e 447a bbbb 1651 ce3e f592 c03c
000000c0: d085 593d 0d12 2e3e 013b 173d 8ed2 753f
000000d0: fd3e 83bd 95da 543c f75f fa3d 37df 02be
000000e0: b046 7dbe 5867 273e 84b8 ecbe 2a5d c93e
000000f0: 49fc 9c3e 33da d23e 5c6a 753f f02c 20be
00000100: ae47 a3be 410e bd3e 37e6 b53e c744 813e
00000110: 2dd6 4ebe b9a3 06be 4438 c7be c4ee 083c
00000120: 3e53 9abe c6cf 21be 5da5 57bf e59d 94bd
00000130: cce9 6a3f 33b6 9bbe b251 7c3f 8ab9 76bf
00000140: 575c 27bf 95e2 8bbd 495f 68be 7d25 c9be
00000150: 80cb aa3e baf2 4dbf 9cd8 8bbe 8b96 ddbe
00000160: b494 b5be ba09 c3be 43d5 5abf 7334 3b3f
00000170: 99c8 703f 18e4 02bf b3e3 353e 2a38 b5bf
00000180: 5900 ebbe da8e b13e e5bd 383f cb6b 57be
00000190: 55ea 923e 4f9c 503e 1874 433d aeb7 48bd
000001a0: 0e02 803e e032 9bbd 00e9 943e 61cc 5d3e
000001b0: c06a b33c 1ada 213e 5ebb 77be 11e3 a63e
000001c0: 80ea 413f db70 84be fe9f 6ebe 3250 33bf
000001d0: ba11 cabe 5b66 6dbe f193 a23d 1b04 fa3d
000001e0: 8fa1 cfbe f90a 8ebe 3ef6 423f 43ed c0be
000001f0: 16ae 73bf 79da 163e 4bed 33bf 545f c73e
00000200: d2e2 a33d a9e8 bebe 545b 043f d58e b53e
00000210: 0f99 683d db19 543f 6546 733d 763d 5ebe
00000220: 8550 2d3f f5e1 8a3d 8d1f f3be 86ce f0bc
00000230: 2e44 6ebe 294f 3e3e e574 073f c114 db3e
00000240: 4223 363e 9330 0fbe 5844 a13c bf77 b9be
00000250: 5332 42be ef33 d03d fc19 b9bd 7cde 84be
00000260: 63c1 203e 3b16 613d 673d e33e d943 40bf
00000270: dcdb 50bf 2efc 3ebe accb 76bf ae42 6f3f

fc4.bias f4 [10]
2.742311 -0.66347015 -0.6017259 -1.001645 -0.16339685 -2.55792 -0.21934433 2.569052
-1.2746743 1.156464
00000000: 0682 2f40 2ed9 29bf b50a 1abf e735 80bf
00000010: 8151 27be f6b4 23c0 cd9b 60be 596b 2440
00000020: 8728 a3bf 0307 943f
