ckpt/model_epoch16.pth (torch, 106247 bytes, 6 tensors)

fc1.weight f4 [128, 63]
0	0x3e9cc23f	0.30616948
1	0xbd4cce11	-0.050001208
2	0x3ed10d51	0.40830472
3	0x3e7a4cfa	0.24443427
4	0xbe10d444	-0.14143473
5	0x3dcbd790	0.09953225
6	0x3d6e9c92	0.058254786
7	0xbd95a3f7	-0.073066644
8	0xbd467aad	-0.048456836
9	0xbc6f9612	-0.014623182
10	0x3ddf3325	0.10898427
11	0xbc2c2d2c	-0.010508817
12	0xbd6d7e4c	-0.057981774
13	0x3ea1c82d	0.31598035
14	0xbd388999	-0.0450531
15	0x3e339a1c	0.17539257
16	0xbd30744f	-0.04307967
17	0xbe0fc4f0	-0.1403997
18	0xbdcba80c	-0.09944162
19	0xbd75b4d2	-0.059986897
20	0x3db43c33	0.088005446
21	0xbe5cf88f	-0.21579193
22	0xbe378dc8	-0.17925179
23	0x3da5a046	0.0808721
24	0xbe06697e	-0.1312618
25	0xbddd46ec	-0.10804543
26	0xbe8b425f	-0.27199075
27	0x3d88be38	0.06676906
28	0x3d32f064	0.043686286
29	0xbe0c8e0a	-0.13726059
30	0x3e29a881	0.16568185
31	0xbd31c916	-0.04340466
32	0x3f2469d9	0.6422401
33	0xbd99f63c	-0.075176686
34	0xbccd9a7e	-0.025098082
35	0x3f0e9b65	0.55705863
36	0xba56ae27	-0.0008189403
37	0x3da4f82b	0.08055147
38	0xbe0c375d	-0.13692994
39	0x3eb249ae	0.34821838
40	0xbe0aab1b	-0.13541834
41	0xbef2409c	-0.47314918
42	0x3e61a680	0.22036171
43	0xbe2ceb02	-0.16886523
44	0x3f4af076	0.79273164
45	0xbe4f9ce3	-0.20274691
46	0xbe241f63	-0.16027598
47	0x3e584a65	0.2112213
48	0xbf147e59	-0.5800529
49	0xbe1ecdf5	-0.15508254
50	0xbf591e15	-0.84811527
51	0x3eaf1acd	0.34200135
52	0xbdefca13	-0.117084645
53	0xbf4f594c	-0.8099563
54	0x3e7d94c2	0.24763778
55	0x3cb539ec	0.022122346
56	0xbdd980b7	-0.106202535
57	0xbe32ee0a	-0.17473617
58	0xbd0b2471	-0.0339703
59	0xbf0640e5	-0.5244277
60	0xbf2f1998	-0.6839843
61	0xbd1fb22a	-0.03898827
62	0xbfa43880	-1.2829742
63	0xbeea135c	-0.45717895
64	0xbe263176	-0.16229805
65	0x3ea030fb	0.3128737
66	0xbe9986a4	-0.29985535
67	0x3d6cc1c1	0.057801966
68	0x3e9951b5	0.2994515
69	0x3e2c88b3	0.16849022
70	0xbd55e305	-0.052218456
71	0x3e7bd0ef	0.2459142
72	0xbc573857	-0.013135991
73	0x3e6af96d	0.22946711
74	0x3e2d6fe9	0.16937222
75	0xbe495804	-0.19662482
76	0x3e85f5d2	0.2616411
77	0xbe4c700e	-0.1996462
78	0x3f413e9f	0.7548618
79	0x3e017668	0.12642825
80	0xbde5ec07	-0.11226659
81	0x3f078ee0	0.52952385
82	0xbcd7c692	-0.026339803
83	0xbc921ff1	-0.017837496
84	0xbdd61e41	-0.10454989
85	0x3dd43d2c	0.1036323
86	0xbd0b1756	-0.0339578
87	0xbf89e04a	-1.0771573
88	0xbd526c66	-0.051372908
89	0xbcdb7bfc	-0.026792519
90	0x3f37951d	0.71711904
91	0xbde91cd1	-0.113824494
92	0xbe93f1fd	-0.2889556
93	0x3f53140b	0.8245246
94	0xbe25c185	-0.16187103
95	0xbe1f9d85	-0.15587433
96	0x3e148b97	0.14506374
97	0x3c9e3c66	0.01931591
98	0xbe21dff0	-0.15808082
99	0xbeebfb17	-0.46090004
100	0xbdb6c2ea	-0.08923896
101	0xbdc0a207	-0.09405904
102	0x3f2bb328	0.67070246
103	0xbea6d4d9	-0.32584265
104	0xbf01afb1	-0.5065871
105	0x3f265e14	0.649873
106	0xbeaf5dd3	-0.3425127
107	0x3d7450f4	0.059647515
108	0x3e45855e	0.19289157
109	0x3d95d033	0.073151015
110	0x3eb35c17	0.35031196
111	0xbf070827	-0.52746814
112	0x3e13d02e	0.14434883
113	0x3ecb13bc	0.39663494
114	0x3f09993f	0.5374946
115	0xbf01f997	-0.5077147
116	0xbf11d2ff	-0.5696258
117	0x3e641b7e	0.22276112
118	0xbea3cc34	-0.31991732
119	0xbe95649e	-0.29178327
120	0xbedd5274	-0.4322697
121	0xbc077f8a	-0.008270154
122	0xbe5fc035	-0.21850665
123	0xbf9b75ba	-1.2145302
124	0x3e98d595	0.2985045
125	0xbeab8ebe	-0.3350734
126	0x3e608258	0.21924722
127	0xbeba0779	-0.36333826
128	0xbee126c6	-0.43974894
129	0x3edc40bb	0.43018135
130	0xbe8c6359	-0.27419546
131	0x3e8ba76a	0.27276164
132	0x3ea23228	0.3167889
133	0x3ce35ce3	0.027754253
134	0x3dcca649	0.09992654
135	0x3e226458	0.1585859
136	0xbc8e29a4	-0.01735384
137	0xbdb407a9	-0.087905236
138	0xbf096980	-0.53676605
139	0x3e4baf17	0.1989101
140	0xbe8f906e	-0.2803988
141	0xbe9c7f7e	-0.3056602
142	0x3e67a1a8	0.2262026
143	0xbd7d3a66	-0.06182327
144	0xbccf01e7	-0.025269462
145	0x3de3020f	0.11084377
146	0xbe722c12	-0.23649624
147	0x3e30f6b2	0.17281607
148	0xbe86ba95	-0.26314226
149	0xbe1a3c92	-0.15062168
150	0x3f253ecc	0.64548945
151	0xbf361309	-0.71122795
152	0x3ef0e9b7	0.4705331
153	0xbef12d6f	-0.47104976
154	0x3f02bdf0	0.5107107
155	0x3b4f0b56	0.003159245
156	0xbef87fec	-0.48535097
157	0x3ee22ef9	0.44176462
158	0x3ee09b3b	0.4386843
159	0xbf860d63	-1.0472835
160	0x3f11f20c	0.5700996
161	0x3e85ad0e	0.26108593
162	0xbfb7ecdf	-1.4369162
163	0x3f5bacdb	0.8581063
164	0x3e078c3f	0.13237093
165	0xbf117fd3	-0.5683567
166	0x3ec5033c	0.3847903
167	0xbafe73fa	-0.0019413226
168	0xbed4fcea	-0.41599208
169	0x3ecea9f9	0.40364054
170	0xbec7d04e	-0.3902611
171	0x3daea6c2	0.085279
172	0x3e701b7b	0.23447983
173	0xbeef8510	-0.46781206
174	0x3dc9cd9b	0.09853669
175	0xbcd0fc4c	-0.02551093
176	0xbeb6d7a2	-0.3571139
177	0xbee35834	-0.4440323
178	0x3ee661fe	0.44996637
179	0x3de20f77	0.11038106
180	0xbe669e48	-0.22521317
181	0x3e855baf	0.26046512
182	0xbe279469	-0.16365208
183	0x3ee3010f	0.44336745
184	0xbeaf37d5	-0.34222284
185	0xbdceabda	-0.10091372
186	0x3f58f33f	0.84746164
187	0xbf71f43f	-0.94513315
188	0x3e83cbcf	0.2574143
189	0x3dbcb461	0.09214092
190	0xbd7fdbdc	-0.062465534
191	0x3cdd2202	0.026993755
192	0x3c123829	0.008924522
193	0xb98a59e3	-0.00026388382
194	0x3d9a9671	0.07548226
195	0x3d95d37a	0.073157266
196	0xbced696d	-0.028980935
197	0x3c294524	0.010331426
198	0xbd4e97c7	-0.050437715
199	0xbdc79fd3	-0.09747281
200	0xbd86833c	-0.06568
201	0x3d8ec630	0.06971395
202	0x3cd9a4f8	0.026567921
203	0xbc0117b8	-0.00787919
204	0xbdb9673d	-0.09052894
205	0x3b629947	0.0034576224
206	0x3dd2f58c	0.103007406
207	0xbd43a0f1	-0.047760908
208	0xbdd45027	-0.1036685
209	0x3dbc1e68	0.09185487
210	0x3be669dd	0.007031663
211	0x3dca6804	0.09883121
212	0x3e0ad9ca	0.13559642
213	0x3d67012a	0.056397595
214	0xbd4eea80	-0.050516605
215	0x3df15f37	0.11785739
216	0xbd0fdd6c	-0.035123274
217	0xbd52d662	-0.051473983
218	0x3dcec7cd	0.10096703
219	0x3dd788c2	0.10524131
220	0x3db2028b	0.08691891
221	0xbe0b6989	-0.13614477
222	0xbdd02571	-0.101633914
223	0xbe006e9e	-0.12542197
224	0x3d41fbe0	0.047359347
225	0xbb1cc356	-0.002392014
226	0xbc46201c	-0.012092616
227	0xbd9530f4	-0.07284728
228	0x3d4261e4	0.047456637
229	0xbde5334b	-0.11191424
230	0x3d1f8f27	0.03895488
231	0x3da480f3	0.080324076
232	0xbdbb1422	-0.091346994
233	0x3dfb9c10	0.12285626
234	0xbcfc831c	-0.030824237
235	0xbda5c62b	-0.08094438
236	0xbdace9a2	-0.084429994
237	0xbdedd285	-0.11612419
238	0x3d32e56f	0.043675836
239	0xbd8432b1	-0.06454981
240	0x3d47856b	0.04871122
241	0xbdae03b1	-0.08496798
242	0x3da1dfc3	0.07904007
243	0xbdfa666e	-0.12226568
244	0x3db8a278	0.090153635
245	0xbc967db4	-0.018370487
246	0x3d061a57	0.032739963
247	0x3d4f5079	0.050613854
248	0xbd1aa563	-0.03775538
249	0xbdddbfca	-0.108275965
250	0xbde9dc5f	-0.114189856
251	0x3dffb57b	0.124857865
252	0x3b47a774	0.00304648
253	0xbd896b5a	-0.06709929
254	0x3d7463a5	0.05966534
255	0xbdc81621	-0.09769846

fc1.bias f4 [128]
0	0x3e2f32b6	0.17109188
1	0xbe0d451c	-0.13795894
2	0xbe0035cf	-0.12520526
3	0xbdb31877	-0.08744901
4	0xbdb688e7	-0.08912831
5	0xbe2ff703	-0.17184071
6	0xbda80b90	-0.0820533
7	0xbde178f4	-0.11009398
8	0x3e886899	0.26642302
9	0xbe254f58	-0.16143548
10	0xbea9a68c	-0.33134878
11	0xbf14188d	-0.5784996
12	0xbb8e55eb	-0.0043437383
13	0xbdb113b2	-0.08646335
14	0x3bfaf555	0.0076586404
15	0xbdb01a93	-0.08598819
16	0x3d797294	0.060900286
17	0xbe7ae42a	-0.245011
18	0xbee9198b	-0.455273
19	0x3c177c20	0.009245902
20	0x3ddf4332	0.10901488
21	0x3dc5936f	0.09647261
22	0x3b9f44ca	0.004860495
23	0xbd54bd75	-0.051938493
24	0x3d0d7db3	0.034543704
25	0xbd8814a6	-0.066445634
26	0x3e9fefcc	0.31237638
27	0xbe60fbab	-0.21971004
28	0xbef5ffb9	-0.48046663
29	0xbe9daf86	-0.30797976
30	0xbebc80bc	-0.36816967
31	0x3ea64da0	0.32481098
32	0xbe049523	-0.12947516
33	0xbef9ece9	-0.4881356
34	0xbefdc401	-0.49563602
35	0xbd61b358	-0.055102676
36	0xbe88e625	-0.26738086
37	0xbdae2236	-0.08502619
38	0x3ef8f2cd	0.48622742
39	0xbdf61d12	-0.120172635
40	0xbeb0b07b	-0.34509644
41	0x3e89ed88	0.26939034
42	0xbe6feb08	-0.23429501
43	0x3e4e9ca5	0.20176943
44	0xbd952b25	-0.0728362
45	0x3df4e238	0.1195721
46	0xbe9fcd7e	-0.31211466
47	0xbe73cef0	-0.23809409
48	0x3d8cb750	0.068709016
49	0xbd4d2f73	-0.05009408
50	0xbf15402c	-0.58301044
51	0xbe3d9ba8	-0.1851641
52	0xbdc0875f	-0.0940082
53	0x3dd18cfd	0.102319695
54	0x3e55d3b8	0.20881546
55	0xbd6d0291	-0.057863776
56	0xbea888c6	-0.3291685
57	0x3e03d5f5	0.12874587
58	0xbde96087	-0.11395364
59	0xbebb9e9f	-0.36644456
60	0xbe5d306c	-0.21600503
61	0xbe4b8e4d	-0.19878502
62	0xbe6bca1e	-0.2302632
63	0xbd4ca0fa	-0.049958207
64	0xbdb011b0	-0.085971236
65	0xbc78ff9e	-0.015197663
66	0x3eb25c7c	0.34836185
67	0x3cef49c0	0.029209971
68	0xbe74d8d7	-0.23910843
69	0xbc9f215c	-0.019425087
70	0xbe2c530b	-0.16828553
71	0x3e865bc1	0.26241878
72	0xbec34d1d	-0.3814477
73	0x3eb0af8d	0.34508935
74	0x3e321c76	0.1739367
75	0x3ebe8685	0.37212005
76	0x3e346a35	0.1761864
77	0xbc2074b0	-0.0097934455
78	0x3d009eac	0.03140132
79	0xbe1ce810	-0.153229
80	0xbe562373	-0.2091196
81	0xbdd2bdfc	-0.10290143
82	0xbe0ebcf5	-0.13939269
83	0xb89d7d80	-7.5097196e-05
84	0xbcac28f4	-0.021015622
85	0x3ddfba1c	0.109241694
86	0x3d5d4f63	0.054030787
87	0xbe3f0c8a	-0.18657127
88	0xbe293c35	-0.16526873
89	0x3e6f1002	0.2334595
90	0x3db5f592	0.088847294
91	0xbd189259	-0.037248943
92	0x3efb888e	0.4912762
93	0x3dd5f802	0.10447694
94	0x3dc43324	0.09580067
95	0xbe5632c5	-0.20917805
96	0xbe4aeee1	-0.19817688
97	0xba8934c3	-0.0010467995
98	0xbe03b51f	-0.12862061
99	0xbe1e87a6	-0.15481433
100	0xbe2c6a54	-0.16837436
101	0xbcebb01f	-0.028770505
102	0xbd87291d	-0.065996386
103	0x3dbada92	0.0912372
104	0xbd9c5175	-0.07632724
105	0xbe9d44f4	-0.3071667
106	0xbf3595dc	-0.7093179
107	0x3c2eda4d	0.010672164
108	0xbf28bf85	-0.65917236
109	0x3dee0325	0.116216935
110	0x3de2173d	0.110395886
111	0xbea78d4a	-0.32724983
112	0xbdd7db6a	-0.10539897
113	0x3e735ab5	0.2376507
114	0xbe033065	-0.1281143
115	0xbe7947b3	-0.24343757
116	0xbdbcaa9e	-0.0921223
117	0xbe89471a	-0.2681206
118	0xbee011bd	-0.43763533
119	0x3e505cf3	0.20347957
120	0xbf213a70	-0.62979794
121	0x3e82860e	0.254929
122	0xbd0b18b9	-0.033959124
123	0x3dc0920e	0.09402858
124	0xbdb000c9	-0.085939
125	0xbdae7d0e	-0.08519946
126	0xbdf5e305	-0.12006191
127	0x3e32b821	0.17453052

fc2.weight f4 [128, 128]
0	0xbdda93a6	-0.10672693
1	0x3e19e3b1	0.15028264
2	0x3eb8d513	0.36100063
3	0xbc830cd5	-0.01599733
4	0x3d6cfff6	0.05786129
5	0xbda55bc6	-0.08074145
6	0x3d602b52	0.054728813
7	0x3ceca76d	0.028888429
8	0xbd45fe6e	-0.048338346
9	0x3e7fbdba	0.24974719
10	0x3d99b91b	0.07506009
11	0xbce43467	-0.027857019
12	0xbed44c1a	-0.4146431
13	0xbec3f8a9	-0.3827565
14	0xbe4fdccd	-0.20299073
15	0xbd83f9e7	-0.064441495
16	0xbe4c5d27	-0.1995741
17	0xbdf2fd8d	-0.11864767
18	0x3de8a568	0.11359674
19	0x3da9322d	0.082615234
20	0x3b8de573	0.004330331
21	0xbb36a1b0	-0.002786737
22	0x3daa078d	0.083022214
23	0xbd96efc7	-0.07369953
24	0xbec8770a	-0.3915332
25	0x3b08c039	0.0020866527
26	0xbd1a6adb	-0.03769956
27	0x3dde61ac	0.10858473
28	0xbe6a61b8	-0.22888839
29	0xbdc4bb93	-0.096060894
30	0x3e29da70	0.16587234
31	0xbef70fc8	-0.48254228
32	0xbdea4511	-0.114389546
33	0xbea61e55	-0.32445017
34	0x3cfd4fce	0.030921843
35	0xbc3fadb0	-0.011699125
36	0xbd3db8b6	-0.046318732
37	0xbe101669	-0.14071049
38	0xbdc9116b	-0.09817775
39	0x3d897611	0.067119725
40	0x3e77d6ca	0.2420303
41	0xbdd1797f	-0.10228252
42	0xbca1187d	-0.019664997
43	0x3dde298c	0.10847768
44	0x3ddf51c8	0.109042704
45	0xbe8736b3	-0.2640892
46	0xbde84b2c	-0.11342463
47	0x3c0aa78e	0.0084628
48	0x3db68337	0.08911746
49	0xbe7f4dce	-0.24932024
50	0x3e771f81	0.24133112
51	0xbddb2e0d	-0.10702143
52	0x3ea24638	0.31694198
53	0x3e473650	0.19454312
54	0xbdccf8a1	-0.1000836
55	0x3d446eb8	0.047957152
56	0xbd4fe98f	-0.05075985
57	0x3e69dafe	0.22837445
58	0xbd860bbd	-0.06545208
59	0xbe943943	-0.28949937
60	0xbe48dea4	-0.1961618
61	0x3e3c399e	0.18381354
62	0xbe061e59	-0.13097514
63	0x3e0c80e5	0.13721044
64	0xbd41926f	-0.04725879
65	0xbd9add0a	-0.07561691
66	0xbe70b222	-0.23505452
67	0xbd756906	-0.05991461
68	0x3d8e3db7	0.06945365
69	0xbb85632c	-0.00407066
70	0x3d2babc4	0.041911855
71	0xbbf5f8f0	-0.0075064823
72	0x3dff4912	0.12465109
73	0x3cb1ec90	0.021719247
74	0x3e883e65	0.26610103
75	0x3d452272	0.048128553
76	0x3e1a2427	0.15052854
77	0x3e01547c	0.12629884
78	0xbdf61b1f	-0.12016892
79	0xbd1a2e2c	-0.03764169
80	0xbd6458ff	-0.055748936
81	0xbd8da37f	-0.0691595
82	0x3e1de6e7	0.15420114
83	0xbe3793fd	-0.17927547
84	0x3ddff213	0.10934844
85	0x3e271b10	0.16318917
86	0xbe9d7c54	-0.30758917
87	0xbcf2d906	-0.0296445
88	0x3cf0a82c	0.029377066
89	0x3e075f2f	0.13219903
90	0x3d91180c	0.07084665
91	0xbe921c23	-0.28537092
92	0xbe183927	-0.14865552
93	0x3cea1751	0.028575571
94	0x3d2c9334	0.04213257
95	0xbdbfa308	-0.093572676
96	0xbd85694c	-0.065142244
97	0x3e3a283e	0.18179414
98	0xbd90178e	-0.07035743
99	0x3db324d5	0.087472595
100	0xbe9241f2	-0.28565937
101	0x3d4f0c33	0.050548743
102	0xbcf6b4f1	-0.030115576
103	0xbd7d5fd2	-0.06185896
104	0xbe8c7ad6	-0.27437466
105	0x3e9e0341	0.30861858
106	0xbe0241b0	-0.1272037
107	0x3d2dcce0	0.042431712
108	0x3dc65a3f	0.09685182
109	0xbdc1e297	-0.09467047
110	0xbdac16c6	-0.08402781
111	0xbdcced80	-0.10006237
112	0x3d8640b3	0.06555309
113	0xbd861e23	-0.06548717
114	0x3db34a11	0.087543614
115	0x3d6e295d	0.058144916
116	0x3ed76795	0.42071214
117	0x3d4b42cd	0.049624253
118	0xbdb3189e	-0.0874493
119	0xbcf2cabc	-0.029637687
120	0x3e67d1c2	0.2263861
121	0x3e1d5e0d	0.15367909
122	0xbd8539f6	-0.06505196
123	0xbdc4e109	-0.096132345
124	0x3d557f7e	0.05212354
125	0x3e2c46c6	0.16823873
126	0xbca54211	-0.020173104
127	0xbe828e12	-0.25499016
128	0x3e24e4b9	0.16102876
129	0x3dac2b6e	0.08406721
130	0x3d9f920a	0.077915266
131	0x3ccb7ca0	0.0248397
132	0x3dac2f10	0.08407414
133	0xbd53d9ca	-0.05172137
134	0xbd43adb5	-0.04777308
135	0xbd749c17	-0.05971917
136	0xbe8c15ff	-0.27360532
137	0xbcd50bd8	-0.026006624
138	0xbd9c5bd6	-0.07634704
139	0x3d3de3f6	0.04635998
140	0x3ec524ad	0.38504544
141	0x3eb1d25f	0.34730813
142	0x3e16274e	0.14663431
143	0xbdbddbce	-0.0927044
144	0x3e864ff4	0.26232874
145	0xbe2c716d	-0.16840144
146	0x3e463f68	0.19360125
147	0x3da873a5	0.082251824
148	0xbddb173e	-0.106977925
149	0xbddfd86c	-0.10929951
150	0xbd9f6802	-0.0778351
151	0x3d8e7e01	0.06957627
152	0x3c8ae92e	0.016956892
153	0xbe0776e9	-0.13228954
154	0x3e62dcec	0.22154588
155	0xbdd2d559	-0.10294599
156	0x3e48f55b	0.19624846
157	0xbdaf4b45	-0.085592784
158	0xba66c558	-0.000880321
159	0x3e3da188	0.1851865
160	0xbd573ad2	-0.05254633
161	0x3e040294	0.12891608
162	0x3dac79c0	0.084216595
163	0xbd1be1cc	-0.038057134
164	0xbd275327	-0.040850785
165	0xbd2f1e17	-0.042753305
166	0x3d4f5b6e	0.050624304
167	0xbbfb34b0	-0.007666193
168	0x3e5fa933	0.21841888
169	0x3e243d9d	0.16039129
170	0xbb401298	-0.0029307958
171	0xbd1e520c	-0.038652465
172	0xbc4f69f6	-0.01265954
173	0x3e06409f	0.13110588
174	0xbde3c752	-0.11122002
175	0xbe916a81	-0.2840157
176	0xbe8999f2	-0.26875263
177	0x3e9e4756	0.309138
178	0x3d455b1f	0.048182603
179	0xbe5f1479	-0.21785153
180	0x3ddfc53e	0.10926293
181	0xbdb1c90c	-0.08680925
182	0xbd8d687c	-0.069046944
183	0xbd651ce5	-0.05593576
184	0x3e84bf7c	0.2592734
185	0x3e0143a4	0.12623459
186	0xbcad46b3	-0.021151876
187	0x39fa9254	0.0004779274
188	0xbcbfb919	-0.023403691
189	0xbddbcee9	-0.10732824
190	0xbdfc73e1	-0.1232679
191	0xbe4da377	-0.20081888
192	0xbe2e83ed	-0.17042513
193	0xbd28c6ab	-0.04120509
194	0xbe45274c	-0.19253272
195	0x3d35388a	0.044243373
196	0xbdcb0b5c	-0.09914276
197	0x3d3e92cb	0.04652671
198	0xbd2e7a5f	-0.04259717
199	0xbdb3a9c5	-0.08772615
200	0xbd00aa11	-0.031412188
201	0xbd0021bc	-0.03128217
202	0xbded264c	-0.1157957
203	0x3d5493e0	0.051898837
204	0x3d96e04b	0.07366999
205	0xbe411fbd	-0.18859763
206	0xbc47ca09	-0.012194165
207	0x3b376fc2	0.0027990197
208	0x3da2a356	0.0794131
209	0xbd0ccb66	-0.034373663
210	0x3d1b1cfa	0.03786943
211	0x3e47f4cc	0.19526976
212	0xbdd56be9	-0.10420973
213	0xbe7c8de7	-0.24663506
214	0x3d5032f1	0.05082983
215	0xbbc13f8a	-0.005897467
216	0x3da2d354	0.07950464
217	0x3c81ab95	0.015828887
218	0xbd46e1fa	-0.04855535
219	0x3ce77d8d	0.02825811
220	0xbdece299	-0.115666576
221	0xbe136ff3	-0.14398174
222	0xbeb97e71	-0.3622928
223	0x3e9f967e	0.31169504
224	0x3e94805e	0.29004186
225	0xbc4cf16b	-0.01250873
226	0x3e53814c	0.20654792
227	0x3de7dfce	0.11321984
228	0x3e5f8176	0.21826729
229	0xbe278ea5	-0.16363008
230	0xbdb0ffbe	-0.08642529
231	0xba0a3600	-0.0005272329
232	0x3e4fa11e	0.20276305
233	0xbe1750db	-0.14776938
234	0x3e33ecbb	0.17570774
235	0x3c93f2f6	0.018060189
236	0x3d21eb89	0.039531264
237	0xbdc53e24	-0.09630993
238	0x3dee4f77	0.116362505
239	0xbc1e55b2	-0.009663986
240	0x3c487348	0.012234516
241	0xbe5f01f1	-0.21778084
242	0xbdc69a43	-0.09697392
243	0x3dda3c5b	0.10656043
244	0xbdb64f8c	-0.08901891
245	0xbd8fa7d6	-0.07014434
246	0x3d8ca2e3	0.06867006
247	0x3e2360bf	0.15954874
248	0x3d5ef7f0	0.05443567
249	0xbe2cefca	-0.16888347
250	0x3d288bdd	0.04114901
251	0x3daba66d	0.083813526
252	0x3b8b1b54	0.004245201
253	0x3dda9918	0.106737316
254	0x3c9db2b0	0.019250244
255	0x3d6d9293	0.058001112

fc2.bias f4 [128]
0	0x3d542fbd	0.05180334
1	0x3e89d336	0.26918954
2	0x3dff75fd	0.12473676
3	0x3e8fdd7d	0.2809867
4	0xbeac9743	-0.33709154
5	0xbddf60ab	-0.1090711
6	0xbe1b940c	-0.15193194
7	0x3db8908f	0.09011947
8	0x3e2e9454	0.1704877
9	0xbe37e8aa	-0.17959848
10	0x3e76dc13	0.24107389
11	0x3c00a159	0.007850968
12	0x3eb4160b	0.35173067
13	0xbd364628	-0.0445005
14	0xbca1a65f	-0.019732652
15	0x3e8d3fa5	0.2758762
16	0x3f41a65f	0.7564449
17	0xbe3c1985	-0.1836911
18	0xbdeda071	-0.116028674
19	0xbe4248b4	-0.18973047
20	0xbd86933d	-0.06571052
21	0x3d99ae6c	0.075039715
22	0x3db0ef80	0.08639431
23	0x3d7b03d9	0.061282966
24	0x3da6160b	0.08109673
25	0x3b355a3b	0.002767219
26	0x3d85b79f	0.065291636
27	0xbd0f209b	-0.034943204
28	0xbddd4616	-0.108043835
29	0x3e8a221a	0.26979142
30	0xbd19a44a	-0.037510194
31	0x3cbca92b	0.023029884
32	0x3ed8e7e3	0.42364416
33	0xbe4510f9	-0.19244756
34	0xbcb80fd3	-0.022468483
35	0xbf03189d	-0.5120943
36	0xbf00d362	-0.50322545
37	0x3d065bc3	0.032802355
38	0xbda4b1e3	-0.08041742
39	0x3e9b090b	0.30280337
40	0xbe0ec15d	-0.1394095
41	0x3e2bb075	0.16766532
42	0x3cde42b7	0.027131421
43	0x3e12a318	0.14320028
44	0xbe935573	-0.2877613
45	0xbd886178	-0.06659216
46	0x3d3838df	0.04497611
47	0x3e4da298	0.20081556
48	0x3d3f02f3	0.046633672
49	0x3ef07224	0.46962082
50	0x3e9d5e4d	0.30736008
51	0x3e83f7c9	0.25774983
52	0xbe421801	-0.1895447
53	0x3e084b49	0.13309969
54	0xbcb10182	-0.021607164
55	0xbd991679	-0.074749894
56	0xbe3b87a9	-0.18313469
57	0xbd90620b	-0.0704995
58	0x3e35bae7	0.17747079
59	0xbe2f4e86	-0.17119798
60	0x3e434c14	0.1907199
61	0x3d5ab433	0.053394508
62	0x3ec92109	0.39283016
63	0xbd506796	-0.050880037
64	0x3e64e0b6	0.22351345
65	0x3e0ac8d6	0.13553175
66	0xbd220fb0	-0.039565742
67	0x3e07fe8d	0.13280697
68	0x3e6184d5	0.22023328
69	0xbe80d18f	-0.2515988
70	0xbec59e8e	-0.3859753
71	0x3e9f54e0	0.31119442
72	0x3d834a21	0.06410623
73	0xbddaa29e	-0.10675548
74	0x3dff3cee	0.12462793
75	0xbe9ae126	-0.302499
76	0xbe339fac	-0.17541379
77	0xbee6af97	-0.4505584
78	0xbde1da8a	-0.11028011
79	0xbebab05f	-0.36462685
80	0xbe161593	-0.14656667
81	0x3ddb1d7b	0.10698982
82	0xbedb6daa	-0.42857105
83	0xbe8eca25	-0.278886
84	0x3dd92efe	0.10604666
85	0xbd0312f3	-0.032000493
86	0xbd8eba18	-0.06969088
87	0x3dce6a66	0.10078888
88	0x3dd7d05e	0.1053779
89	0xbe399ceb	-0.18126266
90	0xbf2b0efa	-0.6681973
91	0xbe3fe2bf	-0.1873884
92	0x3e6b5507	0.22981654
93	0xbe656290	-0.2240088
94	0xbef130e7	-0.47107622
95	0x3e6e5bd2	0.23277214
96	0xbe4ab71b	-0.19796412
97	0x3e88512d	0.26624432
98	0x3da7b7fb	0.08189388
99	0xbe2af0d3	-0.1669343
100	0x3e1d0746	0.15334806
101	0xbd9e8e4c	-0.07741985
102	0xbe0786d0	-0.1323502
103	0xbe524b12	-0.2053645
104	0x3e006b0b	0.12540834
105	0x3d6c17f5	0.057640035
106	0x3d01a131	0.031647865
107	0x3db8cb95	0.09023205
108	0x3e2efe09	0.17089094
109	0x3e09f31e	0.13471648
110	0x3e15fbdd	0.1464686
111	0xbd904815	-0.070449986
112	0x3ec8aa6d	0.39192525
113	0x3dca6084	0.0988169
114	0xbd28d728	-0.041220814
115	0x3d438a00	0.04773903
116	0x3db711de	0.08938955
117	0x3e20c786	0.15701112
118	0x3d8ce689	0.068799086
119	0x3d360700	0.04444027
120	0xbd8cb025	-0.068695344
121	0x3e365ba1	0.17808391
122	0x3e26017c	0.16211504
123	0x3d1105c7	0.0354059
124	0xba656142	-0.0008750149
125	0x3e94ea64	0.29085076
126	0xbefc5130	-0.4928069
127	0x3dec57f8	0.11540216

fc3.weight f4 [10, 128]
0	0x3ecbf345	0.39834037
1	0x3e92d20e	0.28675884
2	0x3db52e6b	0.08846744
3	0xbe8184fa	-0.25296766
4	0xbf02c042	-0.5107461
5	0x3e34cfde	0.1765742
6	0x3e7121bc	0.23548025
7	0x3e9ac08c	0.30225027
8	0x3e84b0eb	0.25916228
9	0x3c07e4d5	0.008294304
10	0xbe7dfb40	-0.24802876
11	0xbdc36f21	-0.095426805
12	0x3eaea3d9	0.3410938
13	0xbe9a4518	-0.3013084
14	0x3d4ef284	0.05052425
15	0xbf12be02	-0.5732118
16	0xbec614bc	-0.38687694
17	0x3e2ab414	0.16670257
18	0x3d0f9a6a	0.03505937
19	0xbeae799c	-0.34077156
20	0x3e5b097b	0.21390335
21	0xbcee0fbb	-0.029060235
22	0xbe5f4088	-0.2180196
23	0xbe3f9555	-0.1870931
24	0xbc5a5732	-0.013326453
25	0xbe1a33d5	-0.15058835
26	0x3e943af4	0.28951228
27	0x3db3ee48	0.08785683
28	0x3d225f04	0.039641395
29	0x3e65e5e5	0.22450979
30	0x3ea0e97e	0.3142814
31	0x3e50e752	0.20400742
32	0xbe342344	-0.17591578
33	0x3d29969c	0.041403398
34	0x3e192d41	0.14958669
35	0x3e76b746	0.24093351
36	0x3eb2630c	0.34841192
37	0x3dd8ef9e	0.10592578
38	0xbdc5ef59	-0.096647926
39	0xbd9399a2	-0.072070375
40	0xbdabee9b	-0.0839512
41	0x3ef68461	0.48147872
42	0xbf231352	-0.63701355
43	0xbf0d4f4f	-0.5519914
44	0x3f0e68f2	0.55628884
45	0xbd6c7296	-0.057726465
46	0x3eaa60fa	0.33277112
47	0xbf077b40	-0.5292244
48	0xbe1ddf17	-0.15417133
49	0x3e9f9756	0.31170148
50	0x3db54e93	0.088528775
51	0xbe53b11a	-0.20673028
52	0xbe43cd0b	-0.19121186
53	0xbc6724e1	-0.014107914
54	0xbed3f9bb	-0.41401467
55	0x3adcdb49	0.001685002
56	0x3f367f22	0.7128774
57	0x3e217fc3	0.15771393
58	0xbf11869f	-0.5684604
59	0x3ebdcdd4	0.37071097
60	0x3cd3e198	0.025864407
61	0xbe9bc46a	-0.3042329
62	0xbe7c5e7e	-0.24645421
63	0x3e96b04c	0.2943138
64	0x3e0288b2	0.12747458
65	0xbdfed092	-0.124421254
66	0x3e9c2387	0.30495855
67	0x3e3011ac	0.17194241
68	0x3de72066	0.112854764
69	0xbe9896bc	-0.298025
70	0xbe196777	-0.14980875
71	0xbf0a2285	-0.5395892
72	0x3ed321b1	0.41236642
73	0xbce05d3b	-0.027388206
74	0x3e86c74c	0.26323926
75	0xbd0047f5	-0.031318624
76	0x3f378489	0.7168661
77	0x3ee7eb0a	0.45296508
78	0x3e4784ac	0.19484204
79	0x3ee73027	0.45153925
80	0x3e8c3949	0.27387455
81	0xbe025e76	-0.12731346
82	0xbe5410f3	-0.2070959
83	0x3e3ebddc	0.18627113
84	0xbdde5d4f	-0.10857641
85	0x3e0a3b54	0.13499194
86	0x3c80f62d	0.015742386
87	0x3e6dbb98	0.23216093
88	0xbd7a255d	-0.06107079
89	0x3eb0b3f2	0.34512287
90	0xbd891d1e	-0.06695007
91	0xbd2f6ff7	-0.042831387
92	0xbda00d89	-0.078150816
93	0x3de2ca9d	0.11073802
94	0x3dcdc5bd	0.10047481
95	0x3e1c7e0c	0.15282458
96	0x3d55aa9a	0.05216465
97	0xbe1eac88	-0.15495503
98	0xbddfc54d	-0.10926304
99	0xbe6d61cc	-0.23181838
100	0x3ebb6814	0.36602843
101	0xbe92dfbb	-0.28686318
102	0x3ed80a95	0.42195573
103	0xbe35a1ec	-0.1773755
104	0x3d420e1b	0.047376733
105	0xbddac14e	-0.10681401
106	0x3dcc15a5	0.09965066
107	0xbda6611c	-0.08123991
108	0x3e04a08a	0.12951866
109	0xbed088c9	-0.4072936
110	0x3e9d84fe	0.30765527
111	0xbe3abc87	-0.1823598
112	0xbeb99a05	-0.3625032
113	0x3da53d19	0.08068294
114	0x3ea4fd5e	0.32224554
115	0x3efd3630	0.49455404
116	0x3ea24dda	0.3170002
117	0xbe8c07ff	-0.2734985
118	0x3e309d6f	0.17247556
119	0x3e482385	0.195448
120	0x3d47d30f	0.048785266
121	0xbe69aa25	-0.22818811
122	0x3eaec418	0.34133983
123	0xbe59abdd	-0.21256967
124	0x3ee2f888	0.4433024
125	0xbdc57a1c	-0.09642431
126	0xbe965e7f	-0.2936897
127	0xbe9941db	-0.29933056
128	0x3d824824	0.06361416
129	0x3f16d921	0.5892506
130	0x3e912ec6	0.28355998
131	0x3e0c88a0	0.13723993
132	0xbe7657c8	-0.24056923
133	0xbe65eed2	-0.22454384
134	0xbe3650b0	-0.17804217
135	0x3d7a9b55	0.061183292
136	0xbec3b171	-0.38221315
137	0xbe68ca89	-0.22733511
138	0xbf371ace	-0.71525276
139	0xbe8538d3	-0.26019916
140	0x3eb1b254	0.34706366
141	0x3f00a6ca	0.502545
142	0xbd98a37a	-0.07453056
143	0xbf07ac05	-0.52996856
144	0x3f2306ac	0.63682055
145	0xbe677800	-0.2260437
146	0x3e63827d	0.22217746
147	0x3eeb9226	0.4600994
148	0xbe98b528	-0.2982571
149	0xbe5ad599	-0.21370544
150	0xbcbeab40	-0.023275018
151	0x3ee7c884	0.4527017
152	0x3ac471f1	0.001498757
153	0xbe8a2f1c	-0.26989067
154	0xbdab7a1a	-0.083728984
155	0x3d227404	0.039661422
156	0xbe4cf60d	-0.20015736
157	0xbf05798a	-0.5213858
158	0xbdd08747	-0.10182052
159	0xbdb9811d	-0.090578295
160	0x3e8eac1f	0.27865693
161	0x3e523084	0.2052632
162	0xbad41255	-0.001617978
163	0x3e58701d	0.21136518
164	0x3ec526a1	0.38506034
165	0xbd06cd12	-0.032910414
166	0xbbfd6c1b	-0.0077338344
167	0x3e8ed127	0.27893946
168	0xbe82e366	-0.25564116
169	0x3c08163c	0.008306082
170	0x3f4085fa	0.7520443
171	0x3f105a9b	0.5638825
172	0xbe7ca3dd	-0.24671884
173	0x3cdeefd3	0.027213966
174	0x3d7d6611	0.061864916
175	0xbf119192	-0.5686275
176	0xbe5240b8	-0.205325
177	0x3f26550a	0.6497351
178	0x3eac2ff9	0.3363035
179	0xbd2f3039	-0.042770598
180	0xbe117a93	-0.14206915
181	0x3e6591ed	0.22418948
182	0x3de8f2f7	0.11374467
183	0xbe0d3c7a	-0.13792601
184	0x3e35217d	0.17688556
185	0xbde3bda2	-0.11120154
186	0xbf44f3f4	-0.7693474
187	0x3e718864	0.23587185
188	0xbf1da242	-0.6157571
189	0x3f38d0e0	0.7219372
190	0xbe127508	-0.14302456
191	0x3dc293da	0.09500857
192	0xbea61eaf	-0.32445285
193	0xbe039c6c	-0.12852639
194	0xbd880980	-0.06642437
195	0x3e8e564b	0.2780021
196	0x3e00f478	0.12593257
197	0xbebae187	-0.3650019
198	0x3e58297c	0.21109575
199	0xbd5bea02	-0.053689964
200	0x3e23a228	0.15979826
201	0x3cfac84a	0.030613083
202	0xbd0392a1	-0.032122258
203	0xbe22768a	-0.15865532
204	0x3e1359a9	0.14389671
205	0x3e81d12b	0.25354895
206	0xbda3b614	-0.07993713
207	0x3debd8f6	0.115159914
208	0xbd9b4a2c	-0.075825065
209	0xbdf5cee0	-0.12002349
210	0x3ec3ed86	0.38267154
211	0x3e59567e	0.212244
212	0x3efb5301	0.49086764
213	0x3dd1570b	0.1022168
214	0xbeb3ea1f	-0.35139558
215	0x3e29d717	0.16585957
216	0xbe091b0b	-0.13389222
217	0x3eac2781	0.3362389
218	0xbe92057e	-0.28519815
219	0xbe84ab80	-0.25912094
220	0xbd531ec7	-0.051543023
221	0xbe848f0c	-0.25890386
222	0xbe88ed14	-0.26743376
223	0x3c2cb170	0.010540351
224	0x3e9c905b	0.30578884
225	0x3e4e62e6	0.20154914
226	0xbd42b4b6	-0.04753562
227	0x3ecb6f0c	0.3973316
228	0x3dcdbcc7	0.10045772
229	0xbd6be494	-0.057591036
230	0xbd9422e2	-0.07233216
231	0xbee0d78a	-0.43914443
232	0xbd85188e	-0.06498824
233	0x3c68e6a0	0.014215142
234	0xbac247a3	-0.0014822375
235	0xbe9c5bd9	-0.30538824
236	0x3e29e301	0.16590501
237	0xbf06529a	-0.5246979
238	0x3d6c3596	0.05766829
239	0x3efba2a7	0.4914753
240	0x3f307f9c	0.68944716
241	0x3e1df54b	0.15425603
242	0x3d464ac0	0.04841113
243	0x3d7e66a0	0.06210959
244	0x3ee4daf5	0.446983
245	0x3f318f7a	0.6935955
246	0x3e971663	0.29509267
247	0x3de942aa	0.11389668
248	0xbdac329f	-0.08408093
249	0x3eec2b13	0.46126613
250	0xbe50bfc2	-0.2038565
251	0xbe5abacc	-0.2136032
252	0x3eaeca0d	0.34138528
253	0xbdc3df8a	-0.09564121
254	0x3f0d2e73	0.55149
255	0x3e91a1f6	0.2844388

fc3.bias f4 [10]
0	0xbed2343f	-0.41055486
1	0x3f929c2e	1.1453912
2	0xbcb943b4	-0.022615291
3	0xbe1440a3	-0.14477782
4	0x3d56d049	0.05244473
5	0xbed75ede	-0.42064565
6	0x3ef5d039	0.48010424
7	0x3f4c39d7	0.79775757
8	0xbec45af8	-0.38350654
9	0xbfa4e64e	-1.2882783
