ckpt/model_epoch15.pth (torch, 106247 bytes, 6 tensors)

fc1.weight f4 [128, 63]
000000 e1 06 a7 be 96 4c 46 bf 5d 9a 2b 3f 38 21 c3 bd
       -0.32622436 -0.7746061 0.67032415 -0.0952782
000010 ae 93 63 be 69 4c 64 3e 0b 90 2e 3c e4 2b c3 bd
       -0.22224304 0.22294773 0.01065446 -0.09529856
000020 0e ab af bd 06 06 54 bc e4 91 46 be 19 ca 3c be
       -0.08577548 -0.012940889 -0.1939159 -0.18436469
000030 9f bb 9c be e5 01 db bd d1 8e 8f be 70 c7 72 3d
       -0.30611894 -0.10693721 -0.28038648 0.05927223
000040 81 09 34 be 46 e3 09 3f c9 72 97 be cd c3 5d be
       -0.1758175 0.53862417 -0.29579762 -0.21656723
000050 d0 74 bc 3e 17 a5 51 3e 5b a0 f3 3e bd 3f ad be
       0.3680787 0.20473133 0.4758328 -0.3383769
000060 aa de 54 3e 30 2d 4b 3f a0 9f 3e bf 16 20 73 bc
       0.20788065 0.79365826 -0.7446232 -0.014839193
000070 98 e9 9d 3d 83 a2 9c 3e 8e e1 07 bf b7 23 95 bf
       0.0771057 0.30592737 -0.53078544 -1.1651524
000080 8a 4c 42 3f b2 72 80 be 89 26 0a bf 46 17 07 3f
       0.7589804 -0.25087506 -0.5396505 0.5276989
000090 e6 fd ba 3d f7 3f 09 3f 14 22 fc bd b9 49 50 3e
       0.091304585 0.5361323 -0.123111874 0.20340623
0000a0 a3 fb 09 3e 39 1b 0e bf 7d f4 fc be d5 73 b8 bf
       0.13474898 -0.5551029 -0.4940528 -1.4410349
0000b0 54 ad 73 3f bd 69 1a 3e 7e 33 a0 3e da 9c bf 3e
       0.9518635 0.15079398 0.31289285 0.37424356
0000c0 52 69 5d 3f b1 68 13 40 2e e7 5c bf 80 bd b7 3e
       0.8648883 2.3032649 -0.8629025 0.35886765
0000d0 67 c7 ec 3e d9 bd 9a bf fa 5d 4e be 67 ab 30 bf
       0.46245882 -1.2089187 -0.20153037 -0.6901154
0000e0 19 cb 78 be 09 d2 20 3d 7f 04 5c be 36 91 06 be
       -0.24296226 0.039262805 -0.2148609 -0.13141331
0000f0 37 51 b6 3e 49 79 72 3f f5 78 17 bf 74 1d b5 be
       0.35608837 0.94716316 -0.5916894 -0.35374033
000100 dc 82 ba bd 06 bf f4 3e 2b a0 ba bd 00 6c 64 be
       -0.09106991 0.4780199 -0.09112581 -0.22306824
000110 40 0d 9e 3f 6a ce b7 3e f2 38 39 be 7a 2d e3 3e
       1.2347794 0.3589967 -0.18088129 0.44370633
000120 1f ae c7 3e 5a 0c c6 3e bb 04 9b bf 46 cd f7 be
       0.3900003 0.38681298 -1.2110819 -0.483988
000130 20 ca a3 3f f8 1d 85 c0 df c9 d3 3d db 0e 5c 3e
       1.2796059 -4.1599083 0.10341238 0.21490042
000140 dc f8 45 bf 3c 8b 37 3d 9c cb a7 3e 04 2a 81 3e
       -0.77332854 0.04481052 0.3277253 0.25227368
000150 c5 fb c7 bd 1f 94 77 be 2a 36 5f 3f 94 66 23 3e
       -0.09764818 -0.24177597 0.8719202 0.15957099
000160 97 3b e1 be 13 4d 84 3f 23 6f 67 3e 42 b2 23 3e
       -0.43990776 1.0336021 0.22600989 0.15985969
000170 33 9d 7e bf 6e 6d 01 be d6 3d 73 3d a4 c6 cf 3e
       -0.99458617 -0.126394 0.059385143 0.40581238
000180 9e f5 9d be 8f f8 4d 3c 2d 9f 23 3f 7f f3 08 3e
       -0.30851454 0.012571468 0.6391476 0.13374136
000190 39 6b 01 3e e2 98 db 3d df 21 be 3d 76 57 ce bd
       0.12638558 0.107225195 0.09283804 -0.100752756
0001a0 47 5a 24 bf ac ee 3b 3d 7d b8 91 3c 66 dc 6c 3e
       -0.6420025 0.045881912 0.017788166 0.2313095
0001b0 1c 09 dc be da 67 ae be 8f 42 c4 3e f2 27 f7 be
       -0.429757 -0.34063607 0.3833203 -0.48272663
0001c0 1a 0d 13 bf 49 6f 22 bf 81 ce 9b be 79 41 79 be
       -0.57441866 -0.6345106 -0.30430987 -0.24341382
0001d0 60 45 6c be 16 99 30 be 56 fd fb bd b3 84 67 3f
       -0.2307334 -0.17245898 -0.12304179 0.9043686
0001e0 b6 e1 e7 3e 2d 5f e1 3c d4 ae a4 3f 29 ad 9c 3f
       0.4528939 0.027511204 1.2865853 1.2240344
0001f0 a4 98 e3 3e 9a e3 31 3f 3a 8f 63 3a 3b 0a e8 be
       0.44452393 0.6948792 0.0008680705 -0.45320305
000200 d3 4b 1a 3f 1b 70 f4 be 57 f0 22 bf 8f 8e db 3e
       0.6027195 -0.4774178 -0.6364798 0.428822
000210 ff c1 58 bf 24 e6 9a be 56 45 0b be 1a 49 78 3e
       -0.84671015 -0.30253708 -0.13600668 0.24246636
000220 d4 94 35 3f c6 15 3a bf 2d a2 36 40 33 0a 49 40
       0.7093022 -0.72689474 2.8536484 3.1412475
000230 91 d0 84 bf 48 4a 7d 3e fa 2d 21 3f 49 4f a7 3d
       -1.037615 0.24735367 0.6296078 0.08169419
000240 35 24 43 3e f2 fe 0c 3e d9 cf cc 3b c5 92 3a bf
       0.1905678 0.13769129 0.0062503633 -0.728802
000250 27 60 ef be c0 97 ad 3e 45 b7 7e bf 43 5b 67 bf
       -0.46753046 0.3390484 -0.994984 -0.9037363
000260 b6 08 85 3e 77 c7 04 3f 27 ca 27 3f 96 df 86 be
       0.25983208 0.5186686 0.65542835 -0.26342458
000270 44 0e 18 3c 2d 28 72 be 88 a5 94 be ba d6 b5 bd
       0.009280745 -0.23648138 -0.2903254 -0.088788465
000280 87 4c 4a bd 0a a9 8f 3e b4 e6 ca 3d f4 e1 c2 3e
       -0.04938939 0.28058654 0.099072844 0.38063014
000290 76 0c b7 3e 3e be 67 3e 15 29 ac 3e 7f ff 08 bd
       0.35751694 0.22631165 0.33625093 -0.033446785
0002a0 45 77 9e be a7 73 19 bf 32 20 b5 3d bb 28 a9 be
       -0.3095037 -0.59942096 0.088440314 -0.33038887
0002b0 81 68 36 bf cb 00 cf 3d e9 90 a2 3e fa 0e 61 be
       -0.7125321 0.10107573 0.31751183 -0.2197837
0002c0 10 d4 ec be 0b 46 0d be 19 87 84 3e 48 d9 9f 3c
       -0.4625554 -0.1379625 0.2588432 0.019512787
0002d0 61 26 a5 bf 97 34 29 bf 01 cc e5 3e 1f 76 69 bf
       -1.2902337 -0.6609587 0.44882205 -0.91195863
0002e0 bf c5 0b bf 02 6b c7 3e b3 83 1e 3e bf b5 30 bd
       -0.5459861 0.38948828 0.15479927 -0.043142077
0002f0 87 9d 2a be 96 b8 9f bb d7 6f 65 3e 7e e2 9a 3c
       -0.16661654 -0.0048742993 0.22405945 0.018906828
000300 e8 fe 18 3e 17 37 89 3f 45 e1 88 3e bf bb d1 3d
       0.14940989 1.0719937 0.26734367 0.10240888
000310 3e 16 69 3f 27 58 94 3e 21 35 74 3e e8 03 18 bf
       0.91049564 0.28973505 0.23848392 -0.5938096
000320 c1 4c e4 be c3 df 57 3e a5 1c 8c c0 86 27 df bf
       -0.4458981 0.21081452 -4.3784966 -1.7433937
000330 78 a3 4f be e1 3c 79 bf 38 cc a0 be 67 28 f5 3d
       -0.20277202 -0.9735852 -0.31405807 0.11970597
000340 18 ce 05 bf a0 d5 ca bd 2d d8 34 bc 03 db 88 3f
       -0.522676 -0.09904027 -0.011037868 1.0691837
000350 d1 4b ac 3e ce 22 39 be d0 d8 c2 3f 4e 49 31 3f
       0.33651593 -0.18079683 1.5222416 0.6925248
000360 d5 b1 6f be 78 0c 79 bf 6b e5 a2 be 7f 55 fe 3e
       -0.23407681 -0.9728465 -0.31815657 0.49674603
000370 98 7d a0 bd 47 87 e2 be c7 42 90 3d d1 99 b2 3e
       -0.07836455 -0.44243833 0.07043987 0.34882978
000380 8b 15 a1 3d e9 3e e3 be fd 0c 6e bc 61 1c 6a be
       0.07865437 -0.44383934 -0.014529464 -0.22862388
000390 9b b6 4c be ed 82 0f bf 42 c6 1c be ad 28 7e 3e
       -0.19991533 -0.5605915 -0.15310004 0.24820204
0003a0 45 bb 21 3f c1 0b 28 3e 15 2d be 3d ff cb d2 3e
       0.63176376 0.16410734 0.092859425 0.41171262
0003b0 24 1b aa 3e c4 79 f1 bc 0e e9 08 bf c5 6f 1e bf
       0.33223832 -0.029477008 -0.53480613 -0.61889297
0003c0 d9 5b f9 bd 9f 0f 11 3d ae 3e f3 3d e3 7c 96 be
       -0.12175722 0.035415288 0.118771896 -0.29392156
0003d0 27 ff 9a 3f 85 d6 68 3f 89 0f 5d be a3 d7 9a 3f
       1.2109116 0.9095233 -0.21587957 1.2097057
0003e0 51 f9 5f 3f ce d1 a7 be a8 5f 0e 3f 43 52 dd 3c
       0.874898 -0.32777256 0.5561471 0.027016765
0003f0 38 be a6 3e cc 62 81 3f 18 45 e0 be 09 b9 ff bd
       0.32567 1.0108275 -0.43802714 -0.124864645

fc1.bias f4 [128]
000000 12 f2 94 bf 57 c8 01 c0 4e 57 ce bf 25 5e e6 bf
       -1.1636374 -2.0278528 -1.6120393 -1.7997481
000010 76 eb bd bf f4 b8 b0 bf 37 07 ad bf f2 b4 88 bf
       -1.4837482 -1.3806443 -1.3517827 -1.068022
000020 ba 7c 9e bf 7e 09 b7 bf 17 c3 90 bf 66 c3 a1 bf
       -1.2381814 -1.4299772 -1.1309537 -1.2637756
000030 60 43 d3 bf 4b 2c 80 bf b7 ea a7 bf 81 c5 b0 bf
       -1.6504936 -1.0013517 -1.3118504 -1.3810273
000040 b1 8f c7 bf 70 59 a5 bf 05 b1 97 bf cf 77 e2 bf
       -1.5590726 -1.2917919 -1.1850897 -1.7692813
000050 40 b8 2f c0 5e 5d 65 bf b3 42 77 bf 19 73 b4 bf
       -2.7456207 -0.8959559 -0.9658615 -1.4097625
000060 3b f7 d8 bf e1 a6 6a bf 14 3b 5f bf 03 74 b1 bf
       -1.6950449 -0.91660887 -0.8719952 -1.3863529
000070 ef da 89 bf e7 b8 67 bf a9 6b e9 bf bf 5a 51 bf
       -1.0769938 -0.90516514 -1.823598 -0.8177909
000080 b2 2f 8f bf aa 53 8b bf 00 68 a0 bf b9 5b 06 c0
       -1.118643 -1.0884907 -1.2531738 -2.0993483
000090 a9 e4 85 bf 31 d5 af bf 29 a2 06 c0 1e 70 c4 bf
       -1.0460407 -1.3736936 -2.1036475 -1.5346715
0000a0 93 f3 8d bf 04 55 9f bf 9e de 90 bf d4 4c cf bf
       -1.1089958 -1.244782 -1.1317937 -1.6195321
0000b0 74 c5 b7 bf c1 97 aa bf d1 1e b2 bf 73 46 81 bf
       -1.4357133 -1.3327562 -1.3915654 -1.0099624
0000c0 1d f0 6d bf f5 40 99 bf ac bc 9f bf 6a d7 70 bf
       -0.9294451 -1.1972948 -1.2479453 -0.94078696
0000d0 c1 98 fe bf 52 87 a0 bf f9 fd 95 bf 5f 1d ba bf
       -1.9890367 -1.2541296 -1.1718131 -1.4540213
0000e0 26 94 ed bf bb d6 03 c0 7d 2c d0 bf e5 8a 8c bf
       -1.8560836 -2.059981 -1.6263577 -1.0979887
0000f0 01 3d 8f bf 6c 4c c6 bf 3c 64 d7 bf 5c ac cc bf
       -1.1190492 -1.5492072 -1.6827464 -1.59901
000100 41 31 87 bf e1 19 d8 bf 93 38 94 bf 59 d5 ad bf
       -1.0561906 -1.6882898 -1.1579765 -1.3580734
000110 da cf a5 bf ae 88 b1 bf cb 75 a8 bf 66 99 a0 bf
       -1.2954056 -1.3869836 -1.3160948 -1.2546813
000120 55 b9 74 bf 47 a4 d5 bf e0 7b 8f bf 43 7c a3 bf
       -0.95595294 -1.6690758 -1.1209679 -1.2772297
000130 9c 09 e5 bf fb 5d 6a bf c0 27 99 bf 58 a8 a4 bf
       -1.7893558 -0.9154965 -1.1965256 -1.2863874
000140 04 c2 c6 bf 85 bf a0 bf 7c f3 a7 bf 08 41 16 c0
       -1.5527959 -1.2558447 -1.312118 -2.3477192
000150 55 dd 9a bf 74 ac 93 bf cc 55 06 c0 43 96 a8 bf
       -1.2098795 -1.1537004 -2.0989866 -1.3170856
000160 cf 1a 60 bf 71 3c af bf 1e 20 91 bf 88 20 8e bf
       -0.87540907 -1.369032 -1.1337926 -1.1103678
000170 61 50 93 bf 32 43 b2 bf f1 cb ba bf 4a 97 b6 bf
       -1.1508905 -1.3926756 -1.4593488 -1.426492
000180 d3 fe 9e bf 0e a7 a7 bf cc 6d e1 bf 86 2c 91 bf
       -1.2421516 -1.3097856 -1.7611632 -1.1341712
000190 3b 25 bd bf ba c1 9f bf a3 ab d7 bf a1 08 5a bf
       -1.4776987 -1.2480996 -1.6849254 -0.85169417
0001a0 ab 2c 56 bf 2a ef 8d bf 5f 47 d4 bf 84 4f fb bf
       -0.8366191 -1.1088612 -1.6584281 -1.9633641
0001b0 71 c9 df bf 38 7a a8 bf 5d b3 98 bf 18 bd 58 bf
       -1.748335 -1.3162298 -1.1929737 -0.84663534
0001c0 ae dc 8f bf 85 28 e7 bf c5 9e b8 bf 46 ec 3f bf
       -1.1239221 -1.805924 -1.4423453 -0.749699
0001d0 14 5a 9f bf 11 e6 98 bf 45 d6 a3 bf 7a e9 7a bf
       -1.2449365 -1.1945211 -1.2799765 -0.98012507
0001e0 e8 26 a3 bf 57 d4 9e bf ea 95 b7 bf f5 4a ab bf
       -1.2746248 -1.2408551 -1.4342625 -1.338225
0001f0 0e fe 66 bf cb 82 08 c0 3f fb cb bf 68 a3 b1 bf
       -0.90231407 -2.132983 -1.5936049 -1.3877993

fc2.weight f4 [128, 128]
000000 81 55 ef be c8 74 15 bf 02 44 b9 be cc e5 be be
       -0.46744922 -0.5838132 -0.36184698 -0.37284696
000010 b2 2d 0c be d3 0c 39 be 25 0a 29 be a0 bb f8 3d
       -0.13689306 -0.18071298 -0.16507776 0.12145162
000020 95 15 d6 bd c4 2e e7 be 65 99 ff be 62 07 dd be
       -0.10453335 -0.45152867 -0.49921718 -0.43169695
000030 27 bc 20 be 20 ec c4 be 1a a2 e1 be 7e d7 35 3e
       -0.15696774 -0.384614 -0.44068986 0.17757985
000040 7e 55 99 be 66 6f d8 3b 2a 9e c2 be 13 f1 66 3e
       -0.29948038 0.0066050766 -0.38011295 0.225529
000050 65 7f be be 8c 25 b3 bd 72 70 97 be a5 a3 33 3d
       -0.3720657 -0.08747396 -0.29577976 0.043857235
000060 f4 05 9f 3e 95 be cb be ef 37 f3 3d a3 a0 a5 be
       0.3105923 -0.3979384 0.11875903 -0.3234912
000070 63 bb a7 be b4 3c 31 bd d0 72 11 bf 8c 26 75 3e
       -0.32760152 -0.04327078 -0.56815815 0.23940486
000080 c9 ef ad be 5f 5c 40 3d 1d d2 78 be 86 c4 fb be
       -0.33972004 0.046963092 -0.24298902 -0.49173373
000090 ab ba d4 3d cd fd 49 3e ee 89 80 be 54 9a a7 be
       0.103871666 0.19725724 -0.25105232 -0.3273493
0000a0 38 8a 7c be dd 15 90 bd 18 91 ed be aa e2 a9 be
       -0.24662101 -0.0703542 -0.4639976 -0.33180743
0000b0 0f 45 c3 3d ee 2e 59 bd e2 ef 14 bd d4 24 e3 be
       0.09534656 -0.05302327 -0.036361583 -0.44364035
0000c0 c2 4a 41 be e3 83 e0 be f0 48 8c be da 45 e3 be
       -0.18876174 -0.43850622 -0.27399397 -0.4438923
0000d0 1b f0 5d bd 51 a7 0d be dc bb 81 bd 91 1d 0e bf
       -0.05418406 -0.13833357 -0.063346595 -0.55513865
0000e0 b5 1e f0 be 57 05 cb 3c 16 35 e1 be ab 93 08 bf
       -0.46898428 0.02478282 -0.43985814 -0.53350323
0000f0 56 7c 10 bf 12 45 06 bf 5b 2a 11 bf 4b 9d b1 be
       -0.5643972 -0.5244914 -0.56705254 -0.34690318
000100 23 44 d7 be 92 5e ab be 88 17 eb be 01 e6 b1 be
       -0.42044172 -0.3347059 -0.4591639 -0.34745792
000110 5e af 46 be 01 aa fa be cd 4f 9e be e1 6f 5e be
       -0.19402835 -0.48957828 -0.30920258 -0.21722366
000120 3d 79 3a bc 7d 4f f9 be 52 a4 15 bf dd 68 e9 3d
       -0.0113814445 -0.48693457 -0.5845386 0.11396954
000130 a2 ae 14 bf 1e 64 57 be d7 ab ec bd 53 a4 83 be
       -0.5807897 -0.21034285 -0.11556213 -0.25711307
000140 f7 fb 75 be 10 f3 71 bc 03 77 66 be bf cc bd be
       -0.24021898 -0.014767423 -0.22506337 -0.3707027
000150 29 1b a4 bd 98 d4 e2 be fb 33 60 be 2f c3 42 3d
       -0.08012993 -0.4430282 -0.21894829 0.047549423
000160 aa 09 a4 bd 83 f0 1e 3c 17 e5 c3 be 65 0d b0 bb
       -0.08009656 0.009700897 -0.3826072 -0.0053726905
000170 96 02 a4 bd e3 02 61 bd f2 8e 83 bd a0 13 0e 3e
       -0.08008306 -0.054934394 -0.06423749 0.13874674
000180 93 5e 99 be 44 cc 02 bf 68 90 21 bf af 46 17 bd
       -0.29954967 -0.51092935 -0.6311097 -0.036932644
000190 8f 9b a4 bd e3 d9 fe be 39 dd 23 bf 9c 3e e9 3d
       -0.08037483 -0.4977561 -0.64009434 0.11388895
0001a0 12 3f 17 3d e7 3e b6 bc 9d 23 d7 be 07 49 b2 be
       0.036925383 -0.022246791 -0.42019358 -0.3482134
0001b0 28 0c 21 bf db a1 e2 be f7 c4 12 3d d8 70 e0 3d
       -0.62909174 -0.4426411 0.03583237 0.10959023
0001c0 12 32 65 bd 84 25 a8 be 9b b8 27 be 7b 0b d7 be
       -0.055955954 -0.32841122 -0.16379015 -0.42000946
0001d0 17 93 1c bf f2 b5 55 bb 34 97 01 bf 2b 13 00 3e
       -0.6116194 -0.0032609669 -0.5062134 0.12507312
0001e0 bb 59 cf be b3 05 2a bd 0b 8f ac be 26 2e dc bd
       -0.40498146 -0.04150934 -0.33702883 -0.107509896
0001f0 3c 78 a8 be c0 c5 48 be 59 f3 e2 3d 5b b5 a5 be
       -0.32904232 -0.19606686 0.11081571 -0.32364926
000200 da f9 99 3d 3e b1 24 3e 0c a9 37 3a c5 d5 af 3c
       0.075183585 0.16083238 0.0007006086 0.021464238
000210 a2 66 d9 be 4d 87 0f be 0a 0f 10 be 13 3c de bd
       -0.42461115 -0.14016457 -0.14068237 -0.10851302
000220 b0 72 22 be ba 62 eb bd 62 c5 8f bc 5a 1a 58 be
       -0.15864062 -0.1149344 -0.017550174 -0.21103802
000230 bb 33 b0 be 66 3e 9c be 20 de a0 3c 3a a8 7c 3d
       -0.34414467 -0.30516356 0.019637167 0.06168387
000240 17 d6 51 3d ea de 33 be f5 e2 dc be ea b9 b4 bd
       0.051229563 -0.17565504 -0.43141904 -0.08824523
000250 bf 4a 3a be d4 3a b9 bb b6 05 a3 3d 11 f5 25 be
       -0.18192576 -0.005652765 0.07960074 -0.16206767
000260 a9 1b 15 be e5 38 d5 be fc ed 86 3c 0e 94 08 bf
       -0.14561333 -0.4164497 0.016470902 -0.53350914
000270 b5 13 61 be 11 d2 86 be 72 a3 22 3e f0 e3 b7 bd
       -0.21980174 -0.26332143 0.15882662 -0.089790225
000280 a4 2d 09 3e 0d 0d 1b 3e 28 8a 00 bf 60 e1 d5 bd
       0.13396317 0.15141697 -0.5021081 -0.104433775
000290 70 d6 c1 bd 72 5b e1 be a1 f1 0e be 81 69 08 be
       -0.09464729 -0.4401508 -0.13959362 -0.13321497
0002a0 41 a8 ee be b0 d6 14 be 7a ea 26 be 79 bd b0 bb
       -0.46612743 -0.14535022 -0.16300383 -0.0053936807
0002b0 52 35 ac bd 6f 12 b3 3b ba 73 d6 be 23 ff 20 bf
       -0.084086075 0.005464844 -0.41885167 -0.6288931
0002c0 41 24 78 be 1d b3 ce 3d 75 9b 1e 3e 63 f3 b7 be
       -0.2423258 0.10092757 0.1548899 -0.35927877
0002d0 d6 fc 49 3e 33 7a 88 bc 92 cb 70 be da c2 94 bc
       0.19725356 -0.016659832 -0.23515156 -0.018159319
0002e0 80 7c 04 be 46 2f dd bd 84 cb 85 be f4 dd 29 3e
       -0.12938118 -0.10800032 -0.26131833 0.16588575
0002f0 de e9 d1 be 45 be 34 3e 01 9d 18 bc cc 71 24 3e
       -0.4099874 0.17650707 -0.009314776 0.16059035
000300 6a 29 a7 3c 97 0c 3a be 2c b1 22 3d 0e ad e2 3b
       0.02040549 -0.18168865 0.039719746 0.0069176024
000310 ce d5 d4 be 14 fb dd be 2d 4c 8f be 90 da 40 3b
       -0.4156937 -0.4335562 -0.27987805 0.0029427148
000320 f4 ba 2f 3e bb e6 d9 3d e6 ba e0 be e8 08 08 be
       0.1716116 0.106397115 -0.43892592 -0.13284647
000330 e0 81 cd 3b 55 c3 b1 be 4f 8f 9c be 29 c6 4b 3d
       0.006271586 -0.3471934 -0.30578086 0.049749527
000340 f1 d0 bc be 2d b0 9a 3e 82 b0 90 be 7b ea 41 3c
       -0.3687816 0.30212536 -0.28259665 0.01183569
000350 4f fb a3 be 9e 97 65 be 3e 0a 4e 3e 49 0e 3c be
       -0.3202767 -0.22421119 0.20121095 -0.18364824
000360 a7 12 83 be bf 7f 63 be ef 06 09 3c bf ff 80 be
       -0.25600168 -0.222167 0.0083634695 -0.2519512
000370 2a 38 38 bc 21 c8 23 3d d7 18 a5 be c5 e8 61 3d
       -0.011243859 0.03998578 -0.32245514 0.055153627
000380 59 c6 36 3d fa 87 dc bd 2e 08 46 3d 60 08 f5 bd
       0.044622753 -0.10768123 0.048347645 -0.11964488
000390 08 2e be be af 64 21 3e 20 9c c1 b7 2d 30 b5 be
       -0.37144494 0.15761064 -2.3080094e-05 -0.35388318
0003a0 d4 bd 3e be 4d 8c 25 bd fb bd 5d bd d3 10 0f 3e
       -0.18627101 -0.040417004 -0.054136258 0.13971262
0003b0 de 78 17 3c 0e ce 09 be 3b d4 a9 be b8 20 95 be
       0.009245126 -0.1345751 -0.33169731 -0.29126525
0003c0 24 ea 39 3b 37 56 66 bc 46 85 ef 3d cb 6a 92 be
       0.0028368318 -0.014058641 0.11695342 -0.28597102
0003d0 43 51 48 be 5b af d1 3e 00 77 5d 3e 31 5d 59 3e
       -0.19562249 0.40954098 0.21627426 0.21226956
0003e0 a9 db 8e 3c 0b 8b 03 3e cd b7 78 be 38 0e fe bc
       0.017438726 0.1284601 -0.24288864 -0.03101264
0003f0 ec f8 de 3d 07 32 93 3c 17 82 e7 3d 9a 10 4c be
       0.10887322 0.01796819 0.113041095 -0.19928208

fc2.bias f4 [128]
000000 72 75 73 3f 34 1a e4 3e 96 eb b4 bf aa e8 bd bf
       0.9510108 0.4455124 -1.4134395 -1.4836628
000010 34 da 34 3d 75 7f 36 be 12 10 cf 3e f1 fc e8 3e
       0.044153407 -0.17822058 0.40441948 0.4550548
000020 19 1d 25 be 75 94 c6 bf 02 ac 74 3f 9f 3c 56 3e
       -0.16124381 -1.5514055 0.95574963 0.20921563
000030 98 bc 96 3e cc cd 0e 3f 49 48 24 3f 17 0e 99 bf
       0.2944076 0.5578277 0.641728 -1.1957425
000040 6f 7b 08 bf a2 84 45 bf 5b 51 3e bf 34 44 c0 3e
       -0.53313345 -0.77155507 -0.7434289 0.37552035
000050 4c 0f 18 bc de 07 eb be da e0 2a be 62 18 a2 be
       -0.009280991 -0.4590444 -0.16687337 -0.31659228
000060 7d 00 41 be 77 73 38 3f 20 df bb 3e 04 90 82 3d
       -0.18847843 0.72051185 0.36693668 0.06375125
000070 5d a2 31 3e 81 90 d6 be 6b b1 d8 be 3c 14 80 bf
       0.17347093 -0.41907123 -0.4232286 -1.0006175
000080 76 d4 60 bf ad 60 3c 3f f3 a0 c4 bf 67 e8 6f bf
       -0.8782419 0.73585016 -1.5361618 -0.9371399
000090 1c 67 37 3f 24 85 4d bf 6e 39 16 bf 4b d7 f3 3e
       0.7164171 -0.8028128 -0.5868138 0.47625193
0000a0 1b ef 65 bf 89 08 c8 3e d1 7f 8c 3f fa ab 4a be
       -0.8981797 0.39069012 1.0976506 -0.19792166
0000b0 2c be bb be b8 11 11 bf 36 27 b9 3d a6 80 67 3f
       -0.36668527 -0.5666766 0.09040682 0.90430677
0000c0 c8 fc a9 3d ee 4f 9b bf e7 a5 19 bf bd 07 65 bf
       0.08300167 -1.2133768 -0.6001877 -0.8946493
0000d0 1e 3c fa 3d 56 07 93 bd bd 5e 55 bf 21 52 7e bf
       0.12218498 -0.071791336 -0.83347684 -0.9934407
0000e0 3d d5 94 bf 43 a2 d1 3e 41 7c fe be 52 9a 80 3f
       -1.1627575 0.40944108 -0.49704173 1.0047095
0000f0 d0 86 21 bf 4e 6b 9c be ea 89 f2 be bc d1 6e bf
       -0.6309633 -0.30550617 -0.47370845 -0.9328878
000100 fa bf 87 bf ce 5b 16 3d 8b f7 b8 be 38 e6 15 bc
       -1.0605462 0.036708646 -0.3612636 -0.009149127
000110 81 c9 db bf 51 06 6b bf 09 2e 1b bc 13 4b 65 3f
       -1.7170869 -0.91806513 -0.009471425 0.8956768
000120 fe ec 46 3f 6d d9 be 3e 1c 3f 7e bf 0d a6 bc be
       0.7770537 0.37275258 -0.9931505 -0.36845437
000130 52 19 31 bf 74 ff 5f bf 95 d0 83 3e d7 43 68 be
       -0.6917926 -0.87499166 0.25745073 -0.22682129
000140 d7 24 b3 bf 23 da 7e bd 7e 9f 32 bf e4 6b 95 bf
       -1.3995618 -0.06221975 -0.69774616 -1.1673551
000150 07 96 45 3f 44 5b 30 3f 34 3f 95 3f 35 25 82 be
       0.7718205 0.6888926 1.1659913 -0.25419012
000160 10 af 8f 3f 43 b6 a5 bd eb 62 ed be e4 97 22 bf
       1.12253 -0.08091404 -0.4636453 -0.63513017
000170 ef 25 a0 3f de b5 04 3e bf a2 89 3e 2b d9 a6 be
       1.2511576 0.12960002 0.26881978 -0.3258756
000180 80 bd 12 bf 68 d5 7a bf 86 22 63 be 7d 2e 18 bf
       -0.57320404 -0.9798188 -0.22181138 -0.59445935
000190 41 e0 cf be 8a 9e ac 3c fb 8d 67 bf 37 b1 9c bf
       -0.4060078 0.021071691 -0.9045102 -1.2241582
0001a0 5d 24 80 3e 62 0e d9 bd fd 4c 96 bf b2 af df be
       0.25027743 -0.105984464 -1.1742245 -0.43688732
0001b0 35 5f 61 bf c5 a6 d0 be e1 b6 0e 3f 0e 7d e2 be
       -0.880359 -0.40752235 0.557478 -0.44236034
0001c0 fc 93 e0 be 1f db 50 bb e3 34 33 bf 7b 8a 08 3f
       -0.43862903 -0.0031868888 -0.70002574 0.53336304
0001d0 d2 a2 19 bf 78 e1 82 3f b5 c3 a0 3e f1 c5 61 be
       -0.6001407 1.0225058 0.31399313 -0.22048165
0001e0 9c 19 87 3e de db de 3d 2b 23 82 3f 3b 2a 45 3f
       0.26386726 0.1088178 1.0166982 0.77017564
0001f0 ea 12 e0 3d 3a 81 21 3e 02 51 1e 3f 15 30 b3 bd
       0.109411076 0.15771952 0.6184236 -0.08749405

fc3.weight f4 [10, 128]
000000 b8 8c 93 be 3b 27 06 be 2a ea fe 3d ea 12 41 be
       -0.28818297 -0.13100903 0.12447007 -0.18854871
000010 e0 ac 5d 3e 42 ff 6d be 25 48 56 be 2e 43 2c be
       0.21647978 -0.23241904 -0.20925958 -0.16822502
000020 28 7a 21 3e 6a d1 9a be 28 46 11 be 40 9d ce bd
       0.15769255 -0.30237895 -0.14186919 -0.10088587
000030 e4 b2 9e be a3 08 75 bc 09 8a 52 be e0 16 a2 3e
       -0.30995858 -0.014955672 -0.20560469 0.31658077
000040 9f 7e 79 3e 78 79 af be 38 0e 87 3d b4 fb 06 be
       0.24364708 -0.3427236 0.06594509 -0.13181955
000050 85 5f 67 3e 68 db 67 be 13 f1 1a 3e ae f8 8a 3e
       0.22595032 -0.2264229 0.15131025 0.27142853
000060 26 f5 1a bf 05 51 ba be f6 5d c8 3c fc df bf 3e
       -0.60530317 -0.36389938 0.024458867 0.37475574
000070 a0 2d 6e be 80 36 a7 3e 8d d8 bb be 49 80 95 be
       -0.23259592 0.32658768 -0.36688653 -0.29199436
000080 8e 01 b6 3e ee 2f 80 3d bf 54 0c bf 5c 84 77 be
       0.3554806 0.06259142 -0.5481681 -0.24171585
000090 1b 03 13 be 99 fc 0d 3e ed 67 0f be 93 05 8d be
       -0.14356653 0.1386589 -0.14004488 -0.27543315
0000a0 80 57 26 3c 0a 3a a7 be 69 db 6a be 01 85 04 3f
       0.010152698 -0.32661468 -0.22935261 0.5176545
0000b0 a9 3b 9d bb 80 e1 ed bd d5 52 a0 bd 6e 0a c6 be
       -0.004798372 -0.11615276 -0.07828299 -0.38679832
0000c0 80 43 f6 3e 12 df 7c 3e 73 44 c5 3e af a6 f8 3e
       0.48098373 0.2469447 0.38528785 0.4856467
0000d0 8a b9 b7 3d 3d ea e7 be 3a cf 62 be fd 06 95 be
       0.08970936 -0.45295897 -0.22149363 -0.29106894
0000e0 24 63 5b be 8f b1 9d be 1d c6 a1 3e ba 5f 9c be
       -0.21424538 -0.3079953 0.3159646 -0.30541784
0000f0 40 3c 8a 3e 97 d3 15 be 1a cd da be 4d ad 9d 3e
       0.26999092 -0.14631496 -0.42734605 0.3079628
000100 e7 7c 51 be 6b 80 86 be 2b 9b 1a be e5 32 ac 3e
       -0.20457803 -0.2626985 -0.15098254 0.3363258
000110 a1 58 62 3e f1 6a 84 3e b6 77 e6 bd ab 3c 7f bd
       0.22104122 0.2586284 -0.11253302 -0.062313717
000120 85 d5 1e bc 7d 31 52 bd 44 63 90 be d3 7d dd 3d
       -0.009694462 -0.051316727 -0.28200734 0.10815015
000130 fd 46 a5 3e c2 02 6d be 86 e7 90 be 1c 80 df 3d
       0.32280722 -0.23145583 -0.28301638 0.10913107
000140 e9 1b 9e 3d 48 c2 df bd 63 21 5b 3e cb 35 6a 3e
       0.07720167 -0.10925728 0.21399455 0.22872083
000150 d9 73 e0 bd 7b 2c 7a 3d 0c 8a 07 bd 8d 04 98 be
       -0.10959596 0.061077576 -0.033090636 -0.29690972
000160 1d f0 c4 3d 8f 47 08 bf 19 54 27 be 96 5a 1f be
       0.096161105 -0.5323419 -0.16340674 -0.155619
000170 54 f3 75 bd 21 5b 25 3d 2a 54 62 be c9 07 06 3f
       -0.06004651 0.04037011 -0.22102419 0.5235563
000180 2f 34 f5 3d 7e cb 15 be d1 fb 0c 3e c7 7e 73 be
       0.11972844 -0.14628407 0.13767935 -0.2377883
000190 f4 ef db 3d 77 cc 41 3e 04 52 aa 3e 30 00 e7 bd
       0.10739127 0.18925653 0.33265698 -0.11279333
0001a0 1f 16 86 be 22 5e 9b 3d bb 68 cf 3d b0 96 08 3e
       -0.26188752 0.07586314 0.101273976 0.13338733
0001b0 8b 54 86 3e 37 47 8c 3e 8a 40 64 be b2 9f 1c be
       0.26236376 0.27398083 -0.22290245 -0.15295294
0001c0 fd b1 8d 3e 98 2d a5 be ed b9 f7 bd d4 b1 4b be
       0.27674857 -0.32261348 -0.120960094 -0.19892055
0001d0 a2 61 dc be 45 5c 3c bd 08 6e cf bd bf ae cf bd
       -0.43043238 -0.045986433 -0.10128409 -0.10140752
0001e0 7c 0d cf be 4e a4 cb 3d ca 03 7f be ac 81 2b 3d
       -0.40439975 0.09943448 -0.24903789 0.04187171
0001f0 43 c4 a4 be 8c da a0 bd cf 6d 36 be 50 e6 01 3f
       -0.32180986 -0.078541845 -0.17815326 0.50742054
000200 2f 0c c5 3e 39 b4 ae 3d 7e c1 9f bc 52 c4 5e be
       0.38485858 0.085304685 -0.019501444 -0.21754578
000210 b5 60 33 be 9f d4 7f be ac 9f a2 3e c9 1e 2b bc
       -0.1751736 -0.24983452 0.31762445 -0.0104443515
000220 ab e2 d4 3d a0 b8 dd 3c 6b eb 07 3e 2e d2 41 be
       0.10394796 0.027065575 0.13273399 -0.18927833
000230 aa ba c5 3e d3 7c 07 3f 74 72 19 bd 32 7e 4a bd
       0.38618976 0.5292484 -0.037462667 -0.049436755
000240 87 66 54 be d3 4e c9 3d bd 9f 8e 3c 00 1f 61 3e
       -0.20742236 0.09829488 0.017410154 0.21984482
000250 92 0b 52 3e 42 fa 99 3d 15 4a 66 3e 0e 27 af 3d
       0.20512226 0.07518436 0.22489198 0.08552371
000260 39 5b 3a 3e 16 16 39 3e a2 55 cc 3e d9 ca a3 3c
       0.18198861 0.18074831 0.39909083 0.019994186
000270 39 7e df 3d 44 02 e6 bd 9f 28 dd 3e 0f 2c 27 be
       0.10912747 -0.11230901 0.43195054 -0.16325401
000280 34 00 e3 bd 7a d4 db 3e 97 45 dd 3d 15 0f f8 bd
       -0.11084023 0.42935544 0.10804289 -0.12112252
000290 53 54 c0 3e 5a 03 77 3e 6e 02 b1 3e 7f 7e 1f be
       0.37564334 0.24122372 0.34572166 -0.15575598
0002a0 66 9b 9e bd 8c 7a f6 3e 6b 7e e1 3e d1 79 33 3e
       -0.07744484 0.4814037 0.44041762 0.17526938
0002b0 12 c4 b4 3e 8d 19 21 be 68 cd 64 bd 0f 4a 96 3e
       0.3530584 -0.15732403 -0.055859953 0.29353377
0002c0 f6 ce 6e 3e 65 d0 76 3d 1d 13 50 3d 79 24 f2 bb
       0.23321137 0.060257334 0.050799478 -0.007389602
0002d0 54 8c 96 3e fc 40 ab 3d 08 52 a0 3d 8f 69 5d 3e
       0.29403937 0.08362004 0.07828146 0.21622299
0002e0 a9 79 0f bd 44 7c 2b 3e 66 db e0 3d 3c 33 cf 3e
       -0.035028134 0.16746622 0.10979347 0.40468776
0002f0 41 c3 c1 bd 51 92 ec bb a5 7f 37 3e d4 ea 4e 3e
       -0.0946107 -0.0072195907 0.17919786 0.20206767
000300 d2 17 00 be 91 91 96 be 1a 65 86 3e fe 2c c1 bc
       -0.12509087 -0.29407933 0.2624901 -0.023581024
000310 22 5e 1f be 2b ff ee bc ef 49 9b be 4e 77 b3 3e
       -0.15563253 -0.029174408 -0.30329844 0.3505196
000320 e7 51 fa 3e bb f0 35 be 96 31 1c be 87 bf d3 3d
       0.48890612 -0.17767613 -0.1525329 0.10339265
000330 7c db 41 3e 14 51 0b 3e 6f 90 0b 3f fd dd 63 bc
       0.18931383 0.13605148 0.54517263 -0.013907907
000340 72 5e 54 3d a6 3e 75 be b8 2d 4e 3e f3 22 da bd
       0.051847883 -0.2394968 0.20134628 -0.10651197
000350 32 21 9a 3e f8 b3 e2 3e 1e 99 9b 3e 21 65 77 3e
       0.3010345 0.4427793 0.30390257 0.24159671
000360 ca 67 09 3e a7 21 12 3e 2b 7d 1a 3d ae 41 06 3d
       0.13418499 0.1427065 0.037717026 0.03277748
000370 4d a7 45 3e 21 87 de bd fa f8 57 3d 40 5b 18 be
       0.19302101 -0.108656175 0.052727677 -0.14878559
000380 e5 c0 fc 3d 5c bd 69 3d 5b 36 84 3d 82 5b 12 be
       0.12341479 0.057065353 0.0645568 -0.1429272
000390 8a 34 e2 3d d7 32 71 be 41 14 ad 3d 41 e3 de bd
       0.11045177 -0.2355455 0.08451129 -0.10883189
0003a0 a6 ba 80 be 53 28 3d be 4f 1e 6a be 0e 18 d3 3e
       -0.251424 -0.18472414 -0.22863124 0.4122929
0003b0 86 38 c2 bc 7a 72 37 3e 0e a9 12 3e 0d 10 8d be
       -0.023708593 0.17914763 0.14322302 -0.27551308
0003c0 7f 63 c0 bd d1 73 5a be f0 7f fe bc eb 5a 2e 3e
       -0.093939774 -0.21333243 -0.031066865 0.1702687
0003d0 a8 87 44 3e 4c 26 9e 3e 81 10 8d 3e b5 dc b3 3d
       0.19192374 0.30888593 0.27551654 0.08782331
0003e0 58 92 7a 3e 18 90 36 bc 85 2b c8 3e 08 d0 cb 3e
       0.24469888 -0.011142753 0.39095703 0.39807153
0003f0 c0 8e c2 bd 4f f5 86 be 30 5a c9 3e 2a 29 68 3e
       -0.09499884 -0.2635903 0.3932662 0.22671953

fc3.bias f4 [10]
000000 eb 14 9c 3f 3e ec 4d bf 4d 57 c9 bf a7 e4 f3 3e
       1.2193884 -0.804386 -1.5729767 0.47635385
000010 b8 17 90 3e 84 a1 4b bf 9f 82 46 bf 7a 64 04 40
       0.28143096 -0.7954333 -0.7754306 2.0686326
000020 84 89 42 bf fc 20 13 3f
       -0.7599108 0.57472205
