ckpt/model_epoch9.pth (torch, 106239 bytes, 6 tensors)

fc1.weight f4 [128, 63]
000000 88 e1 a1 bd a2 74 b2 be 8a 11 06 3e b5 e5 8d bd
       -0.07904345 -0.3485461 0.13092628 -0.06928579
000010 7f cc 3d be 23 7f a0 3e 7a 62 d4 bd 19 ca 06 be
       -0.1853504 0.31346998 -0.103703454 -0.13163032
000020 4e 3e 93 3c 34 f4 b6 3d a3 5a 20 3e d5 3f de bd
       0.017974045 0.08933297 0.15659575 -0.10852019
000030 97 1c 93 3d 18 1d cb bc 11 08 c4 bd 6e 71 db 3d
       0.071831875 -0.024794146 -0.09571851 0.10714994
000040 7c a2 79 3d 9c 5c 89 bd 25 e1 8d 3d 31 f7 b7 3e
       0.060945973 -0.06707117 0.069277085 0.3593078
000050 7f ad 88 be 1b 3e 90 3d 0e c9 f0 3d 24 38 d9 bd
       -0.26694867 0.07043096 0.11757098 -0.10606411
000060 dc e9 15 be ff 1d ee bd b3 b9 13 3e 2c 1b 52 3d
       -0.14639992 -0.11626815 0.14426307 0.051295444
000070 a1 66 42 3e b7 cf 16 be 7e 84 0f 3d ba 8c b4 3d
       0.18984462 -0.14727674 0.035038464 0.08815904
000080 46 31 30 be 55 3e 03 be 2f 13 09 be 7c 7d 32 3e
       -0.17206296 -0.12816747 -0.13386224 0.17430681
000090 23 df a9 bd fb 54 d3 be c2 11 8e 3e 40 e5 e1 bc
       -0.08294513 -0.41275772 0.27747923 -0.027575135
0000a0 3e 20 a3 bc eb a9 0e be 41 42 0f 3e 47 97 5c 3d
       -0.019912835 -0.13932006 0.13990118 0.053855207
0000b0 1d 88 1b be 5d a0 d1 bc c4 ab 04 be a2 82 4c 3e
       -0.15188642 -0.025589162 -0.12956148 0.19971707
0000c0 66 5c 9e bd 7d 7f 53 be 52 a6 0f 3d 71 fc eb bd
       -0.07732467 -0.20654102 0.035070725 -0.11522759
0000d0 e8 97 22 3d 3d 57 75 3d 65 8a f7 3c f7 93 23 3e
       0.03969565 0.05989765 0.030217359 0.15974413
0000e0 60 24 2c bd f9 1d 89 bd 37 9e 37 3e 7e 12 d6 3b
       -0.042026877 -0.0669517 0.17931448 0.006532966
0000f0 0d b5 f9 3d 37 ae d6 3d 91 0d d9 bd 1c fb 0e 3f
       0.12192736 0.104824476 -0.10598291 0.5585191
000100 8e 68 96 3e c3 79 48 bd cb 8b 4f bc 4e 44 9a bd
       0.29376644 -0.048944246 -0.012667607 -0.07532559
000110 7a 7d 5e b9 91 61 cd bd 90 d0 a8 3d 03 52 5d 3a
       -0.00021218313 -0.10028375 0.08242905 0.00084427017
000120 8b 93 38 3c 64 40 9a 3d 42 36 6b bd 36 e1 e5 3c
       0.011265646 0.07531813 -0.05742479 0.02806149
000130 9c 32 83 bd a5 bd 90 bc 68 d4 aa be 83 25 7b be
       -0.06406137 -0.017668555 -0.33365178 -0.24526028
000140 5f ce 4e bc 5a 30 ac be fc 82 3f be 63 5f e6 bc
       -0.012622445 -0.3363064 -0.1870231 -0.028121656
000150 30 33 b1 3d a5 a0 8d 3d 92 12 12 be 67 ad d1 3e
       0.08652341 0.06915406 -0.14264897 0.40952608
000160 70 b3 9f 3e c2 df fe 3d 42 90 64 be bb 0a 37 be
       0.31191587 0.12445022 -0.22320655 -0.17875187
000170 9c c3 0f 3d 48 0d 3a be b0 7a dc bd 8e 0f 62 bd
       0.035098657 -0.18169129 -0.10765588 -0.055190615
000180 00 6a 2e bc 7a c8 cc bc 83 ea cc bd 55 b6 5b 3e
       -0.01064539 -0.024997938 -0.10005667 0.21456273
000190 18 f8 cd 3d 5d f0 f2 3c f6 20 5b be 9a 64 52 be
       0.10057086 0.02965563 -0.21399292 -0.20546189
0001a0 f4 f9 18 3d 86 8a 6b be 55 97 ec bc 0b 4e 00 bd
       0.03734775 -0.23002061 -0.028880754 -0.031324428
0001b0 d5 af 14 3d b2 48 df bd 76 62 b3 3d 0a 74 d9 bd
       0.0363005 -0.109025374 0.08759014 -0.10617836
0001c0 aa c4 b7 bc 02 80 5f 3d c1 1c 2b be 7e 85 67 bd
       -0.022432644 0.054565437 -0.16710187 -0.056523792
0001d0 c8 45 ca bd cd be 6a bb 2b aa 09 3c 00 de bc bd
       -0.09876591 -0.0035819293 0.008402388 -0.09222031
0001e0 b6 f0 5c 3d 9d ab b2 bc eb 69 87 3d 14 2e 97 3e
       0.053940497 -0.021810347 0.06611999 0.29527342
0001f0 77 9b 8e 3e af f8 68 bc f2 3d 75 bd 9c 74 ed bd
       0.27852985 -0.014219447 -0.05987353 -0.11594507
000200 0e ec 35 3e a5 a0 1d be a8 35 a4 bd 45 43 1a bd
       0.17765829 -0.15393312 -0.080180466 -0.03766181
000210 7e 89 0a 3c 5f 53 5e 3d 89 18 7b bc 2f 9d 86 3e
       0.008455632 0.054278728 -0.015325674 0.26291797
000220 9c 4f 8b 3d 91 c1 d8 bd d5 c5 39 3f a3 9d 93 3e
       0.06802294 -0.10583795 0.7256749 0.28831205
000230 04 bb c2 bd a4 6d aa bd 66 8e 95 3d 02 0c 8b bd
       -0.09508327 -0.083216935 0.07302551 -0.067894
000240 19 47 30 3d 9b d9 91 bb d4 f8 9e 3d 10 c2 2e be
       0.043036554 -0.0044509894 0.07762304 -0.17066216
000250 5f 2d 94 bd 44 d3 6b 3d 20 fe cf bd ff c7 ee bd
       -0.07235216 0.057574525 -0.10155892 -0.1165924
000260 bf eb 81 b9 92 c6 e0 3d bf ac e7 3c ce 0a 7e bd
       -0.00024780442 0.10975374 0.028280614 -0.062022023
000270 b8 d8 f8 bd af ed 2a 3c 6e b0 63 3c 3b 4f 71 be
       -0.12150711 0.010432645 0.013897045 -0.2356538
000280 b5 dc b1 bd 89 71 3c 3d 64 f6 6f bd b6 c7 4d bd
       -0.08684675 0.046006713 -0.058584586 -0.050239287
000290 a2 32 c6 3c 86 47 e1 3d 26 77 8a bd 1d 05 5a 3d
       0.024194065 0.1099997 -0.06761007 0.053227533
0002a0 50 0d 9c bd 3e 35 05 be 15 08 8d 3d bf 94 81 be
       -0.07619727 -0.13008592 0.06886307 -0.25308797
0002b0 b4 68 41 be d1 46 2f 3e 24 44 38 be 4b 77 bd bd
       -0.18887597 0.17116858 -0.17994744 -0.09251269
0002c0 41 57 71 3d ca 72 8a 3e 80 ef 25 bd 23 29 12 be
       0.058921102 0.27040702 -0.040511608 -0.14273505
0002d0 29 b4 53 bd 2f 73 e8 3d 73 7d 99 3d f7 8a 59 be
       -0.051685486 0.113500945 0.07494631 -0.21244417
0002e0 86 bb da 3d 77 6f d9 bc ad 49 4f be 84 a2 fc bc
       0.106802985 -0.026542408 -0.20242949 -0.030839212
0002f0 f8 c2 eb bd 58 42 fb bb e5 cb 87 3e 51 07 72 bd
       -0.11511797 -0.007667821 0.26522747 -0.05908901
000300 8a 7e 33 bd 85 3c 71 3e 8e f9 15 3d a0 a2 43 3b
       -0.04382185 0.23558243 0.036614947 0.002985157
000310 7b d2 bd bd ae 0b 2e 3c 00 86 08 3e 31 81 4e be
       -0.092686616 0.010622902 0.13332367 -0.2016647
000320 7a dc 06 be 2c 2e 1f 3e ff e7 b8 be b9 30 ae 3d
       -0.13170043 0.15544957 -0.361145 0.08505387
000330 79 fe 63 3e bf ca 16 be 2f a3 82 3d 6e 2b af 3c
       0.22265042 -0.14725779 0.06378781 0.021383014
000340 8d dc 80 be f8 7b 07 3d 21 1b cf 3d 31 48 06 be
       -0.25168267 0.03307721 0.10112596 -0.13113476
000350 4f 2d 45 bc 39 d1 1e be c4 14 37 3e 9c 70 2c 3b
       -0.012034728 -0.155095 0.17879015 0.0026312238
000360 eb fa 2a 3e 71 09 99 be 71 79 ae 3c 8b 51 16 3e
       0.1669728 -0.29890016 0.021298142 0.14679544
000370 08 37 47 be 7e 81 73 bd 01 cb 0b 3d ee dd a8 bd
       -0.19454587 -0.059449665 0.034129146 -0.08245455
000380 b7 82 0a b9 f6 aa 1b bc c6 fc 3f 3e b9 92 d5 bd
       -0.000132094 -0.0095012095 0.18748769 -0.10428376
000390 e7 d2 59 bc 63 4a 22 be 02 4c 10 bd 66 a9 ff 3d
       -0.013294912 -0.15848689 -0.035228737 0.12483482
0003a0 33 78 3b be 5f da bc 3d 6f d1 26 3d db 60 1a 3e
       -0.18307571 0.092213385 0.040727075 0.1507601
0003b0 9e fc cb bd 5e d7 7d bd 06 a3 8f 3e 0e 48 d2 3d
       -0.09960292 -0.06197297 0.28054065 0.102676496
0003c0 9b 1c 9e bc 17 bc a3 bd 35 f8 bd 3d 29 7b dd 3d
       -0.01930075 -0.0799486 0.09275857 0.108145066
0003d0 1e a8 fd bd df 68 b0 3d dd e9 e4 bd e7 18 7c bd
       -0.123855814 0.086137526 -0.111774184 -0.061547186
0003e0 a6 73 b5 3d 49 53 53 3d 7a 78 d4 bb dd 7a 10 be
       0.08859949 0.0515931 -0.0064840885 -0.14109369
0003f0 7a 78 9c 3e 02 f9 1d be d0 8e 50 3d c9 55 db 3a
       0.30560666 -0.1542702 0.050917447 0.001673394

fc1.bias f4 [128]
000000 21 a6 99 3d 79 f6 91 3d 9e cf cb 3d 9c a8 98 bd
       0.0750239 0.07127089 0.09951709 -0.07454035
000010 37 26 ac 3d 17 e5 b0 bd d1 46 71 3c 64 bc af bd
       0.084057264 -0.086374454 0.014726357 -0.085808545
000020 ec ce 0f bd 41 9d c9 bd 84 81 68 bd 5c e0 87 bd
       -0.035109445 -0.09844447 -0.05676414 -0.0663459
000030 67 27 cc bc cc b4 17 be 32 e8 b1 bd ec 96 26 bd
       -0.024921132 -0.14815062 -0.08686866 -0.040671274
000040 06 89 fb bd b2 54 a4 3c a0 76 40 be b4 e8 47 be
       -0.122819945 0.020059917 -0.18795252 -0.19522363
000050 e6 a7 4c 3d 85 e2 46 bd 9e bc 3f bc e4 de bc 3d
       0.049964808 -0.04855587 -0.011702685 0.092222005
000060 e4 33 23 3d 0f 12 59 bd 3c 57 2b bd fb 12 3f be
       0.03984441 -0.052995738 -0.04183124 -0.18659584
000070 57 95 a3 bc 65 72 69 be d8 55 ed bd 9e a7 96 bd
       -0.019968672 -0.22797544 -0.11588639 -0.07356189
000080 ed e4 25 3e b7 8e 0f 3d eb c8 2d 3d f6 43 d4 bd
       0.1620061 0.035048213 0.04242794 -0.10364525
000090 f6 82 77 bd 45 e1 bc bc 42 64 90 bc 44 80 10 3e
       -0.06042763 -0.023056636 -0.017625932 0.1411143
0000a0 cd 6a b0 3b f7 66 bf 3d 72 9b d2 3d ac ae b7 bd
       0.0053838254 0.09345811 0.10283555 -0.08968863
0000b0 55 02 06 bc 33 65 45 3d 8b f3 e8 bd cb 6f be 3d
       -0.008179267 0.048192214 -0.11374577 0.092986666
0000c0 fa 25 b5 bd c2 69 de 3c ed c9 32 bd 1b a3 bf bd
       -0.08845134 0.027150039 -0.043649603 -0.09357282
0000d0 ac bd 98 3d 43 d8 aa bc e2 83 a9 bd ce 91 0d be
       0.07458052 -0.020855075 -0.08277108 -0.13825151
0000e0 9d 26 8e bd 25 04 37 bd ad 3b 4f bd 84 85 95 bd
       -0.06940959 -0.044681687 -0.05059402 -0.07300857
0000f0 9b 83 e5 3d 50 83 5e be c1 17 b6 3d 9b 2a f2 bc
       0.112067424 -0.21729779 0.088912494 -0.029561331
000100 b8 a2 04 3e 29 ca 2f bd df c4 af 3d db e2 da 3c
       0.12952697 -0.042917404 0.08582472 0.026719501
000110 47 c0 09 be 9c 71 d6 3d b2 1e de bd c7 e5 19 be
       -0.13452254 0.10470888 -0.108456984 -0.1502906
000120 d4 4b 98 3c 25 3f 8a bd 70 b9 cd bd ef 4c b0 bd
       0.018590845 -0.06750325 -0.10045135 -0.08608424
000130 d1 8e 04 3d 88 0c d4 bd f0 ee c2 3d 20 40 b8 bc
       0.032362763 -0.10353953 0.0951823 -0.022491515
000140 ff 32 d3 3d 54 11 a1 bd ec 36 85 bd 32 3c 73 be
       0.10312461 -0.07864633 -0.06504616 -0.23753431
000150 f6 ab 55 bd 18 1c 41 3e cb a0 9d 3d 3b f5 51 be
       -0.052165948 0.18858373 0.076966844 -0.20503704
000160 b4 90 a7 3d 89 8e 0a bb 73 bc 54 3a 62 7d 70 3d
       0.08181897 -0.0021142086 0.00081152393 0.058713324
000170 9d cb a7 3d 61 c1 1f bc 58 c7 09 3d 7c f1 46 3d
       0.08193133 -0.009750695 0.033637375 0.04857014
000180 b6 bf 15 be 7f 95 97 3b 2a 07 3a bd 30 73 cb bd
       -0.14623913 0.0046259756 -0.04541699 -0.0993408
000190 4a 3e 0a bd cc d8 73 bd 10 24 05 be 08 43 5e bd
       -0.03375081 -0.059532925 -0.13002038 -0.054263145
0001a0 56 a0 5e 3e 37 06 7f bd f9 da b0 bd b1 88 de bd
       0.21740851 -0.062261786 -0.08635516 -0.108659156
0001b0 58 ce 58 3d 63 e4 76 bc 47 5e 9c 3d c7 f8 1e be
       0.05293116 -0.0150691 0.076351695 -0.15524589
0001c0 21 21 01 be ed 33 27 3e 00 50 5e bc 47 60 cc bd
       -0.12610294 0.16328402 -0.013568878 -0.09979301
0001d0 1c 73 d2 3d 56 2e 30 bb 75 a2 c0 3d 90 8c 94 bd
       0.102758616 -0.0026883087 0.09405986 -0.07253373
0001e0 3c bb 42 be ea a1 14 be e0 22 b1 bd a2 86 03 be
       -0.19016737 -0.1451489 -0.0864923 -0.12844327
0001f0 9c f6 b9 bc 6f 3d b9 3c fa fe bf 3d 99 d6 10 be
       -0.0227006 0.022612302 0.09374805 -0.14144363

fc2.weight f4 [128, 128]
000000 87 4d 9a bd d1 79 ed bd 6c 06 ae bd 55 7b d1 bd
       -0.075343184 -0.115955 -0.084973186 -0.10228602
000010 84 28 98 bd ae 0c 88 bc 5c 3b 1c be 5b d3 9e 3d
       -0.07429603 -0.016607609 -0.15257019 0.077551566
000020 ea 3f 0c be 33 0a d1 bb 22 da 8d 3c 61 9c 3b 3d
       -0.13696256 -0.0063793897 0.017315928 0.04580343
000030 54 64 10 3d f1 c3 b2 3d 44 5f e6 3d 6b df a5 3c
       0.03525193 0.08728779 0.11248639 0.020248136
000040 33 cb bf bd 07 78 b9 bd cc df 1e 3c 0b 37 f3 3d
       -0.09364929 -0.090560965 0.009696912 0.11875733
000050 72 38 cc 3d 63 80 5b 3c 53 ea a4 bc f1 9b 1c 3e
       0.099717036 0.013397309 -0.020131266 0.15293862
000060 17 db 8e bb d7 68 13 3e cf 12 48 bd ef 7a 19 3e
       -0.0043596136 0.14395462 -0.048846062 0.14988302
000070 5b 8a 46 bd d6 80 4c 3e 3b 90 95 3d 87 50 03 3d
       -0.04847179 0.19971022 0.073029004 0.03205922
000080 ca 19 3d 3d 55 b8 1d bd 0f 39 6c 3c 29 fc d6 3d
       0.046167172 -0.03850587 0.014417901 0.104973145
000090 f9 4c 18 be d3 f8 9e 3d 88 36 b0 3d ec b8 11 be
       -0.14873113 0.07762303 0.08604151 -0.14230698
0000a0 a2 e7 66 bd a6 23 d3 bd 98 3a 63 3c 40 c5 44 3b
       -0.056373246 -0.10309534 0.01386895 0.0030024797
0000b0 31 cf 2d bd 33 9d 76 3d 94 08 87 bd 85 95 ad 3d
       -0.04243392 0.06020851 -0.06593433 0.08475784
0000c0 c9 d7 4a 3c cd eb 9b bd 51 dd 0a be 3f 69 12 3e
       0.012380549 -0.07613335 -0.13560988 0.1429796
0000d0 5e 87 8b 3d bb 69 46 3e 0f f5 2b be 3b 97 52 3c
       0.068129286 0.1937627 -0.16792701 0.012853439
0000e0 10 50 14 be f6 ab fa bd 23 94 95 3c d1 6d fb bd
       -0.14483666 -0.1223983 0.018259114 -0.12276805
0000f0 19 8d dc 3d f1 5f 16 3e a9 5e b3 bd 73 de 4f 3d
       0.107691 0.14685036 -0.08758289 0.050749253
000100 74 fe 1f bc fe 57 f7 3d f1 ae 5e bd ec e0 03 bb
       -0.009765256 0.1207733 -0.054366056 -0.0020123078
000110 b5 db cd 3d ef d2 c2 bd 78 7f c5 3d 6f 78 fe bc
       0.100516714 -0.09512889 0.09643453 -0.031063287
000120 b7 da f8 3c 10 9e 8b 3c a8 e5 e1 3b 94 78 c2 3c
       0.030377729 0.017043144 0.0068938322 0.023739137
000130 7e ac 8a bd 99 c2 ae 3d c4 db 08 be 33 e6 d7 bb
       -0.067711815 0.0853321 -0.13365084 -0.006588721
000140 e3 53 3e be 0a 3e 92 bd d5 a9 22 bd 2b 7c f3 bd
       -0.18586688 -0.07140739 -0.039712746 -0.118889175
000150 9d b0 a8 3d 67 40 a3 3d f1 3b ed bd b5 57 97 bd
       0.08236811 0.07971268 -0.115836985 -0.07389776
000160 fb be 19 3e cc ca 2d 3d 0c 6f 5a 3d da 26 92 bd
       0.1501426 0.04242973 0.05332856 -0.071363166
000170 25 a6 09 3c 7a eb ab 3d c9 fb 66 bd d6 8d f1 bc
       0.008401428 0.08394523 -0.056392465 -0.029486578
000180 2b f8 5c 3e 55 cc 80 bd 72 8c c4 3d a6 1a ff 3c
       0.21579044 -0.06288973 0.095971 0.031140637
000190 fa 28 40 3d 11 69 82 3e b5 5a b8 3b 4a fa 9b bc
       0.04691408 0.25470784 0.0056260475 -0.019040246
0001a0 72 71 82 bd 17 35 ae ba b1 38 2a be d2 a3 9a bc
       -0.06369294 -0.0013290968 -0.16623189 -0.018876944
0001b0 25 a1 4d 3c 34 45 a8 bd eb 94 44 be 48 83 55 3e
       0.012550627 -0.082163244 -0.19197433 0.20850861
0001c0 4e 83 28 bd e9 3c 0b 3e 03 74 13 bd 57 c9 1d be
       -0.041140847 0.13597454 -0.03599931 -0.15408836
0001d0 29 bd 91 3d 5d 4d 3a be 63 09 27 3d 5b 96 92 3d
       0.071161576 -0.18193574 0.040780436 0.07157584
0001e0 b6 4f 36 3e 3b 74 ea 3d e7 52 4d bd 06 22 ad 3a
       0.17803845 0.114479505 -0.05012789 0.0013208992
0001f0 2a 82 47 3d c3 50 c7 3d 67 63 ad bd 0c 3d 0d be
       0.04870812 0.09732201 -0.08466225 -0.13792819
000200 45 09 65 bc 1e 2a e3 bd d6 69 8d 3d 14 01 0c be
       -0.013979261 -0.110920176 0.06904952 -0.13672286
000210 6b 6d 48 3d 69 ce a1 3e 30 0b e5 3d f5 02 44 3d
       0.048932474 0.3160279 0.111837745 0.047854383
000220 e3 ed 14 bd bb 40 19 3e a9 fc 84 3e 69 0f 82 3e
       -0.03635968 0.14966099 0.25974014 0.25402382
000230 db 42 21 3e b8 a6 66 3e 6b c1 88 3c a1 5f 8c 3d
       0.1574816 0.22524536 0.016693791 0.06854177
000240 58 eb c6 3d 12 c0 a9 bb 4e 9c 8c bd df a3 c3 3d
       0.09712857 -0.0051803673 -0.0686575 0.0955274
000250 24 bd 31 3e 7c 11 cf 3d 3b 5d a9 3d 88 8b 3b bd
       0.17357308 0.10110757 0.082697354 -0.045787364
000260 fa 33 d2 3b 7f fb 03 be 9d 44 94 bc e6 22 35 3c
       0.0064148875 -0.12888907 -0.018099124 0.011055684
000270 8f b9 1b 3e e9 93 f2 bc 0a e5 1f 3d a4 24 bc 3d
       0.15207504 -0.029611545 0.039036788 0.09186676
000280 00 80 92 3e b0 dd 81 bd 82 a5 d5 bd 12 fb b5 bc
       0.2861328 -0.06341112 -0.10431959 -0.022214446
000290 a8 ee 8b 3d 60 18 16 bc a1 b6 0f bb f7 ac 8a bd
       0.068326294 -0.009161085 -0.0021928924 -0.06771272
0002a0 a5 c9 14 b9 2b 52 b7 3d e0 be a9 bd 1a 5d 82 3d
       -0.00014189498 0.08951219 -0.0828836 0.06365414
0002b0 6a 63 25 3e 7e bf e6 3d 7c 89 99 bc a7 1e d3 3d
       0.16151205 0.11266993 -0.018742315 0.10308581
0002c0 61 53 80 3d a9 8a c4 3d c9 72 5a 3c 27 af a7 bd
       0.06265903 0.0959676 0.013333031 -0.081877045
0002d0 77 50 d3 bd 42 3c 7c 3e 22 ab f3 3c de d2 c3 3d
       -0.10318082 0.24632362 0.029744688 0.09561704
0002e0 ba c1 62 3d 53 3e 1d 3c d0 3b f5 3c eb ec d9 bc
       0.055360533 0.009597379 0.029935747 -0.02660223
0002f0 46 db ec bc 35 ca 1c bd 42 e7 4f bd 46 60 dc bc
       -0.028913151 -0.038278777 -0.050757654 -0.026901376
000300 05 83 90 3d 09 c5 0d bd bb a4 e8 3c 8c 36 1e bd
       0.0705624 -0.034611735 0.028398862 -0.03862624
000310 8b 30 9a bc 5b ce b0 3c 77 14 99 3d 70 ba 11 3e
       -0.018821975 0.021582773 0.074746065 0.14231277
000320 44 95 21 3e 86 aa a0 bd 3b 85 3b 3c 53 5b 9e 3d
       0.15779597 -0.07845025 0.011445339 0.077322625
000330 c9 fd ad bc f2 0b 24 bd ba 33 10 be fd d6 25 bd
       -0.021239178 -0.040050454 -0.14082232 -0.040488232
000340 03 cc 77 bc 48 32 96 3d 59 4d b2 3c 62 99 98 3c
       -0.015124324 0.07333809 0.021765398 0.018627826
000350 29 c8 32 bc 4d a0 b0 bd b4 60 90 39 17 33 ae 3d
       -0.01091198 -0.08624325 0.0002753787 0.08505838
000360 64 99 82 bd d8 38 90 3d 73 18 c0 bd db 69 98 bd
       -0.06376913 0.07042092 -0.09379663 -0.07442065
000370 08 99 fa bd 90 f5 ae bc a5 dd d2 bc d2 b2 97 bc
       -0.1223622 -0.021357328 -0.025740454 -0.018517885
000380 df b9 46 bc 2a 84 65 bd c6 29 0f be 61 7d dd bc
       -0.012129276 -0.056034245 -0.13980779 -0.027037324
000390 7b 67 a3 3d 8a 8d 90 3c fd 88 e0 3a c2 12 03 be
       0.07978722 0.017645616 0.001713067 -0.12800124
0003a0 0e 2d 52 bd bd e2 bb bd 6a 03 8e bd d1 7f dc 3b
       -0.0513125 -0.09174106 -0.06934245 0.006729104
0003b0 13 24 bd bd 0d 7d 11 be 4a 6d 02 bc 6b 5f de 3a
       -0.09235396 -0.1420786 -0.007960627 0.0016965693
0003c0 68 b3 9f bd a5 a3 63 3d a6 64 00 be a9 24 d5 3c
       -0.07797891 0.055575985 -0.12538394 0.026018457
0003d0 1c 36 ca bc d3 8b 2c 3d c2 a9 13 3e 8a e8 fe bd
       -0.024684004 0.042125534 0.14420226 -0.12446697
0003e0 a4 56 4c bd e0 ad e4 bb b3 d1 a4 3d bd 9f a7 bd
       -0.049887314 -0.0069787353 0.080478095 -0.081847645
0003f0 7f 1c 3c 3e c6 0e dc bd 2f 5a 9c 3d 62 22 f4 bd
       0.18370245 -0.10745005 0.07634389 -0.119206205

fc2.bias f4 [128]
000000 96 4d 1d 3e ff e7 82 3d 20 64 ec 3d cf 2e 81 3d
       0.15361628 0.06391906 0.11542535 0.06307756
000010 ac 40 9e bd aa 7b 0c 3e fa 20 b9 3d c2 31 74 3d
       -0.07727179 0.13719049 0.09039493 0.059617765
000020 15 b4 a8 3d ab cb 62 bb d2 d4 ce 3d 0f c2 0d 3d
       0.08237473 -0.003460626 0.10099186 0.034608897
000030 67 92 57 3e 3d 71 17 3e 21 39 0a 3e 70 dd 01 3e
       0.21051942 0.1478929 0.13498355 0.12682128
000040 b5 dc 97 3d a0 21 a5 3d 53 1b 2a 3d aa 00 26 3e
       0.074151434 0.08063054 0.041529965 0.16211191
000050 35 37 30 3e 12 ef 5c 3c 83 75 81 3c 05 f3 09 3e
       0.1720856 0.013484733 0.015803104 0.13471611
000060 6e a8 72 3d 6c f3 bd 3d fb 5b 12 3d 05 5d 44 bc
       0.05924266 0.09274945 0.03573225 -0.011985068
000070 65 8b bd 3d 4a ef c3 3d 46 b3 9f 3d 14 73 a8 bd
       0.09255103 0.09567125 0.077978656 -0.082250744
000080 93 80 63 3c d8 a6 45 3e a3 3b 0e 3e 7d 31 f2 3d
       0.013885635 0.19301927 0.13889937 0.118258454
000090 f4 45 41 3e c7 de ee 3d 06 9b e8 3d 00 c6 7a 3e
       0.18874341 0.11663585 0.113576934 0.24489594
0000a0 13 1c fb 3d 18 5a 81 3d 44 9e 48 3d 24 76 c0 3d
       0.12261214 0.06316012 0.04897906 0.093975335
0000b0 b3 1c 8e 3d a7 89 cd 3d fd c5 1e 3e 38 fa f1 3d
       0.06939068 0.10036021 0.15505214 0.118153036
0000c0 94 e6 aa 3c 7d da f6 3d 91 f4 0b 3e 02 dc 3a 3d
       0.020861901 0.12053392 0.13667513 0.045619972
0000d0 f4 ba a5 3d f9 b6 de 3d 1f 2a 07 3e 66 3d 36 3e
       0.08092299 0.10874743 0.13199662 0.17796859
0000e0 5e 39 1e 3d d6 46 96 3d 04 99 8c bc df 85 d5 3d
       0.03862893 0.0733773 -0.017162807 0.104259245
0000f0 31 9e a5 3d e5 54 72 3d 61 74 d9 3d d6 6e 97 3e
       0.08086813 0.059162993 0.10617901 0.2957675
000100 e4 79 f5 3d aa 04 3b 3d 6b b4 26 bc 65 e8 49 3e
       0.119861394 0.045658745 -0.010174851 0.19717558
000110 25 9b 1d 3e db d7 82 3c 2c 4f 8d bd d3 c1 92 3c
       0.15391214 0.015972069 -0.068998665 0.017914688
000120 ee d4 25 3d 7f 1e 2b 3e 21 de 1f 3e 43 7a d2 3d
       0.04048627 0.16710852 0.15612079 0.10277226
000130 e9 19 2e 3d 77 0f 8f bc ae 1e d1 3d 74 dd da 3d
       0.04250518 -0.017463429 0.1021093 0.1068677
000140 a0 9c 54 3e 10 f6 84 3d 22 1e 71 3d 6a 05 c8 3d
       0.20762873 0.06492245 0.058866628 0.09766658
000150 ad 6b 04 3e 0c fa b3 3d f9 d0 28 3e 3e b6 16 3e
       0.129317 0.08787927 0.16485967 0.14717957
000160 cf f5 2f 3e 1d 10 a2 3d 62 2e 10 3d 86 ed 7c 3d
       0.17183612 0.079132296 0.035200484 0.061749958
000170 14 bc 65 3d 44 8b 38 bd 72 87 42 3d 28 ca a6 3d
       0.05608757 -0.04505469 0.047492452 0.08144027
000180 f7 5a 01 3e f3 09 b2 3d 96 1c e5 bc d4 f0 b6 3d
       0.12632357 0.08693304 -0.027967732 0.08932653
000190 ea e7 f2 3d ad dc 19 3e 0e 4f 9f 3d ab 6c 99 3d
       0.1186064 0.15025587 0.0777875 0.0749143
0001a0 b1 85 12 3e 9c a0 d3 3d 69 81 02 3e da a3 b9 3c
       0.14308812 0.10333368 0.12744679 0.022661138
0001b0 4d 27 57 3d 54 66 2d 3e dd 89 0b 3e 1e 7c 22 3e
       0.052527715 0.16933566 0.1362681 0.1586766
0001c0 76 a8 21 3e a7 9f 3b 3d 59 d5 81 3d 72 07 f1 3d
       0.15786919 0.045806553 0.06339521 0.11768998
0001d0 20 34 32 3e be 26 fe 3d f9 a3 05 bc 00 45 86 3e
       0.17402697 0.12409733 -0.00815677 0.26224518
0001e0 03 95 ae 3d fc 74 7b 3c 9c d5 67 3d ba fd fc 3d
       0.085245155 0.0153477155 0.0566002 0.12353082
0001f0 66 1d e9 3d e4 46 1b 3e 2d e1 9e 3d 85 22 a8 3d
       0.113825604 0.15163761 0.077577926 0.08209709

fc3.weight f4 [10, 128]
000000 15 47 83 be 6d 69 c3 be c5 0c 7f 3e b3 05 63 3e
       -0.2564017 -0.3816637 0.24907215 0.22170143
000010 11 06 1c bd 03 9b 6e 3e f7 bc 65 3e 15 bd d0 3c
       -0.038091723 0.2330132 0.22435366 0.025480786
000020 d9 ec 95 3e b2 0b a1 3d 4c e1 4a 3e b0 29 b5 3e
       0.29282263 0.07863559 0.19812506 0.35383368
000030 5a 74 b9 be b5 a9 75 3d 43 06 83 3e c1 e2 0e 3e
       -0.36221582 0.0599763 0.25590715 0.13953687
000040 be 54 93 3e fd 23 91 bd c3 6a 34 bd 0e 2a 92 bc
       0.2877559 -0.07086942 -0.04404713 -0.017842319
000050 68 97 fb 3d 98 42 dc 3e d8 14 27 3d c6 49 bc 3e
       0.12284738 0.43019557 0.040791363 0.36775035
000060 f2 35 30 bd 37 79 8d 3e 98 4e c4 bc 89 2e bc 3e
       -0.043020196 0.27631542 -0.023963258 0.36754254
000070 f7 59 46 be 86 75 02 3e 19 6b 68 3e 76 28 ce ba
       -0.19370256 0.12740144 0.22697105 -0.0015728611
000080 0e 11 58 3c 4b 42 b4 be fa 61 9f 3d 23 2b 2f be
       0.01318766 -0.35206828 0.077823594 -0.17106299
000090 f9 c3 89 bb a5 01 16 3e 3c 3f 02 3e b0 6c 28 3e
       -0.00420427 0.14649065 0.12719434 0.16447711
0000a0 77 d9 9a be 10 65 a7 bc 8c fa 80 bd cd 90 ee be
       -0.30244038 -0.020433933 -0.06297788 -0.4659485
0000b0 61 a1 12 3d f6 5c 68 3e 4b f3 83 3e 94 28 62 be
       0.035798434 0.22691712 0.25771555 -0.22085792
0000c0 76 90 29 3e 0a e2 03 bf ed 58 bd 3e 36 18 4d 3e
       0.16559014 -0.51516783 0.36981907 0.20028767
0000d0 89 ac 90 3e ad 36 a8 3e 4b 61 18 3e 7f 21 a3 bd
       0.28256634 0.32854214 0.14880864 -0.07965373
0000e0 e2 d6 95 3e 5e 42 f9 be 29 ff 08 3f 0e 44 95 bc
       0.29265505 -0.48683447 0.53514344 -0.018220928
0000f0 32 ad 74 3e 41 6b 93 bc c2 a9 a2 be 0a fb 65 3e
       0.23894194 -0.017995479 -0.3177014 0.22459045
000100 03 18 a4 bd 63 89 a2 3d 08 94 02 3e fb b9 89 be
       -0.08012392 0.07936361 0.12751782 -0.26899704
000110 8e 58 b6 be 7f cc 7f 3e 7f a1 52 3d aa ef a0 3e
       -0.35614437 0.24980353 0.051423546 0.3143285
000120 12 ae b8 be 8d b0 1a 3e bf 04 4b 3d 38 0f 64 3d
       -0.36070305 0.15106411 0.049565073 0.055678576
000130 98 78 8b 3e 2a 8e 8a bd 70 c3 14 3e f0 b9 c5 bd
       0.27240443 -0.06765397 0.14527678 -0.096546054
000140 fc 97 a0 be 5a bc 5a bd 75 1e 94 3c 95 57 5a be
       -0.31365955 -0.053402282 0.01808093 -0.21322472
000150 e6 c7 cc 3c bb a7 5d 3e 3e 10 98 bc 46 75 5c bd
       0.024997663 0.21646015 -0.018562432 -0.05382278
000160 35 58 41 3e 91 64 af 3e 7a ec cd 3e 52 9c 10 3e
       0.18881305 0.34256414 0.4021948 0.14122131
000170 95 8f b8 bd 27 be 07 3f fe a8 cd 3d 9a b0 11 be
       -0.09011761 0.53024524 0.10041998 -0.14227524
000180 a7 74 1a 3e c5 ad 90 be ce e5 16 bd a8 ac 7f be
       0.15083562 -0.28257576 -0.036840253 -0.24968207
000190 93 3b 9e 3e da 19 66 be 57 f6 68 be ae 80 7f 3e
       0.30904827 -0.22470799 -0.22750221 0.24951431
0001a0 58 a5 5e bd 64 12 8f bc b1 47 08 bd 6d b4 e7 bd
       -0.054356903 -0.017464824 -0.033271495 -0.1131371
0001b0 48 28 71 3e dc cd a8 bd d0 3d 03 bf 2f 8d c3 3d
       0.23550522 -0.082423896 -0.51266193 0.09548413
0001c0 ce 2d a1 3e 79 00 66 bd 63 28 3a bd 2e 5a c1 3e
       0.3148026 -0.056152795 -0.045448672 0.37764114
0001d0 26 cb 6a be b6 a2 5d be de 6b a7 3e de 12 d0 be
       -0.22929057 -0.216441 0.32699484 -0.40639395
0001e0 b9 e9 a0 be 88 20 1e be d1 f7 07 3e df 13 5e 3e
       -0.31428316 -0.15442097 0.13278128 0.21687268
0001f0 76 c7 e5 3e b3 7a 03 3e 93 b6 06 3e 93 65 78 be
       0.4487874 0.12839775 0.13155584 -0.24257497
000200 d1 45 7d 3d 0c 19 a2 3e 7b 3a c4 3e 87 1b 77 be
       0.06183416 0.31659734 0.38325867 -0.24131595
000210 20 1d ab 3d 4a a3 9e 3e b1 85 96 be c2 55 b7 be
       0.083551645 0.30983955 -0.29398873 -0.35807616
000220 03 b9 a5 3e f8 ff 54 be ea f1 90 3e 6d 07 21 3d
       0.32367715 -0.2080077 0.28309566 0.039313722
000230 1a 73 cf 3e 32 79 43 be 6d bf 0d bf 06 32 f2 be
       0.40517503 -0.19089201 -0.5537022 -0.4730379
000240 30 04 0c be 0f 06 a9 bd 1c a0 87 3c 74 1a f6 3d
       -0.13673472 -0.08253109 0.016555838 0.12016764
000250 8f fb 52 bd 49 a2 3f bd 50 89 76 be 2a 84 bd 3d
       -0.051509436 -0.046785627 -0.24075818 0.09253724
000260 b4 d9 1d be a7 5e a7 bc 5d 9b 95 be d8 70 ab bd
       -0.15415078 -0.020430876 -0.29220095 -0.083711326
000270 22 c3 31 be 14 8b 80 3e 41 01 86 be 4a 9d 1e bd
       -0.17359594 0.25106108 -0.26172832 -0.03872422
000280 5a d1 ce 3c 7b a7 76 3d 5c f0 0f bd 82 44 de be
       0.025246311 0.060218316 -0.035141334 -0.43411642
000290 d0 66 86 3e bd 06 44 3e 36 20 4f be 74 6a 7d 3e
       0.26250315 0.19143195 -0.20227131 0.2474764
0002a0 d5 3a 9e 3e 66 1c c3 bd 7f 86 cb bd 39 30 80 3e
       0.3090426 -0.09526901 -0.099377625 0.2503679
0002b0 eb 81 21 bd 11 23 4b be a7 ac 5e 3e 2c d0 a9 3e
       -0.03943054 -0.19837596 0.21745549 0.33166635
0002c0 f8 62 ba be 32 10 11 3e 5a 7c 46 be ef b9 f0 bc
       -0.36403632 0.14166334 -0.19383374 -0.029385535
0002d0 a7 d2 96 3d 03 f3 74 3c 07 26 c0 be 6a f8 91 3d
       0.073643975 0.014950517 -0.37529013 0.07127459
0002e0 e6 16 81 3e fd fd 84 3e 16 70 a2 be d0 eb 33 be
       0.25212783 0.25975028 -0.3172614 -0.17570424
0002f0 34 8a 80 be 33 5b b1 be a7 ae a0 bd b2 61 e7 3c
       -0.2510544 -0.34639892 -0.07845812 0.028244827
000300 07 30 b6 3c 02 de 3b bd cc 96 5a bd d1 54 51 3e
       0.022239698 -0.04586602 -0.053366467 0.20442511
000310 9a 4e 99 3e e2 63 af be 4a bd 36 bd 33 be 89 be
       0.2994278 -0.34255892 -0.044614114 -0.26902923
000320 3e a8 a5 be fd 76 8c 3e 2a 86 f9 3b c2 8a ba be
       -0.3235492 0.2743453 0.0076148706 -0.3643399
000330 dc 74 95 bd 3f fa 61 be 0a d7 da be cf 05 c3 3e
       -0.0729768 -0.22068118 -0.42742187 0.3809037
000340 39 6d 15 3e 48 97 9d 3d 71 94 44 be b1 20 c3 3e
       0.14592446 0.0769487 -0.19197251 0.3811088
000350 6c 17 2d 3e aa 08 38 bd 9e af 82 3e f4 bb 82 3e
       0.16903466 -0.044930138 0.2552461 0.25534022
000360 da 4b 16 3e 07 c8 84 3e 30 e9 c0 be e0 14 89 be
       0.14677373 0.2593386 -0.37677908 -0.2677374
000370 4a bb 66 be b7 bd 2d be b6 56 6d 3d 8f c3 20 bd
       -0.22532383 -0.16966902 0.057944022 -0.039249
000380 ad 61 bd be 43 89 84 3e 68 2b 0d 3d ab 09 83 be
       -0.36988583 0.25885972 0.034465224 -0.25593314
000390 8c 4d 8b be cd f5 b9 3e 8f 65 a3 be 22 28 ab 3d
       -0.272076 0.36320344 -0.3191342 0.08357264
0003a0 9a 73 e0 be 28 82 4d be 1c e0 c3 be 66 ee a1 bd
       -0.43838197 -0.20069182 -0.3825692 -0.07906799
0003b0 1a 4e 5d be e2 73 c4 bc d5 93 2e 3e 9b 82 0b 3e
       -0.21611825 -0.023981038 0.17048581 0.13624041
0003c0 9d ec 74 3e 6a 25 54 be a0 46 db be e1 f6 90 3e
       0.23918386 -0.20717397 -0.4282732 0.28313354
0003d0 b6 4c be 3e 95 e4 a9 3e 33 46 af be 20 34 a2 3e
       0.371679 0.33182207 -0.34233245 0.31680393
0003e0 64 92 9c 3e 4a ab b5 bd c9 cc 13 be 4c 3a d5 3c
       0.30580437 -0.088705614 -0.14433588 0.026028775
0003f0 ee de 0f be 70 43 c6 3e 83 c0 07 3e a8 a1 2b 3e
       -0.14049885 0.38723326 0.13257031 0.16760886

fc3.bias f4 [10]
000000 5f c6 dc be 28 bb d1 3e b9 23 15 3e 2e bb 47 be
       -0.43120095 0.409631 0.14564408 -0.19504997
000010 f9 7d 06 bd ee 1f 99 be c6 90 a5 3e 8e 44 86 3e
       -0.03283498 -0.29907173 0.32337016 0.26224178
000020 c3 87 9d be ca 7c 04 bd
       -0.3076764 -0.03234557
