ckpt/model_epoch34.pth (torch, 106247 bytes, 6 tensors)

fc1.weight f4 [128, 63]
00000000: 3341 413d 5b5b 56be 194f c1be f68b c63d
00000010: 57cf 793d e348 18bc 040c d03d f928 2a3e
00000020: b1e4 0b3e 744a a63c 2517 8c3e 1842 e23d
00000030: b6d5 3dbd e78b a43d b7ca c23d b081 f8bc
00000040: 898d 1f3e 7808 77bd 29cc febd 8251 a6bb
00000050: 7bb6 45be 2bc2 c4bd 7cec 393d 5c3a 7abe
00000060: df29 353c e83d 6b3d 2770 723e 0034 e4bd
00000070: fb11 6fbb acbc 87bc 9afb 8a3d daf1 553d
00000080: 721e 8bbd f42b a03d 3d5a 17bc 2db5 543d
00000090: 4cdc e9bd 7b26 2cbe 6515 ec3d ed79 823d
000000a0: 501a 9abd 24d9 243e 38e7 5cbd df8e 313d
000000b0: 11ae 923d 5a97 29bd dceb 20be e297 01be
000000c0: 404b 0f3e de9e b2bd b7b1 dbbe cc34 a23d
000000d0: 0b87 06be 7564 853e d660 ec3d dd1d 273c
000000e0: e193 5b3e 0da4 82bd 1a61 f6bc c686 b93e
000000f0: 38f3 82bd 9dee 2b3e 1d6e 943e 0b6a 0e3e
00000100: 489c 883e 9e73 57bd 5de4 51bd 83f3 0c3e
00000110: 5671 043d 47f0 5dbc bf15 6b3e 6e44 713d
00000120: 6a39 903a b238 0c3c 2541 003e 0bc7 783e
00000130: 1aab d8be 5542 483e d77d 29be d86b 073e
00000140: 7408 283e 4779 7abe 3b6a 34bd 017a 58be
00000150: 9c8b 4bbe 363c e33d 1958 9ebe 43f0 44bc
00000160: 5c96 fd3d d15e c9bc 72a7 23be 748d 603b
00000170: 9efc f63d 95c4 33be bfe7 1abd a0e3 3bbe
00000180: 73fc 13be aa5a a73d 774b 103d e882 73bd
00000190: c8f6 733c 3c36 023e f626 0dbe 2d55 92bd
000001a0: 58ab ba3c a0d8 9fbc 13bd 753d 2f5e ec3d
000001b0: f2cb 953e 6867 113e 6166 5abd 4f3a 973e
000001c0: f9ee 813e 2a3a 3fbe ee9f 57bd 64e5 4bbe
000001d0: 8b50 c8bd 7780 82bd 2b8d 8bbe 6d62 553e
000001e0: 572c 4d3d 6dba 80be 8c07 553e 45d8 8d3c
000001f0: 37a3 5dbe 8214 383c 9e13 5a3d 8795 60be
00000200: e4bc 4f3d a168 5c3d 6d1a 19be fe93 b03c
00000210: bece a9bd a61c ee3d efd9 60bd c146 303b
00000220: 772f 5c3e 6290 ff3d d5ed 4bbd c6e5 db3e
00000230: 8c12 c1bd 598e da3d 8fe7 5bbd 397b fc3c
00000240: 1fd8 80bd 341c 58bd 8de9 ac3d e7b0 d4bb
00000250: 25e5 70be 4224 6fba 6321 093e 6114 87be
00000260: 649d 7e3d 45ac 643b c939 6e3d 976e 923d
00000270: e564 efbc 7d6a f1b9 5a24 d7bd 014c c13c
00000280: 1947 2ebe a6e0 7dbc 83ec d03d 5264 11be
00000290: 1a33 0b3d 5ed4 d53b 4aa3 fcbc dce9 f8bd
000002a0: cd2f 41bb 78c2 4c3c cc08 ac3d 4ba3 1cbd
000002b0: 0074 afbd e7e3 a9bd 03b9 36bd 8a35 09be
000002c0: 16ae a7bd 847b b23d c39c 9fbd bd36 5b3d
000002d0: 7de4 053c fdf8 813d 3731 b13d a287 213d
000002e0: 4fd9 14be c44d b73d 5326 c7bb 005e f8bd
000002f0: ee3d 4b3d 9b13 4dbd f21b 513e beba 533e
00000300: 3cc8 23be b650 7f3e e285 463c c6e8 06bd
00000310: b194 593e 5769 8abd d0ae 963c 8e85 193e
00000320: 52e7 2abe 5a48 04be ef56 033e a210 a9bd
00000330: 5cf3 293d 0930 183e cb8e 28be 899e 99bd
00000340: 6b14 c73d 0fa5 35bd b8cd d0bd e902 fd3c
00000350: 7e1e 34be eaf4 713d fcf4 893c fc4d 3ebe
00000360: ed4a 4abc a38a 8f3d 1933 debd 4b74 52bd
00000370: 3835 08be 2ea9 983d e720 983d d02f 12be
00000380: 81ba b63d 15d0 3abe 1fc1 c2be 0a93 b5bc
00000390: b586 24bd 7161 e63d 555f a93d 0cd0 fcbd
000003a0: e9dd e43c c8a2 103d 5861 2f3d c116 143e
000003b0: 2367 2dbe 6494 1dbe 595d 84bb f369 75be
000003c0: caa2 7cbd 06bb 0c3e ef78 3f3e a95e 2fbc
000003d0: 7b1a fe3d 636a fabd 968e e93a ba5b 88bc
000003e0: 7a87 133c 1fb7 9bbd 6fc5 413e 7069 c73d
000003f0: c9f2 723d fba3 3ebe a45c 093e 5755 81bd
0.04718132 -0.20933287 -0.3775566 0.09694664 0.06098875 -0.009294721 0.10158542 0.16617192
0.13661458 0.020299174 0.27361408 0.11047763 -0.04634639 0.08034497 0.09511321 -0.030335277
0.15581335 -0.06031081 -0.12441284 -0.0050756345 -0.19307892 -0.09607347 0.045391545 -0.24436325
0.011057346 0.057432085 0.23675595 -0.11142731 -0.0036479223 -0.016569458 0.067862704 0.0522326
-0.06792916 0.078208834 -0.009237823 0.051930595 -0.114189714 -0.16811554 0.11527518 0.06370912
-0.0752455 0.16098458 -0.053931445 0.043349143 0.07162107 -0.041404106 -0.15714973 -0.12655595
0.1399355 -0.08721708 -0.42909023 0.079202265 -0.13137452 0.26053205 0.115419075 0.010199991
0.2144313 -0.063789465 -0.030075599 0.36235636 -0.063940465 0.16790242 0.2899026 0.1390764
0.26681733 -0.052600496 -0.051243175 0.13764767 0.032334648 -0.013546056 0.22957514 0.05890315
0.0011003439 0.008558439 0.1252485 0.24294679 -0.4231804 0.19556554 -0.1655191 0.13224733
0.16409475 -0.24460326 -0.04404662 -0.21140291 -0.19877476 0.11095469 -0.30926588 -0.0120201735
0.123821944 -0.024581345 -0.15981844 0.0034264 0.12059902 -0.17555459 -0.037818667 -0.18348551
-0.1445177 0.0817159 0.03522822 -0.059451014 0.01489038 0.12716001 -0.13784394 -0.07145152
0.022786781 -0.019512475 0.05999477 0.115414016 0.2925716 0.14199603 -0.053320292 0.29536673
0.25377634 -0.18674532 -0.052642755 -0.19911724 -0.09780987 -0.06372159 -0.2725614 0.20838328
0.050091114 -0.25142232 0.2080366 0.01731504 -0.21644293 0.011235358 0.053241365 -0.2193204
0.05071725 0.05381072 -0.14951487 0.021554943 -0.08291386 0.11626558 -0.054895338 0.0026897641
0.21502481 0.12478711 -0.04978736 0.4294874 -0.09427366 0.10671682 -0.05368763 0.030820476
-0.06291222 -0.05276127 0.08442984 -0.006490815 -0.23524912 -0.00091225293 0.13391642 -0.26382735
0.06216182 0.003489272 0.058160577 0.071499996 -0.029222915 -0.00046046442 -0.105049804 0.023595812
-0.17019309 -0.015495455 0.10201361 -0.14198425 0.03398428 0.0065255603 -0.030839581 -0.1215398
-0.0029477954 0.012497537 0.08400115 -0.038241666 -0.08567047 -0.08295422 -0.044610035 -0.1339933
-0.08187501 0.08714965 -0.07793572 0.053519 0.008172152 0.06346319 0.08651965 0.03943599
-0.14536022 0.089503795 -0.0060775666 -0.12127304 0.049619608 -0.050067525 0.20420817 0.20676705
-0.15994352 0.24933133 0.012116881 -0.032936834 0.21248128 -0.06758373 0.018393904 0.14992353
-0.16689804 -0.12918225 0.12826131 -0.082551256 0.04149185 0.14862074 -0.16460721 -0.07500941
0.09720691 -0.044346865 -0.10195488 0.030885177 -0.17589757 0.05907146 0.01684045 -0.18584436
-0.012346965 0.07008865 -0.1084959 -0.051380437 -0.13301551 0.074541435 0.074281506 -0.14276052
0.089222915 -0.1824344 -0.38037965 -0.02216484 -0.04016753 0.11249054 0.08270136 -0.12344369
0.027937846 0.03531149 0.042817444 0.14461805 -0.16933875 -0.15388638 -0.004039448 -0.23966198
-0.061678685 0.13743219 0.18698476 -0.010703721 0.124073945 -0.12227323 0.0017818983 -0.016645301
0.009004468 -0.07603287 0.18922971 0.097369075 0.05931357 -0.18617241 0.13414246 -0.063151054

fc1.bias f4 [128]
00000000: 58e1 97bd 6a7b 86bc 171a 0e3e 9a81 38be
00000010: a229 0a3d 1ef1 99bd 7395 533d 3ca9 3abe
00000020: eeac 2e3e aa05 54be c826 5cbe f5f6 893d
00000030: b8c1 043d 831d 0b3e 874d 853d 5a6a 383e
00000040: 94d1 953d 200f 3cbe 79f4 3d3e 837c 2d3d
00000050: ec47 6c3d a49f f1bc f379 883a 7a12 cabd
00000060: 8553 07be 38bb 00be acb7 f2bd 894c bd3d
00000070: ad2b e33d 3ae2 8ebe 3934 1ebd f163 bebd
00000080: 73e3 e6bd 41a8 a0bd 97bf 68bd d763 6dbd
00000090: fd65 c63d 1885 e7bd e4c0 233e aab0 e93d
000000a0: 5623 333d cbaf d83b 2097 cdbd 379f d93d
000000b0: 7f56 063c 9a57 cabc 758f 82bd ab81 c1bd
000000c0: 54e6 57be e085 a7bc 119a 99bd 3d29 17be
000000d0: 5788 f3bd e57c 633d 0434 87bc 45b5 11bd
000000e0: 815a 16bd 8be0 dbbd 456f df3d 5a11 213e
000000f0: 0470 f33d 8192 1a3e 4e58 7ebd bd6e 0e3e
00000100: e38d ce3d 42f9 b1ba 4a4f de3d 865b 7e3d
00000110: c3d5 d0bd e77d 823d 648d 0d3e 45bd 91bd
00000120: c0fc 3d3d 43c2 ddbd 572a c4bc 50e4 ed3c
00000130: e354 dcbd 2c65 c3bd 5080 1e3e 1aab 2b3e
00000140: 2135 efbd 0b59 3abd 555b c93d 27d7 a3bb
00000150: a54c 1d3d d699 003e 1c91 f1bd 2c0f 78bd
00000160: e651 c93d 3f3b 1f3e c611 c4bc 767a d2bd
00000170: 348f a2bd 9915 3bbe 97c5 383c 924a 45bd
00000180: faf0 223e f788 123e 8309 efbb 552f 76bc
00000190: 4fe6 53bd e7f1 073c 808b 293d 3664 d3bc
000001a0: 4bc4 e8bd e5ae 91bc b139 c9ba ba89 05be
000001b0: af0c a83c 4285 cc3d 3da3 8bbe 42fe 033e
000001c0: bb82 f43d a891 223d 3b16 10bc 417c 833c
000001d0: b6c5 80bd e29d 0ebd 47e9 693d 74a0 a1bd
000001e0: cb91 943d 645c 28bc f0e6 b43d 3630 963d
000001f0: 64e5 a53d 98cc ea3c 42a6 0abe afa1 a13d
-0.07416028 -0.01641627 0.1387714 -0.18018189 0.03373111 -0.075166926 0.051656198 -0.1822862
0.17058155 -0.20705286 -0.21499169 0.067365564 0.032411307 0.13585477 0.06508928 0.1800932
0.073153645 -0.18365145 0.1855029 0.04235507 0.057685778 -0.029495068 0.001041232 -0.098668054
-0.13215454 -0.12571418 -0.11851439 0.092431135 0.11092315 -0.27906972 -0.038624022 -0.09296406
-0.11273851 -0.07844592 -0.05682334 -0.057956543 0.096874215 -0.113046825 0.1599155 0.11410649
0.04373487 0.006612753 -0.100385904 0.10626071 0.008199333 -0.024699975 -0.063750185 -0.0944856
-0.21083957 -0.020449579 -0.07500089 -0.14761825 -0.11891239 0.05553903 -0.016504295 -0.035573263
-0.036707405 -0.107361875 0.10909895 0.15729275 0.118866 0.1509495 -0.062095933 0.13909431
0.100856565 -0.0013578313 0.10854967 0.062099002 -0.10197022 0.0637167 0.13823467 -0.071161784
0.04638362 -0.10828068 -0.02394597 0.029039532 -0.10758378 -0.095407814 0.15478635 0.16764489
-0.116800554 -0.045495074 0.09831873 -0.0050000134 0.038403172 0.12558684 -0.117952555 -0.060561344
0.09830074 0.15549944 -0.023934256 -0.10277264 -0.0793747 -0.18269958 0.011277578 -0.04816682
0.15912238 0.1431006 -0.007294835 -0.015025933 -0.05173331 0.00829742 0.041392803 -0.02580462
-0.11365565 -0.017783592 -0.0015352276 -0.1304082 0.02051386 0.099863544 -0.27272978 0.1288996
0.11938997 0.03968969 -0.008794363 0.01605046 -0.0628771 -0.034818538 0.057107236 -0.07891932
0.0725437 -0.010275934 0.0883311 0.07333414 0.081003934 0.028662011 -0.13539985 0.07892167

fc2.weight f4 [128, 128]
00000000: 876c 353d f50c 913c 3ce0 813d a116 01bd
00000010: ee87 883d 11cd a1bd e02e 8fbb b465 ab3c
00000020: 48fb e33c 039d e43c 8f17 37be 1fc7 203e
00000030: f04f 80bd ac41 bb3d eebb 20be fe76 9d3c
00000040: 7d7e 13bd f04e 683c 3c89 75bd e18a 303e
00000050: 2f94 70bd 0575 933d 1c0b 653d 70a4 d93c
00000060: 4e70 d43d 49cb c13d b45e 403c fbe9 5bbe
00000070: b43a 65be 9a8c 6339 cbd2 c339 872b dabd
00000080: e758 aa3d d58c 47bd c299 623d 37f0 263e
00000090: b9ea cb3c 4c85 cc3b cd08 e13d 6ac4 95bd
000000a0: b34c 06be 9776 4ebe 8e8c 143e baf2 663d
000000b0: 4ca6 b53d 61ce c83d bbfd 453e ff36 cdbc
000000c0: 1a62 18be 30ba b9bd edaa 28be eb54 313c
000000d0: 893a c0bd 9667 e9bd 2ddc 3d3d 799a 12bc
000000e0: 2050 2a3d 2808 903d 0f20 e23d cdfb f03d
000000f0: e552 12bd 4770 19bd 6850 1f3c 6e5a 31bd
00000100: 7aa5 93bc 090f 6dbd e658 453e 2fe2 483e
00000110: bfc1 e4bd d827 17bd 0c1c bb3c 3712 a1bc
00000120: cced 453d f181 803b c05e aabd 3c5d 063e
00000130: 26b5 4abe 3a45 ae3d 793f 02be 472d 6fbd
00000140: d53f 8b3d e8b5 15be 9db6 903d b926 613d
00000150: 8c2f b33d 20e5 123b eadc b83c 06aa 8a3d
00000160: 3469 cbbd ff5f f23d ba4f 693d 84ae e13b
00000170: 9a83 373e 6b77 a4bc 1680 393e 4f02 b2bd
00000180: b600 133e 3312 edbd ed6d 1f3d 61cc 4dbd
00000190: 81e6 acbc c16c 38be e0ca 5c3b b51f 743d
000001a0: ea1a 45bd e689 1b3d 5a5f c33b 1d8e 63bd
000001b0: aa56 363c 008c 203e 58d0 0e3d 86ae 063e
000001c0: 14ac c8bd 75d0 f83c be18 b83c eb1e 43bd
000001d0: 63ab 5abd 2c43 a43d a062 423e f0ae af3c
000001e0: 3376 32bc 2ee8 093e 4b17 dfbc f990 9c3d
000001f0: aa20 2e3e 0cc9 5a3d 9be9 5e3e 8354 cfbc
00000200: e0b4 153d 5a48 b63d b1ae 1b3d a691 fc3d
00000210: de72 793d fdd9 85bd 8d01 25bb b51f 48bc
00000220: 6496 debb 0888 c5bc 7e74 573d 2ade a5bd
00000230: aa86 233d 14e6 cabb cb3d 603e 0db5 98bd
00000240: 8353 75bc 8264 3fbd aa34 c3bd 998f 02bd
00000250: 6958 803c 9e8d 86bd 2ce4 aabc 8ad0 783d
00000260: fc7a 043e 4020 d43c 2919 d4bc 0a7e 4a3e
00000270: b201 673e 68c3 ef3d cad9 513d c5ac aa3d
00000280: 08c3 f23c af3c 1e3e 27e8 e93d 3a0e bebd
00000290: 8274 9f3d dae0 243c 81d8 4fbd 8cf9 873e
000002a0: 6d1d c5bd f4c7 403e 6b99 71bd b212 01be
000002b0: 9eed be3d 15e3 1dbc cb40 1abe a575 fe3c
000002c0: b9f6 4f3e 1dd3 113b dfec 143e 16fe f13c
000002d0: b082 513c be6c f33d 0768 d53d bd38 833d
000002e0: 3d73 643e 0807 4c3d a6dc 3cbd f667 24be
000002f0: 0ea8 1bbd e330 193e d85f 74bc e7a6 163e
00000300: 77d5 e73a 78f1 5e3c e216 32be c330 bdbe
00000310: 6fa1 a13c 98fd 3c3e c2f8 cbbd cb44 2cbc
00000320: e3fa e83d 07e2 39bc b83e 4e3d 9b54 82be
00000330: 7da8 683e 6f95 31bd abcb 223e 5234 ba3c
00000340: e5fa 25bd 75fb 333e d7a7 34be 4220 7bbd
00000350: 7a9b 8cbe eca4 e53c f6f3 353c 5e7b 5b3d
00000360: 2cf6 b63d 8356 423d 80f7 89bb 6162 babd
00000370: 8fb4 ecbd 9ba6 83bd d5c0 20bd fdf3 f83d
00000380: 751b 25be 1775 ee3d 62bf 26bd 32be 023d
00000390: e57a e5bd 4798 183e 1357 ab3d bc12 ee3c
000003a0: 31a4 8ebd 1247 3abc d254 133e 622b c13b
000003b0: 4eb5 ac3d 0b64 49bd 3954 b33c 644c 1cbe
000003c0: ee5a e1bc 0dec 09bb 4084 56bc f3ca febc
000003d0: b809 0dbd 6b74 cbbc d4d3 09be cc0e a53c
000003e0: 4c0e bfbd f2a2 00be 7271 833c 5a97 fabc
000003f0: 55f8 1ebe 5b95 d5bd f40c 86be 9e8b 3ebe
0.044292953 0.017706374 0.063415974 -0.03151572 0.066665515 -0.079004414 -0.0043696016 0.02092252
0.027829781 0.0279069 -0.1788008 0.15700959 -0.06265247 0.09143385 -0.1569669 0.019221779
-0.0360093 0.014178976 -0.05994533 0.17240478 -0.05873507 0.07200054 0.055918798 0.026567668
0.10372983 0.09462602 0.011741329 -0.21475975 -0.22385675 0.00021700785 0.0003735035 -0.106528334
0.08317738 -0.048718292 0.055322416 0.16302572 0.024892198 0.006241476 0.10988007 -0.07312854
-0.13115196 -0.20162426 0.14506742 0.056383826 0.08869609 0.09804989 0.19335072 -0.025050638
-0.14881173 -0.090687156 -0.16471453 0.010823469 -0.09386165 -0.113967106 0.046352554 -0.008947962
0.04158032 0.07032806 0.11041271 0.11766777 -0.035723586 -0.03746059 0.00972376 -0.04329913
-0.018023241 -0.057875667 0.19272193 0.19617532 -0.11169767 -0.036903232 0.022840522 -0.019662006
0.048322484 0.00392174 -0.083188534 0.13121504 -0.19795665 0.08509298 -0.12719525 -0.05839279
0.06799284 -0.14620173 0.07066081 0.05496857 0.08749303 0.0022414401 0.022566278 0.06770711
-0.09932175 0.11834716 0.0569608 0.006887259 0.17921296 -0.020076474 0.18115267 -0.086918466
0.1435574 -0.11575737 0.038923193 -0.05024374 -0.021106007 -0.18010236 0.003369026 0.05960055
-0.04812137 0.037973307 0.0059622945 -0.05555545 0.011129061 0.15678406 0.03486666 0.13152513
-0.09798446 0.030372838 0.022472735 -0.047636908 -0.053386103 0.080206245 0.18982935 0.021445721
-0.010892439 0.13467476 -0.027232787 0.07644839 0.17004648 0.05341439 0.21768801 -0.025308853
0.03654945 0.08900519 0.038008396 0.12332468 0.06090056 -0.065357186 -0.0025177926 -0.012214591
-0.0067928303 -0.024112716 0.05260133 -0.08099015 0.039923348 -0.006191978 0.21898572 -0.07456408
-0.014973524 -0.04672671 -0.09531529 -0.031875227 0.015667157 -0.0656998 -0.020860754 0.060745753
0.1293754 0.025894284 -0.025890904 0.19774643 0.2255924 0.11707193 0.05123309 0.083337344
0.029634014 0.15452836 0.11421233 -0.09280057 0.07785894 0.010063374 -0.050743584 0.26557577
-0.09624753 0.18826276 -0.0589842 -0.12604788 0.09322666 -0.00963666 -0.15063779 0.031061957
0.20308961 0.0022251077 0.14543484 0.029540103 0.012787506 0.11885975 0.10420232 0.06407306
0.22309585 0.049811393 -0.046108864 -0.16055283 -0.038002066 0.14960055 -0.014915429 0.14712106
0.0017687519 0.013607375 -0.17391542 -0.36951265 0.019730298 0.18456113 -0.09959556 -0.010514448
0.11375978 -0.011345393 0.050352782 -0.25455174 0.22720523 -0.0433554 0.15898006 0.022730026
-0.040522475 0.17576392 -0.17642151 -0.06131006 -0.2746237 0.028032742 0.011105528 0.05358445
0.08933672 0.047445785 -0.0042104125 -0.091007955 -0.11557876 -0.06428262 -0.0392464 0.12155912
-0.16123755 0.11643427 -0.04070986 0.031919666 -0.11205081 0.14901839 0.083662175 0.029061668
-0.06964911 -0.011369484 0.14387825 0.005895064 0.084330186 -0.049167674 0.021890746 -0.15263516
-0.027509179 -0.0021045238 -0.013093054 -0.031102633 -0.034433097 -0.024835786 -0.13459712 0.020148657
-0.09328899 -0.12562159 0.016045306 -0.030589748 -0.15524419 -0.10428878 -0.26181757 -0.18607947

fc2.bias f4 [128]
00000000: d8fc e83d 6128 093d 177e c43c 2314 863d
00000010: 008e 653d f3a8 6b3e b42a b1bc 3128 8b3d
00000020: faf5 b43d 6414 4c3e c9d6 eb3d 395f f93d
00000030: c4b8 003e 8b17 00be 9ca4 5c3d 7418 5c3c
00000040: 6ee2 693d 536b 24bd b830 d03a 5634 3e3e
00000050: b9e8 bdbb 015f 373e 1797 bebd 002c de3c
00000060: 6a6f e03c 8441 df3d 07d5 2e3d 3891 5ebd
00000070: e5d5 663e 6606 913d 807d 0c3d e22b d73a
00000080: 276a 3e3e cd14 8dbd 7c0b 653e 0563 22bd
00000090: 6856 d3bc 2b40 803d ffac af3d 34b7 4bbd
000000a0: 6669 793d 3465 6dbd 0967 0f3e e249 8a3d
000000b0: 7f32 42bd 0a86 a63e b3a3 223e a38c 0d3e
000000c0: 44fb 2e3e e795 0e3e 799f 5aba d964 fd3d
000000d0: 380d 073e 3c3c e23c f5ab 073e f370 293d
000000e0: dbff 093d 831b 78bc 6aa6 0b3e 7484 a8bc
000000f0: c085 a53d 85d4 73bd 4e9f 84bd b25b 173d
00000100: d012 783d a388 d23d 6154 dd3d ff65 efbc
00000110: ffaf a9bd ac10 113d 22e4 a83d 3231 d73d
00000120: d300 613d 53c9 203e b406 d33c 592f 2f3d
00000130: ce3c 813d 72e6 b13d 38d0 44bd 5f88 51bc
00000140: 6785 003e 6545 d83d 9122 513e e06f 023e
00000150: 97dd 9dbd 18a8 813d e9c5 1d3d 00a0 313c
00000160: 92cf 5e3d bb59 4c3e 5d1c 533c e13e 173d
00000170: fe97 0b3e 0966 993d 825e d03c ff7c da3d
00000180: 030b 043e 4d92 bebc 4413 853d 4fd5 c5bd
00000190: aa18 1c3d 6258 543d 00ed 883e f889 533e
000001a0: 5d99 5f3d 8ecf 8a3e c41c 543e 9f34 243b
000001b0: 6c36 3c3c 6ff3 07bd b338 693e 76c9 1fbe
000001c0: 4ffc 9cbd 5529 83bc c64c b73c 23fa 8abb
000001d0: b284 983d b7ef 88bd 7fb0 12be 1cee 343d
000001e0: e6ae 48bd 6556 303e b3d6 163e 5824 873e
000001f0: e223 013e 4388 13bd c0e7 703c 834d c6bd
0.11376351 0.033485774 0.023985906 0.065468095 0.056043625 0.23013668 -0.021626808 0.06794775
0.08835979 0.19929653 0.115155764 0.121763654 0.12570482 -0.12508981 0.05386792 0.013433564
0.057100706 -0.040141415 0.001588366 0.18574652 -0.005795565 0.17907335 -0.09306162 0.02712059
0.027396876 0.10901168 0.042683627 -0.05433771 0.22542532 0.070812985 0.034299374 0.0016416276
0.18595181 -0.06888733 0.22367662 -0.039645214 -0.025798038 0.06262239 0.08577918 -0.049735263
0.06089153 -0.057957843 0.14004149 0.06752373 -0.047411438 0.3252414 0.15882759 0.1382318
0.17088038 0.1392437 -0.00083398033 0.12372751 0.13188636 0.027616613 0.1324919 0.041367482
0.03369127 -0.015143278 0.136377 -0.020570971 0.080821514 -0.059528846 -0.064756975 0.03695268
0.060564816 0.10279968 0.108071096 -0.02922344 -0.08285522 0.03541629 0.08246638 0.1050743
0.054932427 0.15701799 0.025760032 0.042769764 0.06310426 0.08686532 -0.048050135 -0.012788861
0.12550889 0.10560111 0.20423342 0.1273799 -0.077082805 0.063308895 0.03851882 0.01084137
0.054397173 0.19956104 0.01288518 0.0369252 0.13632199 0.07490165 0.02543569 0.10668372
0.12894826 -0.023263121 0.06497815 -0.09659826 0.03810946 0.0518421 0.26743317 0.206581
0.054589618 0.27111477 0.20714098 0.0025055779 0.011487585 -0.03319114 0.22775535 -0.15604195
-0.076653115 -0.01601092 0.022375476 -0.0042412444 0.074471846 -0.06686347 -0.1432514 0.04417239
-0.04899492 0.17220457 0.14730339 0.26394916 0.12611344 -0.03601862 0.014703691 -0.09682753

fc3.weight f4 [10, 128]
00000000: d9cf cebe 1bb2 043e a50f f4bd 7e67 65bc
00000010: 5f0d 92be da0b cd3d 29cf 5a3d 8a38 bcbe
00000020: 1039 f6bd 83fb 563d de4d 76bd d84e 553e
00000030: 3ba1 1b3e e247 be3e db37 3b3e d066 31be
00000040: fd75 a5bc 9fd5 253e 8e28 cfbd 4d09 13bd
00000050: b79f 6fbd 83cb 833e 27b7 2d3f adc8 2f3e
00000060: 1df2 2ebe 0008 14bf f357 4e3d 3ee2 38bd
00000070: 53db 153e f646 efbe ca94 48be c017 a6bb
00000080: b67e c6bd 1574 a4be bbec 9fbe 5371 b83e
00000090: b697 70bd 651f 923c b66e f13d d6ba ca3b
000000a0: 318c cc3d 0a4b 1c3e 609c febd 6aeb b0bd
000000b0: 0037 4c3d 73a5 35be dc53 ffbc 2216 2bbe
000000c0: 802f 27bf 559a 263c f75d 8b3e efdc 17be
000000d0: e790 9f3d 3f8c 0c3e 5039 1b3e 1405 5d3e
000000e0: ee90 da3d a30c 283d 71fc babe 86e9 a23e
000000f0: 1692 273d 78b2 683c cc19 88bd eb3e 6e3d
00000100: e5a9 67bd 72d6 1c3c d839 643d c308 753d
00000110: 0097 d33d 9b98 a4be e83c b1bd 925d 65bc
00000120: b12b 8ebd b7ef 81be 5318 a93c a865 61bc
00000130: 1fa3 5abc dfe1 7dbe 4b66 a83d c3a4 223e
00000140: 279d f6bd 80cb f2bc 1093 1e3e b290 9bbe
00000150: 2770 243f 9187 90be 4433 f8bb 296b 063f
00000160: 51f2 463d 12fd 003e 63bb aebc 9c0f babe
00000170: 7dfa efbe cafa a13e 3d5e ac3e eecf e13e
00000180: f5de 8bbe 7668 82be 4282 d43b 303e 55bd
00000190: 71c9 b1bd d055 673d ff31 183e 6662 68be
000001a0: 71b7 013f 32d3 683e 9974 c9bd 5c67 80be
000001b0: c254 20bd 19bd 36bd b3eb dd3d f628 d9bd
000001c0: d7f5 1ebb 3dc7 cc3d 4a10 653e 6d04 e63c
000001d0: 0cf4 d43e c10d fe3e 3dfe 6bbd 2dda a7bd
000001e0: 98c8 5dbd e114 fdbe 0872 6f3d b03d 443e
000001f0: 379c c7bd d319 753e 266c 0c3f 8814 333f
00000200: 6158 9d3e 0f11 49be 161a 19be c228 8cbc
00000210: 5add 42be 8007 073e 6614 bb3d 19bd 803e
00000220: b28a ac3d bab1 1b3f 0590 bf3d 70c9 893e
00000230: 2ee0 dabe c3c3 9ebd 4b42 fd3d 8fdd 50be
00000240: ffc6 7dbc 2d41 74bd b29b 40be 7e30 863e
00000250: e0b9 9c3d 6b17 e3bd e368 abbe 927e a43e
00000260: 6a07 163f eec4 adbe a147 5dbd 7e7b 54be
00000270: 44cf 2c3e be97 eabe 07e2 7fbe 2b5c 283d
00000280: c9e7 d33d cb2a d4be 0a41 ae3e 0d52 aabd
00000290: 1987 e9bd 7f6c edbd 9e47 863e d554 5bbe
000002a0: 6665 c73c f156 8fbe ad60 503e 0ab2 8ebd
000002b0: c2d0 80bd 171a 293f 153f 613e 03cd 00bd
000002c0: c5de 803b eb00 903e ea9b 213d 467d debe
000002d0: 9ba3 1b3c ae6f d73d 69e0 893e 0a95 10be
000002e0: 1d20 153d 15d2 c63c 2c9e 8bbe 5eb9 32be
000002f0: a798 43be efff 44bd b59e c7bc 929f a03e
00000300: 8569 3e3c 84c5 2d3d 54db 9f3e 1ce0 03bd
00000310: adc2 52be dc5f ed3e 1001 d93c 548f 253d
00000320: 1f1a 213e f33e 01be ea4c 1d3d e11e 99bd
00000330: 1bb8 26be 655f 1d3f 0bd6 49bd ed63 1ebe
00000340: 6238 85be 1cdf fb3b ed89 293e 6063 52bb
00000350: fc3c 4a3e 1199 aabe a975 8bbe 15e1 72bd
00000360: cfec c0bd 2ccf 523e 26fc 643e 8620 b8bd
00000370: e3e1 ba3e fda3 a6be 2ce1 90be dffd 8f3e
00000380: 9774 e63e c0c4 b5be e9e8 ba3c 30b0 70bd
00000390: ec95 93be d67e 90be 7f6b c53e 0a78 bd3e
000003a0: 02f5 2fbe 0b72 a13e 950a 663e 2338 c7bd
000003b0: f3cc 19be a5f3 39be 90fe 923e 87a7 e7be
000003c0: cc7e be3c e6dc 5bbd 2126 02bf 4c06 c33d
000003d0: b6b0 dbbc 68d0 283e b114 d4be 0e23 4fbe
000003e0: 1aaa 3ebc 330d f43e 4cdd 6bbe 1e69 5e3d
000003f0: 596c b73e a96d 1bbe c3da 95bd c018 7abe
-0.4039295 0.12958567 -0.119170465 -0.014001725 -0.28525826 0.10012026 0.05342022 -0.36761886
-0.120226026 0.052485954 -0.060132854 0.20830858 0.15198223 0.37164217 0.18283026 -0.17324376
-0.020197863 0.16194771 -0.10115157 -0.03589754 -0.058501925 0.25741205 0.67857593 0.17166395
-0.17084546 -0.5782471 0.050376844 -0.045137636 0.14634447 -0.46733826 -0.19588009 -0.005068749
-0.09692137 -0.32119814 -0.312353 0.3602396 -0.058738433 0.017837236 0.117886946 0.0061868234
0.09987677 0.15263 -0.1243217 -0.08638652 0.04985714 -0.17738895 -0.031167917 -0.16707662
-0.65306854 0.010168632 0.27220127 -0.14830373 0.0779131 0.13725375 0.15158582 0.21583968
0.106721744 0.041027676 -0.36520723 0.3181879 0.040910803 0.0142027065 -0.06645545 0.058165472
-0.05655851 0.009572612 0.055719227 0.05982281 0.10331535 -0.3214768 -0.08654195 -0.01399936
-0.06941927 -0.253782 0.020641482 -0.013757147 -0.013344555 -0.24793194 0.08222636 0.15883164
-0.12041693 -0.029638052 0.15485787 -0.3038383 0.6423363 -0.2822843 -0.0075744707 0.52507263
0.048570935 0.12596539 -0.021329587 -0.36340034 -0.46870795 0.3163665 0.33665648 0.4410395
-0.2731854 -0.25470322 0.0064852545 -0.05206126 -0.08681 0.05647832 0.14862822 -0.22693786
0.50670534 0.22736815 -0.09836692 -0.25078857 -0.03914333 -0.04461393 0.10835972 -0.10603516
-0.0024255419 0.09998939 0.22369495 0.028078282 0.41592443 0.49619868 -0.057615507 -0.081959106
-0.05414638 -0.49429992 0.058458358 0.19164157 -0.097465925 0.23935632 0.5485252 0.69953203
0.3073149 -0.19635414 -0.14951357 -0.017109279 -0.19029751 0.13186455 0.0913475 0.2514427
0.084248915 0.60818064 0.093536414 0.26911497 -0.4274916 -0.07752182 0.1236616 -0.20397018
-0.015489339 -0.05963247 -0.18809393 0.26208872 0.0765264 -0.11088451 -0.3347846 0.32127815
0.5860506 -0.33939308 -0.05402339 -0.20750234 0.1687594 -0.45818895 -0.24988566 0.041103523
0.10346944 -0.41438898 0.34033996 -0.08316431 -0.11402721 -0.115929596 0.26226515 -0.2141908
0.024340343 -0.2799602 0.20349379 -0.06967552 -0.062898174 0.66055435 0.2199672 -0.031445514
0.003932806 0.281257 0.03945533 -0.4345495 0.009499456 0.10519348 0.26929024 -0.14119354
0.03640758 0.024270097 -0.27269113 -0.17453524 -0.19101201 -0.04809564 -0.02436767 0.31371742
0.0116218375 0.042424694 0.31222022 -0.03219615 -0.20582075 0.46362197 0.026489764 0.04041989
0.1573262 -0.1262167 0.03840343 -0.07476593 -0.16281168 0.61473686 -0.049276393 -0.15467806
-0.2601958 0.007686509 0.16556521 -0.003210269 0.19749826 -0.33319905 -0.27238205 -0.059296686
-0.09420168 0.20586842 0.22361812 -0.08990578 0.36500463 -0.32546988 -0.28296793 0.28123376
0.45010826 -0.3550167 0.022816138 -0.058761775 -0.2882532 -0.28221768 0.38558576 0.37005645
-0.17183307 0.3153232 0.22464974 -0.09727504 -0.15019588 -0.1815935 0.2870984 -0.45245
0.02325382 -0.053677462 -0.5083943 0.095226854 -0.02681766 0.1648575 -0.41422036 -0.20228216
-0.011637235 0.4766632 -0.23033637 0.054299466 0.3582485 -0.15178551 -0.07317116 -0.24423504

fc3.bias f4 [10]
00000000: c8a1 b73c 7bd2 bd3e abe1 9ebd b505 3ebe
00000010: d8e4 5a3e 80ef c3bd 5487 813e bb87 0c3e
00000020: bac1 55be 9ae4 08bf
0.02241601 0.37074646 -0.077578865 -0.18556865 0.2137636 -0.095671654 0.2529856 0.13723652
-0.20874682 -0.5347382
