ckpt/model_epoch39.pth (torch, 106247 bytes, 6 tensors)

fc1.weight f4 [128, 63]
000000 e9 7c 5b 3d eb 72 66 be 07 1c bf be ec 75 cf 3d
       0.05358592 -0.22504775 -0.3732607 0.10129914
000010 f0 bc 5a 3d a8 5f 9b 3b fe 89 d0 3d f3 c4 2d 3e
       0.05340284 0.0047416277 0.1018257 0.16969661
000020 6b 32 14 3e 8c a2 98 3c 5a a5 92 3e 06 21 eb 3d
       0.14472358 0.018632196 0.28641778 0.11480908
000030 5f e3 43 bd 0a 06 b3 3d 63 01 d3 3d 40 05 02 bd
       -0.04782426 0.08741386 0.10302999 -0.031743288
000040 f5 53 1e 3e ee 19 85 bd 8e 14 01 be 4b 25 06 bc
       0.15461715 -0.06499086 -0.12605497 -0.008187602
000050 f1 4d 49 be 7b 54 c8 bd 19 f1 fd 3c bb 8f 6b be
       -0.19658639 -0.09781738 0.030998753 -0.23004048
000060 dc 58 d0 3b c5 74 03 3d a2 ed 8d 3e ab 36 f0 bd
       0.006358249 0.032093782 0.27720362 -0.11729177
000070 5b 40 c8 bb 3a 25 9f bc 98 0f 8a 3d cf 8e 58 3d
       -0.0061111874 -0.01942693 0.067412555 0.052870568
000080 2f 9b ab bd 5c 66 a3 3d e5 df 71 bc be a3 12 3d
       -0.08379208 0.07978508 -0.014762853 0.035800688
000090 57 57 e4 bd 10 e2 33 be e2 d5 d1 3d a3 62 5b 3d
       -0.11149471 -0.17566705 0.10245873 0.053560864
0000a0 f9 9a a3 bd a4 7d 24 3e 33 bf 68 bd 21 1f 19 3d
       -0.07988543 0.16063553 -0.056822967 0.037383202
0000b0 c5 62 70 3d 23 60 20 bd 60 53 32 be ca af 18 be
       0.058687944 -0.039154183 -0.17414618 -0.14910808
0000c0 51 07 15 3e 47 ac e6 bd f9 b9 ec be 37 54 85 3d
       0.14553572 -0.11263328 -0.46235636 0.06510203
0000d0 fd 87 0e be bd f7 88 3e a0 86 d7 3d 4a aa e6 3b
       -0.13919063 0.2675151 0.105237246 0.007039343
0000e0 00 b6 5a 3e f0 30 95 bd 7a 16 84 bc fe 65 b2 3e
       0.2135849 -0.07284725 -0.016123999 0.3484344
0000f0 13 b8 99 bd b3 6a 51 3e 5a 3d 85 3e 8e 35 0a 3e
       -0.075058125 0.20450859 0.2602337 0.13496992
000100 ee ee 9e 3e 96 55 19 bd 22 92 83 bd 6a af 29 3e
       0.31041664 -0.037435137 -0.06424357 0.16570821
000110 8c 51 0a 3d b0 36 d8 bc ee 0f 6e 3e 76 60 48 3d
       0.033769175 -0.026393265 0.23248264 0.048920117
000120 9a 44 72 bc c2 37 8b bc 1f de e0 3d 5d e1 5f 3e
       -0.014786864 -0.01699436 0.10979866 0.21863313
000130 e8 e0 f2 be 23 45 3d 3e ec 0b 25 be a9 76 04 3e
       -0.47437215 0.18483405 -0.16117829 0.1293589
000140 0a 13 24 3e 5c b8 6e be f7 b5 6a bd 39 ab 68 be
       0.16022888 -0.23312515 -0.05730244 -0.22721566
000150 a0 23 30 be 8a ba f1 3d cf b9 a2 be 10 e0 e5 3c
       -0.1720109 0.11803158 -0.31782386 0.028060943
000160 7e ee 18 3e 11 7e 5d bc ca c9 1d be 4d 83 26 3a
       0.14934728 -0.013518826 -0.15409008 0.0006351963
000170 16 5b f3 3d a2 91 33 be bb dc 2e bd ed a9 3d be
       0.11882608 -0.17536023 -0.042690974 -0.18521853
000180 89 a4 26 be df 8d c3 3d 99 a9 f1 3c 9d 7a c6 bd
       -0.16273703 0.09548544 0.029499816 -0.096913554
000190 f8 56 19 3d 12 fa ee 3d 1f d9 08 be 9a d6 93 bd
       0.037436455 0.11668791 -0.13364075 -0.072186664
0001a0 a5 1a a6 3c 56 43 88 bc 7e d9 75 3d 7c 84 f7 3d
       0.020276377 -0.01663367 0.06002187 0.12085816
0001b0 0c e4 97 3e 3a 84 25 3e 7a 3c 71 bd bc 8d 96 3e
       0.29666173 0.16163722 -0.058895566 0.2940501
0001c0 b2 e0 91 3e aa 28 56 be 33 11 4f bd 8d bd 48 be
       0.2849174 -0.2091395 -0.05055351 -0.19603558
0001d0 85 66 cf bd 40 df 7d bd 33 14 8e be 5b 91 57 3e
       -0.10126976 -0.061980486 -0.27749786 0.21051542
0001e0 19 48 51 3d a5 59 8b be 07 8e 48 3e 28 f5 45 3c
       0.05109415 -0.2721683 0.19585429 0.012082376
0001f0 e4 dd 82 be 78 ce 9b bc 8c 77 7a 3d 06 32 80 be
       -0.25559914 -0.01901935 0.061149165 -0.25038165
000200 56 ab 19 3d 81 f3 6e 3d 59 cb 2f be a9 d7 76 3c
       0.037516914 0.058337692 -0.17167415 0.015066066
000210 a6 55 ab bd 00 d4 e4 3d 8b 3d 58 bd 06 c9 2c bb
       -0.083659455 0.11173248 -0.052793067 -0.0026364936
000220 bf 17 72 3e b6 dd 05 3e d8 66 76 bd b2 cd fb 3e
       0.23641871 0.13072857 -0.060156673 0.4918037
000230 08 c1 b2 bd 1c e2 ce 3d 39 fc 1d bd b1 53 ff 3c
       -0.08728224 0.10101721 -0.038570616 0.031167837
000240 fb 00 92 bd 4c 0b 2e bd e9 ce be 3d 78 1a dc bb
       -0.07129093 -0.042491242 0.09316809 -0.0067170225
000250 92 c6 82 be 08 80 eb 3b e2 24 11 3e c3 75 9c be
       -0.25542122 0.0071868934 0.14174226 -0.30558595
000260 99 88 86 3d 62 a5 a4 ba 97 5c 96 3d 73 61 8c 3d
       0.06569023 -0.0012561495 0.07341879 0.068545245
000270 3a b6 f8 bc c1 06 51 3b 50 2a dc bd 0c 1b 0b 3d
       -0.03036033 0.0031894895 -0.10750258 0.03396134
000280 7f 3e 3f be 3e 1f 7c bc 9b 28 ed 3d 9e 29 29 be
       -0.18676184 -0.015388308 0.115800105 -0.16519782
000290 48 6b 17 3d 6e c4 2b 3b 94 17 93 bc 6d 0c 03 be
       0.036967546 0.002620961 -0.017955579 -0.12797709
0002a0 f6 95 0e ba d1 55 70 3c ff 95 af 3d e3 11 d7 bc
       -0.0005439216 0.014668898 0.08573531 -0.026253646
0002b0 52 3b b6 bd c5 99 b1 bd cb 2e e6 bc 3d 19 08 be
       -0.08898033 -0.08671907 -0.028098485 -0.13290878
0002c0 60 99 be bd 19 97 a9 3d 49 a1 86 bd 8f b7 35 3d
       -0.09306598 0.08280773 -0.065737315 0.04436451
0002d0 10 be 61 3b 0b 0d 91 3d 80 1a bf 3d 51 98 0f 3d
       0.0034445561 0.07082566 0.09331226 0.03505737
0002e0 52 0d 06 be da 7e b8 3d 2a cf 26 bc 0d 0f c2 bd
       -0.13091019 0.0900857 -0.010181228 -0.09475527
0002f0 2f f4 20 3d 64 4b 52 bd 5d 61 5e 3e 0c 1c 50 3e
       0.03929537 -0.05134143 0.21716829 0.20323199
000300 d9 eb 25 be 0f 74 87 3e bc 1d 57 3c 01 e4 1b bd
       -0.1620325 0.26455733 0.013129648 -0.03805924
000310 94 4b 67 3e e5 f6 82 bd 78 b7 33 3c 00 94 22 3e
       0.22587425 -0.06394748 0.010969035 0.1587677
000320 fd 7f 24 be 4b 97 09 be 9a 0b 07 3e c4 be 98 bd
       -0.16064449 -0.1343662 0.1318802 -0.07458261
000330 69 97 05 3d e0 3a 1e 3e 56 01 28 be 04 77 a0 bd
       0.0326151 0.15452147 -0.1640676 -0.078352004
000340 10 9f d5 3d 14 9a 2b bd 45 51 d0 bd 82 b1 23 3d
       0.104307294 -0.041894987 -0.10171751 0.039964207
000350 df 54 33 be 00 70 73 3d 42 1d c7 3c 18 35 40 be
       -0.17512845 0.059432983 0.024305943 -0.18770254
000360 53 52 8e bc 2b e8 94 3d 7c 58 e2 bd 3d 64 61 bd
       -0.01737324 0.07270845 -0.11052033 -0.055027235
000370 25 10 06 be 12 ca a4 3d 91 ac 8a 3d 8f dd 1d be
       -0.13092096 0.08046354 0.06771196 -0.15416549
000380 09 f7 b8 3d 02 2b 46 be c0 73 d0 be 20 90 e5 bc
       0.09031493 -0.19352344 -0.4071331 -0.028022826
000390 37 60 2b bd 9a 87 eb 3d b2 50 a3 3d 33 b1 f8 bd
       -0.041839805 0.11500473 0.07974376 -0.12143173
0003a0 4a fb ff 3c c8 5b 0f 3d ce 32 37 3d 5a 22 13 3e
       0.031247754 0.03499964 0.044726186 0.14368573
0003b0 8e 67 2d be fe b1 1d be 3b 15 2c bc 4c 0c 74 be
       -0.16934034 -0.1539993 -0.010503109 -0.23832816
0003c0 ea 40 7a bd bb 8e 10 3e 8f 6b 3b 3e dd b4 23 bc
       -0.061097063 0.14116947 0.18302749 -0.009991852
0003d0 f9 d5 00 3e 0c a3 01 be 4f 8b 06 3a bc 4e 8a bc
       0.12581624 -0.12659854 0.0005132453 -0.016883247
0003e0 f7 ee 68 3c f6 fd a6 bd d6 55 3f 3e 00 fc e4 3d
       0.01421713 -0.08153908 0.18685088 0.11180878
0003f0 70 d7 83 3d 2a cd 43 be b4 f2 03 3e 2c 97 59 bd
       0.06437576 -0.19121233 0.12885553 -0.053122684

fc1.bias f4 [128]
000000 91 b1 ae bd 2d aa 7e bc 24 11 11 3e ef 16 40 be
       -0.08529962 -0.015543503 0.14166695 -0.18758748
000010 8b 3d 0f 3d fa 38 96 bd 4d 90 77 3d ec b6 44 be
       0.0349708 -0.07335086 0.06044035 -0.19210404
000020 2a 65 2a 3e 1d c9 56 be 91 8e 7e be 4b 8c 97 3d
       0.16640154 -0.20975156 -0.24859072 0.07399806
000030 b8 c1 04 3d ad ff 16 3e d7 8c 75 3d ee 37 3a 3e
       0.032411307 0.1474597 0.05994877 0.18185398
000040 c6 40 7d 3d 2e 13 40 be 3f db 48 3e 09 92 47 3d
       0.06182935 -0.18757316 0.19614886 0.048723254
000050 2e 6f 5e 3d 36 dc 0d bd 1f 60 92 bb 7a 12 ca bd
       0.054305248 -0.034633838 -0.004467025 -0.098668054
000060 b9 0a 17 be 8a 31 06 be 0a c1 f2 bd c4 e5 b8 3d
       -0.14750184 -0.13104835 -0.118532255 0.09028199
000070 47 a9 e1 3d 45 d6 8a be f3 a2 0f bd e0 6d c7 bd
       0.11018615 -0.271166 -0.03506751 -0.09737754
000080 86 8a ed bd a7 9c a4 bd 9f ce 7a bd 75 d7 69 bd
       -0.11598687 -0.080376916 -0.061232205 -0.05709024
000090 9d a2 cf 3d e9 16 e8 bd 32 15 2f 3e 95 a6 e4 3d
       0.10138438 -0.11332495 0.17097929 0.111645855
0000a0 9b 9c 0a 3d 87 44 b6 3b 82 4c c2 bd 0b 40 e7 3d
       0.033840757 0.0055623683 -0.09487249 0.11291512
0000b0 67 fd 89 3c 11 8e bf bc f2 6a 72 bd 97 71 bd bd
       0.016844464 -0.023383172 -0.059184022 -0.09250181
0000c0 7f 24 5d be 60 49 b6 bc 59 ff 90 bd f1 00 1e be
       -0.21595953 -0.022251785 -0.07079954 -0.15430047
0000d0 7e cc 0c be 0e 8e 4f 3d be b4 50 bc 8a e3 11 bd
       -0.13749883 0.050672583 -0.012738405 -0.03561739
0000e0 3a 85 b4 bc 13 85 f2 bd 32 98 cc 3d d2 c2 28 3e
       -0.022036184 -0.11841788 0.099899665 0.16480568
0000f0 3c 75 e6 3d 01 ab 26 3e 4e 58 7e bd 12 0a 0e 3e
       0.112528294 0.1627617 -0.062095933 0.13871029
000100 61 e1 c0 3d eb 14 2a bc 90 f9 e1 3d 77 c0 80 3d
       0.094179876 -0.010380964 0.110339284 0.0628671
000110 39 75 c8 bd 3a eb 9d 3d e0 39 0b 3e 53 3a 92 bd
       -0.097879834 0.077108815 0.13596296 -0.07140031
000120 74 7b 4b 3d 87 bc e9 bd 75 78 d3 bc 01 9a bb 3c
       0.04967828 -0.11412912 -0.025814274 0.022900583
000130 af f7 ef bd ba ae e6 bd 59 84 29 3e 6c 21 3e 3e
       -0.11717164 -0.11263795 0.16554393 0.18567437
000140 81 c9 da bd 4f f8 4a bd 46 be a3 3d c0 e8 2c bb
       -0.10682965 -0.04955321 0.07995276 -0.0026383847
000150 13 32 86 3c d6 99 00 3e 05 7a f1 bd ad 1b 71 bd
       0.0163813 0.12558684 -0.117908515 -0.058864284
000160 95 eb ca 3d c7 d4 2a 3e 3f c8 de bc 9c ae d1 bd
       0.09908215 0.1668273 -0.027195094 -0.10238382
000170 37 1a b6 bd 77 0b 4b be cc 5d 32 3c 50 61 35 bd
       -0.08891719 -0.19828592 0.010886621 -0.044282258
000180 2a fc 21 3e ef 87 18 3e a4 b6 ef bb d0 57 78 bc
       0.15818849 0.14895605 -0.0073154736 -0.015157655
000190 88 57 60 bd d4 72 50 bb 80 8b 29 3d 8e 3a d4 bc
       -0.054770976 -0.0031806724 0.041392803 -0.025906827
0001a0 08 75 e6 bd 1e 2a c5 bc 4d 51 dc 3a 61 24 0e be
       -0.11252791 -0.024067935 0.0016808897 -0.13881065
0001b0 bb 5e ef 3b 04 aa ce 3d 68 b2 8f be d0 c8 fc 3d
       0.007304994 0.10091022 -0.280658 0.123429894
0001c0 80 94 e9 3d 9b 40 1c 3d 74 68 ac bc cb 10 7e 3c
       0.11405277 0.03814755 -0.0210459 0.015506933
0001d0 66 bb 91 bd f4 29 05 bd dd 8f 4a 3d 09 80 a1 bd
       -0.071158215 -0.032510713 0.049453605 -0.07885749
0001e0 af cd 9d 3d 88 d5 06 bb 35 d6 a6 3d 98 a6 9a 3d
       0.07705247 -0.0020574052 0.081463255 0.075513065
0001f0 2e a3 ad 3d 4a 20 d3 3c 9b 6f 15 be 46 a1 a1 3d
       0.0847839 0.025772233 -0.14593355 0.078920886

fc2.weight f4 [128, 128]
000000 5e 91 29 3d 28 61 86 3c 91 1f 83 3d 75 78 13 bd
       0.0413984 0.01640375 0.06402505 -0.03600355
000010 56 6c 95 3d 59 57 a1 bd 4c 87 28 bb 0b c4 a5 3c
       0.07296054 -0.07877988 -0.002571541 0.020235082
000020 22 9d d5 3c 89 6f ce 3c 46 79 3b be 02 c9 23 3e
       0.026075903 0.025199668 -0.18307981 0.15994647
000030 f0 4f 80 bd 97 f2 c8 3d 71 f8 29 be 5d 48 92 3c
       -0.06265247 0.09811895 -0.16598679 0.017856771
000040 b2 81 2c bd da d1 53 3c 10 0e 7b bd af ac 33 3e
       -0.042115875 0.0129284505 -0.061292708 0.17546342
000050 66 2c 83 bd 4f 0a 9e 3d f7 05 7b 3d 70 a4 d9 3c
       -0.06404953 0.0771681 0.061284985 0.026567668
000060 e8 6e d1 3d 17 7e cd 3d 16 5d 40 3c 98 88 65 be
       0.10226232 0.10033815 0.011740943 -0.22415388
000070 ba fc 68 be b6 c8 2b bb 23 fe 8d ba 0b 93 ee bd
       -0.22752658 -0.0026212162 -0.0010833185 -0.1164914
000080 54 b8 9a 3d 11 c8 58 bd bb ad 59 3d e4 2f 31 3e
       0.07554689 -0.052925173 0.053144198 0.17303425
000090 fd ff 48 3c 56 4e c6 3b 27 b1 d9 3d f0 9d a5 bd
       0.012268064 0.006051819 0.10629492 -0.08086765
0000a0 41 fb 0c be 4d 96 52 be e6 36 12 3e c9 04 5b 3d
       -0.13767721 -0.20565148 0.14278755 0.05347136
0000b0 7b 2a b0 3d 6b a2 d0 3d 85 59 45 3e 2d 81 ce bc
       0.086018525 0.10187229 0.1927243 -0.02520808
0000c0 6a 24 19 be e4 06 ba bd e1 b2 2b be 9c 9d 0e 3c
       -0.14955297 -0.090833455 -0.16767456 0.008704569
0000d0 a7 bb ba bd f3 d3 ec bd 93 0a 3f 3d 8b 9d 12 bc
       -0.09117823 -0.115638636 0.046640944 -0.008948694
0000e0 f2 a7 24 3d c6 23 89 3d 51 3c e5 3d 00 79 00 3e
       0.040199228 0.06696276 0.11193145 0.12546158
0000f0 13 4a 17 bd 79 04 2d bd 68 50 1f 3c 41 1b 4f bd
       -0.036935877 -0.042240594 0.00972376 -0.0505631
000100 80 80 8e bc 93 f0 86 bd 77 49 45 3e 44 45 4a 3e
       -0.017395258 -0.06588855 0.19266306 0.19752985
000110 c9 2f e3 bd 78 76 1e bd c0 42 ab 3c 11 e0 a0 bc
       -0.11093099 -0.0386872 0.020905852 -0.019638093
000120 bd f2 37 3d d6 84 9b ba 90 8a b6 bd 2c 73 0d 3e
       0.044909228 -0.001186515 -0.089131474 0.13813466
000130 18 20 52 be b4 84 9f 3d 57 f0 07 be a7 13 68 bd
       -0.20520055 0.07788983 -0.13275276 -0.056659367
000140 51 08 85 3d 78 01 1b be 65 4c 95 3d 46 63 73 3d
       0.06495727 -0.15137279 0.07289962 0.059420846
000150 6f c2 b0 3d 20 e5 12 3b 72 2b b9 3c ab 12 8a 3d
       0.08630835 0.0022414401 0.022603724 0.06741842
000160 82 88 d7 bd 5d 2e 02 3e 15 64 75 3d ee 51 12 3c
       -0.10524084 0.12712999 0.0599099 0.008930666
000170 32 1e 38 3e 74 96 a8 bc 41 f4 39 3e d7 07 be bd
       0.17980269 -0.020579554 0.18159582 -0.09278839
000180 e3 65 14 3e 63 65 f1 bd ef 6a 1f 3d 41 ae 4b bd
       0.14491992 -0.11786916 0.03892034 -0.04972673
000190 ea 38 93 bc 70 38 43 be e0 ca 5c 3b 58 28 74 3d
       -0.017971475 -0.19064498 0.003369026 0.059608787
0001a0 8c 7e 45 bd 66 16 0f 3d 15 78 f1 3b 73 10 89 bd
       -0.048216388 0.03493347 0.007369051 -0.066925906
0001b0 1b 40 5e 3c 71 f9 20 3e 28 ea 22 3d ec 89 08 3e
       0.013565089 0.15720154 0.03977409 0.13333863
0001c0 cc 79 ce bd b3 e2 10 3d 05 8b b6 3c f5 79 3a bd
       -0.10081825 0.035372447 0.022283087 -0.045526464
0001d0 a6 0d 69 bd ca 1f ab 3d 8f c8 44 3e 89 ab af 3c
       -0.05689778 0.08355673 0.19217132 0.021444099
0001e0 c8 ab 60 bc 03 bf 10 3e 44 fa 9b bc 3d 6e 9f 3d
       -0.013712831 0.14135365 -0.019040234 0.07784698
0001f0 0c 21 35 3e 18 0b 5e 3d 93 97 5f 3e 58 a0 b8 bc
       0.17688388 0.0542098 0.21835165 -0.022537395
000200 f8 8d 21 3d 76 9f ba 3d 46 c2 2b 3d ba 0f fe 3d
       0.039442033 0.09112446 0.04193332 0.12405343
000210 24 f2 78 3d b7 92 85 bd 26 6f 19 3b c8 8d 61 bc
       0.0607778 -0.06522124 0.0023412197 -0.013766713
000220 2e ce 8e bb 03 25 04 bd 8f ee 54 3d cb 29 ba bd
       -0.0043580746 -0.03226186 0.05198532 -0.090900026
000230 aa 86 23 3d 0a 5b 38 bc a9 ef 66 3e 86 c7 99 bd
       0.039923348 -0.011252174 0.2255236 -0.07508759
000240 56 e5 9f bc b7 8b 3d bd e3 a2 c1 bd 6d a9 0a bd
       -0.019518536 -0.04627582 -0.09454896 -0.033852983
000250 1e 16 73 3c a7 32 84 bd 36 92 ac bc 8a d0 78 3d
       0.014836816 -0.06454974 -0.021065813 0.060745753
000260 62 af 05 3e e3 e7 d9 3c 81 18 d4 bc 26 99 45 3e
       0.13055184 0.02659983 -0.02589059 0.19296703
000270 ab 1f 63 3e c1 2b ec 3d 74 c7 50 3d a2 fe ac 3d
       0.22180049 0.11531783 0.050971463 0.08447005
000280 6f 1c f6 3c d8 b2 1d 3e b6 30 ec 3d 82 8f c8 bd
       0.030042855 0.15400255 0.115327284 -0.09792997
000290 62 44 a0 3d b7 c3 21 3c 32 ee 4a bd cd a2 8a 3e
       0.07825543 0.009873322 -0.049543567 0.27077332
0002a0 84 e9 c9 bd 05 4d 44 3e 4e 1d 77 bd 03 ff 00 be
       -0.09858993 0.19170006 -0.06033068 -0.12597279
0002b0 3b 31 b9 3d 16 fe 43 bc 2c a9 1e be 29 27 02 3d
       0.09042593 -0.011962434 -0.15494221 0.031775627
0002c0 2c 2a 56 3e a1 17 39 3b 1d 12 17 3e 2a ac e7 3c
       0.20914525 0.0028242844 0.14753003 0.028280336
0002d0 3d 61 86 3c c1 28 e2 3d 69 68 d8 3d 96 35 83 3d
       0.016403789 0.110429294 0.1056679 0.06406705
0002e0 ef fc 69 3e a1 84 5b 3d 0b 99 4d bd 3a 8d 2c be
       0.22850393 0.05359328 -0.05019478 -0.16850749
0002f0 17 2a 32 bd 7e 83 1d 3e d8 5f 74 bc 07 cd 0f 3e
       -0.04349717 0.15382192 -0.014915429 0.14043055
000300 4e a3 25 bb c0 6c 7e 3c e5 5f 3d be b6 86 c1 be
       -0.002527434 0.015528858 -0.18493612 -0.3779809
000310 82 e0 8d 3c 0f 3e 3f 3e c5 23 d0 bd cb 44 2c bc
       0.017318968 0.18676017 -0.101630725 -0.010514448
000320 eb ab f3 3d 4f 3f 93 bc f6 d5 55 3d 35 98 87 be
       0.11898025 -0.017974524 0.052206002 -0.26483312
000330 d2 6c 6a 3e 98 b0 38 bd ac e7 20 3e 13 0f 90 3c
       0.22893074 -0.045090288 0.15713376 0.017585313
000340 df e7 2c bd 4d 0a 30 3e 7b 2c 38 be 0f 38 72 bd
       -0.042213317 0.1719143 -0.17985718 -0.059135493
000350 92 a5 8f be ec a4 e5 3c 4f a8 35 3c c2 1d 5e 3d
       -0.28056008 0.028032742 0.011087491 0.054227598
000360 4b 95 b7 3d bc f9 4e 3d 7c ae d5 bb 12 ac ba bd
       0.08964022 0.050531134 -0.0065210443 -0.09114851
000370 91 e5 fd bd e4 be 86 bd 38 57 37 bd a8 4b 01 3e
       -0.12397302 -0.06579378 -0.044760913 0.12626517
000380 b1 89 25 be 48 59 ea 3d ae bc 26 bd 2a 58 01 3d
       -0.16165806 0.1144281 -0.040707283 0.03157822
000390 f1 89 ec bd 3c 74 1e 3e 13 57 ab 3d 46 3d ee 3c
       -0.11549748 0.15474027 0.083662175 0.029081952
0003a0 11 80 8e bd 00 89 21 bc 18 9d 14 3e c2 f3 4b 3c
       -0.069580205 -0.0098593235 0.14513052 0.012448253
0003b0 04 b5 ad 3d d2 ed 55 bd 15 41 cc 3c 3f b0 1f be
       0.084817916 -0.052228756 0.024933377 -0.15594576
0003c0 06 09 00 bd b2 bf 04 bc 2a 0e 00 bc ac 82 19 bd
       -0.031258605 -0.008102344 -0.007815877 -0.037478134
0003d0 6e 2f 21 bd d9 3b ef bc c3 19 14 be ed 0e a5 3c
       -0.039351873 -0.029203342 -0.14462952 0.020148719
0003e0 7d 8e c6 bd 7f 64 02 be 65 cd 02 3c a5 de de bc
       -0.09695146 -0.12733649 0.00798354 -0.027205775
0003f0 a9 72 24 be 96 45 d9 bd e9 15 89 be b4 60 44 be
       -0.16059364 -0.106089756 -0.2677453 -0.19177514

fc2.bias f4 [128]
000000 2b 8f f0 3d 4b cc e0 3c 8b 7f f7 3c 88 4f 93 3d
       0.11746057 0.027441164 0.030212184 0.07192904
000010 9e dd 4e 3d 73 25 79 3e 3c 4b 8a bc f3 7f 94 3d
       0.05050432 0.24330692 -0.016881578 0.07250967
000020 6e 8f aa 3d c4 80 50 3e ed 9c 02 3e 6d ec fa 3d
       0.08328138 0.2036162 0.12755175 0.12252126
000030 39 8e 09 3e 28 9d 08 be b8 e1 8b 3d ae 2b 7a 3c
       0.1343316 -0.133412 0.06830162 0.015269203
000040 0d dc 6c 3d 7d 4c 10 bd ed ae c7 3b d9 f9 4d 3e
       0.057827044 -0.035229195 0.006093851 0.2011484
000050 e2 ca 6f 3b 65 f4 3b 3e bf 7b dd bd db c4 a9 3c
       0.0036589433 0.18354948 -0.10814618 0.02072375
000060 67 53 d0 3c a8 cb e5 3d d2 3f 41 3d 5b b1 44 bd
       0.025430394 0.11220485 0.047180004 -0.0480207
000070 c3 cf 5f 3e ab 89 9e 3d 8e 6f 32 3d 63 41 ed 3b
       0.21856599 0.07741102 0.043563418 0.0072404607
000080 2d ba 4d 3e 61 99 a5 bd 4b 5b 68 3e c1 10 32 bd
       0.20090552 -0.08085895 0.22691076 -0.04347301
000090 04 d4 22 bd 94 bf 6b 3d 4f 1e ca 3d 92 fa 4c bd
       -0.039752975 0.05755575 0.09869062 -0.05004365
0000a0 b9 18 7b 3d 29 89 74 bd 71 64 20 3e 75 88 93 3d
       0.061302874 -0.05970112 0.15663315 0.072037615
0000b0 c6 8b 44 bd ab 00 ad 3e cd 53 26 3e c2 7b 0b 3e
       -0.04798486 0.33789572 0.16242905 0.13621429
0000c0 5b fb 28 3e ce b7 1b 3e 90 58 b0 bb 0f b4 06 3e
       0.16502135 0.15206835 -0.005381651 0.13154624
0000d0 a2 08 0b 3e df 3a 0a 3d fe 95 08 3e b6 e7 1c 3d
       0.13577512 0.03374755 0.13338467 0.038306914
0000e0 60 65 21 3d 26 6b 79 bc d9 c0 0e 3e 08 99 ae bc
       0.03940332 -0.0152233 0.13940753 -0.021313205
0000f0 c5 b2 b4 3d 9f 53 81 bd 53 9f 85 bd dc 79 17 3d
       0.0882316 -0.063147776 -0.06524529 0.03698145
000100 74 3a 90 3d d6 79 cb 3d 35 a7 f2 3d 85 6f ee bc
       0.07042399 0.09935348 0.118482985 -0.029105911
000110 5b 06 b0 bd b3 a7 fd 3c 3b 19 ce 3d 06 92 ea 3d
       -0.08594962 0.030963754 0.10063406 0.11453633
000120 28 7c 3d 3d c5 d2 2a 3e fe 40 01 3d 07 f2 47 3d
       0.046260983 0.16681965 0.031556122 0.0488148
000130 8d 07 85 3d 59 0b c5 3d ab 85 45 bd 87 1c ed bc
       0.06495581 0.09621305 -0.04822318 -0.028944267
000140 af 7e f0 3d 85 4d fb 3d 53 85 4a 3e c3 e2 13 3e
       0.11742913 0.12270645 0.19777422 0.14441971
000150 dd 7b c1 bd 52 7d 77 3d 1f 88 0c 3d c8 8d cd 3b
       -0.09447453 0.06042225 0.034309503 0.006273005
000160 42 88 75 3d 9f 17 58 3e 21 69 11 3c e1 e7 ec 3c
       0.0599444 0.2110276 0.008875162 0.028919162
000170 10 e3 0c 3e 81 83 a9 3d fd 4a b2 3c ff b5 dc 3d
       0.13758492 0.082770355 0.021764273 0.107769005
000180 1a 8c 06 3e 23 63 ff bc eb bf 95 3d 3f b1 be bd
       0.13139382 -0.031175202 0.07311996 -0.09311151
000190 dd 57 19 3d 2c 6d 53 3d 74 18 8e 3e a3 e3 4f 3e
       0.03743731 0.051617786 0.2775303 0.2030168
0001a0 0d 03 49 3d 22 2e 92 3e 46 92 60 3e da a6 ee b9
       0.049075175 0.28550822 0.21930799 -0.00045519212
0001b0 97 db c4 3c 9b f1 ff bc 2c 34 6c 3e 31 9a 26 be
       0.02403049 -0.031243136 0.23066777 -0.16269757
0001c0 e7 de a2 bd 3d b6 7b bc f3 1e 40 3c 26 7d 55 3b
       -0.079526715 -0.015363273 0.011726129 0.0032575815
0001d0 04 a3 a4 3d e0 9f 96 bd 58 f1 23 be 11 f2 65 3d
       0.08038905 -0.073547125 -0.16010034 0.056139056
0001e0 f7 00 36 bd d0 1b 28 3e b3 27 12 3e 58 26 88 3e
       -0.044434514 0.1641686 0.14272957 0.26591754
0001f0 59 85 04 3e e1 99 dd bc 2b e8 7b 3c a6 aa ea bd
       0.12941493 -0.027050914 0.015375177 -0.1145833

fc3.weight f4 [10, 128]
000000 67 2f d4 be 1e 08 fb 3d 88 25 09 be cc 88 5d bc
       -0.41442415 0.122574076 -0.13393223 -0.013521384
000010 d2 57 96 be a8 ce c0 3d 3e 87 6b 3d 81 c0 c0 be
       -0.29363877 0.094144166 0.057502024 -0.3764687
000020 e9 96 c9 bd d8 bc 3e 3d 5e e6 84 bd 1c b3 56 3e
       -0.09843237 0.046566814 -0.064892516 0.20966762
000030 91 6e 19 3e 77 01 ca 3e a3 38 37 3e 16 d1 33 be
       0.14983584 0.39454243 0.17892699 -0.17560229
000040 69 2c ae bc 04 14 32 3e 28 f5 d2 bd 9b 63 3f bd
       -0.02126141 0.17390448 -0.10300666 -0.04672585
000050 57 15 7a bd c1 f6 89 3e 59 9f 2f 3f 71 4c 39 3e
       -0.061055508 0.2694607 0.6860252 0.18095566
000060 51 c7 33 be a6 55 16 bf 20 e8 26 3d e2 3f 33 bd
       -0.17556502 -0.5872444 0.040748715 -0.043762095
000070 66 32 2c 3e b6 6d f3 be 25 f4 53 be a0 67 ae bb
       0.168161 -0.4754464 -0.20698602 -0.0053224117
000080 a2 ca d9 bd 0d 6d a1 be bc 3b 9e be ec 0c be 3e
       -0.10634352 -0.31528512 -0.3090495 0.37119234
000090 60 05 69 bd b3 75 d9 3b 4b 11 f0 3d 2c 2c 89 3c
       -0.05688989 0.0066363453 0.11722048 0.016744696
0000a0 b4 a1 d8 3d 55 77 2f 3e fa bb 02 be f6 26 b9 bd
       0.105777174 0.17135365 -0.1276702 -0.09040634
0000b0 92 07 4b 3d 97 63 44 be f5 05 aa 3b 70 62 30 be
       0.049567766 -0.19178616 0.0051886984 -0.17225051
0000c0 a9 f9 28 bf 62 b6 34 3d 6f 18 8f 3e 23 f7 22 be
       -0.6600595 0.044119246 0.2794833 -0.15914588
0000d0 82 c5 a3 3d 50 11 13 3e 48 49 23 3e 43 3e 7b 3e
       0.07996656 0.14362073 0.15945923 0.2453547
0000e0 76 ea d7 3d a7 a8 27 3d 9d 64 c1 be 6d cc aa 3e
       0.10542767 0.040932324 -0.37772074 0.3335909
0000f0 97 7a f3 3c 5e ad 5a 3c 1b 43 88 bd 64 c9 6c 3d
       0.029721541 0.013346998 -0.06653424 0.05780925
000100 c9 76 80 bd 3e 8d c7 3c 49 b9 46 3d fd 15 63 3d
       -0.062726565 0.024359342 0.048516545 0.05544089
000110 40 fd dc 3d 5c 21 a9 be f8 c8 be bd 72 3d bf bc
       0.10790491 -0.33033264 -0.093156755 -0.02334473
000120 8d b4 90 bd 6c 81 8c be 52 06 b1 3c 7b 0d a5 bc
       -0.07065687 -0.2744249 0.02160946 -0.02014803
000130 a2 74 a4 bc 13 31 81 be 7c 35 aa 3d bc f8 3c 3e
       -0.020075146 -0.25232753 0.083109826 0.1845426
000140 9e 90 10 be 73 19 f5 bc ab 5d 20 3e b9 e3 9d be
       -0.14117667 -0.029919362 0.15660731 -0.308378
000150 73 03 26 3f 56 e8 97 be 40 18 8b bc 01 8a 0a 3f
       0.64849013 -0.29669446 -0.016979337 0.5411683
000160 ed 5a 47 3d 00 67 fa 3d 37 b9 a3 bc 21 9a b7 be
       0.048670698 0.12226677 -0.019985778 -0.3585978
000170 ea 76 f2 be d8 dc a2 3e d6 57 b0 3e ad 27 e6 3e
       -0.4735635 0.31809115 0.34442014 0.44952145
000180 dd 54 8e be fa 19 83 be a8 c6 c3 3c b2 c1 57 bd
       -0.2779912 -0.25605756 0.023898438 -0.052674957
000190 ea c2 bd bd 01 6f 69 3d 68 3f 1c 3e 99 f9 71 be
       -0.092656925 0.056990627 0.15258563 -0.2363037
0001a0 7d ad 02 3f 47 67 69 3e df aa b8 bd 11 bc 82 be
       0.5104597 0.22793303 -0.09016966 -0.25534108
0001b0 5a 8a 24 bd 05 39 28 bd ac a3 ed 3d cd 67 b6 bd
       -0.040171005 -0.041070003 0.116034836 -0.08906517
0001c0 29 70 8f ba 52 3f d1 3d dd 76 74 3e 26 d3 f4 3c
       -0.001094346 0.102171555 0.23873468 0.02988584
0001d0 cf 46 dd 3e 8b 3c 03 3f 5a 13 3b bd 16 ca c5 bd
       0.43218085 0.51264256 -0.045672752 -0.096576855
0001e0 e1 b4 50 bd 33 c7 ff be 23 53 85 3d 50 d4 3f 3e
       -0.05095375 -0.49956664 0.06509998 0.18733335
0001f0 3d ac d6 bd 72 99 84 3e b9 e6 0f 3f c7 ba 38 3f
       -0.104820706 0.2589832 0.5621143 0.7216
000200 bc d3 a1 3e 2b 2b 35 be b4 c4 0b be 71 45 86 bc
       0.31606853 -0.17692249 -0.13649255 -0.016390534
000210 32 8d 46 be 45 ee 1a 3e 66 96 be 3d 93 69 85 3e
       -0.19389799 0.15129955 0.0930603 0.2605711
000220 bf 64 c8 3d 50 30 23 3f 7e c3 dd 3d f6 f3 8d 3e
       0.09784841 0.63745594 0.10828303 0.2772519
000230 86 7b d6 be 47 99 a4 bd 34 5e 07 3e 32 b3 56 be
       -0.41891116 -0.08037048 0.1321953 -0.20966795
000240 01 a6 83 bc 26 f4 89 bd cc b1 3e be 5b 72 8f 3e
       -0.016070368 -0.06736021 -0.18622512 0.28016934
000250 ce bb a1 3d 71 9b c8 bd 67 5e b0 be e6 04 a8 3e
       0.07897149 -0.09795273 -0.34447023 0.32816237
000260 30 9d 1a 3f 10 85 b7 be 1d 50 46 bd 33 ea 5b be
       0.603961 -0.35843706 -0.048416246 -0.21476059
000270 f1 1e 46 3e 76 d4 f3 be 72 98 7f be 28 a3 25 3d
       0.1934774 -0.47623032 -0.24960497 0.0404388
000280 6d 16 e0 3d ac 47 df be ee e9 ba 3e 5c 02 ba bd
       0.109417774 -0.4360937 0.365066 -0.09082481
000290 71 94 fd bd 72 50 db bd 45 8f 8b 3e cb a9 65 be
       -0.123818286 -0.10708703 0.27257743 -0.22428052
0002a0 b0 e0 c8 3c 20 9b 96 be 79 71 5e 3e 40 cc 86 bd
       0.024521202 -0.29415226 0.21722974 -0.06581926
0002b0 de a2 7d bd 67 02 30 3f 53 e4 72 3e fe fc d5 bc
       -0.0619229 0.68753666 0.23719911 -0.026121613
0002c0 75 d3 36 3c 61 08 91 3e 32 6e 1d 3d 7b 1f e7 be
       0.011158814 0.28326705 0.03843517 -0.45141205
0002d0 fe 5f 70 3c 1d 75 e6 3d be 6d 91 3e 83 f7 13 be
       0.014671324 0.11252806 0.2840404 -0.14449887
0002e0 d6 89 1c 3d 80 5e c6 3c 89 23 96 be 08 1c 39 be
       0.038217388 0.024214983 -0.29323986 -0.180771
0002f0 d8 e1 59 be 76 de 46 bd f3 3c c8 bc b0 58 9e 3e
       -0.21277559 -0.048552 -0.024443125 0.30927038
000300 59 d6 09 3c 26 60 0c 3d 21 d7 a0 3e a4 2c fb bc
       0.008412921 0.03427138 0.3141413 -0.030660935
000310 a7 0b 5c be 14 7a ee 3e 4b 5c 0b 3d fa 86 45 3d
       -0.2148882 0.46577513 0.034023564 0.048224427
000320 51 12 24 3e 18 52 f3 bd 74 34 1e 3d 64 d9 ab bd
       0.16022612 -0.118808925 0.038624242 -0.08391073
000330 05 67 23 be 2c 81 20 3f 3e fb 48 bd 26 82 19 be
       -0.15957268 0.626971 -0.04906773 -0.14991054
000340 75 fa 91 be 26 6b 7e 3c 5b 04 32 3e 77 1a 31 3c
       -0.28511396 0.015528476 0.17384474 0.010809532
000350 f5 f5 4e 3e ba 4d b2 be 0b c9 94 be 86 d9 07 bd
       0.20211013 -0.34824926 -0.29059634 -0.03316643
000360 47 e8 bf bd 35 0a 5a 3e bd f2 63 3e a2 37 ad bd
       -0.09370475 0.21292956 0.22260566 -0.08457877
000370 80 d3 c7 3e 61 91 9e be 01 b3 8d be 7c a9 91 3e
       0.3902855 -0.3097029 -0.27675632 0.2844962
000380 57 e6 e7 3e 93 69 b5 be f2 ad 0c 3d 63 42 79 bd
       0.45292923 -0.3543211 0.034345575 -0.060854327
000390 e3 f7 92 be c2 68 92 be 15 51 ca 3e fa f2 c8 3e
       -0.28704748 -0.2859555 0.39514986 0.39247876
0003a0 81 d2 08 be d1 42 a0 3e ed 79 71 3e 2a e8 bb bd
       -0.13361551 0.31300977 0.23581667 -0.09175141
0003b0 85 a3 1d be 60 dc 46 be 8b 7a 99 3e 05 6a ea be
       -0.15394409 -0.19420004 0.29976305 -0.4578401
0003c0 1c cd bb 3c 14 19 57 bd 13 f2 03 bf 10 aa cd 3d
       0.022924952 -0.05251415 -0.5154125 0.100422025
0003d0 c5 18 56 bc 0d e1 2d 3e 5a 6b d8 be 19 0a 55 be
       -0.013067429 0.16980381 -0.42269403 -0.20804633
0003e0 41 45 22 bc a1 f4 fb 3e bc d0 63 be 59 9d 98 3d
       -0.009904207 0.49210075 -0.22247595 0.07451887
0003f0 6f 73 b7 3e ac 7f 14 be ff 42 6a bd 4c ba 80 be
       0.35830256 -0.14501828 -0.0571928 -0.25142133

fc3.bias f4 [10]
000000 ab ad 03 3c 53 33 c8 3e eb 44 a6 bd f4 66 48 be
       0.008037011 0.39101657 -0.08118614 -0.19570524
000010 c2 3e 64 3e ea 0f d4 bd 63 94 95 3e df 99 08 3e
       0.22289565 -0.10354598 0.29214773 0.13339947
000020 b2 bc 61 be d1 40 0d bf
       -0.22044638 -0.55177027
