ckpt/model_epoch8.pth (torch, 106239 bytes, 6 tensors)

fc1.weight f4 [128, 63]
00000000: 5751 80bd 980a 4abd 305d b3bd 1497 c23d
00000010: cc71 44bd acfe 933d c871 e3bd b0ac 2abc
00000020: 1a96 45bd 761a 6bbd 3439 21bd 9c73 72bd
00000030: ac5a e33d 98b3 fd3d 0a8f 1ebd d665 a73d
00000040: 5820 d6bd 60b9 8a3b fe47 2dbd 3f2e 87bd
00000050: a064 febd 7c84 88bc 1884 b93d 60eb 29bb
00000060: b085 c13c 00e7 f8bb ce31 b7bd 24b7 303d
00000070: b016 8dbd ee4b 993d 6c22 623d bcc0 903d
00000080: 63e2 b6bd aaa3 cabd 7eeb c7bd c4ee 903d
00000090: 94a4 96bd 2472 ce3d 700a ecbd 5cf9 f6bd
000000a0: 70ce 543c 6090 4e3c c806 fd3c 30cf 6f3d
000000b0: 1e1e e3bd 544a 48bd ea6f 49bd ca65 b13d
000000c0: 600c 5dbb 9896 f6bd 2ec3 b73d ea2e 19bd
000000d0: 187b 393d 9cb5 babc 7015 053c 5d88 cbbd
000000e0: 203f 9b3b c8fb cebd ee97 c9bd 5bde a1bd
000000f0: ac64 5f3d 70ba ee3d 26d9 af3d 283a 5d3d
00000100: b9a4 12be 728d 2abd 766d 753d 32c7 cfbd
00000110: efd5 603d 164c 33bd 07d6 7a3d 3cbe dd3d
00000120: b911 d0bd b088 ea3c 6a9f b5bd 8af7 d63d
00000130: ad5c 35bd 3f92 18be 0139 ba3d f6c4 f5bd
00000140: bc1a 143e ba97 aa3c be72 a83d bbcb a23d
00000150: 4e6c 8e3d cb4a b33d 476b dabd ea15 bc3d
00000160: babd 133d 8904 013d 85a9 893c 0b66 aebb
00000170: 715e d1bb 0af0 b0bc daf7 bb3d 1c85 54be
00000180: 3bd1 6ebd 6be5 debd d966 8ebd ea0c 8fbd
00000190: 4382 1fbe 2e61 93bb 6eb7 59bd 52af 9b3d
000001a0: 06fd 7dbd 360c c3bd 7a86 143d b295 fa3d
000001b0: f220 adbd 150c a13d 9cf6 353e 4846 f63d
000001c0: e1d0 b1bd ebda 4c3e 28b7 ab3d 188b 85bd
000001d0: fb48 02bc b3a9 1b3d 8ac6 61bd 6ffa f23c
000001e0: ab0c 57bd 6a27 d839 93bb 493e b8e5 0a3d
000001f0: 8209 853d 72fa 543d 1e68 72bd 6e0c 523d
00000200: d7fb 9c3c 8216 acbd 5436 bb3d 9805 c9bc
00000210: 3e36 e6bd 418d 38bd bc4c 323d d681 dabd
00000220: 797b 853d 58ba ebbc ddeb 04be 06b1 02be
00000230: 055a eebd b090 66bd a021 a73d 38fb b73d
00000240: deb9 07bc b8da b8bd 638d 4cbd 4c4a 93bd
00000250: 0b0f 983d 3faa 7abd 6b95 bc3d 56b2 b4ba
00000260: 643e c33d b127 6e3b 8232 4bbd 004a d8bc
00000270: 1194 5b3d f804 ddbd e031 343d ec11 9d3d
00000280: 76fb f8bd 6c51 30bd 1f64 a1bd 8d59 4b3c
00000290: 80d5 efbc e1c9 203b 0e9c 143c 686a c13d
000002a0: ee07 dabd 7a1a eb3a 5967 7ebc cdff 55bd
000002b0: 5ffe 4e3b dc82 e8bd cbae ffbd 35c4 383d
000002c0: 5cbc b8bd b1a0 ab3d 756d b23c 62f1 58bd
000002d0: 5c26 423d 5e02 d23d 1607 953d be23 6e3d
000002e0: 2183 8d3d 47a5 663d ee54 6abd 4142 5a3d
000002f0: c7d0 89bd 103b c33d 79cc 81bc 4146 74bd
00000300: f1b3 cb3d 8732 24bd bc83 a23d a743 afbc
00000310: 754f a03d 0d2d 4dbd 7b43 893c 5856 f5bd
00000320: 571a e4bd bc4f c0bd d6e8 20bd e0c9 b6bd
00000330: ba51 9b3d c5cc f8bd 19f2 033e f361 d73d
00000340: e114 373d 312b 323c 11c7 343c 6f5c 1c3d
00000350: 5ee6 733c 0ee9 65bc a8be b4bd b555 173d
00000360: 6b49 c9bd 98a1 883b 06f1 cb3d 1ac5 42bd
00000370: fe40 89bc f877 8a3d 27c7 df3a 0a09 c1bd
00000380: 7bb9 9fbd 4cbf 01be 8b0f f0bd 629f c0bc
00000390: 48ee b7bd 481b 3dbd 541c ed3c 707e a6bc
000003a0: cda1 d33d db2c 4e3d d63f 4abd 9b96 c33d
000003b0: 10b9 f5bd f9ce 77bd 80fe a03d f0f0 e43d
000003c0: 9a84 2dbd 5357 aabd c664 f23d 4ee3 cfbd
000003d0: b0b3 6dbd 5bfd c5bd c28e dd3c 6398 f03d
000003e0: f03a 87bd e45a 06bd 3e88 d4bd e385 6c3d
000003f0: a8af 21bd 62f4 f23d 6697 df3d 26d5 b5bd
-0.06265514 -0.04932651 -0.087580085 0.09501472 -0.047960088 0.07226309 -0.111056864 -0.0104171485
-0.04823885 -0.057398282 -0.039361194 -0.059192285 0.11101279 0.123877704 -0.03871063 0.081737205
-0.10455388 0.004233524 -0.042304985 -0.066006176 -0.124215364 -0.016664736 0.09058398 -0.0025927648
0.023623317 -0.0075958967 -0.08945046 0.043143407 -0.06889093 0.074851856 0.05520861 0.07068011
-0.089298986 -0.09894498 -0.097617134 0.07076791 -0.073556095 0.10080364 -0.11525428 -0.1205928
0.012988672 0.012607664 0.030887023 0.0585472 -0.11089729 -0.04889901 -0.049178995 0.08661993
-0.00337293 -0.12040442 0.089727744 -0.037398256 0.045283407 -0.022791676 0.008122787 -0.099381186
0.0047377497 -0.10106617 -0.098434314 -0.07903739 0.054539368 0.11656654 0.0858634 0.05401054
-0.14320649 -0.0416388 0.059918843 -0.10145415 0.054891523 -0.043773733 0.06123927 0.108273
-0.1015963 0.02862963 -0.088682964 0.10496433 -0.044277836 -0.14899538 0.09092904 -0.12000458
0.14463323 0.020824302 0.0822501 0.07949015 0.06954251 0.087545 -0.10664993 0.09183867
0.03606961 0.031498466 0.016804466 -0.005322223 -0.006389432 -0.021598835 0.09178133 -0.20753902
-0.058305006 -0.10883602 -0.069532104 -0.06984885 -0.15577035 -0.0044976687 -0.053153448 0.07601799
-0.06200888 -0.095238134 0.03626106 0.12235583 -0.084535494 0.078636326 0.17769855 0.12025124
-0.086824186 0.20005386 0.08384544 -0.06520671 -0.00795197 0.038003635 -0.055120982 0.029660432
-0.052502315 0.00041228096 0.1970046 0.033910483 0.06495954 0.051996656 -0.059181325 0.051281385
0.019163055 -0.084027305 0.09141222 -0.0245388 -0.112408146 -0.045056585 0.04353021 -0.106692955
0.06517691 -0.028775379 -0.129806 -0.12762842 -0.116382636 -0.05629033 0.0816071 0.08983463
-0.00828406 -0.09026092 -0.049939524 -0.071919054 0.07424744 -0.061197516 0.09208187 -0.0013786058
0.095333844 0.0036339576 -0.049608715 -0.026402473 0.053608004 -0.10791963 0.043992877 0.07669434
-0.12157337 -0.0430464 -0.07880425 0.012411487 -0.02927661 0.0024534392 0.009070409 0.094441235
-0.10646044 0.0017936968 -0.01552757 -0.052245904 0.0031584722 -0.113530844 -0.12484511 0.045108993
-0.09020302 0.08380259 0.021780709 -0.052964576 0.047399864 0.10254358 0.07276742 0.058139555
0.069097765 0.056309965 -0.0572099 0.05328584 -0.06729274 0.0953275 -0.01584457 -0.05963731
0.099464305 -0.04008725 0.079352826 -0.021394564 0.07827655 -0.050091792 0.01675581 -0.119793594
-0.111378364 -0.09390208 -0.03928455 -0.08925223 0.075839475 -0.12148432 0.12885322 0.10516729
0.044697646 0.010874555 0.011033789 0.03817409 0.014886467 -0.014032615 -0.08825427 0.03694697
-0.098284565 0.004169654 0.09958081 -0.047551252 -0.016754624 0.067611635 0.0017072902 -0.09425552
-0.077990495 -0.1267063 -0.117217146 -0.0235135 -0.089809954 -0.046168596 0.028944172 -0.020323962
0.103335954 0.050335746 -0.049377285 0.0955021 -0.119981885 -0.06050012 0.07861042 0.11178768
-0.042362787 -0.08317437 0.11835627 -0.10150777 -0.05803269 -0.09667464 0.027045611 0.117478155
-0.06603038 -0.032801524 -0.10377549 0.05774487 -0.03947416 0.118630186 0.10917549 -0.088785455

fc1.bias f4 [128]
00000000: 5400 383d 6c07 bfbd 4f43 00be cf78 cc3b
00000010: 9f22 043e 49c3 d93d e307 8a3d 0636 b4bd
00000020: c4a9 ff3d d878 81bd c1b8 3dbd 408e 2f3b
00000030: 5050 a6bb c7e6 24bd 9d62 9cbd 28f0 7a3d
00000040: a89d d13d b4e6 47bd 4e1d efbd 2711 a93d
00000050: 353b 473d 8693 9a3c b449 5e3d f5e8 a2bd
00000060: a743 dbbd 2820 953d aaf8 893d e991 00be
00000070: 7743 c1bc ca24 84bd dc01 ed3d 8e70 81bd
00000080: bd31 e93d 9b8f 4abd 3a6c e8bd 4129 803d
00000090: 83bc d0bd b0bc f93d 87bd ccbd 5518 0ebd
000000a0: 16db 15bd 1c3f 543d f3b3 923d e61b 013c
000000b0: 88b7 ab3c a1bc a5bd f075 313c ac31 9f3c
000000c0: adb1 4e3d dc5b ae3c c191 1f39 cfa1 9abd
000000d0: 7f5b 353d a8a7 69bd a274 ddbd 8172 bb3d
000000e0: d465 58bd 02e7 83bd 6c33 ea3d 593e c1bc
000000f0: a953 113c 97b1 49bd 6390 cdbc 0d0f 24be
00000100: ddf5 7d3d 1a96 9b3d 00fc 193d 48d6 8e3d
00000110: 345a b13d 3010 bdbd 184b 323e 16d0 053d
00000120: 5056 ebbd fe3f debd 5dd6 fcbd 9122 d2bc
00000130: 4a35 bebc 83f0 273c 1f06 953c a679 4bbd
00000140: 6605 f5bc cb5d 6d3d afb2 ff3a b8eb 5abd
00000150: 7d06 0b3d 90e3 78bd 3cdb a0bd 3ded 49be
00000160: 0e56 913d 43ae 9dbd 7174 8abd 5650 79bd
00000170: 862c a73b e248 fdbd a359 79bd ec5a e7ba
00000180: afab 9dbb f48f 99bc 94f0 d93d 6228 babd
00000190: 6c05 9c3c d08c 943c 3aca e9bd 3e96 f33c
000001a0: 1fd4 a63d b3b0 b8bd 1828 183e 0e2c 723d
000001b0: 55cc 3f3d d8af 27bd eeb7 99bd 9a80 b83d
000001c0: be3e f93d acde 9e3d b7dd 263d 87d9 133e
000001d0: 489e b7bc 9a3e 9ebb e082 f7bd 5b96 67bd
000001e0: a7d0 bf3c 2877 6d3d 0a23 b63d 3a97 aebd
000001f0: f1ed ad3c 7e3b 51bd b79c a9bd c543 fd3d
0.044922188 -0.093275875 -0.12525676 0.0062399874 0.12903832 0.10632951 0.067397855 -0.08799367
0.12483552 -0.06321877 -0.046318773 0.0026787668 -0.005075492 -0.04025915 -0.076359965 0.061264187
0.10235149 -0.048804 -0.11675511 0.08255225 0.04864045 0.018869173 0.054269508 -0.07954589
-0.10706263 0.07281524 0.06736882 -0.1255566 -0.02359174 -0.064523295 0.1157262 -0.06320296
0.1138644 -0.04945336 -0.113487676 0.062578686 -0.10192206 0.121941924 -0.09997087 -0.034691174
-0.03658589 0.051818 0.07163229 0.007880187 0.020961538 -0.08092619 0.010831341 0.019432865
0.050462414 0.021284036 0.00015217719 -0.07550394 0.04427671 -0.057044655 -0.108132616 0.09152699
-0.052831486 -0.064405456 0.11435589 -0.0235893 0.008870044 -0.04924163 -0.025093263 -0.16021366
0.06200205 0.07596989 0.03759384 0.06974465 0.08659783 -0.09231603 0.17411458 0.03266915
-0.11491072 -0.10852049 -0.12345574 -0.025651248 -0.02321877 0.010250214 0.018191395 -0.04967656
-0.0299098 0.057950776 0.0019508208 -0.053447455 0.033941735 -0.060763896 -0.07854316 -0.19719405
0.07096492 -0.076992534 -0.06760491 -0.06086763 0.005101743 -0.12367417 -0.0608765 -0.0017650998
-0.004811726 -0.0187454 0.1064159 -0.09089734 0.019045554 0.01813355 -0.11415525 0.029734727
0.08145928 -0.09018078 0.14859045 0.059124045 0.046825726 -0.040939182 -0.07505785 0.09008904
0.1217017 0.07757315 0.040738788 0.14438449 -0.022414342 -0.00482924 -0.12085509 -0.056539875
0.023414923 0.057974964 0.08893402 -0.08524938 0.021231623 -0.051082127 -0.08281844 0.12366442

fc2.weight f4 [128, 128]
00000000: d761 64bd 88c6 463c 331c a6bd 035c 6fbc
00000010: 9eea 1a3d e6b4 6c3c 1aaa a73d 70f9 95bd
00000020: 42b4 5f3d 4797 573c 945f 85bc e500 a83d
00000030: 6070 f73b f8ed e337 f157 8d3d 4ea6 323d
00000040: 17e9 043d e98e cb3c 170d 99bd 4e58 cc3c
00000050: da6a 0abd 30a0 2dbc acca 773d 4f7a 91bd
00000060: 3153 a13d 6f7e 76bd ee7c c2bb 48bf 4dbd
00000070: d261 91bd c0d5 42bd b3fe 103d 408a 4abd
00000080: 854b b43c 5512 053d b8c8 f33d 7dbd 04bd
00000090: 90dd 0dbd bf6b d03c ccaa 1f3a d7bf 073e
000000a0: b793 703d bf3b 32bd 8752 d23d db0e 29bc
000000b0: da8b c03c ff4a 813d 4e52 b4bd 9a2f d33c
000000c0: 5c9f 043d ca85 563c b473 b3bc 8cb5 a53d
000000d0: 46f1 ba3d 2f6d a63c 86fe b03b 621f 4e3b
000000e0: 8b0e afbb c8b7 d03d 66e5 f33c d065 cd3d
000000f0: 4ed7 45bd 0bf9 c439 2e87 a9bb 3e28 88bd
00000100: fa9e 203e 7351 8d3d 4e9d 5dbd 7fc1 08bd
00000110: e15c d4bc e71e 02bd 539d 983d 415b 89bc
00000120: 2d0e 0c3a 4a32 693d 557e 0dbd dae7 34bd
00000130: 0a4c d9bc aa33 2fbd a3cd a93a f2c4 183d
00000140: f1ef 5d3c 4faa df3d 4af0 513c 8818 d13c
00000150: f1a6 0c3e 38e0 05bc 0d03 583d 0b22 87bd
00000160: 6820 213c 30ab 063d 043a 403d aadc 77bd
00000170: 629f a23d 8433 413d ac08 67bd 7706 5f3c
00000180: c36f a2bd dc28 773d ec9f 443d 56e5 bdbd
00000190: 4648 a5bc 47f0 963d 219d c6bd 224b 4cbd
000001a0: 3c84 a03d f939 df3d ea1a 2bbc e602 1d3c
000001b0: 66d7 023e 0579 1d3d eef1 833d c068 9abd
000001c0: 2aa8 8bbd 2ca0 93bd e639 2bbd 971a cdbd
000001d0: cf2c 88bd 0654 fbbb 0714 5dbd 6ca5 51bd
000001e0: eb75 afbd 6694 5d3d 7762 b73d 36a0 79bd
000001f0: fe6c e5bd 4dfb 453d b0d9 323c 1ca6 96bd
00000200: daeb 7e3d 6ae1 82bd d5aa 5c3c 24df 47bd
00000210: 6e70 05bd f34d 6abd 04c2 343d fe56 93bd
00000220: 3ae2 6c3d 8b75 303d 1ac2 97bc 29eb 94bd
00000230: 9cf7 853c d972 573c 49ba 70bd 1a8c 583d
00000240: 755e 54bd e438 68bc 123e 033d 4a76 e93c
00000250: 80d9 5abc bc1b c2bb fac6 a9bd 4e7d babd
00000260: ccb7 9cbd 768e ae3d 6b83 933d 067e 653d
00000270: 6aaf 50bc 3b76 ac3c 507b a93d 0a31 5b3d
00000280: a376 123c e6f7 35bd 96b8 95bd 6889 8d3c
00000290: 4db9 a0bd 2e88 f4bc 8e76 933d 0589 aabd
000002a0: 0268 243c 280a 843d f7e1 1dbd 548d dabc
000002b0: 1f8e ad3d db54 c83c e8de 26bd 1629 cb3c
000002c0: 38ac 96ba 574f 9ebc ec74 b3bd 8ccc 093c
000002d0: 33ed 22bd ab22 b53b 8aee 8f3d 040f 683d
000002e0: 5d03 e4bc d9d7 563d ad70 2a3c 93f0 9b3d
000002f0: 890e fc3c f6f4 39bd 359b 97bb defc a23d
00000300: 8b02 723c 69fd afbc 9bce 2b3d c4f5 caba
00000310: 1e17 e63c d1e3 7b3c df76 2cbb 4a2a 1e3d
00000320: e6f6 2a3a a51f 15bd adfd afbd a76d 39bd
00000330: 45af a13c a048 533d f95c 943b fd5b 0abd
00000340: dfc5 10bd 0a89 7fbb c9cd 913b 2637 5f3d
00000350: dd8c 093d 4b12 7dbd fc17 943d b793 153c
00000360: 88b8 0bbd 6619 90bd c025 a73c f58f 06bc
00000370: 7cca 66bd 4672 42bd dab3 63ba af40 58bd
00000380: 7e93 61bd 7020 223d 7402 953d 4c23 20bd
00000390: f328 14bd ef2a 993c 842d 733b b15d 35bd
000003a0: 3e5c a5bd 12df 58bd 993a 8b3d ad54 7a3a
000003b0: a2f3 34bd e52f 37bd 8e18 403d 0e71 aebd
000003c0: 2a01 7abd e8fd 0c3d 794f 4d3b ef24 3bbd
000003d0: 4f9e 90bd 4340 98bd d97d 91bd 42ed 34bc
000003e0: 0598 b8bd 2e34 aabd c5b4 7abd 769c 6c3d
000003f0: 676a eebb 04ed cb3c 1a17 1f3d c300 983b
-0.05575737 0.0121322945 -0.08110847 -0.01460934 0.037821405 0.014447426 0.08186741 -0.07322967
0.054615267 0.013158626 -0.016280927 0.082032956 0.007551238 2.7171322e-05 0.06901539 0.04361563
0.032448854 0.024848418 -0.074732 0.02494445 -0.033793308 -0.010597274 0.060496017 -0.07103407
0.078771956 -0.06017917 -0.005935303 -0.05023125 -0.07098736 -0.04756713 0.03539915 -0.04944825
0.022008667 0.032488186 0.119035184 -0.032407273 -0.034635127 0.025442002 0.00060908194 0.13256775
0.05873462 -0.04351401 0.10269647 -0.010318483 0.023504186 0.063131325 -0.08804761 0.025779534
0.03237854 0.013093421 -0.021905757 0.08091268 0.091280505 0.020315735 0.0054014353 0.003145181
-0.00534231 0.101913035 0.029772472 0.10029185 -0.048301034 0.00037569585 -0.0051735854 -0.066483006
0.15685645 0.06900301 -0.054105096 -0.033387657 -0.025923194 -0.031767752 0.07451882 -0.016767146
0.00053426885 0.056932725 -0.034544308 -0.044166423 -0.026525516 -0.04277388 0.0012954961 0.037297197
0.013545976 0.10921156 0.012813637 0.025524393 0.13735558 -0.008171134 0.052737284 -0.0659829
0.009834386 0.0328781 0.046930328 -0.060513176 0.07940556 0.04716827 -0.056404755 0.013612381
-0.07931473 0.0603417 0.048004076 -0.09272258 -0.020176064 0.07370048 -0.09697939 -0.04987634
0.07837722 0.10899729 -0.0104434285 0.009583211 0.1277748 0.03844549 0.06442629 -0.07539511
-0.06819184 -0.07208285 -0.041803263 -0.10014837 -0.066491716 -0.0076699285 -0.053974178 -0.05118315
-0.08567413 0.054096602 0.089543276 -0.060943805 -0.11202429 0.048335362 0.010916159 -0.073559016
0.062236644 -0.063906506 0.013468464 -0.048796788 -0.032577924 -0.057203244 0.04413034 -0.07194327
0.057832934 0.043080848 -0.018525172 -0.07271416 0.01635342 0.01314994 -0.058771405 0.052867986
-0.051847894 -0.01417372 0.032041617 0.028498787 -0.01335752 -0.0059237164 -0.08289905 -0.09105931
-0.07652244 0.08523266 0.072028 0.05602839 -0.0127371345 0.02105247 0.08275473 0.053513564
0.008939418 -0.044425867 -0.073105976 0.017277434 -0.07847843 -0.029850092 0.07200347 -0.08326916
0.010034563 0.0644725 -0.038545575 -0.026678719 0.08474373 0.024454525 -0.040739924 0.024799865
-0.0011495417 -0.019324942 -0.087625355 0.008410584 -0.039776992 0.0055278144 0.070279196 0.056654945
-0.027833635 0.052451942 0.010402841 0.07614245 0.03076865 -0.04539963 -0.0046266564 0.07958387
0.014771114 -0.02148314 0.04194508 -0.0015484621 0.028087195 0.01537414 -0.002631597 0.03861455
0.0006521776 -0.03640713 -0.08593307 -0.04527059 0.019736895 0.051582932 0.0045276848 -0.033779133
-0.035344955 -0.0038991594 0.0044495803 0.054495953 0.033581603 -0.061785024 0.07231137 0.009129456
-0.03411153 -0.07036094 0.020403743 -0.008213033 -0.056345448 -0.04747226 -0.0008686163 -0.052796062
-0.0550723 0.039581716 0.072758585 -0.03909616 -0.036171865 0.01869723 0.0037105987 -0.044278804
-0.080742344 -0.05294711 0.06798286 0.0009549361 -0.04417766 -0.04472341 0.046898417 -0.08517657
-0.061036266 0.03442183 0.0031327887 -0.04568952 -0.07061445 -0.07434132 -0.07104082 -0.011042895
-0.090133704 -0.08310734 -0.06120755 0.0577664 -0.0072758677 0.024893291 0.03884039 0.0046387627

fc2.bias f4 [128]
00000000: 4db6 28bc e918 dc3c ab92 8a3d 81b6 243d
00000010: 9357 073e 2c3f bdba 279b 313d a45a a33d
00000020: 2336 543e a61e fa3d 1608 bf3d 0e06 7e3d
00000030: ac81 b63d 2408 813d f801 d43d a49f b23d
00000040: 3838 88bd c5ff e23c e374 cf3d 7b71 31bc
00000050: b20b 243d 888a 003e 5e9b ca3d ed5b f63d
00000060: 3305 a63d d02d 8e3d 7bab a7bd d777 983d
00000070: 8903 4abd 9db5 d03d 3ed9 a03d 453f 9d39
00000080: 23f2 ae3c e07e fb3c 18f4 683c 5704 f73d
00000090: 651b 873d ffc9 353e edb7 913d b1f6 62bc
000000a0: 6580 533d 4941 d83d c33b 4a3d dd52 f83d
000000b0: f12e 053e 1e4c 7d3d c612 10bc 99c7 9fbd
000000c0: c69f 3ebd 7e51 fb3d 2010 b33d aadd ac3c
000000d0: e0f2 5abd 1834 6fbd 21d9 7c3e d9a3 2f3e
000000e0: 99c9 51bd 89c6 9ebd 7713 de3d 74a3 8f3d
000000f0: 49ff 153e bfa5 5e3d 8cb5 243e fb23 db3d
00000100: 09fe a83d ac91 c23d 3dd4 813d d671 6fbd
00000110: 7038 52bd de93 c23d 7235 ba3d 748c 9c3d
00000120: 39b9 fa3d bfad 153e b165 c73d 60d0 b33d
00000130: 6bd4 eb3d 467f 1c3e d9d9 14bc 7fe3 ea3c
00000140: 910c 103c 563f e33c a5de bf3d bcc5 e83d
00000150: bc7e ed3d cbf7 513e ae26 083e 02ef 8c3d
00000160: abb6 1c3e bb3d ec3c b016 ec3b d32e 74bb
00000170: 1cca df3d 443a e53c 0393 4e3e 8cca ae3d
00000180: 71da d1bc cbd9 f23c 256b a33d 06f5 0abc
00000190: ff30 233d 48af 103e 4469 813d 908b 3a3d
000001a0: a4a8 323e 2a1c ce3d 3537 8c3e 1dc0 e53d
000001b0: bcf4 d43c 17ed 20bd fd92 3d3e f358 4b3d
000001c0: af65 80bc 734a 18bd 79b3 463e 484c 3abd
000001d0: 1428 363c 5fcf 823d 651c 0a3d 1d63 47bd
000001e0: 7de1 893d 9fee 85bd 369c 083e b779 a23d
000001f0: 9fba d7bc 29b2 133e ca3c bc3d 610a c83d
-0.01029737 0.026867347 0.06766256 0.04021311 0.13217 -0.0014438382 0.043360855 0.07976273
0.20723777 0.12212877 0.09327714 0.062017493 0.08911452 0.06300381 0.10351938 0.08721855
-0.06651348 0.027709851 0.10129716 -0.0108302785 0.040050216 0.12552845 0.09892915 0.12029252
0.081064604 0.06942332 -0.08187004 0.07444733 -0.049319778 0.1019089 0.07853936 0.00029992513
0.021355694 0.030700147 0.014218353 0.12061375 0.06597022 0.17752837 0.07115159 -0.013852761
0.05163612 0.10559327 0.0493734 0.1212518 0.13006188 0.06184017 -0.008793538 -0.07801742
-0.04653909 0.12271403 0.0874331 0.021101791 -0.05345428 -0.05839929 0.24692203 0.17152347
-0.05121765 -0.07752711 0.108435564 0.07013598 0.14648165 0.054357287 0.1608488 0.10700222
0.08251578 0.09500441 0.06339309 -0.05845817 -0.051323354 0.0950086 0.09092225 0.07643977
0.1224236 0.1461706 0.09736193 0.08779979 0.11515125 0.15282926 -0.009085142 0.028672932
0.008792059 0.027740162 0.09368638 0.1136584 0.11596438 0.20504682 0.13296005 0.068815246
0.15304057 0.02883803 0.007204853 -0.0037259355 0.10927221 0.027981885 0.20173268 0.085347265
-0.025616856 0.029644867 0.079794206 -0.00848127 0.03984165 0.14129364 0.06318906 0.045543253
0.17447144 0.100639656 0.2738587 0.11218283 0.025995605 -0.039288606 0.18513103 0.049645375
-0.015673487 -0.037180375 0.19404401 -0.045482904 0.011117954 0.06387209 0.033718485 -0.048678506
0.067324616 -0.06539654 0.1334084 0.079333715 -0.026334105 0.14423431 0.09191282 0.097676046

fc3.weight f4 [10, 128]
00000000: f4b9 a33e abac 8fbd 19fc 733e 4d41 ddbd
00000010: 49fb 2d3e 1690 a73c 02bb ea3e 7d08 aabd
00000020: c32d 86be 2589 173d 1139 9e3e 001b a93d
00000030: 84a0 90bd e1aa 3b3e 1cbf a13d f6d6 65be
00000040: 208f e23c b20e 72bd 00c3 a8be 0c4b febd
00000050: bc77 81be c20b 3ebe f215 4b3e d60f d83d
00000060: 7370 c33d 21b8 773c a1c6 8abb e610 9b3d
00000070: 1d6c 923d 8fa8 bd3d 9c77 813e 7611 4ebc
00000080: 8545 753d 8e16 babd 73d1 e2bc 1e45 513d
00000090: 7a72 003d ea59 c0bd 3213 80bd d025 133d
000000a0: f303 803e 49eb 88bd 9c8f 5b3e 9d8c 2a3e
000000b0: 271c fbbd a463 4b3e fc59 823e 10c6 87bd
000000c0: 6436 dfbd 5e91 283e 5fd6 053e b58b 193d
000000d0: 7737 563d bc05 613e aeba 05bf 6c4e c4bc
000000e0: cd04 fb3d 88b1 963d a526 923d 45f2 0ebe
000000f0: 3294 573e 84f4 c63d 5496 4bbe d330 79be
00000100: c7ad 35be a937 3c3e ecf8 ddbd 26c7 773e
00000110: ec6c 743d f022 c9bc f6c7 b53b a6d3 66be
00000120: d505 ce3e 3701 1c3e c4d8 38bd ec9c 00bf
00000130: 09cd 763e 27da c43e 50a5 933e 01f6 bdbe
00000140: 08c9 063e 6e55 eabc 6d87 98be 0b12 80bd
00000150: 3539 cb3e 4ec1 b33d 4533 a03e de6a ab3e
00000160: 7642 23be 7432 d5bb 8096 13be 7182 933d
00000170: 1b9f 0fbe 6182 12be 4d97 5cbe 6620 87be
00000180: 36fe b2bc 1300 a93e ab99 93be 344e 233e
00000190: 920b cabd c73a 8d3c de53 26bd f544 2bbc
000001a0: cfec 243e 6ba4 60be f8df d6be c6ac 5abe
000001b0: 4171 d13d 5493 963d 15e2 b9be 47a4 893d
000001c0: 34b2 27be d2db 25bc d27d d43d f73a e83b
000001d0: 65b0 35bd af50 523e 967e 923d fade 02bd
000001e0: 6382 363d a757 413e 49df a53e d163 4a3e
000001f0: cbc8 b23c e2da 983e ee39 aabd be87 14bd
00000200: 0956 b5bd bc23 763d 8cae c9bc ab62 2f3c
00000210: e525 9cbe 249c 8f3a 718d 09bc 2499 c6bd
00000220: b4df 20be a808 803e 7e50 3bbd cc00 4c3e
00000230: 5986 bebd a568 963e 6b75 a6be 0dc4 8a3e
00000240: 687d c93c 9e54 773e 7125 06be 8c34 863d
00000250: 0336 843e 4ced fbbd 1eb9 2ebd 45de 293d
00000260: 2e77 dabe 4540 0f3e 115e d4bc ddc9 4f3d
00000270: 0fb6 65bd 5293 97be 9ddf f8bd b09e aabd
00000280: afe8 aabe 7342 d83d bb22 9a3d 7a7d b63d
00000290: 7e9c 013e ff07 b2be 4dce a03e 0d65 55bb
000002a0: 624d 31be aa61 163e 3d1a 07be a888 e1bd
000002b0: ec3c 60bd 7b25 473e 8ae1 ed3d c370 093c
000002c0: 4d44 4d3d 1bd0 debe 2227 bebe ced1 3dbd
000002d0: c6b7 a03d 7532 33bd 5de3 2d3e 68c0 fdbd
000002e0: 5872 51bd 5e48 0fbd 1dab f5bd c77e 823d
000002f0: d5a6 3abd 69cf 88be 18e9 27be b6ec cc3e
00000300: b97e 98be f16b c93e 231c 25be 5b1c 5fbd
00000310: 4575 8cbd 92d8 8e3d b7f7 1a3e c211 90be
00000320: 4231 9ebd f762 a0be 0432 99bc 9373 393e
00000330: 2e91 4f3e e249 87be 6c08 2abd e2e7 3c3b
00000340: c730 123d a559 dcbd 2f06 113e e488 573e
00000350: cf9a 87bd 1e96 733e 3ab9 eebd bb98 a2bd
00000360: 2436 a2be 8527 26be 272f fdbc 3bc0 4fbc
00000370: 1073 8f3e bba8 d73d 4617 1e3b 0c32 7cbd
00000380: be89 f83c 92eb 843e 470b 7ebe 9697 61bb
00000390: 3bb3 afbd 3523 603e 9cc6 8ebd b6db 973d
000003a0: 42a5 3c3e 179e e7bd 5e47 303e 0426 02be
000003b0: 8a47 4c3c d8d8 77bd 8ba6 8d3c e6e2 1bbd
000003c0: e2c0 c2bd 9b20 a1ba 4a7f 66bc 4a42 2e3d
000003d0: 0b07 7d3e 1255 a9bd 7487 0f3e 46c7 b8bd
000003e0: 83da febd 9724 9dbd a937 893e e68b 53be
000003f0: 60ee 253c e353 7ebe 5895 403d 0353 1a3e
0.31977808 -0.07015356 0.23826636 -0.10803471 0.16990389 0.020454448 0.458458 -0.083024
-0.26206788 0.036996026 0.30902913 0.08257103 -0.07061866 0.18326904 0.07897779 -0.22445282
0.027656138 -0.059096046 -0.32961273 -0.12416658 -0.25286663 -0.18559173 0.1983259 0.105498955
0.09542932 0.015119583 -0.004235104 0.075715825 0.07149527 0.092606656 0.25286567 -0.012577405
0.059880752 -0.09086333 -0.027687764 0.051091306 0.031359173 -0.0939215 -0.06253661 0.035924733
0.25003013 -0.06685502 0.21441501 0.16655202 -0.12261229 0.19862229 0.25459278 -0.06629574
-0.10899046 0.16461703 0.13070057 0.03748675 0.05229899 0.21974844 -0.52237976 -0.023963176
0.12256775 0.0735808 0.07136277 -0.13959606 0.21052626 0.097146064 -0.19881564 -0.24335031
-0.17742072 0.18380608 -0.10838494 0.24197063 0.05967419 -0.024552792 0.005547519 -0.22541675
0.40238824 0.15234838 -0.0451286 -0.50239444 0.24101652 0.38447687 0.2883706 -0.3710175
0.13162625 -0.02860519 -0.29790822 -0.062534414 0.39692083 0.08777104 0.31289116 0.3347997
-0.15943322 -0.0065062586 -0.1441288 0.07202614 -0.14025538 -0.14307548 -0.21542092 -0.26391906
-0.021849733 0.3300787 -0.28828177 0.15947801 -0.09865488 0.017239941 -0.040607326 -0.010453452
0.1610596 -0.2193772 -0.4196775 -0.2135497 0.102266796 0.07352319 -0.363053 0.067207865
-0.16376573 -0.01012321 0.10375561 0.0070871073 -0.044357676 0.20538591 0.071530506 -0.03195093
0.04455794 0.18881093 0.32396916 0.1976464 0.021824261 0.29854494 -0.083118305 -0.036262266
-0.088543005 0.060092673 -0.024619363 0.010704677 -0.3049766 0.0010956568 -0.008395539 -0.09697178
-0.15710336 0.25006604 -0.04573106 0.19922179 -0.093029685 0.29376712 -0.32511458 0.271027
0.024595931 0.24153373 -0.1310022 0.06552991 0.25822458 -0.1230112 -0.04265701 0.04147174
-0.42669052 0.1398936 -0.02592376 0.05072962 -0.056081828 -0.29604584 -0.12152026 -0.083310485
-0.33380648 0.10559549 0.075261556 0.089106515 0.12657353 -0.34771726 0.31407395 -0.0032561452
-0.17314675 0.14685693 -0.13193603 -0.11012393 -0.0547456 0.19447891 0.11615284 0.008388701
0.050113965 -0.43518147 -0.3713923 -0.046342663 0.07847552 -0.04374929 0.16981263 -0.12390214
-0.051134437 -0.034981124 -0.11995528 0.06371837 -0.04556926 -0.2672074 -0.16397512 0.40024346
-0.29784182 0.39340165 -0.16124015 -0.0544704 -0.06858305 0.06974901 0.15133558 -0.28138548
-0.07724239 -0.31325504 -0.018700607 0.18110494 0.20270225 -0.26423556 -0.041511938 0.0028824736
0.03569105 -0.10759286 0.14162515 0.21048313 -0.06621324 0.23787734 -0.11656423 -0.07939287
-0.3168193 -0.16226013 -0.030906273 -0.012680109 0.28017473 0.1053023 0.0024122759 -0.061571166
0.030339118 0.25960976 -0.2480899 -0.0034422628 -0.085791074 0.2188843 -0.069714755 0.074149534
0.18422416 -0.1130945 0.17214724 -0.12709814 0.012468228 -0.060509533 0.017291328 -0.038058184
-0.09509446 -0.0012293042 -0.014068434 0.042543687 0.24709718 -0.08268179 0.14016515 -0.090223834
-0.124440216 -0.076729946 0.26800278 -0.20658836 0.010127634 -0.24836688 0.047017425 0.15070729

fc3.bias f4 [10]
00000000: a4ee 63be f737 b1bd 8afe 173e f900 823d
00000010: 136d 5b3e d58f 963d acfc b9bd 54ac 373e
00000020: 9abe 243e c514 d3be
-0.22259003 -0.086532526 0.14843193 0.06347842 0.21428327 0.073516525 -0.090813965 0.17936832
0.16088334 -0.41226783
