ckpt/model_epoch47.pth (torch, 106247 bytes, 6 tensors)

fc1.weight f4 [128, 63]
000000 57 51 80 bd 98 0a 4a bd 30 5d b3 bd 14 97 c2 3d
       -0.06265514 -0.04932651 -0.087580085 0.09501472
000010 cc 71 44 bd ac fe 93 3d c8 71 e3 bd b0 ac 2a bc
       -0.047960088 0.07226309 -0.111056864 -0.0104171485
000020 1a 96 45 bd 76 1a 6b bd 34 39 21 bd 9c 73 72 bd
       -0.04823885 -0.057398282 -0.039361194 -0.059192285
000030 ac 5a e3 3d 98 b3 fd 3d 0a 8f 1e bd d6 65 a7 3d
       0.11101279 0.123877704 -0.03871063 0.081737205
000040 58 20 d6 bd 60 b9 8a 3b fe 47 2d bd 3f 2e 87 bd
       -0.10455388 0.004233524 -0.042304985 -0.066006176
000050 a0 64 fe bd 7c 84 88 bc 18 84 b9 3d 60 eb 29 bb
       -0.124215364 -0.016664736 0.09058398 -0.0025927648
000060 b0 85 c1 3c 00 e7 f8 bb ce 31 b7 bd 24 b7 30 3d
       0.023623317 -0.0075958967 -0.08945046 0.043143407
000070 b0 16 8d bd ee 4b 99 3d 6c 22 62 3d bc c0 90 3d
       -0.06889093 0.074851856 0.05520861 0.07068011
000080 63 e2 b6 bd aa a3 ca bd 7e eb c7 bd c4 ee 90 3d
       -0.089298986 -0.09894498 -0.097617134 0.07076791
000090 94 a4 96 bd 24 72 ce 3d 70 0a ec bd 5c f9 f6 bd
       -0.073556095 0.10080364 -0.11525428 -0.1205928
0000a0 70 ce 54 3c 60 90 4e 3c c8 06 fd 3c 30 cf 6f 3d
       0.012988672 0.012607664 0.030887023 0.0585472
0000b0 1e 1e e3 bd 54 4a 48 bd ea 6f 49 bd ca 65 b1 3d
       -0.11089729 -0.04889901 -0.049178995 0.08661993
0000c0 60 0c 5d bb 98 96 f6 bd 2e c3 b7 3d ea 2e 19 bd
       -0.00337293 -0.12040442 0.089727744 -0.037398256
0000d0 18 7b 39 3d 9c b5 ba bc 70 15 05 3c 5d 88 cb bd
       0.045283407 -0.022791676 0.008122787 -0.099381186
0000e0 20 3f 9b 3b c8 fb ce bd ee 97 c9 bd 5b de a1 bd
       0.0047377497 -0.10106617 -0.098434314 -0.07903739
0000f0 ac 64 5f 3d 70 ba ee 3d 26 d9 af 3d b2 1b 2d 3e
       0.054539368 0.11656654 0.0858634 0.16905096
000100 98 cd 89 be 92 f8 28 be bc 02 f3 3d 24 30 8a be
       -0.26914668 -0.16501072 0.11865756 -0.26989853
000110 7b 04 db 3d fa a5 80 bd bf 0c be bd 32 bf 11 3e
       0.10694214 -0.062816575 -0.09279775 0.14233091
000120 3b b8 de bd 0c 1b ad bd cf 10 84 bd 44 ff 4c 3e
       -0.10874983 -0.084524244 -0.064485185 0.20019251
000130 6a a4 cc 38 cf 36 ea bd a5 0c 38 3c 05 0b 34 be
       9.7581025e-05 -0.11436235 0.011233483 -0.17582329
000140 df 36 dc 3e d5 e3 37 bd 9a 7d fb 3d ae 5f 43 3e
       0.43010613 -0.044895012 0.12279816 0.19079468
000150 38 6b 0b 3e 75 fb 83 3e 97 9e e7 bd 24 4d a5 3e
       0.1361512 0.25777784 -0.113095455 0.32285416
000160 d3 37 ac 3e 91 6a 5a bc a5 26 0f bd 18 d4 56 bc
       0.3363634 -0.0133310715 -0.034948964 -0.0131120905
000170 c6 bf 41 3e fe 47 a1 bd 74 e7 ee 3d 6c c6 f9 be
       0.18920812 -0.078750595 0.1166524 -0.48784196
000180 03 d2 e0 bd a0 06 e9 be 35 ce 72 be a2 4d f0 bd
       -0.109775566 -0.45512867 -0.23711474 -0.11733557
000190 48 ad 55 bf fd 7a 41 3e ee 95 6b bd c5 4e f3 3d
       -0.8346753 0.18894573 -0.05751603 0.118802585
0001a0 10 a8 b8 bc 59 08 c8 bd dc 8d 00 3e ae 6e 15 3e
       -0.022541076 -0.09767217 0.12554115 0.14593002
0001b0 65 26 f1 bd fe 97 02 3d 8b 9b c7 3d 0b 33 9c 3d
       -0.11774901 0.031883232 0.09746464 0.07626923
0001c0 65 db 5b be da 05 e4 bc 33 66 21 3e c0 d6 88 3c
       -0.21470411 -0.027834821 0.15761642 0.016703963
0001d0 17 90 bf bd 0c 0e 05 3e 6b 9c 9b 3d c3 1d f3 3d
       -0.09353655 0.1299364 0.07598194 0.11870911
0001e0 02 c0 28 3d 00 00 62 3d 2f c4 3c 3e 28 b5 16 3e
       0.041198738 0.05517578 0.18434213 0.14717543
0001f0 15 2f a2 3d 96 4f 1f be 3a 05 74 bd 9c 6a 4e 3d
       0.079191364 -0.15557703 -0.059575297 0.05039464
000200 8b 28 93 3c 32 eb ac bd 69 38 b9 3d 85 5a d1 bc
       0.017963668 -0.084432974 0.090439625 -0.025555858
000210 bb ff e6 bd a2 7c 3c bd 07 41 2f 3d 7f 18 db bd
       -0.112792455 -0.046017297 0.042786624 -0.10698032
000220 22 a7 83 3d 9b 39 f0 bc 86 cd 04 be e3 91 03 be
       0.064283624 -0.029324343 -0.12969026 -0.1284862
000230 3f 07 ef bd 60 d3 68 bd f4 ad a5 3d ba c1 b7 3d
       -0.11671304 -0.056842208 0.080898196 0.08972497
000240 dc e1 12 bc 11 d6 b9 bd b3 e7 4b bd 92 2e 95 bd
       -0.008964982 -0.09074033 -0.049781512 -0.07284273
000250 2e 68 97 3d 2f 89 79 bd 0d 3d ba 3d 79 0c c9 ba
       0.073929176 -0.060921844 0.09093676 -0.00153388
000260 6c e5 c3 3d 5e aa 47 3b 69 26 4e bd a1 4e d9 bc
       0.09565243 0.0030466537 -0.0503296 -0.026526751
000270 24 d4 57 3d dd fa dd bd 1b e1 33 3d b2 dc 99 3d
       0.052692547 -0.10838864 0.04391585 0.075127974
000280 88 ed f8 bd 82 23 30 bd 20 cb a5 bd 33 c8 53 3c
       -0.121546805 -0.043002613 -0.08095384 0.012926149
000290 67 e6 ed bc b4 15 fa 3a 1a 14 07 3c c5 f6 c0 3d
       -0.029040528 0.0019079954 0.008244539 0.094220676
0002a0 63 32 db bd 3a 96 41 3a 9e 64 7f bc 83 25 58 bd
       -0.1070297 0.0007384751 -0.015587954 -0.05277015
0002b0 9f 79 ee 3a c6 c8 e8 bd bf 57 00 be b1 bf 32 3d
       0.0018194205 -0.113664195 -0.12533472 0.043639842
0002c0 57 25 b9 bd 8a be aa 3d 28 92 aa 3c 6c 45 5a bd
       -0.09040325 0.08337124 0.020821646 -0.053288862
0002d0 0d 79 40 3d ce 99 cf 3d fd cc 94 3d b7 c2 6c 3d
       0.046990443 0.10136758 0.07265661 0.057802882
0002e0 6a 96 8a 3d 9c 8e 65 3d f6 55 6b bd 75 d5 53 3d
       0.067669705 0.056044206 -0.057455026 0.05171724
0002f0 19 b4 8a bd 5d 79 14 3d 13 0b ef 3c 24 05 bd bd
       -0.06772632 0.036248554 0.029180085 -0.09229496
000300 56 ff d8 3d c9 cb 38 bb 45 b6 05 3e 69 5d 00 3d
       0.105955765 -0.0028197637 0.13057812 0.031339083
000310 65 8c f8 3d 0e 56 35 bb 20 04 92 3d 21 2a 32 be
       0.12136153 -0.00276697 0.07129693 -0.17398883
000320 c9 cd bc bd f9 26 86 bd e7 a3 85 be 7c 06 e7 bd
       -0.09218938 -0.06550402 -0.2610161 -0.11280534
000330 73 2c 5b 3d 76 97 f5 bb 0a 14 b0 3d 6c a0 e2 3d
       0.053509187 -0.007494862 0.08597572 0.11065754
000340 11 f2 05 3e ee 8e f7 bc 4f 33 5f 3d b6 d1 a4 3d
       0.13080622 -0.030219521 0.05449229 0.08047812
000350 df e5 87 bc ff ef 84 3d 92 dd b5 bd 59 41 cf 3c
       -0.016589103 0.06491088 -0.08880152 0.025299715
000360 17 ea 25 be 2a 87 e4 3d 4e 8f 8d 3d af 56 00 be
       -0.1620258 0.11158593 0.06912099 -0.12533067
000370 2f 8a 97 3d 00 82 f5 3d 9f 60 0f be f8 d2 d1 bc
       0.07399403 0.11987686 -0.14001702 -0.025613293
000380 d5 21 4f bc df 2d a2 be 4c b2 8c bd 26 be 5a 3c
       -0.0126423435 -0.31675622 -0.06869945 0.013350999
000390 67 1f 37 be 62 29 49 3d 47 fc e7 3c 92 49 e9 bd
       -0.17883073 0.04911173 0.028318537 -0.113909855
0003a0 1f 5c 3b 3e 55 ba 8f 3c 16 3b e1 bd e8 8a df 3d
       0.1829686 0.017544905 -0.10997598 0.10915166
0003b0 0a 24 4a be 97 65 ac bd 7d 1f b6 3c 7d f8 93 3c
       -0.1974031 -0.08417814 0.022231812 0.018062824
0003c0 0c dd 12 be b2 38 8b bc f6 3a 2b 3e a1 04 11 be
       -0.14342135 -0.016994808 0.1672171 -0.14161922
0003d0 ca a9 9f bc 6d 75 30 be 3b 94 3c 3e 39 1e e2 3d
       -0.019490141 -0.17232294 0.1841592 0.11040921
0003e0 08 20 07 be db 03 a5 3e 96 8d 22 be 11 b5 73 3d
       -0.13195813 0.32229504 -0.15874323 0.05949885
0003f0 27 cb 9c bb eb 3c 83 3d 20 e6 5e 3e 8f f1 9e bd
       -0.00478496 0.064081036 0.21767473 -0.077609174

fc1.bias f4 [128]
000000 54 00 38 3d bd d6 02 be a2 48 01 be 22 df da bc
       0.044922188 -0.12777229 -0.12625363 -0.026717726
000010 1d d1 a5 3d ee 63 29 3e 9c 52 40 bc 9f 0e 73 be
       0.08096526 0.16542026 -0.011738446 -0.23736046
000020 c4 a9 ff 3d ec 72 82 bd 65 f7 95 bd b0 4b 09 be
       0.12483552 -0.06369576 -0.073225774 -0.13407779
000030 50 50 a6 bb a3 94 c4 bd 95 43 e4 bd 28 f0 7a 3d
       -0.005075492 -0.09598663 -0.11145703 0.061264187
000040 be 3a d0 3d 98 0e 06 be 30 04 ee bd 6f 41 ca 3c
       0.10167454 -0.13091505 -0.116218925 0.024689404
000050 10 41 a6 ba 41 33 2a 3c 26 33 d6 bd fe 3b a0 bd
       -0.0012684185 0.010388196 -0.104589745 -0.078239426
000060 1b 36 df bd 66 20 09 3e 2f 9b 58 bd 53 d4 c5 bd
       -0.10898992 0.13391265 -0.05288237 -0.09659638
000070 0c cf ea bb 45 f9 81 3c 60 52 5f 3e 83 65 81 bd
       -0.007165795 0.015865931 0.21808767 -0.0631819
000080 fc f6 29 3e 4e db e4 bd 12 6b 09 be 87 ee 01 be
       0.16598123 -0.111746415 -0.1341975 -0.12688647
000090 36 ba 96 bd 23 aa 0b 3e e3 5c 22 be d8 5d a5 ba
       -0.07359736 0.13639121 -0.15855746 -0.0012616469
0000a0 17 66 5e be 96 61 5f 3d e7 07 cd 3c d5 35 18 bd
       -0.21718632 0.054536425 0.025028182 -0.037160713
0000b0 de e1 3a 3d 9f 60 94 bd f0 75 31 3c 3b 6e 09 be
       0.04562556 -0.072449915 0.010831341 -0.13420956
0000c0 6f 69 d4 3d b3 66 10 3e a8 62 97 3c 7a c4 87 bd
       0.10371672 0.14101677 0.01847966 -0.06629272
0000d0 e1 23 ba 3b 10 60 77 be 97 7a b4 bd 51 09 60 3d
       0.0056805466 -0.24157739 -0.08812445 0.054696385
0000e0 aa 0d 0c bc 02 2b 2f be 60 b2 e7 3d 5c 3b 15 bd
       -0.00854818 -0.1710625 0.11313319 -0.036433563
0000f0 a9 d9 82 3b 77 41 6d be f0 95 51 bc ea a0 4f be
       0.0039932323 -0.23169504 -0.012792096 -0.20276228
000100 bd 9d 57 bd 6c 54 07 3c 9e d4 13 bc 07 6f 69 bd
       -0.052640665 0.008259874 -0.00902286 -0.05699065
000110 a0 df 24 3e 88 1e 0e be f1 9d f3 3d be 00 9d bd
       0.16100931 -0.13878834 0.11895359 -0.07666157
000120 73 a8 94 bd fe 3f de bd f1 c4 ad be b6 43 30 bc
       -0.07258692 -0.10852049 -0.33939317 -0.010758331
000130 bd 45 11 be 4f 23 0d 3d 30 1b bf 3c 4a cd 6a be
       -0.1418676 0.0344575 0.023328394 -0.22929874
000140 79 8f ac bd 28 d8 35 be 3e 6a 9d 3c b8 eb 5a bd
       -0.08425803 -0.17758238 0.0192157 -0.053447455
000150 f1 93 2b 3d 90 e3 78 bd fd 7b 2d be b0 9b c1 be
       0.041889135 -0.060763896 -0.16941829 -0.37814093
000160 0e 56 91 3d 64 12 e9 bd e0 fd 25 be bb 77 bf 3d
       0.07096492 -0.11380461 -0.16210127 0.09349009
000170 b2 54 05 bc ea d9 01 be 06 db 6f bd 41 49 5f 3d
       -0.008137869 -0.12680784 -0.058558486 0.05451322
000180 02 84 13 3e 39 87 81 be 37 11 b2 3c e3 68 c0 bd
       0.14405826 -0.2529848 0.021736724 -0.093950056
000190 95 cc 22 3e 9b 06 d9 3b a8 21 3f 3d 50 73 20 3b
       0.15898354 0.006623102 0.046662956 0.0024482794
0001a0 c5 f0 db 3d 49 c3 45 be e1 53 ee 3d 49 1d 73 bc
       0.107392825 -0.19312777 0.116370924 -0.014838525
0001b0 ca 8a af 3c 89 34 75 bd 8a ff 9f bd 9a c1 a9 3e
       0.021428484 -0.059864555 -0.07812412 0.3315552
0001c0 be 3e f9 3d 74 85 a8 3d c9 2f 10 3d c7 90 35 3e
       0.1217017 0.08228579 0.03520182 0.1773101
0001d0 0f 4d 48 bd 3d 08 d7 bd d2 5d 00 be 1f b9 68 bd
       -0.048901614 -0.10499618 -0.1253579 -0.05681717
0001e0 91 7a a2 3d fc 35 90 3d 64 54 b4 bd 3a 97 ae bd
       0.07933534 0.07041547 -0.08805159 -0.08524938
0001f0 ed c4 69 3d df f7 1e be b7 9c a9 bd c1 bd ba 3d
       0.05707257 -0.15524243 -0.08281844 0.09118224

fc2.weight f4 [128, 128]
000000 d7 61 64 bd 16 56 ec 3c 1f 41 a6 bd d8 0d 7c 3d
       -0.05575737 0.028849643 -0.081178896 0.06153664
000010 8d 56 37 3d 12 01 24 3c aa 91 89 bc 40 4e a9 bc
       0.044760276 0.010010021 -0.01679309 -0.020667195
000020 42 b4 5f 3d 12 5e 60 3c 87 58 2d bd aa 16 4b 3e
       0.054615267 0.013694303 -0.042320754 0.19832864
000030 60 70 f7 3b 1c e5 e3 3b 39 62 d2 3d 4e a6 32 3d
       0.007551238 0.006954802 0.10272641 0.04361563
000040 db 42 05 3d 7d 01 15 3d ca f0 98 bd 43 5f 5b 3c
       0.03253446 0.036378372 -0.07467802 0.013389411
000050 fb 56 27 3c c5 55 3f 3d 62 3c b9 3d 10 cf aa bc
       0.010213609 0.046712656 0.0904472 -0.020850688
000060 78 6c a1 3d de f2 38 bd b5 c5 34 3c 6e d0 a7 bd
       0.07882017 -0.04515349 0.011033465 -0.08194052
000070 9e 2b a0 bd 07 3e 3f 3c ee 57 1b 3e f0 8d 4a bd
       -0.07820819 0.011672503 0.15170261 -0.04945177
000080 3b 41 ab bc 24 d3 bb 3d d2 4d 05 3e 7d c6 18 bd
       -0.020905128 0.09171131 0.13017967 -0.03729867
000090 19 81 6a 3a 9f 3a db 3c 31 2b e5 3c f9 e0 81 3e
       0.00089456287 0.026761351 0.027974697 0.25366953
0000a0 bb 47 9c 3d b5 43 62 be 1d 52 6f 3e 2e a5 4b bd
       0.07630869 -0.2209614 0.23371167 -0.049718075
0000b0 b7 1b 35 bc ca 74 7d 3d 4e 52 b4 bd 4e dc 21 3e
       -0.011053971 0.061878957 -0.08804761 0.15806696
0000c0 32 c2 25 3c bf 1b 93 bd 6c c3 b2 bc ab 06 db 3d
       0.010117101 -0.071830265 -0.0218217 0.10694631
0000d0 cc e4 50 3e ca 7e 08 3d 35 54 81 bd 82 7a 21 3e
       0.20399779 0.03332404 -0.06314889 0.1576939
0000e0 b8 ca 16 3d 8a b6 b2 3d f7 b2 19 3c 86 48 22 3e
       0.03681442 0.08726223 0.009381047 0.15847978
0000f0 dd 3f 19 3c fb aa a1 3d 33 1d b3 bb 72 22 00 bd
       0.009353605 0.0789394 -0.0054661273 -0.03128285
000100 a7 19 7d 3e 79 13 56 3e e4 29 73 bd 9e e9 18 bd
       0.24716817 0.20905866 -0.059366122 -0.03733217
000110 91 23 4f bd 07 88 1d 3e 83 0d 8b 3d 7e b3 c2 3c
       -0.05057103 0.15383922 0.067896865 0.02376723
000120 cd f5 b2 3c 4a 32 69 3d 34 26 96 3b 25 94 8f bc
       0.021845723 0.056932725 0.004582191 -0.017526696
000130 5a 10 83 3c d5 64 be ba c3 21 a0 3d 07 d1 41 3e
       0.015999008 -0.00145259 0.078189395 0.18927394
000140 16 d9 97 3d 89 a5 1d 3e 31 0d 1a be 88 18 d1 3c
       0.07414453 0.15395178 -0.15044095 0.025524393
000150 43 e6 85 3e 38 e0 05 bc a9 3b 2b 3e 54 c7 0b bd
       0.26152238 -0.008171134 0.16721977 -0.03412564
000160 68 20 21 3c 35 27 97 3d ee f3 68 3d e9 3a 97 bd
       0.009834386 0.07380525 0.056873254 -0.07384283
000170 14 60 23 3d ad 36 43 3d e5 b8 6f bd a1 52 9f 3c
       0.03988655 0.047659565 -0.05852594 0.01944858
000180 50 a7 59 bd fb e4 a0 3d 43 36 a8 3d 2d 7d 12 be
       -0.053138077 0.078561746 0.082134746 -0.14305563
000190 e7 14 c6 bc 9e 10 f4 3c 61 8c fa bd 33 79 9f 3d
       -0.024179889 0.02979308 -0.122338064 0.07786789
0001a0 1c 07 eb 3d c3 c3 ea 3d 30 11 f0 bc c9 65 1b bc
       0.114759654 0.1146312 -0.02930507 -0.009484717
0001b0 03 cd eb 3d f5 90 bb 3b c2 8f 84 3d 62 76 0a be
       0.11513712 0.0057240673 0.06472732 -0.13521722
0001c0 2a a8 8b bd 08 6a 93 bd c4 84 f1 3d 7c eb 3f bd
       -0.06819184 -0.07197958 0.11792901 -0.046855435
0001d0 af bc 41 be c7 fb 1e 3e 76 35 5d bd 79 74 51 bd
       -0.18919633 0.15525733 -0.054006062 -0.051136468
0001e0 13 15 9f bd 72 3e 69 3e 9d 67 d6 3d 36 a0 79 bd
       -0.077676915 0.22777727 0.104689814 -0.060943805
0001f0 cb 78 2b be 72 dc 3c 3e b0 d9 32 3c 62 6f 45 bd
       -0.16745298 0.18443468 0.010916159 -0.048201926
000200 da eb 7e 3d a6 ae 84 bd a7 e8 5c 3c 7d 25 49 bd
       0.062236644 -0.06478624 0.013483203 -0.049108017
000210 d1 35 f9 bc 43 c7 51 bd 35 c8 3c 3d 32 b2 8a bd
       -0.03042117 -0.05121542 0.04608937 -0.06772269
000220 3a e2 6c 3d 70 8f 30 3d b6 c1 d9 bc 0a a1 8b bd
       0.057832934 0.043105543 -0.026581626 -0.06817825
000230 9c f7 85 3c 29 2b be 3c 49 8d 68 bd 1a 8c 58 3d
       0.01635342 0.02321394 -0.056775365 0.052867986
000240 20 6d 54 bd 23 c7 61 bc 46 51 03 3d f8 bb d8 3c
       -0.051861882 -0.013780388 0.03205993 0.026456818
000250 72 a3 16 bc 84 b1 6d bb 56 13 b2 bd 25 1a b4 bd
       -0.009194242 -0.0036269138 -0.08695094 -0.08794049
000260 c0 ba 9c bd 1f a9 bb 3d df 59 88 3d 7d 51 4c 3d
       -0.07652807 0.09163117 0.066577666 0.0498824
000270 48 62 7e bc a5 27 72 3c 3a 41 02 3e ff 2f 5b 3d
       -0.015526362 0.01477996 0.12720194 0.05351257
000280 88 28 02 3c 9f 35 25 bd 1d f0 99 bd 4e 49 c9 ba
       0.007944234 -0.04033434 -0.07516501 -0.001535693
000290 1a 27 a6 bd a7 df f8 bc a9 22 99 3d f0 4c a7 bd
       -0.08112927 -0.030380083 0.07477314 -0.081689715
0002a0 2b e1 e1 bb 10 e0 27 3d 7d 1f 20 bd 9d af 0d bd
       -0.006893297 0.040985167 -0.03909253 -0.034591306
0002b0 e6 ec 9d 3d 88 21 c9 3c e8 de 26 bd c8 09 da 3c
       0.077112004 0.024552122 -0.040739924 0.026615992
0002c0 2c 96 52 3b 50 3a d0 bc 7e d2 b9 bd 9a 4f 30 bb
       0.0032132966 -0.02541843 -0.09073351 -0.0026902915
0002d0 72 12 2a bd 35 1a 06 bb 73 19 90 3d 5f 40 79 3d
       -0.041521497 -0.0020462398 0.07036104 0.060852405
0002e0 12 07 ab bc fc 4d 1a 3d bf 3a 31 3c 9e 50 9f 3d
       -0.020877395 0.037672028 0.010817229 0.077790484
0002f0 e5 be ee 3c 4b ec 37 bd 42 a9 79 3a de 2c 8b 3d
       0.02914376 -0.04490308 0.00095238176 0.06795667
000300 96 92 ae 3c 8f 49 bc bc 80 ae 10 3d 08 41 54 bb
       0.021310132 -0.022984294 0.035322666 -0.0032387394
000310 10 7c a2 3c b1 93 f5 3c c0 04 ff 3b 43 f9 22 3d
       0.019834548 0.029977651 0.0077825487 0.039788496
000320 d9 75 e8 ba a5 1f 15 bd 30 e2 bf bd f1 54 39 bd
       -0.0017735317 -0.03640713 -0.09369314 -0.045247022
000330 cd b1 10 3a e1 34 36 3d de 9a 89 bb 52 fe 12 bd
       0.00055196584 0.044484023 -0.00419937 -0.03588707
000340 7d 69 1a bd 21 f1 01 bc 65 13 af bb 26 37 5f 3d
       -0.037698258 -0.007931025 -0.005342888 0.054495953
000350 65 b1 22 3d 4b 12 7d bd e0 00 9c 3d 30 e3 cf 3b
       0.039719958 -0.061785024 0.076173544 0.0063442215
000360 88 b8 0b bd ca 0c 99 bd f5 bf 15 3c cd 20 32 bc
       -0.03411153 -0.074731424 0.009140004 -0.010872078
000370 40 cd 4f bd 9d cf 42 bd 1c 3d 96 ba 22 24 1e bd
       -0.05073285 -0.047561277 -0.0011462304 -0.038608678
000380 bf c9 46 bd 40 62 03 3d 53 48 ab 3d 59 73 45 bd
       -0.048532244 0.03207612 0.08363404 -0.048205707
000390 6d 0f 1a bd 1b b1 db 3c f4 9f 63 bc 4d 58 21 bd
       -0.037612367 0.026817849 -0.013893116 -0.03939085
0003a0 a5 47 91 bd f8 19 60 bd cd 1a 9f 3d a1 c8 ee bb
       -0.07093743 -0.054712266 0.07768784 -0.0072871004
0003b0 3b 01 1d bd 81 ad 38 bd 88 f3 3f 3d 3a 10 b4 bd
       -0.03833125 -0.04508734 0.04686311 -0.087921575
0003c0 2a 01 7a bd bf 33 0c 3d 17 15 51 3a ed 8e 32 bd
       -0.061036266 0.034229036 0.000797586 -0.043593336
0003d0 f2 0a 9b bd 7f 6a 90 bd 06 60 91 bd 66 b8 34 bc
       -0.07570447 -0.070515625 -0.07098393 -0.011030292
0003e0 c9 55 bf bd 99 8b 9c bd c6 02 4b bd 76 9c 6c 3d
       -0.09342534 -0.07643814 -0.04956319 0.0577664
0003f0 22 a6 ab bc 4e 0c 12 3d 1a 17 1f 3d 74 0f 8e bc
       -0.020953242 0.035656266 0.03884039 -0.017341353

fc2.bias f4 [128]
000000 1a 39 f5 bc d1 6c af 3a a3 74 c3 3d f9 82 cf 3d
       -0.029934455 0.001338387 0.09543731 0.10132403
000010 4e e0 2e 3e ba 39 da 3d 8d c1 bf 3b ab e8 26 3e
       0.17077753 0.10655542 0.0058519305 0.16299693
000020 9f c1 96 3e 14 59 e1 3d e1 92 27 bd 88 e1 09 3d
       0.29444596 0.110033184 -0.04091156 0.03366235
000030 ec 7b 1b 3d 74 ac fe 3c d2 a7 f7 3d 2b 4f c2 3d
       0.037959978 0.031088091 0.12092556 0.09487756
000040 35 ef 1e 3d c0 18 03 3d 5e 58 66 3e 29 29 0f 3d
       0.038802344 0.032006025 0.22494647 0.034951363
000050 3f 56 b0 bc 47 3b 4e 3e 46 49 a1 3d 34 1f 4b 3e
       -0.0215255 0.201398 0.07875304 0.19836122
000060 60 7d fa 3d a0 cc 9c 3c db 7d 00 3c 0f ac 85 3d
       0.12230945 0.019140542 0.007842506 0.06526958
000070 70 b3 0d bd 9d f6 3b 3e fe 1a e0 3c 69 2d 04 3e
       -0.034594953 0.18355794 0.02735662 0.12907948
000080 ae 1a b7 3d 81 2f 55 3e e2 42 c7 3d 1a 3b 05 3e
       0.089406356 0.20818903 0.09729554 0.13010827
000090 fe a2 96 3d 02 f3 96 3e 3e 2b cd 3d 48 f2 3a bd
       0.07355307 0.29482275 0.100180134 -0.045641214
0000a0 d4 21 50 3d 81 99 bd 3d 8d 5d 95 3d 62 45 07 3e
       0.05081351 0.09257794 0.07293234 0.13210061
0000b0 38 64 86 3e 44 5e 24 3d c3 61 a8 bd ce 64 66 bd
       0.26248336 0.04012896 -0.082217716 -0.05624848
0000c0 40 6e 35 bd a5 5c f1 3d e1 a4 1b 3e 1c db f2 3b
       -0.044294596 0.11785249 0.15199615 0.007411374
0000d0 a7 53 1e bc 50 2f 18 bd cf 1a ae 3d 1e 46 8a 3e
       -0.009663499 -0.037154496 0.08501207 0.2700662
0000e0 f0 55 82 bc eb 35 cd 3c 9a 13 8d bd 3a 5c 33 3e
       -0.015910119 0.025050124 -0.06888504 0.1751565
0000f0 f8 e5 61 3e c1 d5 28 3c 59 b4 50 3e 4a d8 f9 3d
       0.22060382 0.010304869 0.20381297 0.12199457
000100 72 7a 37 3e 34 51 5e 3d e7 45 df 3d 5f a8 2b be
       0.17917803 0.05427666 0.10902005 -0.16763447
000110 11 f5 70 bd e5 3d 59 3e 66 3d e5 3d a9 f1 32 3e
       -0.058827464 0.21215017 0.111933514 0.17474999
000120 c9 7c 7d 3d e4 55 36 3d 0e e0 67 3e f6 3b 30 3d
       0.061886583 0.044515505 0.22644064 0.043025933
000130 d3 4b ca bc 31 3b 11 bd d9 41 ec bc 29 0a 93 bd
       -0.024694359 -0.03545684 -0.028839992 -0.07179672
000140 5a 05 d2 3d 9a 5e 62 3d c6 a9 c0 3a 7d 44 f2 3d
       0.10254927 0.055266 0.0014699034 0.11829469
000150 42 52 1d 3e db d4 20 3e 41 aa da 3d 3d 12 44 3d
       0.1536341 0.15706198 0.106770046 0.047868956
000160 24 64 55 3e 8a 02 01 3e d3 14 b8 3d e1 a3 00 3d
       0.20838982 0.12598625 0.08988347 0.031406287
000170 f1 c0 61 3e cd c5 9c bd cc ac 94 3e 03 8f 5b 3d
       0.22046258 -0.07654915 0.29038084 0.053603183
000180 68 9d d5 bd b1 11 7f bd 90 64 4e 3e 80 99 d9 3d
       -0.104304135 -0.06227273 0.20155549 0.10624981
000190 54 e6 44 3e 1d f8 dc 3d ff cd 81 bc 56 58 21 bd
       0.19228488 0.10789511 -0.015845297 -0.039390884
0001a0 c6 4a f9 3d 3f c7 8c 3e d0 e5 58 3e 9c d6 6d 3d
       0.12172465 0.27495763 0.21181417 0.058065996
0001b0 8d a2 ad 3b bc c1 f4 bc a8 6a 58 3e 54 f3 3b 3e
       0.0052989186 -0.029877536 0.21134436 0.18354541
0001c0 90 fc 4a bc 63 92 fb 3c bc dc 4f 3e 1c 6c 53 bc
       -0.012389317 0.030709451 0.20299047 -0.012904193
0001d0 c0 83 5c bd 35 01 b3 3d ac 33 f3 bc 52 cb 9e 3c
       -0.053836584 0.087404646 -0.029687725 0.01938406
0001e0 77 a1 91 3d 72 41 10 3d 6b 4a 48 bc 4a 07 3e 3d
       0.07110875 0.035218664 -0.012224774 0.04639367
0001f0 7f 99 33 bd e4 92 d6 3d 83 52 43 bc 8e e2 e3 3d
       -0.043847557 0.10477236 -0.011921528 0.11127196

fc3.weight f4 [10, 128]
000000 5b ed c6 3e c6 11 8c bd f2 52 a6 3e 83 b8 6b be
       0.38852963 -0.068393275 0.32485157 -0.23019604
000010 0d d1 49 3d f4 ff e0 3d cc 3b d4 3e 37 54 0a be
       0.049271632 0.10986319 0.4145187 -0.13508688
000020 e1 9a f6 be e8 65 69 3e 43 5e cf 3e 83 9c 97 3e
       -0.48165038 0.2279278 0.40501603 0.29611596
000030 00 b2 6d bd 2e ba c0 3e 51 3c 83 bd a6 aa b9 bd
       -0.058031082 0.37642044 -0.06407989 -0.09065752
000040 58 a9 44 3d a3 28 3a bd d1 8c d6 be 01 d4 8a bd
       0.04801306 -0.04544891 -0.4190431 -0.06778718
000050 be 59 75 be 10 f6 74 be 62 27 ad 3e e0 95 89 3e
       -0.23960015 -0.2392199 0.3381911 0.26872158
000060 01 82 15 3e b3 df d8 3d 24 6d a6 3d e6 fe 45 3e
       0.14600374 0.10589542 0.08126286 0.19335517
000070 2e 0e 3c 3e a5 fc 03 3e 8a 3a d7 3e 21 aa 34 be
       0.18364784 0.12889345 0.4203685 -0.17643024
000080 af 94 01 be 18 1d 52 3c 23 bf 87 bd 0e 86 2b 3e
       -0.12654375 0.012824319 -0.06628253 0.16750357
000090 cb 32 52 3e 7e 00 9c be 19 5d 26 3e b6 8e 7c bb
       0.20527188 -0.30469126 0.16246451 -0.003853721
0000a0 42 16 ad 3e c5 4b 0b be 89 cb 82 3e 1a 46 85 3e
       0.33806044 -0.13603123 0.2554591 0.26030046
0000b0 91 5a c4 be 3e 6c bc 3e 33 e2 00 3f c8 f1 6f bd
       -0.38350347 0.36801332 0.5034515 -0.05858019
0000c0 c9 ce 19 be 2e e5 16 bd 6f a1 f4 bc b9 16 a6 3d
       -0.15020289 -0.036839657 -0.029862134 0.08109803
0000d0 e5 eb 19 3e c7 9e df 3e 42 1a 03 bf c8 f0 8d bd
       0.15031393 0.43675825 -0.5121194 -0.06930691
0000e0 ac 6d 36 3e 5b 25 d4 3d 4d 0f 0e 3e 8e 20 75 bd
       0.17815274 0.103586875 0.13873024 -0.0598455
0000f0 b6 63 3b 3e 57 e0 c5 bc d9 e9 70 be b9 4e 44 be
       0.18299755 -0.024154825 -0.23526706 -0.19170655
000100 19 d0 4f be 55 1c c9 3e 6a fb f8 bd 33 ea e6 3e
       -0.20294227 0.39279428 -0.121573284 0.45100555
000110 ce 06 97 3d de ed 4c bd a5 24 f0 3d 28 74 ae be
       0.07374345 -0.050031535 0.117257394 -0.34072995
000120 3c 1b ef 3e 1d f7 18 3e a7 d0 84 bd 0c 4a f8 be
       0.46700466 0.14938016 -0.0648511 -0.48493993
000130 a5 32 c8 3e 47 77 02 3f 20 19 e8 3e 5b 55 d7 be
       0.3910114 0.5096325 0.4533167 -0.4205731
000140 55 e8 41 3e d7 f9 d8 3d b8 85 aa be 6f 71 0d 3e
       0.18936284 0.10594528 -0.33305144 0.13812803
000150 7c 07 d0 3e 70 39 82 3e ef e6 c9 3e d7 b7 de 3e
       0.4063071 0.25434446 0.39434 0.43499634
000160 b8 5c 7c be 9d 2f ad 3d c8 f6 af be 9a d1 81 3e
       -0.24644744 0.08456347 -0.34367967 0.25355226
000170 e7 fd 30 bd f0 82 f8 bc c1 56 e9 be 93 11 8c be
       -0.04321089 -0.030335873 -0.45574 -0.27357158
000180 bd 65 d9 3d 59 9f f3 3e af 94 c4 be e2 c2 72 3e
       0.10615108 0.4758251 -0.38394687 0.23707154
000190 d1 be db bd 1c fb 82 3e 5a 43 5f be ef 50 61 3e
       -0.10729755 0.25582206 -0.21803036 0.2200353
0001a0 49 e6 af 3e 01 fe ca be ab d3 d7 be 70 93 bf be
       0.3435538 -0.39646915 -0.42153677 -0.37417173
0001b0 b6 21 ae 3e ea 8b 68 3e d9 d5 e7 be cf 98 a6 3d
       0.34010094 0.22709623 -0.4528034 0.08134615
0001c0 83 1d 2c be 57 57 79 3c 1a 32 ad 3d 61 f4 47 bc
       -0.16808133 0.015218577 0.08456822 -0.012204261
0001d0 26 f1 63 3e 5b ba 9d 3e 82 2a 88 3e 7e c4 cc bb
       0.2225996 0.3080624 0.2659493 -0.0062490096
0001e0 06 db ad 3d 06 7c 91 3e b5 ef 05 3f df c6 43 3e
       0.08489041 0.28414935 0.5231889 0.19118832
0001f0 3f a5 8f 3e c8 85 73 3e 21 12 26 bd 60 ae 14 3d
       0.2805576 0.23781502 -0.040544633 0.03629911
000200 1f da d8 bb 31 72 69 3d 4a 9b 59 3d bf f1 0c be
       -0.006617799 0.056993667 0.05312661 -0.13764094
000210 a3 cb 84 be 34 72 00 bb a0 95 86 3e 46 bf a8 be
       -0.25936612 -0.001959932 0.2628603 -0.3295843
000220 fb db f7 be 46 e9 a7 3e 16 fc 85 3e 5c 0c 9c 3e
       -0.4841002 0.3279516 0.2616889 0.3047818
000230 a2 58 32 be fc d8 c4 3e 40 41 92 be 70 b9 04 3f
       -0.17416623 0.38446796 -0.28565407 0.51845455
000240 05 75 95 3d 89 52 ea 3e 50 e7 d2 be b6 ba db 3d
       0.0729771 0.45766094 -0.41192102 0.10728972
000250 d6 85 c8 3e 4c db e5 be 5a be 7e 3e 96 b4 23 3e
       0.3916461 -0.44893873 0.24877301 0.15986857
000260 3a aa 24 bf d3 86 d2 3e 68 36 7d 3d 5c 1f 03 3e
       -0.64322245 0.41118488 0.061819464 0.12804931
000270 69 a5 45 3c 78 a1 a0 be 05 46 72 bd 19 52 e0 bd
       0.012063363 -0.3137319 -0.059148807 -0.10953159
000280 42 e4 9d be 35 9a 7c 3e 29 1c 2f 3e c7 e0 88 3e
       -0.3083821 0.246682 0.17100586 0.26733992
000290 e8 b2 9b 3e c8 36 45 bf e3 9e 8d 3e cc 57 cc bb
       0.30409932 -0.77036715 0.27660283 -0.006236052
0002a0 8c 68 82 be bb a0 a3 3e 26 7f 08 3d c8 d8 2d be
       -0.25470388 0.31958565 0.033324383 -0.16977227
0002b0 d5 70 c5 be a8 15 b0 3e 92 fe 53 3e c0 99 a9 3c
       -0.38562647 0.34391522 0.2070258 0.020703197
0002c0 b0 97 a5 3d f2 e6 42 bf 6f a3 b1 be ea bd bb 3b
       0.08085573 -0.76133645 -0.34695002 0.0057294266
0002d0 86 8b 42 3e d6 ed 86 3c 24 5f a8 3e b2 67 e2 be
       0.18998536 0.01647083 0.32885087 -0.44219738
0002e0 96 32 49 bd 2e a1 88 bd 51 59 63 be ef 65 92 3e
       -0.049120508 -0.066713676 -0.2220204 0.28593394
0002f0 5e 9b 54 be 35 03 0d bf da 98 d0 be de 84 1d 3f
       -0.20762393 -0.5508302 -0.40741616 0.61530864
000300 ff d9 1f bf 33 5f d6 3e a7 50 ac be ff 52 c7 3c
       -0.6244201 0.41869506 -0.33655283 0.024331568
000310 fc 37 96 bd fc 44 e9 3d cf 41 a5 3e 5c c7 1c bf
       -0.07334897 0.11390111 0.3227677 -0.612417
000320 92 fc d1 3d d6 f4 e4 be ae 6b 2c bd fc 3d a4 3e
       0.10253252 -0.44718045 -0.04209488 0.3207854
000330 a2 2e e3 3e fd 42 a8 be 02 27 94 bc da 66 fd bd
       0.44371516 -0.32863608 -0.018085007 -0.12373133
000340 be 26 8d 3b c1 52 3f be 75 d5 ae 3e 90 38 95 3e
       0.004307597 -0.18683912 0.3414723 0.29144716
000350 df 99 d5 bd 69 d9 ab 3e 90 3a ee bd db c6 ab bd
       -0.10429739 0.33564308 -0.11632264 -0.08387538
000360 f7 66 1c bf ca 53 81 be cb 8f a8 be f1 b2 41 bd
       -0.6109461 -0.25259238 -0.32922205 -0.047289792
000370 03 30 9e 3e 60 54 e9 3e db bc 48 be 18 8b 47 be
       0.30896005 0.45572186 -0.19603293 -0.19486654
000380 8a 32 ab 3e e2 f6 df 3e 67 12 0d bf 80 94 60 3d
       0.33436996 0.43743044 -0.55106205 0.05482912
000390 39 3b b7 be 6a 86 ad 3e 71 98 8f be a4 f6 bd 3e
       -0.3578737 0.33891612 -0.2804599 0.37102234
0003a0 0d ae c5 3e ce 5a dc be ab 3d 9f 3e 0f 11 f3 be
       0.38609353 -0.43038028 0.31101736 -0.47473952
0003b0 77 90 c1 bc bb bc c1 3d bd f5 82 bc bc f1 32 be
       -0.023628457 0.094598256 -0.015986318 -0.17475027
0003c0 7e 37 5f be 95 4d 3a 3e 59 0f 96 39 f3 30 30 3e
       -0.21798512 0.18193658 0.00028621664 0.17206173
0003d0 ca f5 c8 3e be d7 15 bd 33 39 ce 3e 63 c3 e4 bd
       0.39250022 -0.0365827 0.40278015 -0.111700796
0003e0 38 3f 6a be 4d af 96 bd 0d 12 08 3f 62 b1 c9 be
       -0.22875679 -0.07357655 0.53152543 -0.39393145
0003f0 9f 43 54 3d f9 aa e5 be 92 f6 6e 3e af 5b 94 3e
       0.0518223 -0.44857004 0.23336247 0.289762

fc3.bias f4 [10]
000000 e7 f0 4b be 0f 49 91 be c8 f0 fa 3e 0c 11 d2 be
       -0.19916116 -0.28376052 0.49011827 -0.4102863
000010 24 8f 15 3f a1 a3 32 3d ce 6e da bd 16 51 f2 3e
       0.5842154 0.04361308 -0.106656656 0.4732749
000020 dd 67 8a bc fa f4 0b bf
       -0.016895229 -0.5467068
