ckpt/model_epoch3.pth (torch, 106175 bytes, 6 tensors)

fc1.weight f4 [128, 63]
0	0x3c6a24d4	0.014291007
1	0xbdb8605f	-0.09002756
2	0x3e0c1f31	0.13683774
3	0x3d468f4a	0.048476495
4	0x3c9543ee	0.018220868
5	0x3d29e472	0.041477628
6	0xbcc2d7ef	-0.023784606
7	0x3d7edf2e	0.06222456
8	0x3d0bad3a	0.03410075
9	0xbd4de028	-0.0502626
10	0x3dfb53d3	0.122718476
11	0x3ce79e55	0.02827374
12	0xbb356b47	-0.002768235
13	0x3d9a7afb	0.07542988
14	0xbe0a4c8f	-0.13505767
15	0xbc89e661	-0.016833486
16	0x3dcce345	0.10004286
17	0x3dcfdda4	0.101496965
18	0x3c52dcbf	0.012870013
19	0x3cab6769	0.020923333
20	0x3dc5c3b3	0.09656467
21	0xbdac03ce	-0.08399163
22	0xbde303de	-0.11084722
23	0xbd57f04f	-0.05271941
24	0x3d87a5ec	0.06623444
25	0xbcee5f6a	-0.029098231
26	0xbdbada74	-0.09123698
27	0x3c6075e7	0.013699985
28	0x3cbb2d04	0.022848614
29	0x3d1abdbc	0.0377786
30	0x3dedf519	0.11619014
31	0x3d03d4d1	0.03218538
32	0x3d7aaf17	0.061202135
33	0xbc3214b9	-0.0108691985
34	0x3d991132	0.07473983
35	0xbdd1f021	-0.10250879
36	0xbd5fafbd	-0.054610956
37	0xbd820909	-0.063493796
38	0xbcbe696c	-0.023243628
39	0xbd609bed	-0.054836202
40	0xbdf403c2	-0.11914779
41	0x3db0751a	0.08616085
42	0x3d013f75	0.031554658
43	0x3d5ffb55	0.05468305
44	0x3d896bc6	0.06710009
45	0x3d93fca7	0.07225924
46	0xbde6af71	-0.112639315
47	0xbd7b19c1	-0.061303858
48	0x3d2435ed	0.04009049
49	0x3dc11ce8	0.094293416
50	0x3d70cb86	0.058787845
51	0xbdc0b175	-0.09408847
52	0x3dcfda48	0.10149056
53	0x3da36f9f	0.079802744
54	0x3dc90353	0.09815087
55	0xbd01ac41	-0.031658415
56	0xbd01efd6	-0.031722866
57	0xb9e1ea21	-0.00043089784
58	0xbdd9e1cd	-0.10638771
59	0x3e1740c4	0.147708
60	0x3d8175cb	0.06321295
61	0x3d91fcca	0.07128294
62	0x3db87e5d	0.09008477
63	0xbbca7056	-0.0061779423
64	0xbdaf0fb2	-0.085479155
65	0x3ce927aa	0.028461296
66	0x3dcb7e77	0.09936231
67	0x3d94fc5f	0.072746985
68	0x3df7f37d	0.121069886
69	0x3d56103f	0.052261587
70	0xbd3fbff2	-0.046813913
71	0x3e090993	0.13382559
72	0xbcb4b543	-0.022059089
73	0xbd881c20	-0.066459894
74	0xbabc9407	-0.0014387377
75	0xbd700c15	-0.058605272
76	0xbd687011	-0.0567475
77	0x3d114520	0.035466313
78	0x399cb2bf	0.00029887815
79	0xbdcb4ff9	-0.09927363
80	0x3da783a4	0.08179405
81	0xbd9a0b0a	-0.07521637
82	0x3db0402c	0.0860599
83	0x3d3413fa	0.043964364
84	0xbdbfe878	-0.09370512
85	0xbdeb0c5d	-0.114769675
86	0xbd73e807	-0.05954745
87	0x3d4c3539	0.049855445
88	0xbd69969e	-0.057028405
89	0xbe0ba914	-0.13638717
90	0xbc8355fc	-0.016032211
91	0xbdf27a49	-0.1183973
92	0x3d478594	0.048711374
93	0xbd498c7c	-0.049206242
94	0xbd26c348	-0.04071358
95	0x3e193f17	0.14965473
96	0xb9c13cb4	-0.00036857056
97	0xbdbde2a9	-0.092717476
98	0x3e1eebf0	0.1551969
99	0x3d794ea3	0.06086601
100	0xbc9d9dc3	-0.019240266
101	0x3ddee1e4	0.10882929
102	0xbde5e4e7	-0.112253
103	0xbd388136	-0.0450451
104	0xbb25075a	-0.0025181384
105	0x3d1e5a55	0.038660366
106	0x3d7a12b0	0.061052978
107	0x3dbdbc84	0.09264472
108	0x3df157d2	0.117843285
109	0x3de8193c	0.11332938
110	0xbc16759b	-0.009183313
111	0xbd4775fc	-0.048696503
112	0x3dd3a23e	0.103336796
113	0xbd81bf87	-0.06335359
114	0x3d9ff0d0	0.07809603
115	0x3d2c9f97	0.042144384
116	0x3daf3f83	0.08557036
117	0xbe013140	-0.12616444
118	0x3d7177a4	0.05895199
119	0x3dfce3c4	0.1234813
120	0x3df13004	0.117767364
121	0xbd2cc4cf	-0.04217988
122	0x3d8ae06a	0.06781085
123	0xbe0133fd	-0.12617488
124	0x3d1cebd9	0.03831086
125	0x3d8e15ff	0.06937789
126	0x3d9a9447	0.07547813
127	0xbdf8f469	-0.121559925
128	0x3c0d6db1	0.0086321095
129	0x3bb048e3	0.0053797825
130	0x3c8a3c46	0.016874444
131	0xbde0ba2a	-0.10973008
132	0x3db1df59	0.08685178
133	0xbd848d0c	-0.06472215
134	0x3d4bdca7	0.049770977
135	0x3d72147f	0.059101578
136	0x3cad029c	0.021119408
137	0x3dd1249a	0.10212059
138	0x3d910769	0.070814915
139	0xbc6cad2f	-0.014445587
140	0x3ccff2fd	0.02538442
141	0x3dc9f96c	0.098620266
142	0xbd62189f	-0.05519926
143	0xbc5cfa04	-0.013487343
144	0x3dc421d0	0.09576762
145	0xbd37fc9c	-0.04491864
146	0x3d357a79	0.044306252
147	0x3d528180	0.051393032
148	0x3df4d8e2	0.119554296
149	0x3ce4d523	0.027933663
150	0xbddfae40	-0.109219074
151	0xbb9a494a	-0.004708444
152	0xbd8aa9ae	-0.06770645
153	0x3d11576a	0.035483755
154	0xbdf42a17	-0.119220905
155	0x3d71beba	0.05901978
156	0x3ded82da	0.115972236
157	0xbd8316cd	-0.06400833
158	0xbde6381b	-0.1124117
159	0x3c1c19ac	0.009527605
160	0xbdb6a4b1	-0.08918131
161	0x3dc33edc	0.09533474
162	0xbd946e04	-0.07247546
163	0xbc28ab92	-0.010294812
164	0x3c3ea2fb	0.011635537
165	0xbdf282eb	-0.11841377
166	0x3de0f00f	0.109832875
167	0x3de73e31	0.11291159
168	0x3c91a4e1	0.017778816
169	0x3dd4d358	0.10391873
170	0xbc77236e	-0.015084131
171	0xbdb8b6cd	-0.090192415
172	0x3db15f27	0.08660727
173	0xbdaa6045	-0.08319143
174	0x3b3abf7c	0.0028495481
175	0x3d4dccc8	0.050244123
176	0xbdef4ace	-0.1168419
177	0x3c9490c2	0.018135432
178	0xbdc5c112	-0.09655966
179	0xbc892fc2	-0.016746406
180	0xbd20e199	-0.039277647
181	0x39b1b1eb	0.0003389263
182	0x3da7f513	0.08201041
183	0xbd5ddbc9	-0.05416468
184	0xbd939057	-0.07205265
185	0xbdbcb4fa	-0.09214206
186	0x3d2285a1	0.03967822
187	0x3d118c75	0.03553434
188	0x3d4e8b89	0.05042604
189	0x3de160f1	0.11004818
190	0x3d495c2e	0.049160175
191	0x3d18bfe7	0.037292387
192	0xbd0358e1	-0.032067183
193	0x3ddd2f25	0.10800008
194	0xbd418dcb	-0.047254365
195	0x3df22a74	0.118245035
196	0xbda64442	-0.08118488
197	0x3cc5764d	0.024104262
198	0x3b0294f4	0.0019925209
199	0x3db5f46d	0.08884511
200	0xbd9925e8	-0.07477933
201	0xbc0f9414	-0.008763332
202	0xbc3c4b24	-0.011492524
203	0x3d78671d	0.06064521
204	0xbdaf530c	-0.08560762
205	0xbd82945a	-0.06375952
206	0x3d31c627	0.043401863
207	0x3d647b2b	0.055781525
208	0xbdde73ac	-0.108619064
209	0x3df2266d	0.118237354
210	0x3d4df257	0.05027994
211	0xbdf7e123	-0.12103488
212	0xbd66e2b1	-0.056368534
213	0xbd92bd86	-0.07165055
214	0x3dbb52b5	0.091466345
215	0x3ddc187e	0.10746859
216	0x3c066b3c	0.008204278
217	0x3a38374b	0.0007027282
218	0xbcf8b929	-0.030361729
219	0x3dd23016	0.10263078
220	0xbdf1fafd	-0.1181545
221	0xbb1eab63	-0.002421104
222	0x3dc06598	0.093943775
223	0xbde5cf91	-0.11221231
224	0xbddc88f2	-0.10768308
225	0x3cf7aeed	0.030234778
226	0x3df2eec0	0.11861944
227	0x3c60754c	0.013699841
228	0xbd82b33e	-0.06381844
229	0x3db973bf	0.0905528
230	0xbde02f4d	-0.10946522
231	0xbdc26c1d	-0.09493277
232	0xbc85d2d0	-0.016335875
233	0xbc4359ce	-0.011923267
234	0x3d52e403	0.05148698
235	0xbd502530	-0.050816715
236	0xbde63b7c	-0.112418145
237	0xbda8b107	-0.0823689
238	0xbde82490	-0.11335099
239	0xbd0d5f94	-0.03451498
240	0x3df4178e	0.11918555
241	0x3ca1fe31	0.019774528
242	0xbdb00d05	-0.08596233
243	0x3d01fbc9	0.03173426
244	0xbd87817d	-0.06616495
245	0x3df5d961	0.12004352
246	0x3c5747f2	0.013139712
247	0xbd740454	-0.05957444
248	0x3b97f637	0.0046375054
249	0xbd9e46d6	-0.07728355
250	0xbd21d0c7	-0.039505746
251	0xbc330d83	-0.010928514
252	0x3d4516c2	0.048117407
253	0xbdec6fc7	-0.11544757
254	0x3d60db0c	0.0548964
255	0xbddfa5f3	-0.10920324

fc1.bias f4 [128]
0	0x3c97fc0b	0.0185528
1	0x3df7e9ff	0.12105178
2	0xbdafb64d	-0.08579693
3	0x3c681e6a	0.0141674075
4	0xbc677258	-0.014126383
5	0xbd1fb825	-0.038993973
6	0x3c6ab038	0.01432424
7	0x3de7fffd	0.11328123
8	0xbcbdcd9a	-0.023169328
9	0x3caabc7d	0.020841831
10	0x3db0ce13	0.086330555
11	0x3da23e51	0.07922042
12	0x3d2eff04	0.04272367
13	0xbdbc9acc	-0.09209213
14	0xbbd331ed	-0.0064451606
15	0xbd4ff5b2	-0.050771423
16	0xbda8d974	-0.08244601
17	0xbde7fc42	-0.11327411
18	0x3e01cb77	0.12675272
19	0x3dc6aac0	0.09700537
20	0x3ce5e104	0.028061397
21	0xbdd3ef8f	-0.103484266
22	0x3dfd72e5	0.1237543
23	0xbdf14141	-0.11780024
24	0x3da28288	0.07935053
25	0xbd9b4df5	-0.075832285
26	0xbd80fcec	-0.06298241
27	0x3e0bd92e	0.13657066
28	0xbd9802eb	-0.074224316
29	0xbddc4588	-0.107554495
30	0x3d95a616	0.07307069
31	0xbc077212	-0.008266943
32	0x3e128d73	0.14311771
33	0x3dde5f30	0.10857999
34	0xbcc5fced	-0.024168456
35	0xbd6e4a7e	-0.05817651
36	0xbdf8e15e	-0.121523604
37	0x3dc9f918	0.09861964
38	0xbd5161f9	-0.051118825
39	0xbd4ed93c	-0.05050014
40	0x3c077227	0.008266962
41	0xbdadd0b4	-0.084870726
42	0x3d144b70	0.036204755
43	0x3d58f219	0.052965257
44	0x3ded3172	0.115816966
45	0x3c4044e1	0.011735172
46	0xbd9142e7	-0.07092839
47	0x3ba256c9	0.0049541933
48	0xbdab310b	-0.083589636
49	0xbd20a30f	-0.039218005
50	0xbd435ade	-0.04769408
51	0xbd4c06f4	-0.04981132
52	0x3dfe1e24	0.124080926
53	0x3ce7aff4	0.028282143
54	0x3d236aa0	0.039896607
55	0xbcc5fe7a	-0.024169195
56	0xbdb1e0eb	-0.08685478
57	0xbd6a3b67	-0.057185557
58	0x3def85f7	0.11695474
59	0x3dcca974	0.09993258
60	0x3da8ffcf	0.082519166
61	0xbdb0acc8	-0.086267054
62	0x3dd341dc	0.10315296
63	0xbdbc9cab	-0.092095695
64	0xbd7591b9	-0.059953425
65	0x3d953b3c	0.07286689
66	0x3d171a0a	0.036890067
67	0x3dfc9754	0.12333551
68	0xbd85f399	-0.06540603
69	0xbd922029	-0.0713504
70	0xbb9bb444	-0.004751714
71	0x3ca71cbb	0.020399442
72	0xbde4ffa1	-0.1118157
73	0x3d638eba	0.055556037
74	0x3d17ce51	0.037061993
75	0x3cab88df	0.020939289
76	0x3da90550	0.082529664
77	0x3db4f92b	0.088365875
78	0xbd637110	-0.055527747
79	0x3d9f5994	0.077807575
80	0x3dd05480	0.10172367
81	0x3d19107a	0.03736923
82	0xbd3d45ac	-0.046209022
83	0xbd11fb6d	-0.03564017
84	0xbd59f5da	-0.053212978
85	0x3da0da46	0.07854132
86	0x3d8156a7	0.06315356
87	0x3d3195b5	0.043355662
88	0xbdd9acc9	-0.10628659
89	0xbdf53f3f	-0.11974954
90	0x3e08888f	0.13333343
91	0x3db1db42	0.08684398
92	0xbd7e4e5a	-0.06208644
93	0xbdb4bcb0	-0.08825052
94	0xbbe56155	-0.0070001283
95	0x3b1b1083	0.0023660965
96	0x3da220e1	0.079164274
97	0x3da22747	0.07917648
98	0x3da92b06	0.08260159
99	0xbdd36b2c	-0.10323176
100	0x3dd6177a	0.104536965
101	0x3ddddbc3	0.10832932
102	0xbdbe44c1	-0.092904575
103	0x3bf64e61	0.0075166677
104	0x3de5589c	0.111985415
105	0x3d07da94	0.033167437
106	0x3b026e05	0.0019902003
107	0x3d91768e	0.07102691
108	0x3de35cac	0.1110166
109	0xbdad0c23	-0.084495805
110	0x3d6d6cc5	0.05796506
111	0xbd896f13	-0.06710639
112	0x3ca26724	0.019824572
113	0x3cbffc72	0.023435805
114	0xbd8333c7	-0.0640636
115	0x3d17da15	0.037073214
116	0xbda193a9	-0.07889492
117	0x3cc2ce8e	0.023780134
118	0xbd36615c	-0.044526443
119	0x3dbd77ee	0.092513904
120	0xbdc556b9	-0.09635682
121	0xbdf8552d	-0.12125621
122	0xbd94fa4d	-0.072743036
123	0x3dd46149	0.10370118
124	0x3c6ac883	0.014330032
125	0xbbd0158d	-0.0063502253
126	0xbdff5545	-0.12467436
127	0x3dfb9ac5	0.12285379

fc2.weight f4 [128, 128]
0	0xbcd49da5	-0.025954077
1	0xbdbdfd96	-0.09276883
2	0x3d8789b0	0.06618059
3	0x3cfbd9e1	0.030743541
4	0x3cdd757c	0.02703356
5	0x3d35ee53	0.044416737
6	0xbcce6207	-0.025193227
7	0x3d6aa283	0.05728389
8	0x3d9c75e1	0.07639671
9	0xbd44251f	-0.047886964
10	0x3ce30ee9	0.02771707
11	0x3b819551	0.0039545675
12	0x3d7858e2	0.06063164
13	0x3db0d26c	0.08633885
14	0x3cac8acf	0.021062283
15	0x3bbb83c8	0.0057224967
16	0x3da301c2	0.0795932
17	0x3d582ec9	0.052778993
18	0xbdcfefcb	-0.10153159
19	0x3ce8a74f	0.028400091
20	0xbca54002	-0.020172123
21	0x3d4df317	0.050280657
22	0x3bf92f9e	0.0076045534
23	0xbc4c3f7a	-0.012466306
24	0xbd70d95e	-0.058801048
25	0xbda147a6	-0.07874994
26	0x3d2463c0	0.04013419
27	0xbdcb5f3b	-0.09930273
28	0x3ca6c5ba	0.020357955
29	0xbd544fde	-0.05183398
30	0xbd0e3698	-0.034720033
31	0x3d896301	0.067083366
32	0x3d32b194	0.043626383
33	0xbda2ca3e	-0.07948731
34	0xbcc04336	-0.023469549
35	0x3d2255a2	0.039632447
36	0x3d9f74a8	0.07785922
37	0x3b65cf37	0.0035066137
38	0xbd8c82db	-0.06860896
39	0xbd655f81	-0.055999283
40	0x3d043b5b	0.03228317
41	0x3cbe02f1	0.023194762
42	0x3d8e3701	0.06944085
43	0xbc33be05	-0.010970597
44	0xbd56f87a	-0.05248306
45	0x3c09f9cc	0.008421373
46	0x3d487d76	0.048947774
47	0x3d3c3127	0.045945313
48	0x3cf5186d	0.029918874
49	0x3d73489c	0.059395418
50	0xbd60201f	-0.054718133
51	0x3d0a8057	0.0338138
52	0x3d831e63	0.0640228
53	0x3cd4f222	0.025994364
54	0x3d1f83fc	0.03894423
55	0x3d277e91	0.040892188
56	0xbd6a611b	-0.057221513
57	0x3d451c09	0.04812244
58	0x3ded281e	0.11579917
59	0xbd15c395	-0.036563475
60	0xbc4f6711	-0.01265885
61	0xbd950e3b	-0.07278105
62	0xbd6d4d4a	-0.057935037
63	0xbd220ba9	-0.0395619
64	0x3cb70d7d	0.022345299
65	0x3d60db4b	0.054896634
66	0x3d9ad7d8	0.075607
67	0x3cc5a76b	0.024127683
68	0xbbbc7600	-0.0057513714
69	0xbdaf77a2	-0.0856774
70	0xbbbbcc12	-0.005731114
71	0x3d71a7c7	0.058997896
72	0x3d968389	0.07349307
73	0x3cadfc7f	0.021238564
74	0x3a0085ab	0.00049027306
75	0x3c0d0872	0.008607971
76	0xbd2534e0	-0.04033363
77	0x3dcabd04	0.09899333
78	0x3d3f37d0	0.046684086
79	0x3d887739	0.06663365
80	0xbbfade52	-0.007655897
81	0x3c975fbc	0.018478267
82	0xbda734f5	-0.081643976
83	0xbd4b11c9	-0.049577508
84	0x3d690f8f	0.056899603
85	0x3db7da23	0.08977153
86	0x3a9c732b	0.0011936178
87	0x3d0471a4	0.03233494
88	0x3d5c6702	0.053809173
89	0x3d281601	0.04103661
90	0x3d571795	0.052512724
91	0xbcb84150	-0.02249208
92	0xbd9e2bb6	-0.07723181
93	0x3cf5412f	0.029938309
94	0x3da7036d	0.0815495
95	0xbd369312	-0.04457385
96	0x3c890c10	0.016729385
97	0x3d2c6ba6	0.04209485
98	0xbcc6fb61	-0.024289789
99	0xbdbc133b	-0.091833554
100	0x3d7ed3a7	0.062213566
101	0x3d97e2cf	0.07416307
102	0x3d0fdcf5	0.03512283
103	0xbd6f5a61	-0.0584358
104	0x3d8fb5e7	0.07017117
105	0x3c7bcc43	0.015368524
106	0xbd6654c4	-0.056233183
107	0x3d8c98aa	0.06865056
108	0x3d7cec52	0.06174881
109	0x3da66fc9	0.0812679
110	0xbca10ceb	-0.01965948
111	0x3d49aa63	0.04923476
112	0xbcc6e4bd	-0.024278993
113	0xbd873609	-0.06602103
114	0xbd2e8da6	-0.042615555
115	0xbd84235a	-0.06452055
116	0x3cda0274	0.026612498
117	0xbdaa69a7	-0.08320933
118	0xbdafe06a	-0.085877255
119	0xbd7b6881	-0.06137896
120	0xbd0ceee3	-0.034407508
121	0xbd8121af	-0.06305253
122	0x3aaf74b9	0.0013386226
123	0x3d6f9968	0.05849591
124	0x3c9b86e6	0.018985223
125	0xbd0c3f06	-0.03423979
126	0x3c0248f0	0.00795196
127	0x3d8c7a4d	0.068592645
128	0x3cad228a	0.021134634
129	0x3d4b7d64	0.04968013
130	0xbcc9e359	-0.02464454
131	0xbbf62edb	-0.00751291
132	0xbdb4400e	-0.0880128
133	0xbd3d7f6a	-0.04626409
134	0x3cac43ba	0.021028388
135	0xbc5bbeaa	-0.013412157
136	0xbcd296d5	-0.025706688
137	0xbd2570d4	-0.040390804
138	0xbc750766	-0.014955377
139	0x3d6f3aee	0.05840581
140	0xbd8b98c0	-0.06816244
141	0xbce99944	-0.028515466
142	0xbd446351	-0.047946278
143	0x3d3cb41f	0.046070214
144	0x3d08c39b	0.03338967
145	0x3da2262e	0.079174384
146	0xbcb14af3	-0.021642184
147	0x3c67515e	0.014118521
148	0xbd971261	-0.073765524
149	0xbd6de6d7	-0.058081474
150	0x3d8c56da	0.06852503
151	0x3d12b99d	0.035821546
152	0xbc67c31b	-0.014145638
153	0x3b1c7b8b	0.0023877348
154	0x3d9285c5	0.07154421
155	0xbca974ee	-0.02068564
156	0x3d78e95b	0.06076942
157	0xbc9cd986	-0.019146692
158	0xbcf904e9	-0.03039785
159	0x3cbe1dff	0.023207663
160	0x3d8cfde3	0.068843625
161	0xbd93b048	-0.07211357
162	0x39f293d3	0.00046267975
163	0xbd8a367c	-0.06748673
164	0x3d5ba477	0.053623643
165	0xbcf620d5	-0.030044952
166	0x3d160f6a	0.036635794
167	0xbd82e6f7	-0.06391709
168	0x3c88df85	0.016708145
169	0xbc96f796	-0.018428605
170	0xbd8d455d	-0.068979956
171	0xbdc38f4b	-0.09548815
172	0x3ca944f8	0.02066277
173	0x3c1fd3d4	0.009755094
174	0xbd5b577a	-0.05355022
175	0x3b0b394f	0.0021243875
176	0xbcf5ba37	-0.02999602
177	0xbd9a1663	-0.07523801
178	0xbda817bc	-0.08207652
179	0x3d214a32	0.0393774
180	0x3db2ff80	0.08740139
181	0xbd95fdf2	-0.07323827
182	0xbda12b40	-0.078695774
183	0x3d1c583f	0.038170096
184	0x3da2b14b	0.07943972
185	0x3ce07655	0.027400175
186	0x3dbf4775	0.09339801
187	0xbd2d1c1a	-0.042263128
188	0x3caa062a	0.020754892
189	0x3c17e11e	0.009269981
190	0x3d8055f1	0.06266392
191	0x3d10b69d	0.035330404
192	0x3db66354	0.08905664
193	0x3dab573e	0.083662495
194	0x3d9f043f	0.07764482
195	0x3ce93e58	0.02847211
196	0x3d9f7c51	0.07787383
197	0xbd08de18	-0.03341493
198	0x3d41937c	0.047259793
199	0xbd713e9c	-0.0588976
200	0xbd6574b8	-0.056019515
201	0x3dd94836	0.10609476
202	0x3c14d81f	0.00908473
203	0x3d0eadf8	0.03483388
204	0xbdceadf7	-0.10091775
205	0x3cb0debe	0.021590587
206	0xbd8a2139	-0.06744618
207	0x3d55721b	0.052110773
208	0xbd6057eb	-0.054771345
209	0xbc3fe4dd	-0.01171228
210	0xbcb8abf9	-0.02254294
211	0x3d7f81d1	0.062379662
212	0xbda6e54b	-0.08149203
213	0x3d94f48d	0.07273207
214	0x3d8e0dc3	0.069362186
215	0xbd5c9d30	-0.053860843
216	0xbd63df4b	-0.05563287
217	0xbce30594	-0.02771262
218	0x3d2b9f79	0.04190013
219	0xbd3811d7	-0.04493889
220	0x3d1e4181	0.03863669
221	0x3c74b43d	0.01493555
222	0x3d11b684	0.03557445
223	0xbcbefd62	-0.023314182
224	0x3d1d7c3e	0.038448565
225	0x3cf8b4bc	0.030359618
226	0x3dc10015	0.09423844
227	0x3bb1d410	0.005426891
228	0xbce50a9c	-0.02795916
229	0xbd610c23	-0.054943215
230	0x3d26d14e	0.040726952
231	0x3d8c2351	0.068426736
232	0x3c6b60f6	0.014366379
233	0xbd8f65ed	-0.07001863
234	0xbd8c9d1f	-0.06865906
235	0xbca06393	-0.01957873
236	0x3dd62a3a	0.10457273
237	0x3d63aade	0.055582874
238	0x3d71fbcc	0.059078023
239	0xbcf2a4e3	-0.02961964
240	0x3c00f86a	0.0078717265
241	0xbd971f2a	-0.07378991
242	0x3d7c24f0	0.061558664
243	0xbdbc77de	-0.0920255
244	0xbd6b96b5	-0.057516772
245	0xbc947ddd	-0.018126423
246	0xbd074787	-0.0330272
247	0xbd6f3b11	-0.05840594
248	0xbc866fec	-0.01641079
249	0x3d36b1c2	0.044603117
250	0x3dabaede	0.08382963
251	0x3ccc189a	0.024914075
252	0x3c7a136d	0.0152634205
253	0x3d8ecaad	0.06972251
254	0x3cc6d718	0.024272487
255	0xbdb9c7d2	-0.09071316

fc2.bias f4 [128]
0	0x3c57083d	0.013124523
1	0x3da91710	0.08256352
2	0x3d56decb	0.052458566
3	0x3dbde60a	0.09272392
4	0x3cab9eaa	0.02094968
5	0x3d88fc4c	0.06688747
6	0x3d36eb06	0.04465773
7	0x3d5ce899	0.05393276
8	0xbd5ece51	-0.054395977
9	0x3d2bfff8	0.041992158
10	0xbb12b462	-0.0022385349
11	0xbca376d7	-0.019954128
12	0xbcbb289f	-0.022846518
13	0x3d8c084f	0.06837522
14	0x3d9432d5	0.07236258
15	0xbce66872	-0.028125975
16	0x3daf2a7e	0.085530266
17	0x3d6d6e9d	0.057966817
18	0x3d851083	0.0649729
19	0xbc71de3a	-0.014762456
20	0xbd659a4b	-0.05605535
21	0x3d0c1d70	0.03420776
22	0xbd6a54cc	-0.057209775
23	0x3d92674f	0.07148611
24	0x3d186751	0.037207905
25	0x3da51df1	0.080623515
26	0x3dca22dc	0.0986993
27	0xbd30ab82	-0.043132313
28	0x394c80f3	0.00019502993
29	0xbd88b5af	-0.066752784
30	0x3badd4df	0.005304917
31	0xbd789ac2	-0.060694464
32	0x3d8dc61a	0.069225505
33	0x3c3bd7c7	0.01146502
34	0xbd9d4ba3	-0.07680442
35	0xbd5b227d	-0.053499687
36	0x3d8673c0	0.06565046
37	0xbd7a7408	-0.061145812
38	0x3d6f18d9	0.058373306
39	0x3d276b38	0.040873736
40	0xbd93ed9f	-0.07223057
41	0x3c9e8b25	0.019353459
42	0x3d0e2fad	0.034713436
43	0x3d6ab206	0.057298683
44	0x3d97a927	0.0740531
45	0x3da34032	0.07971229
46	0xbd8e0efa	-0.0693645
47	0xbd67c1ce	-0.05658131
48	0xbd4ccff2	-0.050003
49	0x3d66aa04	0.056314483
50	0xbd0c78a8	-0.034294754
51	0x3cbb07e8	0.022830918
52	0xbc214619	-0.009843373
53	0xbcc11a7b	-0.023572197
54	0x3d025f0a	0.031828918
55	0x3d88c4bb	0.06678148
56	0x3baf634a	0.0053524124
57	0x3d4cef0d	0.050032664
58	0x3dae4b94	0.08510509
59	0x3c43b8a1	0.011945874
60	0xbbd234d8	-0.006414991
61	0xbd1222ea	-0.035677828
62	0x3cb32f4c	0.021873139
63	0x3d6e3b5e	0.058162086
64	0x3c6e4885	0.014543657
65	0x3d1e3793	0.03862722
66	0x3d8573b9	0.06516213
67	0x3c3dc585	0.011582737
68	0x3d89cbcc	0.06728324
69	0xbd9158ff	-0.07097053
70	0x3d7276ad	0.05919521
71	0xbd1c9587	-0.038228538
72	0xbdaf4b1e	-0.08559249
73	0x3c796447	0.015221662
74	0xbda2665d	-0.079296805
75	0xbd7520d1	-0.05984575
76	0xbd7cd071	-0.061722223
77	0x3c7fc2fd	0.015610454
78	0x3d80d2cb	0.062902056
79	0x3baa8dae	0.005204878
80	0xbccffd36	-0.025389295
81	0x3ccf3c24	0.025297232
82	0x3d4b96ca	0.04970435
83	0x3d98b748	0.07456833
84	0x3bf3c59a	0.0074393274
85	0x3cc44bb6	0.023961883
86	0x3d701bdf	0.05862033
87	0xbd692a27	-0.056924965
88	0xbd1363d4	-0.035983875
89	0x3dba01c5	0.09082369
90	0xbd0a1796	-0.0337139
91	0xbd38f96e	-0.04515975
92	0x3d8a45dd	0.067516066
93	0x3da10648	0.07862526
94	0x3c0a0f40	0.008426487
95	0xbd7cb5f3	-0.061696958
96	0xbbde732d	-0.0067886324
97	0xbcfa4d38	-0.030554399
98	0xbd847a8b	-0.06468686
99	0x3d86e7ef	0.065872066
100	0x3dac634a	0.084173754
101	0x3c9b60de	0.018967088
102	0xbd197b05	-0.037470836
103	0xbb213f02	-0.0024604206
104	0xbc6719f4	-0.014105309
105	0x3d527280	0.051378727
106	0x3d0b96ea	0.03407947
107	0xbdacb51b	-0.084329806
108	0x3c069de6	0.008216357
109	0xbdb36c13	-0.08760848
110	0xbb7728e4	-0.0037713582
111	0x3cd7fdda	0.026366163
112	0xbd0f6329	-0.035006676
113	0x3dc9093c	0.098162144
114	0xbd09a8a5	-0.033608098
115	0xbd3c00e9	-0.045899305
116	0x3c24b525	0.010052954
117	0x3cb550c3	0.022133237
118	0x3c0346e9	0.008012512
119	0xbd400709	-0.04688171
120	0xbcd5ce3e	-0.02609932
121	0x3cdaca07	0.026707662
122	0x3c69c880	0.014268994
123	0xbc2ef904	-0.010679487
124	0xbdb5cbfe	-0.08876799
125	0x3d497384	0.04918243
126	0xbc827f95	-0.015929976
127	0xbccc41db	-0.024933746

fc3.weight f4 [10, 128]
0	0x3e282c02	0.16423038
1	0x3de7ca96	0.11317937
2	0x3d9f28c8	0.0777145
3	0xbcfcf63f	-0.030879138
4	0x3e0167ba	0.12637225
5	0xbc871baf	-0.016492693
6	0x3ca22084	0.019790895
7	0x3e4e047a	0.20118895
8	0xbd89c8a7	-0.067277245
9	0xbb00397f	-0.001956552
10	0x3c0e7526	0.008694923
11	0x3dc5731d	0.09641097
12	0x3e2aa348	0.1666385
13	0xbe2cb8b1	-0.16867329
14	0xbc04396d	-0.008070332
15	0x3cdf1a54	0.027234234
16	0x3d07f3fe	0.033191673
17	0xbdc1d5a9	-0.094645806
18	0xbd12e49e	-0.035862558
19	0x3c46f887	0.0121442145
20	0xbd8b0b91	-0.067893155
21	0xbdee4910	-0.11635029
22	0xbcdb0c06	-0.026739132
23	0x3c0b5afd	0.00850558
24	0x3d55e63f	0.052221533
25	0xbe07f345	-0.13276394
26	0x3c9d40f7	0.019196017
27	0xbcfc7bc6	-0.030820739
28	0x3e392773	0.18081455
29	0xbd16fb3d	-0.036860693
30	0x3b962624	0.0045821834
31	0x3cc48299	0.023988055
32	0xbd6addbf	-0.05734038
33	0xbdfd55b7	-0.123698644
34	0xb9e59c00	-0.00043794513
35	0x3db12555	0.08649699
36	0x3df5b732	0.11997832
37	0xbcab5ca2	-0.020918194
38	0xbe2e1053	-0.16998415
39	0xbddbb332	-0.10727538
40	0xbcc1fffa	-0.02368163
41	0x3d3af55b	0.045644145
42	0xbc8b751b	-0.017023614
43	0xbde45774	-0.11149493
44	0xbd97e373	-0.07416429
45	0x3c8ee500	0.01744318
46	0x3e0255c7	0.12728034
47	0xbd3737f7	-0.044731107
48	0xbd93490e	-0.071916685
49	0x3df802cc	0.121099085
50	0x3da8c691	0.082409985
51	0xbb2c5dc0	-0.0026300997
52	0xbd04b9e3	-0.032403838
53	0xbc9b57a9	-0.018962698
54	0x3c903fa7	0.017608477
55	0xbdd0b8a8	-0.101914704
56	0xbdeaad92	-0.11458887
57	0x3d2563d6	0.040378414
58	0xbcf4010b	-0.029785654
59	0x3da6d11a	0.08145352
60	0x3ce07b2d	0.027402485
61	0x3cc8ca94	0.02451066
62	0x3c297908	0.0103437975
63	0xbcee847b	-0.029115906
64	0xbddf80c8	-0.10913235
65	0x3d973ffa	0.073852494
66	0x3de4c07f	0.11169528
67	0xbd991dca	-0.07476385
68	0xbde0bcdf	-0.10973524
69	0x3d43323e	0.047655337
70	0x3d640867	0.055672076
71	0xbcbf985c	-0.02338808
72	0xbd1ea919	-0.038735483
73	0xbcc79017	-0.0243607
74	0x3d96c1bd	0.073611714
75	0xbe0533d4	-0.13008052
76	0x3cf91f4b	0.03041043
77	0x3dd7c1f3	0.1053504
78	0x3d5cb6bf	0.053885218
79	0x3d3b5d72	0.045743413
80	0x3d6353d9	0.055499885
81	0x3d48b6d4	0.049002483
82	0x3c645ce2	0.013938161
83	0xbdb570bf	-0.08859395
84	0xbcc86ed1	-0.024466904
85	0x3e0d84ac	0.13820142
86	0x3dac32d2	0.08408131
87	0x3e296075	0.16540702
88	0x3e7a9e93	0.24474554
89	0x3df083d8	0.11743897
90	0xbdfc5513	-0.12320914
91	0xbe0333a1	-0.12812664
92	0xbd9e0491	-0.07715715
93	0x3cf5fca5	0.030027697
94	0x3cd93b03	0.026517397
95	0x3d297542	0.04137159
96	0x3df8a67a	0.12141128
97	0x3c2698d5	0.010168274
98	0x3c8dda50	0.017316014
99	0xbd58dbe4	-0.05294408
100	0x3de8321b	0.11337682
101	0x3e0f8da5	0.14018877
102	0xbddaa19b	-0.10675355
103	0x3c9e062a	0.019290049
104	0x3e14bbcc	0.14524764
105	0x3e142e13	0.14470701
106	0x3c73f40d	0.014889729
107	0xbc9d241a	-0.019182254
108	0xbd53429b	-0.05157719
109	0xbce2eaec	-0.02769991
110	0xbc78d90f	-0.01518847
111	0x3de329f2	0.11091985
112	0x3ddcc11e	0.10779022
113	0xbdba42f9	-0.09094805
114	0xbdb1ad80	-0.086756706
115	0x3d536c4e	0.05161696
116	0xbd1c8d22	-0.038220532
117	0xbd219242	-0.039446123
118	0x3da3ba40	0.07994509
119	0x3d7735b2	0.060353942
120	0x3d6c8eba	0.057753302
121	0x3d9f1b58	0.07768887
122	0xbe3b90bc	-0.1831693
123	0x3dd78e25	0.10525159
124	0xbd9a9b72	-0.0754918
125	0x3dc0b3f2	0.09409322
126	0xbd997c1f	-0.07494377
127	0xbd0138b0	-0.031548202
128	0x3d91e56c	0.07123837
129	0x3c521d4c	0.012824368
130	0xbd5740a5	-0.052551884
131	0xbdafa795	-0.085768856
132	0x3d2a72d4	0.041613415
133	0x3db8be3f	0.090206616
134	0xbc822986	-0.01588894
135	0x3d4f170f	0.0505591
136	0xbc82bd4a	-0.0159594
137	0x3c936b44	0.017995484
138	0xbd4584f1	-0.048222486
139	0x3d72dad3	0.05929072
140	0xbc9a7a25	-0.018857071
141	0xbd5072c8	-0.050890714
142	0x3dce83f8	0.10083765
143	0xbcea56d4	-0.028605856
144	0xbcd24c94	-0.02567128
145	0xbc567bc0	-0.013091028
146	0xbd409c58	-0.0470241
147	0x3ba4423f	0.00501278
148	0x3dabedbd	0.08394954
149	0xbd6c9de3	-0.05776776
150	0x3d997b83	0.07494261
151	0x3d282928	0.041054875
152	0x3a661e0c	0.0008778281
153	0xbd94f4b3	-0.07273235
154	0x3d2ab87c	0.041679844
155	0xbd9bd665	-0.07609252
156	0x3d34fa4f	0.044184025
157	0xbd9f400f	-0.0777589
158	0xbd89415e	-0.06701921
159	0xbdb323e2	-0.087470785
160	0xbd100c1a	-0.03516779
161	0xbda8fad9	-0.082509704
162	0xbd41df26	-0.04733195
163	0x3d98606e	0.074402675
164	0x3d563631	0.052297775
165	0xbdd0473b	-0.10169836
166	0x3cd94123	0.026520317
167	0xbd943881	-0.0723734
168	0x3d87809c	0.06616327
169	0x3d619d6c	0.05508177
170	0xbc87e931	-0.016590687
171	0xbd10508c	-0.035233065
172	0x39a011f3	0.0003053095
173	0x3d4c88c2	0.04993511
174	0x3d5681c7	0.05236986
175	0x3c6a1f70	0.014289722
176	0xbca8e938	-0.02061902
177	0xbddde935	-0.10835496
178	0xbd2773a4	-0.040881768
179	0xbd30594c	-0.04305391
180	0xbd02b61a	-0.031911947
181	0xbcffed16	-0.031240981
182	0x3c5ec4cb	0.013596724
183	0xbd177034	-0.03697224
184	0xbd37ed2a	-0.04490391
185	0xbd9a150c	-0.075235456
186	0xbd9b9807	-0.07597356
187	0xbd74d968	-0.059777647
188	0xbe0ae1ad	-0.13562651
189	0xbd7795fc	-0.06044577
190	0xbd122aae	-0.035685234
191	0x3d23ba9c	0.039972886
192	0xbd7e32bb	-0.0620601
193	0x3c7b97d3	0.015356022
194	0x3d5e13a6	0.054217957
195	0x3c2d7b44	0.010588471
196	0xbd14af04	-0.03629972
197	0xbd5533e7	-0.05205145
198	0x3d488c4f	0.048961934
199	0x3d431a40	0.047632456
200	0x3da9d7fb	0.08293148
201	0x3cba8784	0.022769697
202	0xbd4a6025	-0.049408097
203	0x3d0b8571	0.034062807
204	0xbbde0d21	-0.0067764674
205	0xbc00c35d	-0.007859078
206	0xbd81022b	-0.06299242
207	0xbddbf6ea	-0.107404545
208	0x3c43540f	0.011921897
209	0xbe045ff3	-0.12927227
210	0x3c8a6dcc	0.016898058
211	0xbd0d3ee1	-0.034483794
212	0xbca86dc5	-0.020560155
213	0x3d690601	0.05689049
214	0xbcbf2c1d	-0.023336465
215	0xbb473fd8	-0.0030403044
216	0x3d07d339	0.033160422
217	0xbd5a2dd4	-0.05326636
218	0x3d9252b5	0.07144681
219	0x3d8ee036	0.069763586
220	0xbd7eb97c	-0.06218861
221	0xbd87e7e6	-0.06636028
222	0x3daeec23	0.08541133
223	0xbdb07850	-0.08616698
224	0xbdc91300	-0.09818077
225	0xbc81de36	-0.015853029
226	0xbd7ee695	-0.06223162
227	0x3cb5187b	0.0221064
228	0x3d9a998a	0.075488165
229	0xbd4c1627	-0.049825814
230	0xbbf928b2	-0.007603728
231	0xbe0a5a2e	-0.13510963
232	0x3cf7b51b	0.030237725
233	0xbdc9faad	-0.09862266
234	0x3d7eebb2	0.062236495
235	0xbcb793ea	-0.022409398
236	0xbdaa3854	-0.08311525
237	0x3bd03350	0.006353773
238	0x3bde988e	0.0067930883
239	0xbdc5b5df	-0.0965383
240	0xbd636663	-0.055517565
241	0x3db331e8	0.08749753
242	0x3da185fc	0.078868836
243	0xbbfa7423	-0.007643239
244	0xbde67a3a	-0.112537816
245	0x3cf520bf	0.029922841
246	0xba9fcf11	-0.0012192448
247	0x3d24e49e	0.04025709
248	0x3d1a7d3a	0.03771708
249	0xbd300ccd	-0.042980958
250	0xbcf7e351	-0.03025976
251	0xbd004aef	-0.031321462
252	0xbd92a057	-0.07159489
253	0xbd8e0f97	-0.06936567
254	0x3dca5fde	0.098815665
255	0xbe043b79	-0.12913312

fc3.bias f4 [10]
0	0xbdaacd6e	-0.08339964
1	0x3d10e1c1	0.035371546
2	0xbc805ecf	-0.015670208
3	0x3dc492c6	0.09598307
4	0xbd977190	-0.07394707
5	0xbc07065e	-0.008241264
6	0x3c122281	0.008919359
7	0xb7994318	-1.8270264e-05
8	0x3dfb2bca	0.122642115
9	0x3ca0b312	0.019616637
