ckpt/model_epoch13.pth (torch, 106247 bytes, 6 tensors)

fc1.weight f4 [128, 63]
00000000: 5751 80bd 980a 4abd 305d b3bd 1497 c23d
00000010: cc71 44bd acfe 933d c871 e3bd b0ac 2abc
00000020: 1a96 45bd 761a 6bbd 3439 21bd 9c73 72bd
00000030: ac5a e33d 98b3 fd3d 0a8f 1ebd d665 a73d
00000040: 5820 d6bd 60b9 8a3b fe47 2dbd 3f2e 87bd
00000050: a064 febd 7c84 88bc 1884 b93d 60eb 29bb
00000060: b085 c13c 00e7 f8bb ce31 b7bd 24b7 303d
00000070: b016 8dbd ee4b 993d 6c22 623d bcc0 903d
00000080: 63e2 b6bd aaa3 cabd 7eeb c7bd c4ee 903d
00000090: 94a4 96bd 2472 ce3d 700a ecbd 5cf9 f6bd
000000a0: 70ce 543c 6090 4e3c c806 fd3c 30cf 6f3d
000000b0: 1e1e e3bd 544a 48bd ea6f 49bd ca65 b13d
000000c0: 600c 5dbb 9896 f6bd 2ec3 b73d ea2e 19bd
000000d0: 187b 393d 9cb5 babc 7015 053c 5d88 cbbd
000000e0: 203f 9b3b c8fb cebd ee97 c9bd 5bde a1bd
000000f0: ac64 5f3d 70ba ee3d 26d9 af3d 27dd 6e3d
00000100: 5e1a 67be f8bf bcbd 4e1a 213d 0a43 38be
00000110: 2f2d d63d 1a19 9fbd 8e4b 243c eccd 213e
00000120: 88dd e5bd 14d0 303c 9ee2 5bbd c7ea 0f3e
00000130: 52ba cdbc 7013 f5bd e4fb 913d 0dc4 0fbe
00000140: 04e4 913e 8d71 c73b dab4 c13d 3fa3 2b3e
00000150: 957e 913d b130 003e e372 68bd d670 e73d
00000160: ad03 c03d 25f4 703d 272d c83c a1bf 9ebc
00000170: 9f40 883d 4e41 06bc 6602 b03d 9047 a4be
00000180: 0b81 68bd 1333 6bbe 5129 17be c3b8 9fbd
00000190: 4bac c3be 7363 443d ec2c aabc 7d03 8d3d
000001a0: 809b 9bbd 39f9 87bd f8cd 823d 69a9 033e
000001b0: a3e8 c9bd fb94 c73d 209f 4a3e 1935 9d3d
000001c0: f34e 97bd d982 4a3e e285 103e ad07 8dbd
000001d0: 2d0f d3bd ddc7 bf3d 8b24 c8bc 7e4a 173d
000001e0: b969 f6bc fc36 2e3d d6e0 563e 7ae7 0c3d
000001f0: ff3f f53d b179 a43c 5a5c 73bd 2a5a 503d
00000200: dc82 983c 7a62 acbd a34d ba3d 943f ccbc
00000210: 6158 e6bd 5d4c 3abd 0e3f 313d 7aa4 dabd
00000220: 16b8 843d 691f edbc 7d02 05be cb0b 03be
00000230: 3088 eebd 2c15 67bd 647d a63d 31f1 b73d
00000240: e190 09bc 4745 b9bd 9318 4cbd 1ca5 93bd
00000250: 4aca 973d c715 7abd 8b1c bc3d 79fd bbba
00000260: 588b c33d e3fa 5f3b e97b 4cbd 59c7 d8bc
00000270: 4558 5a3d b175 ddbd b616 343d 35eb 9b3d
00000280: ff12 f9bd 8d4e 30bd 5107 a3bd c8af 4d3c
00000290: b446 efbc e6b1 0f3b efcf 0e3c 5029 c13d
000002a0: 468e dabd 2317 b23a 7463 7ebc ccf6 56bd
000002b0: f68d 2a3b 6e91 e8bd 1010 00be c947 363d
000002c0: 0ce2 b8bd 6e0f ab3d 1017 af3c f7b7 59bd
000002d0: 3806 413d feff d03d 95ee 943d 2422 6d3d
000002e0: 584e 8c3d 2a4b 663d 1d31 6bbd 24af 573d
000002f0: 171f 8abd e303 bb3d c083 1dbb 5a8f 83bd
00000300: e098 be3d 23b9 efbc 3b09 9a3d a94b eabc
00000310: d9b0 ad3d 7430 58bd b0fc 913c ad44 01be
00000320: 7954 e9bd e277 a4bd dc3c 86bd ec7b bcbd
00000330: 33c9 853d 7eee ddbd b3a3 023e 5eb4 bd3d
00000340: 4f82 5c3d 6318 3f3c 9b94 8bbb f0b3 253d
00000350: 5840 823c bc03 ffbc f8f9 bebd 77b3 1a3d
00000360: 5fc4 d6bd 067f 833c 6d0d c93d 520d 69bd
00000370: 0ce7 2abc af92 983d 4989 8abc 712c c6bd
00000380: 6723 97bd 2996 1bbe 0d2a 02be af40 cebc
00000390: 9089 bdbd d6d5 0fbd 8f30 e03c b79c b2bc
000003a0: 97ca e43d 28a6 433d 7e20 55bd dd00 d53d
000003b0: 93b7 02be 2ebf 81bd 06d3 b03d 3c5d d13d
000003c0: e897 27bd 1374 97bd e658 ef3d e1a9 c5bd
000003d0: b117 56bd 316a d5bd 5942 1a3d 6327 ff3d
000003e0: c1de 97bd 1032 88bc 2288 c3bd 00e7 573d
000003f0: 5fe5 10bd 6d26 d83d d9a7 463e 21cb cbbd
-0.06265514 -0.04932651 -0.087580085 0.09501472 -0.047960088 0.07226309 -0.111056864 -0.0104171485
-0.04823885 -0.057398282 -0.039361194 -0.059192285 0.11101279 0.123877704 -0.03871063 0.081737205
-0.10455388 0.004233524 -0.042304985 -0.066006176 -0.124215364 -0.016664736 0.09058398 -0.0025927648
0.023623317 -0.0075958967 -0.08945046 0.043143407 -0.06889093 0.074851856 0.05520861 0.07068011
-0.089298986 -0.09894498 -0.097617134 0.07076791 -0.073556095 0.10080364 -0.11525428 -0.1205928
0.012988672 0.012607664 0.030887023 0.0585472 -0.11089729 -0.04889901 -0.049178995 0.08661993
-0.00337293 -0.12040442 0.089727744 -0.037398256 0.045283407 -0.022791676 0.008122787 -0.099381186
0.0047377497 -0.10106617 -0.098434314 -0.07903739 0.054539368 0.11656654 0.0858634 0.058316376
-0.22568652 -0.09216303 0.039331727 -0.17994323 0.10457837 -0.077684596 0.010027779 0.15801209
-0.11223894 0.010791797 -0.053682916 0.14054404 -0.025113259 -0.11966598 0.071281224 -0.14039631
0.28494275 0.0060865344 0.09458323 0.16761492 0.07104222 0.12518574 -0.05675019 0.113008186
0.09375701 0.058826584 0.024435593 -0.019378485 0.066529505 -0.008194281 0.085942075 -0.32085848
-0.05676369 -0.22968702 -0.14761855 -0.077989124 -0.38217387 0.047946405 -0.020773374 0.06885431
-0.07598019 -0.06639332 0.06386942 0.12857594 -0.09858825 0.09745213 0.19787264 0.07676143
-0.07388105 0.19776477 0.14113572 -0.0688623 -0.10305629 0.09364293 -0.024431488 0.036936276
-0.03007971 0.042532906 0.20984206 0.03440044 0.11975097 0.020077558 -0.059414245 0.050867237
0.018617086 -0.084172204 0.09096839 -0.02493266 -0.11247326 -0.045482982 0.043273024 -0.10675903
0.06480424 -0.028945642 -0.1298923 -0.12797467 -0.116470695 -0.056416675 0.08129385 0.089815505
-0.008396358 -0.09046417 -0.049828123 -0.072092265 0.074116305 -0.061055925 0.09185132 -0.0014342509
0.09548062 0.003417664 -0.049922857 -0.026462244 0.053306837 -0.108134635 0.04396697 0.076132216
-0.12161826 -0.04304366 -0.0796038 0.012554117 -0.029208519 0.0021926104 0.008716567 0.09431708
-0.10671668 0.0013587218 -0.015526641 -0.052481458 0.0026024557 -0.113558635 -0.12506127 0.044502053
-0.0902749 0.08352552 0.021373302 -0.05315396 0.04712507 0.10205077 0.072720684 0.057893887
0.068508804 0.056224026 -0.057419885 0.05265726 -0.06744211 0.09131601 -0.0024034828 -0.064238265
0.09306502 -0.029263085 0.07521292 -0.02860053 0.08480997 -0.052780584 0.017820686 -0.12623854
-0.11393065 -0.08030678 -0.06554577 -0.09203324 0.06532516 -0.108365044 0.12757759 0.09262918
0.05383521 0.011663529 -0.0042596585 0.040454805 0.015899822 -0.03112971 -0.093250215 0.037768807
-0.104866736 0.01605178 0.09817014 -0.05689747 -0.010431062 0.07449853 -0.016911166 -0.09676445
-0.07379799 -0.15194 -0.12711354 -0.025177328 -0.092547536 -0.03511604 0.027366905 -0.021803243
0.111714534 0.04776588 -0.05203294 0.10400555 -0.1276534 -0.06335293 0.086339995 0.10222861
-0.040916353 -0.07395186 0.11686878 -0.096515425 -0.052268688 -0.10420645 0.03766093 0.12458684
-0.07415534 -0.016625434 -0.0954745 0.052710533 -0.035374995 0.10554204 0.19399966 -0.09950853

fc1.bias f4 [128]
00000000: 5400 383d 9b6a fdbd d4b6 00be 798a 8c3b
00000010: ed4b 053e 8bb2 f53d 819c 793d aa0d e9bd
00000020: c4a9 ff3d d7b0 81bd 87eb 66bd ab3e d6bc
00000030: 5050 a6bb f4ca e7bc c0f7 a5bd 28f0 7a3d
00000040: 780e d13d 80c1 9ebd a530 efbd 27e2 743d
00000050: 7180 793d 16c6 1c3c 7d76 763c 1410 8cbd
00000060: ed7d dcbd 4a19 a23d 707e b03c e8db dfbd
00000070: 6a69 76bc a0f3 30bd 22cb 3e3e 918a 81bd
00000080: 5a0d 1a3e fe84 96bd 94ba eebd 5fba bf3c
00000090: a3bb b1bd 9196 ff3d b406 03be b0f3 88bc
000000a0: 8d64 bdbd f1c4 543c 0542 a53d 2ea4 243b
000000b0: 41d1 153d ab52 a3bd f075 313c b328 e9bb
000000c0: 8df3 6a3d e787 133d 2600 bb3c 0470 6abd
000000d0: 8f2e 3a3d c6f7 02be 973c dcbd b7d6 d33d
000000e0: 2503 f0bc 3e00 9fbd fc43 ff3d 3542 28bd
000000f0: 76d1 2d3c 8699 a8bd dd91 a9bc f911 39be
00000100: 2d79 303d e349 a33d d50c ae3c 8f63 033d
00000110: aea9 c53d 73f3 d1bd 5b9c 3a3e a634 303c
00000120: bae6 bcbd fe3f debd 1307 42be 62e4 17bd
00000130: ff08 2bbd 8516 753c e21b 223d 6a9a bdbd
00000140: 541f 4ebd 7b68 23bc 6bcc b1bb b8eb 5abd
00000150: dde6 553d 90e3 78bd b562 efbd 42a6 76be
00000160: 0e56 913d 2920 b6bd d14d cabd 78ec 07bd
00000170: 9b7d b9bc d20d 00be 53c2 82bd a733 ac3c
00000180: 0398 1a3d 37a0 efbd 6d92 d63d 8094 d2bd
00000190: eeea 483d 9643 efbb 6b84 abbd 1da7 4c3d
000001a0: f612 9e3d 10a5 09be 88aa 253e 74b2 853c
000001b0: 68a1 763d 798a 28bd 67d3 9cbd 0d5d 183e
000001c0: be3e f93d 77f5 9e3d 60fc 743d 29c5 323e
000001d0: faf0 02bd 208d ffbc 1135 f8bd 4a00 68bd
000001e0: d241 353d 0703 c83d fff2 533d 3a97 aebd
000001f0: 6031 343d b416 6ebd b79c a9bd f39a ef3d
0.044922188 -0.12373849 -0.12569743 0.004288968 0.13017245 0.11996945 0.06094027 -0.11379559
0.12483552 -0.06332558 -0.05637696 -0.02615293 -0.005075492 -0.028295018 -0.08103895 0.061264187
0.10207838 -0.07751751 -0.116792 0.05978599 0.060913507 0.009568712 0.015042898 -0.06839004
-0.10766206 0.0791498 0.021544665 -0.10930616 -0.015039781 -0.04320109 0.18632177 -0.063252576
0.15044156 -0.07349585 -0.11656681 0.023404298 -0.08678367 0.1247989 -0.12795526 -0.016717762
-0.09247694 0.012986408 0.08069233 0.0025122273 0.036576513 -0.07974752 0.010831341 -0.0071154474
0.057361174 0.03601828 0.02282722 -0.057235733 0.045454558 -0.1278983 -0.10753744 0.10343688
-0.029298374 -0.07763718 0.12464139 -0.041078765 0.010609021 -0.08232407 -0.020699436 -0.18073262
0.043084312 0.07973077 0.021246353 0.03207737 0.096515045 -0.102515124 0.18223707 0.01075474
-0.09223695 -0.10852049 -0.18948011 -0.037083037 -0.041756626 0.014958982 0.039577372 -0.09257968
-0.050322846 -0.009973641 -0.00542598 -0.053447455 0.05222212 -0.060763896 -0.11688749 -0.2408686
0.07096492 -0.08892853 -0.098781236 -0.0331845 -0.022642901 -0.12505272 -0.06384721 0.021020724
0.037742626 -0.117004804 0.10477147 -0.102822304 0.04905217 -0.007301758 -0.08374866 0.04996406
0.0771846 -0.13441873 0.16178334 0.016320445 0.060212523 -0.041147683 -0.07657509 0.14879246
0.1217017 0.077616625 0.059810996 0.17458023 -0.031968094 -0.031195223 -0.121194966 -0.0566409
0.044252224 0.097662024 0.05174541 -0.08524938 0.0439924 -0.05812712 -0.08281844 0.11699476

fc2.weight f4 [128, 128]
00000000: d761 64bd 4766 a43b 8b34 a6bd ead4 05bc
00000010: 46be 0c3d 9f75 a53c dad8 a23d 088e 70bd
00000020: 42b4 5f3d b35a 593c 8b3e 81bc 57e8 d53d
00000030: 6070 f73b ba33 133c 55b8 a23d 4ea6 323d
00000040: 7307 053d 3e74 ff3c 740d 99bd 4e93 e33c
00000050: 97ba f6bc 9c25 68bb c145 903d 4108 87bd
00000060: 2f58 a13d eec3 64bd 8534 103c 1feb 50bd
00000070: adae 75bd 7c16 00bd bad8 a83d d88d 4abd
00000080: 1613 5a3c 6b35 4d3d 267f 023e 64cb 22bd
00000090: 5a6d 03bd 03c8 d33c be1e 3d3c cb78 1d3e
000000a0: d5d8 843d e1dc 97bd 87df 173e fc31 c1bc
000000b0: 3615 4f3c 0543 813d 4e52 b4bd 536a 5c3d
000000c0: 53d4 0a3d 097e 7bbc fb10 9cbc 57cd b53d
000000d0: 32a1 013e c59e 003d 5065 af3b 55e3 3a3d
000000e0: d04d 833b 84ab ce3d 7e0d 193d 0faf 0b3e
000000f0: cb82 09bd 2b42 b23c 7e74 c5ba af94 79bd
00000100: 3bf6 2c3e 3461 b53d 84c7 4abd f2d1 0fbd
00000110: 53b4 f8bc 68cd a73c 0af8 9b3d 1254 9fbb
00000120: bfc9 2d3c 4a32 693d c5b9 e0bc 72fa 26bd
00000130: 7cb0 6dbc 420e 20bd 9f5b 713c e203 9a3d
00000140: cb6b d53c 7ff2 ff3d 33cf bebc 8818 d13c
00000150: 9942 333e 38e0 05bc e8ef d83d 19e9 8bbd
00000160: 6820 213c 5b90 423d 578e 493d 0ce3 69bd
00000170: 0e78 9f3d 0ed8 413d c9ad 67bd 8941 a73c
00000180: 80f9 8cbd e617 923d 3c13 9e3d 0dd6 e8bd
00000190: a705 74bc a1b9 873d 75ec e8bd 0436 1fbc
000001a0: 4086 c63d aca5 f23d 0cdf 923c 535b 033b
000001b0: 62de 043e 5f1b fa3c 0237 843d 4726 c0bd
000001c0: 2aa8 8bbd 5a5b 93bd d6d3 d6bc 601b c1bd
000001d0: 40e6 a2bd f354 033d 954f 5dbd b89f 51bd
000001e0: 8afe b8bd f300 e53d deda c83d 36a0 79bd
000001f0: b22f f4bd 0ed3 8e3d b0d9 323c 1682 9abd
00000200: daeb 7e3d caf4 83bd 47cb 5c3c 66e0 49bd
00000210: dcf3 09bd 6c70 68bd 4b81 343d 6c12 90bd
00000220: 3ae2 6c3d 4778 303d 3d4c aabc 6de1 90bd
00000230: 9cf7 853c 520b 673c 4942 72bd 1a8c 583d
00000240: 5961 54bd 8087 80bc 6143 033d 5971 da3c
00000250: c490 4cbc 7d5f b7bb 6997 acbd 3139 babd
00000260: 5ab9 9cbd d660 b03d 96d7 8e3d 0df9 643d
00000270: 1d40 5fbc c36a 8a3c a767 c93d 2030 5b3d
00000280: 2670 c53b 0af4 34bd ce87 96bd 5f43 1b3c
00000290: 2cc4 a3bd 3aee f4bc 2345 903d d9c7 aabd
000002a0: 4826 a33b 0d2a 673d 5cee 1abd 3413 f4bc
000002b0: 1ffc ac3d db54 c83c e8de 26bd 1eb9 b33c
000002c0: ceca 49ba ae93 b3bc f12a b4bd c02c 9a3b
000002d0: b77f 24bd f557 4a3b 47eb 8f3d b4cf 6c3d
000002e0: ff65 dcbc 411c 2f3d 23d9 0f3c 3202 9a3d
000002f0: d275 f23c 7a9f 3fbd 0ebe 5ebb 585e 9a3d
00000300: de56 8a3c faa9 b2bc c0f9 1d3d 1fe9 90bb
00000310: 1384 bf3c 981b a73c fbd6 85ba 424a 203d
00000320: 198a 9fba a51f 15bd 7fa6 b5bd 4642 3abd
00000330: a89f 363c 0691 513d 5c63 ea3a 844f 0dbd
00000340: c9df 10bd 3236 ecbb 0414 413a 2637 5f3d
00000350: b11a 163d 4b12 7dbd ce51 9b3d 1ecf f33b
00000360: 88b8 0bbd ba05 92bd e4eb 773c a97e 18bc
00000370: 10e4 61bd 519a 42bd f246 65ba d9c2 48bd
00000380: 97ab 62bd 1647 193d 8ba4 9c3d 4886 35bd
00000390: 3c28 1cbd a806 aa3c a0f8 8eba a222 32bd
000003a0: 873d a2bd 3d67 59bd 05aa 913d 586f 19bb
000003b0: 91a3 30bd ce55 3bbd 0804 403d 70f4 adbd
000003c0: 2a01 7abd 1ce6 0c3d 30d7 013b e9e0 42bd
000003d0: 7cb9 94bd 13aa 94bd bd80 91bd 2fe8 34bc
000003e0: d916 bbbd edb9 a2bd f746 6ebd 769c 6c3d
000003f0: 76a3 38bc b94b cb3c 1a17 1f3d 5eb0 343a
-0.05575737 0.005017075 -0.081154905 -0.008168438 0.034361146 0.020197688 0.079515174 -0.0587292
0.054615267 0.013266253 -0.015776893 0.10444706 0.007551238 0.008984501 0.07945315 0.04361563
0.032477807 0.031183358 -0.07473269 0.027780201 -0.03011827 -0.0035422808 0.070445545 -0.06593371
0.07878148 -0.055850916 0.008801584 -0.05100548 -0.059981037 -0.031271443 0.08244462 -0.04945168
0.0133102145 0.05009977 0.12743816 -0.03974475 -0.032086708 0.025852209 0.011542974 0.1537811
0.0648667 -0.07415176 0.14831363 -0.023583405 0.012639334 0.06311611 -0.08804761 0.053812336
0.033893894 -0.015349873 -0.019051066 0.08877056 0.12659147 0.031401414 0.0053526536 0.045626957
0.0040070787 0.10091308 0.037366383 0.13640998 -0.033572 0.021760067 -0.0015064625 -0.06093281
0.16890804 0.08856431 -0.04950668 -0.03511233 -0.030359423 0.020483688 0.07615669 -0.004862317
0.010607182 0.056932725 -0.027432332 -0.040766187 -0.014507409 -0.039076097 0.014731317 0.07520272
0.026052376 0.12497424 -0.02329216 0.025524393 0.17505874 -0.008171134 0.105926335 -0.06831569
0.009834386 0.04750095 0.04920801 -0.057101294 0.077865705 0.047325186 -0.05656222 0.020416992
-0.06883526 0.071334645 0.077185124 -0.11368952 -0.014893926 0.06627203 -0.113732256 -0.009717468
0.09693575 0.11848006 0.017928623 0.0020043447 0.12975457 0.03053063 0.064558044 -0.09382301
-0.06819184 -0.07195158 -0.026224058 -0.094290495 -0.07954073 0.032063436 -0.054030973 -0.05117771
-0.090329245 0.11181822 0.098073706 -0.060943805 -0.1192316 0.06973849 0.010916159 -0.07544343
0.062236644 -0.06443174 0.0134761995 -0.04928627 -0.033679828 -0.05674784 0.044068616 -0.07034764
0.057832934 0.043083455 -0.020788306 -0.070742466 0.01635342 0.01410182 -0.059145246 0.052867986
-0.05185065 -0.015689611 0.03204668 0.026665376 -0.012485687 -0.0055961 -0.08427317 -0.0909294
-0.076525405 0.0861222 0.069747135 0.055901576 -0.013626126 0.016896611 0.09834223 0.053512692
0.006025332 -0.044178046 -0.073501214 0.009476512 -0.07996401 -0.029898752 0.07044437 -0.08338899
0.0049789287 0.056436587 -0.037824973 -0.029794313 0.08446526 0.024454525 -0.040739924 0.021938857
-0.0007697762 -0.021921005 -0.08797253 0.0047050416 -0.04016086 0.003087518 0.070272975 0.05781527
-0.026904104 0.042751554 0.008779797 0.0751995 0.029597197 -0.046782948 -0.0033987793 0.07537526
0.016887125 -0.021809567 0.03856826 -0.0044223214 0.023378408 0.0203989 -0.0010211164 0.039133318
-0.0012171894 -0.03640713 -0.08869647 -0.04547336 0.011146463 0.051163696 0.0017882395 -0.03449966
-0.03536967 -0.007208609 0.0007365348 0.054495953 0.03664655 -0.061785024 0.075839624 0.007440462
-0.03411153 -0.071299985 0.015131924 -0.009307542 -0.055149138 -0.04751045 -0.00087462284 -0.049013946
-0.055339422 0.03742131 0.076485716 -0.044317514 -0.038124308 0.020755127 -0.0010907836 -0.04349006
-0.07921892 -0.05307697 0.07112507 -0.0023412313 -0.04312474 -0.045736127 0.046878844 -0.084938884
-0.061036266 0.034399137 0.00198121 -0.047577772 -0.07261941 -0.072590016 -0.07104633 -0.011041685
-0.09135217 -0.07945619 -0.058173146 0.0577664 -0.011269441 0.02481638 0.03884039 0.0006892736

fc2.bias f4 [128]
00000000: fb67 9f3c a91d 703c 6810 d23d e644 e53d
00000010: 14ff 123e 7cd6 3f3c 3755 853d 433f 043e
00000020: 4be5 7e3e 08e4 193e 0bd3 a53d 3ef7 363d
00000030: 0a1f eb3d 8b9f d43c f07d ca3d ec86 f23d
00000040: 698f 29bd 8d2f 6a3c becf 3e3e 2131 253c
00000050: e9cf 3e3d fb14 343e ad8b 053e ac41 283e
00000060: edd1 613d a7a4 833d 2695 4abd 6cc9 a03d
00000070: 980d 3abd 6639 ff3d 7c0b 9e3d 8154 053d
00000080: 5ce8 2e3d a045 e33d cac1 833d c3cf 103e
00000090: e817 b13d d766 843e f48b e93d da19 babc
000000a0: c20d 063d 8608 c83d 885f 793d 6f7a 103e
000000b0: 6276 343e f3b1 633d 27d4 3ebc 1403 98bd
000000c0: c5eb 0bbd 0526 ef3d 2d41 dc3d b503 4a3d
000000d0: 4fe4 16bd 8aa7 49bd 8543 7a3e 123b 843e
000000e0: 2aa4 9abc 5e35 8bbd 6aa6 3d3d cc41 d73d
000000f0: 37cb 393e d1e7 803d 7d1b 413e a5c7 f23d
00000100: 314b 0c3e 93d8 f43d 6e92 8b3d 4e02 a9bd
00000110: 8770 7bbd 707e 243e de55 e73d d2eb 123e
00000120: 3773 bb3d ca47 d63d 59ad 293e a6cd 9b3d
00000130: b58e 853d 92e2 cc3d 42d3 9abb 3b84 0b3d
00000140: f40d ee3c b92f 613d b71e 953d 59c7 053e
00000150: ae4f 1b3e aa6c 5d3e db2a f83d de26 6c3d
00000160: 7244 523e 2a2b b93d c96b 763d db3f 293d
00000170: 8433 483e a4f0 3dbc 60c9 7b3e c636 0c3e
00000180: 3f68 94bc 76bb b7bc 28f6 313e 586d 833d
00000190: ec61 f13d bdbc 0a3e d88c bd3c f6ba 23bc
000001a0: ba20 313e 120d 453e 7a9f 9f3e eada 253e
000001b0: 58f7 e53c b6ae 1bbc 3533 673e c69b eb3d
000001c0: 0dc8 25bd ad33 98bc 2862 603e 13c4 2bbc
000001d0: 85f8 faba c1b8 b13d 7f1e ad3c b6f7 2bbd
000001e0: 17e7 973d b28f fcbc 9706 9f3d fa3b 5b3d
000001f0: 564a 1bbd 5875 083e 97e3 9c3d c2a7 153e
0.019458761 0.014655509 0.102570355 0.11194782 0.14355117 0.011708852 0.06510394 0.12914757
0.24892156 0.15028393 0.08096894 0.044669382 0.114805296 0.025954982 0.09887302 0.118421406
-0.041396532 0.014293564 0.18633935 0.010082514 0.046584997 0.17586128 0.13041563 0.16431302
0.05513184 0.06427889 -0.049458645 0.07850918 -0.04542312 0.1246212 0.07717034 0.032551292
0.042702064 0.11097264 0.06433447 0.14141755 0.08647138 0.2585971 0.11403647 -0.022717405
0.032727964 0.09767251 0.06088212 0.14109205 0.17623284 0.055589627 -0.011647261 -0.07422462
-0.034160394 0.116771735 0.10754619 0.04931994 -0.036838826 -0.049232043 0.24439819 0.25826317
-0.018877108 -0.06797288 0.046301283 0.10510597 0.18143927 0.062942155 0.18858142 0.118544854
0.13700558 0.11955371 0.068150386 -0.08252393 -0.06138661 0.16063857 0.11295675 0.14347771
0.09152835 0.104629114 0.16570033 0.07607584 0.0652136 0.10004152 -0.004724891 0.03406165
0.029059388 0.054977152 0.07281249 0.13064326 0.15167114 0.21623483 0.12117549 0.057654254
0.20533922 0.09041436 0.060161386 0.041320663 0.19550902 -0.011593018 0.24588537 0.1369277
-0.018116115 -0.022428256 0.17379057 0.0641734 0.11786255 0.1354856 0.023138449 -0.009993305
0.1729764 0.19243267 0.31176358 0.1619679 0.028072044 -0.009502104 0.22578128 0.11504321
-0.040473986 -0.018579328 0.21912444 -0.010483759 -0.0019147551 0.08677817 0.021132706 -0.041984282
0.07417124 -0.030830238 0.07764929 0.053523995 -0.03791269 0.13326013 0.07660597 0.14614776

fc3.weight f4 [10, 128]
00000000: b30d b43e 18d3 88bd d58f 863e 46af 0bbe
00000010: 3d08 1a3e a9c7 1d3d 83bf fa3e 5e14 bfbd
00000020: a6a4 a6be 33f6 a03d 43d7 b33e f046 2e3e
00000030: ee37 42bd ea03 8f3e 16aa 913d 8738 31be
00000040: 0a5e 093d fa34 1dbd fa53 aebe a734 c6bd
00000050: cae7 81be 50bd 5abe aaf4 8b3e e6cc 423e
00000060: 0ef6 093e c27f 1e3d c10f 6d3c d149 b83d
00000070: e9c2 cd3d 4ae8 e13d 01f8 9c3e 29c2 0fbd
00000080: 0f6d 243d 1e73 66bd c2d4 13bd de65 6b3d
00000090: ab49 ae3d 7019 22be ca61 843a 02bd 893c
000000a0: c55a 8b3e eb6c e3bd 989e 753e 8c92 413e
000000b0: 9295 52be 8c83 7a3e 549c c13e 57d5 83bd
000000c0: b27e ffbd b525 cd3d ade6 d73d d4f8 413d
000000d0: eca8 943d a0e1 a23e 48f6 0cbf df09 35bd
000000e0: bd10 043e 9148 9b3d 3869 9a3d 1220 c8bd
000000f0: d865 463e f73c 863d 29ab 40be eb24 5fbe
00000100: cb94 14be 811c 993e 14f1 9ebd 4135 a33e
00000110: 3546 733d ed48 7bbc f546 103d 7e74 7abe
00000120: 932c d73e ee37 093e ae50 b4bc ffd5 02bf
00000130: d477 9a3e 1d0c ca3e 0e4d ad3e 7385 d1be
00000140: 58d2 103e be6b 823b 0f30 9ebe 5c30 c8bc
00000150: 6708 cf3e dcdd 1b3e 2a40 b43e 5c22 c53e
00000160: 5b85 33be 5a86 003d ac07 52be 2e5d 103e
00000170: 791a cebd 6607 dfbd 262c 8fbe 3a6a 79be
00000180: 8f00 b13b fc63 c93e 7154 99be c51b 3c3e
00000190: d46f d3bd 4b98 d73d b599 00be 247d 803d
000001a0: 5037 423e 8667 91be 3971 dfbe 736e 90be
000001b0: 72f5 423e 8dc5 c83d 931e cfbe 1f64 853d
000001c0: 987d 17be a2ce 4cb9 b4a7 bf3d c036 883b
000001d0: a252 8a3c dc89 6b3e ff40 c73d 2b15 e9bc
000001e0: 19ff 7f3d 26d4 6d3e 9ca8 c23e e29c 353e
000001f0: d7d1 a93d ef18 8e3e 9ed6 b2bd 879a bebc
00000200: b653 9fbd a86f 643d d0f6 fcbc 7d15 81bc
00000210: c656 9bbe 85e8 e2bb d05e b63d db04 1cbe
00000220: 26dd 86be 12bf ad3e 04d7 ab3b ad84 6a3e
00000230: c9c8 f9bd 0243 a83e e7ab a5be 20fe c23e
00000240: 5aa7 f03c 5ff8 a93e f481 5cbe 5eb7 843d
00000250: 5fe1 9b3e 12fd 72be e639 1c3d 12cb 9e3d
00000260: ff2c 0dbf e881 693e 5d62 51bc 2d6b 213d
00000270: f8dc 2cbd a44e 9bbe 0507 dbbd c2fd cabd
00000280: b8d9 adbe e8ed 2c3e 8129 b83d 67e6 0a3e
00000290: 6a9e 453e 4a64 04bf 5eac a33e 1283 f4bc
000002a0: 7b1b 5cbe e493 4d3e c0ba 1cbe 009d f4bd
000002b0: adac f4bd b8de 833e 5430 1b3e d492 143c
000002c0: a7d3 863d 2851 12bf 4091 bfbe bedb d2bc
000002d0: 5625 a53d 6dae bbbc fc29 763e 195b 42be
000002e0: 9818 6ebd efeb 10bd f614 43be 0c81 0d3e
000002f0: faad bebd ba24 c0be 3445 82be 145d f23e
00000300: b205 e6be 99c5 b33e e2f8 63be 00b9 e8bc
00000310: 0fb7 8dbd 17b2 cc3d 6075 803e f424 d8be
00000320: ca68 89bd 204d c9be e2dc 37bd 8b39 7a3e
00000330: ad78 8c3e 9f9a a4be d7cc febc 0f01 7dbc
00000340: d4ea 073d f51f e5bd 9138 2e3e 313f 8a3e
00000350: f213 bcbd 131d a13e 2f4a ebbd 3077 82bd
00000360: caac edbe a1b0 44be 2250 e2bd 2df5 33bb
00000370: 69d5 8c3e 43d8 5f3e f26c 1abd 3b7f c9bd
00000380: e512 dc3d f022 b53e 505c bfbe 8ae6 7e3c
00000390: 860e 29be fbe8 8a3e 96c3 f0bd 71b8 0a3e
000003a0: f544 8c3e 8a64 5bbe efd2 573e 3559 7ebe
000003b0: c112 923c 9fc2 46bd 7754 1d3d 879a 84bd
000003c0: 45df 00be f61f f33c c6e7 89bc 8523 993d
000003d0: 2a69 b73e 33ca afbd 177b 5f3e 3161 bcbd
000003e0: 616a 26be 1051 aabd 2d9e c13e c3d3 95be
000003f0: 9948 223c 8a3e a7be c980 8d3d aaa6 4c3e
0.35166702 -0.06680888 0.2628161 -0.1364108 0.15042205 0.03852049 0.48974237 -0.093300566
-0.32547492 0.07859459 0.3512517 0.17019248 -0.04741662 0.27932674 0.071125194 -0.1730672
0.03353695 -0.0383806 -0.34048444 -0.096780114 -0.25372154 -0.2136128 0.273351 0.19023475
0.13472769 0.038696058 0.014469088 0.08998454 0.10046942 0.11030634 0.30657962 -0.035097275
0.04014307 -0.056262128 -0.036091574 0.057470195 0.08510145 -0.15830016 0.0010099944 0.016813759
0.2721769 -0.11104759 0.2398628 0.1890356 -0.20564869 0.24464244 0.3781458 -0.06437176
-0.12475337 0.10016958 0.10542045 0.04735644 0.07258782 0.31812763 -0.55063295 -0.044198867
0.1289701 0.075822 0.075396 -0.09771742 0.19374788 0.06554597 -0.18815292 -0.21791427
-0.14509885 0.2990456 -0.07760826 0.31876567 0.059393127 -0.015337211 0.03522392 -0.244585
0.42026195 0.13400242 -0.022011127 -0.5110778 0.30169547 0.39462367 0.3384785 -0.40922126
0.1414274 0.003980129 -0.3089604 -0.024437122 0.40436098 0.15221351 0.35205203 0.38502777
-0.1753134 0.031378128 -0.20510739 0.14098045 -0.10063643 -0.10890083 -0.2796337 -0.24356928
0.005401678 0.39334095 -0.29947236 0.18369968 -0.10324064 0.105270945 -0.12558635 0.06273869
0.18966413 -0.28399295 -0.4364107 -0.28209266 0.19038942 0.09803305 -0.40453014 0.06513237
-0.14794004 -0.00019531933 0.09358159 0.0041569173 0.016885106 0.23001808 0.09729194 -0.028452476
0.06249914 0.2322546 0.38019264 0.17735627 0.08291977 0.27753398 -0.08732341 -0.023267044
-0.077796385 0.055770546 -0.030879408 -0.015757317 -0.3033964 -0.006924691 0.08904803 -0.15236227
-0.26340598 0.33934838 0.0052441377 0.22902174 -0.121965 0.32863623 -0.32357714 0.38084507
0.029376674 0.33197305 -0.21533948 0.06480287 0.30445382 -0.23729351 0.038141154 0.07753576
-0.55146784 0.22803462 -0.012779799 0.03940885 -0.04220292 -0.30333436 -0.10694698 -0.09911682
-0.3395517 0.16887629 0.08992291 0.13564454 0.19298711 -0.5171553 0.31967443 -0.029847655
-0.21494858 0.20075947 -0.15305614 -0.11944008 -0.11946998 0.25755858 0.15155154 0.00906821
0.06583338 -0.57155085 -0.37415504 -0.025739547 0.08063762 -0.022910321 0.24039453 -0.18980063
-0.058128923 -0.035381254 -0.19050965 0.13818759 -0.09310527 -0.3752802 -0.25443423 0.47336638
-0.4492622 0.35111693 -0.2226291 -0.028408527 -0.06919681 0.099949054 0.2508955 -0.42215693
-0.0670944 -0.39316654 -0.044888385 0.24436013 0.27435818 -0.32149217 -0.031103535 -0.015442147
0.033182934 -0.11187736 0.17013766 0.27001336 -0.09183492 0.31467494 -0.11488759 -0.063703895
-0.4642089 -0.19208004 -0.1105044 -0.0027459369 0.2750657 0.21859841 -0.037701555 -0.098387204
0.10745791 0.35378218 -0.37375116 0.0155578945 -0.16509447 0.27130875 -0.11756055 0.13546921
0.2739636 -0.21425071 0.21076559 -0.24838717 0.017831208 -0.04852545 0.03841063 -0.06474786
-0.1258517 0.029678326 -0.016834151 0.07477478 0.3582242 -0.08583488 0.21824299 -0.09198225
-0.16251518 -0.08316243 0.3781599 -0.29263124 0.009905004 -0.326649 0.069093294 0.19985452

fc3.bias f4 [10]
00000000: 5df4 4cbe 68e7 61be 4792 923e 884e 5ebd
00000010: dd31 ae3e 3fff c33c 1787 edbd fbc8 bc3e
00000020: 4c58 b63d 8893 fabe
-0.20015092 -0.2206093 0.28627226 -0.054274112 0.34022418 0.023925422 -0.11598032 0.36872086
0.0890356 -0.48940682
