ckpt/model_epoch19.pth (torch, 106247 bytes, 6 tensors)

fc1.weight f4 [128, 63]
0	0xbd805157	-0.06265514
1	0xbd4a0a98	-0.04932651
2	0xbdb35d30	-0.087580085
3	0x3dc29714	0.09501472
4	0xbd4471cc	-0.047960088
5	0x3d93feac	0.07226309
6	0xbde371c8	-0.111056864
7	0xbc2aacb0	-0.0104171485
8	0xbd45961a	-0.04823885
9	0xbd6b1a76	-0.057398282
10	0xbd213934	-0.039361194
11	0xbd72739c	-0.059192285
12	0x3de35aac	0.11101279
13	0x3dfdb398	0.123877704
14	0xbd1e8f0a	-0.03871063
15	0x3da765d6	0.081737205
16	0xbdd62058	-0.10455388
17	0x3b8ab960	0.004233524
18	0xbd2d47fe	-0.042304985
19	0xbd872e3f	-0.066006176
20	0xbdfe64a0	-0.124215364
21	0xbc88847c	-0.016664736
22	0x3db98418	0.09058398
23	0xbb29eb60	-0.0025927648
24	0x3cc185b0	0.023623317
25	0xbbf8e700	-0.0075958967
26	0xbdb731ce	-0.08945046
27	0x3d30b724	0.043143407
28	0xbd8d16b0	-0.06889093
29	0x3d994bee	0.074851856
30	0x3d62226c	0.05520861
31	0x3d90c0bc	0.07068011
32	0xbdb6e263	-0.089298986
33	0xbdcaa3aa	-0.09894498
34	0xbdc7eb7e	-0.097617134
35	0x3d90eec4	0.07076791
36	0xbd96a494	-0.073556095
37	0x3dce7224	0.10080364
38	0xbdec0a70	-0.11525428
39	0xbdf6f95c	-0.1205928
40	0x3c54ce70	0.012988672
41	0x3c4e9060	0.012607664
42	0x3cfd06c8	0.030887023
43	0x3d6fcf30	0.0585472
44	0xbde31e1e	-0.11089729
45	0xbd484a54	-0.04889901
46	0xbd496fea	-0.049178995
47	0x3db165ca	0.08661993
48	0xbb5d0c60	-0.00337293
49	0xbdf69698	-0.12040442
50	0x3db7c32e	0.089727744
51	0xbd192eea	-0.037398256
52	0x3d397b18	0.045283407
53	0xbcbab59c	-0.022791676
54	0x3c051570	0.008122787
55	0xbdcb885d	-0.099381186
56	0x3b9b3f20	0.0047377497
57	0xbdcefbc8	-0.10106617
58	0xbdc997ee	-0.098434314
59	0xbda1de5b	-0.07903739
60	0x3d5f64ac	0.054539368
61	0x3deeba70	0.11656654
62	0x3dafd926	0.0858634
63	0x3d99e827	0.07514983
64	0xbe92398c	-0.2855953
65	0xbe048f72	-0.12945345
66	0x3d4b7d1e	0.049679868
67	0xbe7d08b5	-0.24710353
68	0x3ddc75a5	0.107646264
69	0xbd998f43	-0.07498028
70	0xbd227866	-0.039665602
71	0x3e265dc8	0.16246712
72	0xbdc663ae	-0.09686981
73	0xbc9f5a9c	-0.019452386
74	0xbd3dc275	-0.046328027
75	0x3e3feda1	0.18742992
76	0xbc91a232	-0.017777536
77	0xbdda3292	-0.10654177
78	0x3d7517f9	0.059837315
79	0xbe17f65d	-0.14840074
80	0x3eb80d29	0.3594754
81	0x3b995d35	0.0046803006
82	0x3de35113	0.11099448
83	0x3e4dd485	0.20100601
84	0x3dcdbed1	0.10046161
85	0x3e24b455	0.16084416
86	0xbd5e1d15	-0.054226954
87	0x3e357ddc	0.17723793
88	0x3e1770ef	0.14789174
89	0x3d403ab3	0.04693098
90	0x3ca3cbc2	0.01999462
91	0xbc8f7153	-0.017510092
92	0x3deea547	0.11652618
93	0xbc423376	-0.01185309
94	0x3dc80447	0.09766441
95	0xbecafcf7	-0.39646122
96	0xbd9d3ea3	-0.07677963
97	0xbeaae0b4	-0.3337456
98	0xbe47fb5e	-0.19529483
99	0xbdeb9473	-0.11502924
100	0xbf16d787	-0.5892262
101	0x3dc2ac85	0.09505562
102	0xbc82fdca	-0.015990157
103	0x3da17b32	0.07884826
104	0xbd89419a	-0.06701966
105	0xbd7b8133	-0.06140251
106	0x3dc319b8	0.0952639
107	0x3e01050e	0.12599584
108	0xbddb8f89	-0.107207365
109	0x3db73f7b	0.08947655
110	0x3e3091b0	0.17243075
111	0x3d6ff08b	0.05857901
112	0xbddda460	-0.10822368
113	0x3e0ef66f	0.13961194
114	0x3e22e1c1	0.15906431
115	0xbd62bc75	-0.055355508
116	0xbe02dbcc	-0.12779158
117	0x3de7663f	0.11298799
118	0x3c382c86	0.011241084
119	0x3d3a7042	0.045517214
120	0xbc90b97c	-0.01766657
121	0x3d7d1d25	0.061795373
122	0x3e49edd5	0.19719632
123	0x3d31b7ba	0.043388106
124	0x3e05ab87	0.13053714
125	0xbd0ad680	-0.03389597
126	0xbd739bb0	-0.059474647
127	0x3d508e9c	0.050917253
128	0x3c98bd94	0.018645085
129	0xbdac84e6	-0.08423786
130	0x3dba57bf	0.090987675
131	0xbccc22a3	-0.02491886
132	0xbde67715	-0.11253182
133	0xbd3a4ff3	-0.0454864
134	0x3d315168	0.043290526
135	0xbdda9e4f	-0.10674726
136	0x3d84a95e	0.06477617
137	0xbced19da	-0.028942991
138	0xbe04d32c	-0.1297118
139	0xbe031a9e	-0.12803122
140	0xbdee8c42	-0.11647846
141	0xbd67108c	-0.056412265
142	0x3da68628	0.08131057
143	0x3db82a65	0.08992461
144	0xbc092183	-0.008369806
145	0xbdb942b9	-0.090459295
146	0xbd4bc7af	-0.04975098
147	0xbd939a86	-0.072072074
148	0x3d97c810	0.07411206
149	0xbd79d039	-0.060989592
150	0x3dbc22db	0.09186336
151	0xbabd7e6e	-0.0014457235
152	0x3dc3aa03	0.095539115
153	0x3b60bb54	0.0034291344
154	0xbd4c6178	-0.04989764
155	0xbcd813fb	-0.026376715
156	0x3d5a5c6d	0.0533108
157	0xbddd62ce	-0.10809861
158	0x3d33fc0f	0.043941554
159	0x3d9bc34e	0.07605611
160	0xbdf8c9c0	-0.12147856
161	0xbd305c68	-0.043056875
162	0xbda34c80	-0.079735756
163	0x3c518395	0.012787719
164	0xbceee8e2	-0.029163782
165	0x3b1078ad	0.0022044585
166	0x3c0f349b	0.008740569
167	0x3dc14016	0.094360515
168	0xbdda8854	-0.10670534
169	0x3ab47c1a	0.0013769895
170	0xbc7f12f7	-0.015568486
171	0xbd571551	-0.052510563
172	0x3b2b6a08	0.002615573
173	0xbde89beb	-0.11357864
174	0xbe001a88	-0.12510121
175	0x3d36525c	0.044512138
176	0xbdb8d35b	-0.09024688
177	0x3dab18bb	0.08354326
178	0x3caf3df9	0.021391856
179	0xbd59bafa	-0.05315683
180	0x3d411ed3	0.047148537
181	0x3dd0fa09	0.102039404
182	0x3d94e8a9	0.07270939
183	0x3d6d00d7	0.05786213
184	0x3d8c465a	0.06849356
185	0x3d665b66	0.056239508
186	0xbd6b7979	-0.057488892
187	0x3d57a42e	0.05264681
188	0xbd8a090b	-0.06740006
189	0x3d9b2273	0.0757493
190	0x3c2bd02a	0.010486642
191	0xbd86aa1e	-0.06575416
192	0x3da889b5	0.082293905
193	0xbc520332	-0.012818145
194	0x3d9f9de8	0.0779379
195	0xbd06c442	-0.03290201
196	0x3dce9a9d	0.10088084
197	0xbd4d399e	-0.050103776
198	0x3cb5dc6e	0.022199836
199	0xbe01b3e8	-0.12666285
200	0xbde778a3	-0.113023065
201	0xbd89904f	-0.06716978
202	0xbdc0c0d5	-0.0941178
203	0xbdc08e86	-0.09402184
204	0x3d7c854c	0.06165056
205	0xbdb4b4f4	-0.088235766
206	0x3df4dd4b	0.11956271
207	0x3dbef96e	0.09324919
208	0x3d919376	0.07108204
209	0x3b7d3d05	0.0038641107
210	0xbac76bfa	-0.0015214675
211	0x3d56af13	0.052413058
212	0x3c241771	0.0100153545
213	0xbcd9bf62	-0.026580516
214	0xbdb2f4cd	-0.08738098
215	0x3d0a3047	0.033737447
216	0xbddf1dd3	-0.108943604
217	0x3d010a25	0.031503815
218	0x3dbb4ee2	0.09145905
219	0xbd7abc8f	-0.06121498
220	0x394192cb	0.00018460599
221	0x3d9ac246	0.07556586
222	0xbd01f022	-0.03172315
223	0xbdc07ef4	-0.093992144
224	0xbd9422a1	-0.072331674
225	0xbe33798d	-0.17526837
226	0xbe0626e4	-0.13100773
227	0xbce3a7cc	-0.027789973
228	0xbdc5f4ee	-0.09665857
229	0xbcbfc3f6	-0.023408871
230	0x3cc1d696	0.023661893
231	0xbcb21ec8	-0.021743193
232	0x3dfb6319	0.12274761
233	0x3d159b56	0.036525093
234	0xbd44ca5f	-0.04804456
235	0x3defd87a	0.117112115
236	0xbe1024b4	-0.14076501
237	0xbd64d4f9	-0.05586717
238	0x3dcbe229	0.09955246
239	0x3dbd248f	0.092354886
240	0xbd35c79b	-0.04437981
241	0xbd89394d	-0.067003824
242	0x3df1237a	0.11774345
243	0xbdb9fcd9	-0.0908143
244	0xbd461af8	-0.048365563
245	0xbdf1cc82	-0.11806585
246	0x3d7bc679	0.061468575
247	0x3e0800e3	0.13281588
248	0xbdafdb4a	-0.08586748
249	0x3cc39fc4	0.023879893
250	0xbdaa8314	-0.083257824
251	0x3d4cfc87	0.050045516
252	0xbd0e5bd2	-0.034755535
253	0x3dcb401b	0.099243365
254	0x3e6370e7	0.22211038
255	0xbdcacedf	-0.09902739

fc1.bias f4 [128]
0	0x3d380054	0.044922188
1	0xbe0881de	-0.1333079
2	0xbe00a993	-0.12564687
3	0x3b10c679	0.0022090955
4	0x3e01c2e4	0.12672001
5	0x3e09a16c	0.13440484
6	0x3d2d49fc	0.042306885
7	0xbe19cabc	-0.15018743
8	0x3dffa9c4	0.12483552
9	0xbd817ffd	-0.0632324
10	0xbd7c4e30	-0.061598003
11	0xbd5cdaa9	-0.053919468
12	0xbba65050	-0.005075492
13	0xbd100a7b	-0.035166245
14	0xbdaa0eaf	-0.08303582
15	0x3d7af028	0.061264187
16	0x3dd10458	0.10205907
17	0xbdb4c29f	-0.088261835
18	0xbdeeb7c6	-0.11656146
19	0x3d424d23	0.047436845
20	0x3d50e07d	0.05099534
21	0x3c0ef1f7	0.008724681
22	0xbc92021c	-0.017823271
23	0xbd82f5d0	-0.06394541
24	0xbdde2a1e	-0.10847877
25	0x3dc34c3a	0.095360234
26	0xbc1e313b	-0.009655292
27	0xbdccfa74	-0.10008708
28	0xbc73cdc3	-0.0148806
29	0xbbe2c2de	-0.0069202026
30	0x3e5d60b5	0.21618922
31	0xbd817a32	-0.06322135
32	0x3e338e48	0.17534745
33	0xbdb30df3	-0.08742895
34	0xbdf48b5d	-0.11940644
35	0xbc9e1891	-0.019298824
36	0xbda35e8c	-0.07977018
37	0x3e02d769	0.12777485
38	0xbe121466	-0.14265594
39	0xbc800fbe	-0.015632506
40	0xbe0db66d	-0.13839121
41	0xba75a626	-0.00093707663
42	0x3d9aeae8	0.07564336
43	0xbc64649b	-0.013940002
44	0x3ceefa5c	0.029172115
45	0xbda22afc	-0.07918355
46	0x3c3175f0	0.010831341
47	0xbd57051c	-0.052495107
48	0x3d9c3783	0.076277755
49	0x3d82ecdf	0.06392836
50	0x3c80edcb	0.015738389
51	0xbd3b48ed	-0.045723844
52	0x3d327cb8	0.043575972
53	0xbe3ac39d	-0.18238683
54	0xbdca1771	-0.09867752
55	0x3db1de52	0.08684982
56	0xbca8a617	-0.02058701
57	0xbdc6a79c	-0.09699938
58	0x3e0636f5	0.13106902
59	0xbd499f5e	-0.04922425
60	0x3cf44f85	0.029823074
61	0xbdde124a	-0.10843332
62	0xbc5346cd	-0.012895298
63	0xbe40ab5e	-0.18815371
64	0x3c439230	0.011936709
65	0x3d8f73ec	0.07004532
66	0xbc0d4be6	-0.008624053
67	0x3c4bb5b7	0.012433461
68	0x3dcefc56	0.10106723
69	0xbde23906	-0.110460326
70	0x3e31000e	0.17285177
71	0xbc70de9c	-0.014701512
72	0xbd9e968a	-0.07743557
73	0xbdde3ffe	-0.10852049
74	0xbe737a98	-0.23777235
75	0xbc8b96a5	-0.017039606
76	0xbd79bb5b	-0.06096969
77	0x3ca57571	0.020197602
78	0x3d5abf1c	0.053404912
79	0xbe10d4e8	-0.14143717
80	0xbd8e08aa	-0.06935246
81	0xbd8bcfea	-0.06826766
82	0x3bab7d96	0.005233477
83	0xbd5aebb8	-0.053447455
84	0x3d63ffcb	0.055663865
85	0xbd78e390	-0.060763896
86	0xbe1152f3	-0.14191799
87	0xbe8b19e1	-0.27168182
88	0x3d91560e	0.07096492
89	0xbdcbe0d4	-0.09954992
90	0xbdcadc1a	-0.09905262
91	0x3c357a88	0.011076577
92	0xbd21fbdb	-0.03954683
93	0xbe015e09	-0.12633528
94	0xbd805c28	-0.062675774
95	0x3d14a628	0.03629127
96	0x3d9a5f07	0.07537656
97	0xbe390731	-0.1806915
98	0x3dcae6f1	0.0990733
99	0xbdd4ed91	-0.10396875
100	0x3d98265d	0.07429192
101	0xbcb2b16f	-0.021813123
102	0xbd56cc76	-0.052441083
103	0x3d2213b5	0.039569575
104	0x3db0eb96	0.086386845
105	0xbe29332b	-0.16523425
106	0x3e21034b	0.15723912
107	0x3b0c672e	0.0021423805
108	0x3d7b911c	0.061417684
109	0xbd15a9d1	-0.036538903
110	0xbd9daff7	-0.07699578
111	0x3e5858a6	0.21127567
112	0x3df93ebe	0.1217017
113	0x3da02fda	0.07821627
114	0x3d9100de	0.070802435
115	0x3e38d678	0.18050563
116	0xbd2c72da	-0.04210172
117	0xbd7f023a	-0.062257983
118	0xbdf998e0	-0.12187362
119	0xbd68238f	-0.056674536
120	0x3d3ba091	0.045807425
121	0x3dd62444	0.10456136
122	0x3c156def	0.0091204485
123	0xbdae973a	-0.08524938
124	0x3d55bc4f	0.05218154
125	0xbd9b6ef2	-0.075895205
126	0xbda99cb7	-0.08281844
127	0x3ddf5a21	0.109058626

fc2.weight f4 [128, 128]
0	0xbd6461d7	-0.05575737
1	0x3bdb3d3f	0.0066906507
2	0xbda629aa	-0.081134155
3	0x3b0529ff	0.002031922
4	0x3d388a1b	0.045053583
5	0x3c929094	0.017891206
6	0x3d8ea88f	0.06965744
7	0xbd55380b	-0.0520554
8	0x3d5fb442	0.054615267
9	0x3c5ab390	0.013348475
10	0xbc79aa5b	-0.01523837
11	0x3e09c1e6	0.13452873
12	0x3bf77060	0.007551238
13	0x3c9e170e	0.019298103
14	0x3db8d534	0.0902504
15	0x3d32a64e	0.04361563
16	0x3d051891	0.03249413
17	0x3d18076f	0.037116464
18	0xbd990ffd	-0.07473753
19	0x3d0cb6c8	0.034354
20	0xbcaa6546	-0.020800244
21	0x3c1c953b	0.009557064
22	0x3d9e9087	0.0774241
23	0xbd58fa30	-0.052972972
24	0x3da1606a	0.07879718
25	0xbd6ec951	-0.05829746
26	0x3c2f3b89	0.010695347
27	0xbd5dd382	-0.054156788
28	0xbd6ed42b	-0.058307808
29	0xbc6f3bd8	-0.01460167
30	0x3ddf4f04	0.10903743
31	0xbd4a8ded	-0.049451757
32	0x3c50491e	0.012712745
33	0x3d72db58	0.059291214
34	0x3dfc1a3e	0.12309693
35	0xbd2d958a	-0.04237894
36	0xbcbf5e2c	-0.023360334
37	0x3cd7830f	0.02630761
38	0x3c9f0852	0.019413147
39	0x3e3cb8b6	0.18429837
40	0x3d87044f	0.06592619
41	0xbdeff91e	-0.11717437
42	0x3e3cfbd5	0.18455441
43	0xbd09a8da	-0.033608295
44	0x3b8486d4	0.004044393
45	0x3d8128e1	0.06306625
46	0xbdb4524e	-0.08804761
47	0x3db6308a	0.08895977
48	0x3d04f888	0.03246358
49	0xbd1f5a33	-0.03890438
50	0xbcac6896	-0.021045964
51	0x3dc2b013	0.0950624
52	0x3e1f5fb1	0.15563847
53	0x3d011270	0.031511724
54	0x3b7dccf6	0.0038726903
55	0x3dbcf8d3	0.09227147
56	0x3ca1bb10	0.019742519
57	0x3dbc85e3	0.09205224
58	0x3cf729ec	0.030171357
59	0x3e208806	0.15676889
60	0xbca14696	-0.019686978
61	0x3d1f7ef8	0.038939446
62	0x3c08931b	0.008335854
63	0xbd4efb69	-0.050532732
64	0x3e474e74	0.19463521
65	0x3df551cf	0.119784944
66	0xbd5d8876	-0.054085217
67	0xbced2cde	-0.028952058
68	0xbd0767dc	-0.033058032
69	0x3d903d6d	0.07042966
70	0x3d9ab1ac	0.075534195
71	0x3bbf0050	0.0058288947
72	0x3caa673f	0.020801185
73	0x3d69324a	0.056932725
74	0xbc8ec574	-0.017428137
75	0xbd0785dc	-0.033086643
76	0xbbc35a98	-0.0059617274
77	0xbd0d821c	-0.03454791
78	0x3d13b458	0.03606066
79	0x3ded8f87	0.11599641
80	0x3d1ac71c	0.03778754
81	0x3e099a96	0.13437876
82	0xbd9461be	-0.07245205
83	0x3cd11888	0.025524393
84	0x3e56f3cb	0.20991437
85	0xbc05e038	-0.008171134
86	0x3e0c4944	0.13699824
87	0xbd88623c	-0.06659362
88	0x3c212068	0.009834386
89	0x3d70204b	0.058624547
90	0x3d5660fc	0.052338585
91	0xbd6cbd4c	-0.057797715
92	0x3d949d5d	0.07256577
93	0x3d42acec	0.047528192
94	0xbd6898b4	-0.056786254
95	0x3ca817c1	0.02051914
96	0xbd5dc0f9	-0.05413911
97	0x3d91f56a	0.07126887
98	0x3dbb5fb2	0.09149112
99	0xbe0493cf	-0.1294701
100	0xbc86672c	-0.016406618
101	0x3d6ed45d	0.058307994
102	0xbdff66d1	-0.124707825
103	0x3ce36594	0.027758397
104	0x3de95143	0.113924526
105	0x3dfc2fdb	0.12313815
106	0x3c753ad8	0.014967643
107	0xbb310dcb	-0.0027016278
108	0x3df5aabe	0.11995457
109	0x3cc710de	0.024300035
110	0x3d847745	0.06468061
111	0xbdec9d2a	-0.11553414
112	0xbd8ba82a	-0.06819184
113	0xbd93341e	-0.07187675
114	0x3c5270cf	0.0128442785
115	0xbd9fd132	-0.07803573
116	0xbdd1f876	-0.10252468
117	0x3da505f9	0.0805778
118	0xbd5d7c91	-0.054073874
119	0xbd51893e	-0.051156275
120	0xbdaffd54	-0.085932404
121	0x3e20be53	0.15697603
122	0x3dd3a8d4	0.10334936
123	0xbd79a036	-0.060943805
124	0xbe06c80d	-0.13162251
125	0x3dd1ad26	0.102381036
126	0x3c32d9b0	0.010916159
127	0xbd9cedf1	-0.07662571
128	0x3d7eebda	0.062236644
129	0xbd83f663	-0.06443479
130	0x3c5ccfe1	0.013477297
131	0xbd4b9024	-0.04969801
132	0xbd0c757f	-0.03429174
133	0xbd62b07e	-0.055344097
134	0x3d344c16	0.044017874
135	0xbd8eeeaa	-0.06979115
136	0x3d6ce23a	0.057832934
137	0x3d3075d7	0.04308113
138	0xbcc04183	-0.023468738
139	0xbd8e2bfb	-0.06941982
140	0x3c85f79c	0.01635342
141	0x3c886ce0	0.016653478
142	0xbd6f6341	-0.058444265
143	0x3d588c1a	0.052867986
144	0xbd54619a	-0.051850893
145	0xbc6ea2d2	-0.014565187
146	0x3d034a68	0.03205338
147	0x3ccc27b5	0.024921278
148	0xbc3cb22c	-0.011517089
149	0xbba5dd4f	-0.0050617824
150	0xbdae4b2a	-0.0851043
151	0xbdb8526f	-0.09000098
152	0xbd9cbabe	-0.07652806
153	0x3db3a86a	0.08772357
154	0x3d8cd09d	0.06875727
155	0x3d640995	0.0556732
156	0xbc6e8cc2	-0.014559926
157	0x3c7f9455	0.01559933
158	0x3ddd8c79	0.10817809
159	0x3d5b300a	0.05351261
160	0x3be0b88a	0.0068579363
161	0xbd3676a4	-0.04454674
162	0xbd97bcee	-0.07409082
163	0x3bb12a56	0.005406658
164	0xbda50da3	-0.080592416
165	0xbcf5d7aa	-0.030010063
166	0x3d929b8d	0.07158575
167	0xbdaa9a53	-0.08330216
168	0x3aa157ad	0.0012309455
169	0x3d4d3cdc	0.05010687
170	0xbd1e4cb8	-0.038647383
171	0xbd0429a7	-0.032266285
172	0x3daa8a68	0.0832718
173	0x3cc85021	0.024452271
174	0xbd26dee8	-0.040739924
175	0x3cb57b3c	0.02215349
176	0x356fb468	8.9296964e-07
177	0xbcc0c9a6	-0.023533653
178	0xbdb54c2f	-0.088524215
179	0x3b2c1fa1	0.002626397
180	0xbd2acc81	-0.041698936
181	0x3b1276d9	0.002234867
182	0x3d8fec00	0.07027435
183	0x3d6d4688	0.057928592
184	0xbcc94dea	-0.024573285
185	0x3d1e4191	0.038636748
186	0x3c16ac17	0.009196303
187	0x3d973edb	0.073850356
188	0x3ce8627a	0.02836727
189	0xbd3fbac2	-0.046808966
190	0xbb510ed2	-0.0031899703
191	0x3d9371c7	0.07199436
192	0x3c9e68ba	0.019337047
193	0xbcb4ed44	-0.022085793
194	0x3d19b021	0.037521485
195	0xbb9b3af0	-0.0047372505
196	0x3cafe993	0.021473682
197	0x3cbf03db	0.023317268
198	0x3a6c493f	0.00090136
199	0x3d1e58f2	0.038659044
200	0xbb540810	-0.0032353438
201	0xbd151fa5	-0.03640713
202	0xbdb976cf	-0.09055864
203	0xbd39c9ed	-0.045358587
204	0x3bbba268	0.0057261474
205	0x3d4e2fde	0.05033862
206	0xba0a0578	-0.0005265097
207	0xbd0e607b	-0.03475998
208	0xbd124751	-0.035712544
209	0xbc0917c9	-0.008367487
210	0xbae69764	-0.0017592725
211	0x3d5f3726	0.054495953
212	0x3d1a86c3	0.037726175
213	0xbd7d124b	-0.061785024
214	0x3da18364	0.07886389
215	0x3beebea6	0.0072859107
216	0xbd0bb888	-0.03411153
217	0xbd93d9fd	-0.07219312
218	0x3c55865d	0.013032523
219	0xbc268bbb	-0.01016515
220	0xbd5e0ab1	-0.054209415
221	0xbd42bcdb	-0.047543388
222	0xba6c4e96	-0.0009014396
223	0xbd3b3103	-0.045701038
224	0xbd5df437	-0.05418798
225	0x3d149c96	0.036282144
226	0x3da0447b	0.078255616
227	0xbd3d28a1	-0.046181325
228	0xbd1cdc8c	-0.038296267
229	0x3cbf7129	0.023369389
230	0xbbadf24b	-0.0053084246
231	0xbd2da3b7	-0.04239246
232	0xbda009a3	-0.07814338
233	0xbd59881e	-0.053108327
234	0x3d91fb9d	0.071280695
235	0xbb835a31	-0.0040085544
236	0xbd2cddad	-0.042203594
237	0xbd3d6f20	-0.046248555
238	0x3d3ffa07	0.046869304
239	0xbdaf6231	-0.085636504
240	0xbd7a012a	-0.061036266
241	0x3d0cdad3	0.034388375
242	0x3a5ff715	0.0008543593
243	0xbd400eaa	-0.046888985
244	0xbd977406	-0.073951766
245	0xbd913b15	-0.07091347
246	0xbd917077	-0.07101529
247	0xbc34d44d	-0.011036945
248	0xbdbc1ee0	-0.091855764
249	0xbda03c7d	-0.07824037
250	0xbd6427f1	-0.055702154
251	0x3d6c9c76	0.0577664
252	0xbc6d9cfd	-0.014502761
253	0x3cd2ebad	0.025747145
254	0x3d1f171a	0.03884039
255	0xbbaa8d48	-0.0052048303

fc2.bias f4 [128]
0	0x3c82d7ff	0.015972136
1	0x3bedae0f	0.0072534154
2	0x3df50860	0.11964488
3	0x3dfc5a05	0.12321857
4	0x3e1d2610	0.15346551
5	0x3d307f5c	0.04309021
6	0x3d6c9bd5	0.0577658
7	0x3e35d6dc	0.17757744
8	0x3e90c538	0.28275466
9	0x3e19b613	0.15010862
10	0x3cd2f575	0.025751809
11	0x3c9b64e5	0.018969009
12	0x3ddcec89	0.10787303
13	0x3c8b23c1	0.016984822
14	0x3dae7f6c	0.085203975
15	0x3e05ed3f	0.13078783
16	0xbc913dc6	-0.017729651
17	0x3cec7a09	0.028866785
18	0x3e663c0c	0.22483844
19	0x3c44d7b7	0.012014321
20	0x3cc7e106	0.024399292
21	0x3e4a24c8	0.19740593
22	0x3de987f9	0.11402888
23	0x3e520587	0.20509921
24	0x3d7bd3fd	0.061481465
25	0x3d5d568e	0.054037623
26	0xbc4c6667	-0.0124755865
27	0x3d9985cf	0.07496225
28	0xbcef1510	-0.029184848
29	0x3e156ff7	0.14593492
30	0x3da698f0	0.08134639
31	0x3d7ff6e7	0.062491324
32	0x3d541e63	0.05178679
33	0x3e33409d	0.17505117
34	0x3dbb237a	0.09137626
35	0x3e1e69cb	0.15470044
36	0x3dd0dedf	0.10198759
37	0x3e98b1d8	0.29823184
38	0x3e097780	0.13424492
39	0xbcde3b13	-0.027127778
40	0x3d36303d	0.044479597
41	0x3ddf89eb	0.10914978
42	0x3dadb110	0.084810376
43	0x3e20a3dd	0.15687509
44	0x3e732c45	0.23747356
45	0x3d4dc5e4	0.05023755
46	0xbced3da1	-0.028960051
47	0xbd8f290b	-0.0699025
48	0xbd2cacd5	-0.042157013
49	0x3dd3690b	0.1032277
50	0x3dfaa45e	0.12238382
51	0x3d48d06d	0.049026895
52	0xbcd2b7b2	-0.025722358
53	0xbd0f6819	-0.035011385
54	0x3e477374	0.19477636
55	0x3e9bebb8	0.30453277
56	0xbca3d5cd	-0.01999941
57	0xbd5ca575	-0.05386873
58	0xbc762b56	-0.0150249805
59	0x3e2aaf9e	0.16668555
60	0x3e5b77a3	0.21432357
61	0x3d7a94ff	0.06117725
62	0x3e4b233e	0.19837663
63	0x3e110078	0.14160335
64	0x3e2c2b7b	0.16813461
65	0x3dedf101	0.116182335
66	0x3da7f95f	0.08201861
67	0xbdf4b81e	-0.1194918
68	0xbd84e2b0	-0.0648855
69	0x3e46debf	0.19420908
70	0x3df686a1	0.12037397
71	0x3e2c7a09	0.16843428
72	0x3d7a205e	0.061066024
73	0x3d9b699f	0.07588505
74	0x3e69163a	0.22762385
75	0x3da4a555	0.08039347
76	0x3c7877dc	0.015165295
77	0x3ce39a65	0.027783582
78	0x3b68db0d	0.0035530955
79	0xbc1f90de	-0.009739129
80	0x3d409502	0.047017105
81	0x3d9b0661	0.07569576
82	0x3d62b1be	0.05534529
83	0x3e1718b8	0.14755523
84	0x3e1baf1c	0.15203518
85	0x3e58f35e	0.21186587
86	0x3df310ef	0.11868464
87	0x3d606b4d	0.05478983
88	0x3e72b500	0.23701859
89	0x3dfeab63	0.12435033
90	0x3da33caa	0.07970555
91	0x3d48f02d	0.049057174
92	0x3e6f3bdb	0.23362677
93	0xbd11f96d	-0.03563826
94	0x3e8b3348	0.27187562
95	0x3e1427cf	0.14468311
96	0xbd7013dd	-0.058612693
97	0xbd353b68	-0.044246107
98	0x3e60c91c	0.21951717
99	0x3dbcfc2b	0.09227785
100	0x3e306f42	0.17229941
101	0x3e171c99	0.14757003
102	0x38be3500	9.069778e-05
103	0xbcde8c23	-0.027166432
104	0x3e23ce79	0.15996732
105	0x3e83881c	0.2568978
106	0x3e9942b9	0.29933718
107	0x3e13228b	0.14368646
108	0x3c07c185	0.008285885
109	0xbc250d7b	-0.010074015
110	0x3e826c0b	0.25473055
111	0x3e1c486a	0.15261999
112	0xbd104ef2	-0.035231538
113	0x3bf40f22	0.007448093
114	0x3e71ddf4	0.23619825
115	0x3aa38c52	0.0012477732
116	0xbcc1af4a	-0.023643155
117	0x3dba8eb7	0.09109252
118	0xb9f3870c	-0.0004644919
119	0xbcb75032	-0.022377107
120	0x3d953b3d	0.072866894
121	0xbb3ce0e8	-0.0028820578
122	0x3d3e7976	0.046502553
123	0x3cf8ed91	0.030386718
124	0xbce223a1	-0.02760488
125	0x3dfa4ce7	0.12221699
126	0x3d7e81a9	0.062135372
127	0x3e1ada5f	0.15122364

fc3.weight f4 [10, 128]
0	0x3ebb22d7	0.36550018
1	0xbd85f880	-0.06541538
2	0x3e8b4a89	0.27205303
3	0xbe2aef93	-0.16692953
4	0x3e0568b6	0.13028225
5	0x3d7c5288	0.061602145
6	0x3ee94669	0.4556153
7	0xbdd6e901	-0.10493661
8	0xbebf00f2	-0.3730541
9	0x3e093302	0.13398364
10	0x3eb9e59f	0.36308
11	0x3e6043ef	0.21900915
12	0xbd35c735	-0.04437943
13	0x3eae4081	0.34033588
14	0x3d3821c5	0.04495408
15	0xbe115f28	-0.14196455
16	0x3d156dc8	0.03648165
17	0xbd0cd7a7	-0.03438535
18	0xbeb57611	-0.3544164
19	0xbdb5b4c2	-0.088723674
20	0xbe724a05	-0.23661049
21	0xbe62341c	-0.2209019
22	0x3e9b3c5f	0.30319497
23	0x3e84de4c	0.2595085
24	0x3e1d5c10	0.1536715
25	0x3d811e41	0.063045986
26	0x3d0e9c30	0.03481692
27	0x3df0f597	0.117655925
28	0x3dfd98f9	0.12382693
29	0x3dcf0c34	0.101097494
30	0x3eaeaab5	0.34114614
31	0xbd93d97d	-0.07219217
32	0xbbb5f886	-0.005553308
33	0xbcf90853	-0.030399477
34	0xbd410ef3	-0.047133397
35	0x3da7dd7b	0.08196541
36	0x3def0284	0.11670402
37	0xbe4d1149	-0.20026125
38	0x3d8374dd	0.06418774
39	0x3c389842	0.01126677
40	0x3e98745e	0.2977628
41	0xbe108dff	-0.14116667
42	0x3e81b605	0.25334182
43	0x3e43ed5e	0.19133517
44	0xbe833472	-0.2562595
45	0x3e948769	0.2900956
46	0x3ee0042e	0.4375319
47	0xbd815e18	-0.06316775
48	0xbe0fd5d4	-0.14046413
49	0x3d7f8e71	0.062391702
50	0x3d9d2941	0.07673884
51	0x3d7c30e6	0.06157007
52	0x3db3db10	0.08782017
53	0x3eb35c79	0.3503149
54	0xbf0e6c8c	-0.5563438
55	0xbd6a8aef	-0.057261404
56	0x3e02cb90	0.12772965
57	0x3da533e1	0.08066536
58	0x3dc09213	0.094028614
59	0xbd953747	-0.07285934
60	0x3e450574	0.19240361
61	0x3d03a2cc	0.032137677
62	0xbe457970	-0.19284606
63	0xbe515b46	-0.20444974
64	0xbe1c837b	-0.15284531
65	0x3eaf03e5	0.3418266
66	0xbdb1545e	-0.0865867
67	0x3ebb0c90	0.36533022
68	0x3d78acda	0.06071172
69	0xbc97a027	-0.018508984
70	0x3d678fdc	0.05653368
71	0xbe8876e3	-0.26653203
72	0x3edfa6a8	0.43681836
73	0x3e1ee0f8	0.15515506
74	0xbd01b93a	-0.031670786
75	0xbf0643f8	-0.5244746
76	0x3eb7244c	0.3576988
77	0x3edc27e9	0.429992
78	0x3ec6d476	0.3883397
79	0xbed50af5	-0.41609922
80	0x3e194b55	0.14970143
81	0x3d1c1ee6	0.038115405
82	0xbea33fa5	-0.31884494
83	0x3c67b57f	0.014142393
84	0x3ecaa77d	0.39580908
85	0x3e622f02	0.22088245
86	0x3eba2b42	0.36361128
87	0x3ece2c03	0.40267953
88	0xbe414b80	-0.18876457
89	0x3d3b5e80	0.04574442
90	0xbe7bfff8	-0.24609363
91	0x3e30d340	0.17268085
92	0xbd75a2ed	-0.05996983
93	0xbdb17dff	-0.0866661
94	0xbeaa07db	-0.33209118
95	0xbe80bf0a	-0.2514575
96	0x3d04f4fb	0.032460194
97	0x3edd53ca	0.43227988
98	0xbea576b1	-0.32317117
99	0x3e4e756a	0.20161977
100	0xbdcdad06	-0.10042767
101	0x3e186f92	0.1488631
102	0xbe278436	-0.16359028
103	0x3dd4be9d	0.10387919
104	0x3e5f25a4	0.21791703
105	0xbea3f21d	-0.32020655
106	0xbee4fdd1	-0.44724897
107	0xbea4dc24	-0.32199204
108	0x3e647b2e	0.22312614
109	0x3e02ac66	0.12761077
110	0xbed720dd	-0.4201726
111	0x3d8b6459	0.06806249
112	0xbe0dfc5a	-0.13865796
113	0x3c2f37b5	0.010694434
114	0x3dbbe22e	0.09174
115	0xbb2d5906	-0.0026450767
116	0x3d8d27e9	0.06892378
117	0x3e81739f	0.25283524
118	0x3e09ba1f	0.13449906
119	0xbcc81840	-0.024425626
120	0x3d8daef3	0.069181345
121	0x3e833d8e	0.256329
122	0x3edccb60	0.43123913
123	0x3e3614c2	0.17781356
124	0x3e0372d6	0.12836775
125	0x3e840f33	0.25792846
126	0xbd9d4eb2	-0.076810256
127	0x39ab5409	0.00032678273
128	0xbd48416f	-0.048890527
129	0x3d68621e	0.056734197
130	0xbc47e6a2	-0.012200983
131	0xbd2912bb	-0.04127763
132	0xbe943261	-0.28944686
133	0xbc819c10	-0.015821487
134	0x3e2a9772	0.16659334
135	0xbe60aeba	-0.21941653
136	0xbeac2886	-0.33624667
137	0x3ebca7d2	0.36846787
138	0x3de03ae9	0.10948736
139	0x3e8dad8a	0.27671462
140	0xbe1c88ab	-0.1528651
141	0x3ebca939	0.36847857
142	0xbea18166	-0.31544036
143	0x3edbf9cf	0.42964026
144	0x3d069198	0.032853693
145	0x3ec714fe	0.38883203
146	0xbe95cc8c	-0.2925762
147	0x3d903ecd	0.07043228
148	0x3eb37c8b	0.35055956
149	0xbe9f0168	-0.3105576
150	0x3db7258b	0.08942708
151	0x3d9ea75d	0.07746766
152	0xbf13b068	-0.5769105
153	0x3e9a38e5	0.30121532
154	0x3c697864	0.014249895
155	0x3d93e407	0.07221227
156	0xbd0d1ff7	-0.034454312
157	0xbe9cf286	-0.3065378
158	0xbdb098fa	-0.08622928
159	0xbdd73ed7	-0.105100326
160	0xbeaad554	-0.3336588
161	0x3e2a8cd0	0.16655278
162	0x3de8a68c	0.11359891
163	0x3e3d6297	0.1849464
164	0x3e7aeccd	0.24504395
165	0xbf1e9fd7	-0.61962646
166	0x3ea41559	0.32047537
167	0xbc282693	-0.010263103
168	0xbe76076f	-0.24026273
169	0x3e7b72bf	0.24555491
170	0xbdece88d	-0.11567793
171	0xbe07deec	-0.13268632
172	0xbe5a4305	-0.21314628
173	0x3e826aae	0.25472015
174	0x3e2bb089	0.16766562
175	0x3c442dea	0.011973837
176	0x3dc300d8	0.09521645
177	0xbf22f57b	-0.63655823
178	0xbebda6b5	-0.3704125
179	0xbc654496	-0.013993403
180	0x3dec6b7b	0.11543938
181	0xbb9dd39c	-0.0048164856
182	0x3e8ed8b1	0.27899697
183	0xbe8f43ca	-0.27981406
184	0xbd43d716	-0.047812544
185	0xbd1f62b8	-0.038912505
186	0xbe53978b	-0.20663278
187	0x3e3f077c	0.18655199
188	0xbe0fcf55	-0.14043935
189	0xbee3ad83	-0.44468316
190	0xbe9a848b	-0.30179247
191	0x3f028995	0.50991184
192	0xbf018c96	-0.5060514
193	0x3eb0a5be	0.3450145
194	0xbe844716	-0.25835484
195	0xbbb0d941	-0.0053969924
196	0xbd8e5687	-0.069500975
197	0x3dd35593	0.10319056
198	0x3e9be01d	0.30444422
199	0xbef90dff	-0.4864349
200	0xbcf3211a	-0.02967887
201	0xbed60c59	-0.41806296
202	0xbd451014	-0.048111036
203	0x3e928a91	0.28621343
204	0x3eae6fdb	0.34069714
205	0xbea7e23d	-0.32789794
206	0xbc9107a0	-0.017703831
207	0xbd0d1670	-0.034445226
208	0x3ce2f999	0.027706908
209	0xbe03d6bb	-0.12874882
210	0x3e606f65	0.21917494
211	0x3eb19e67	0.34691164
212	0xbdd07b6b	-0.1017979
213	0x3e9fe7be	0.31231493
214	0xbdd449bb	-0.103656255
215	0xbd5e4863	-0.054268252
216	0xbf081d25	-0.5316947
217	0xbe589478	-0.21150386
218	0xbe3570f0	-0.17718863
219	0xbbdde111	-0.006771215
220	0x3e866d8a	0.26255447
221	0x3eb10173	0.34571418
222	0xbd9e2d65	-0.07723502
223	0xbe0d8d51	-0.13823439
224	0x3e2904c7	0.16505729
225	0x3ecbb366	0.39785308
226	0xbeea2ad4	-0.457358
227	0x3c9ce0fd	0.019150252
228	0xbe5da389	-0.21644415
229	0x3e9d5ed5	0.30736414
230	0xbe298d84	-0.1655789
231	0x3e5b2843	0.21402077
232	0x3ea54ad0	0.3228364
233	0xbe933804	-0.28753674
234	0x3e8cd54c	0.27506483
235	0xbea95d6f	-0.33079097
236	0x3cb1b4e4	0.0216927
237	0xbc632a6f	-0.013865097
238	0x3d2b08c6	0.041756414
239	0xbdce1cd7	-0.100640945
240	0xbe188b93	-0.14896993
241	0x3d8db2a4	0.069188386
242	0xbb0af50a	-0.0021203184
243	0x3deae6ca	0.11469801
244	0x3ed710ad	0.4200491
245	0xbd966124	-0.07342747
246	0x3e99524b	0.29945597
247	0xbdc39fcf	-0.095519654
248	0xbe2f2426	-0.17103633
249	0xbda0a1a0	-0.078433275
250	0x3ee020df	0.4377508
251	0xbea6d25d	-0.3258237
252	0x3baa3053	0.005193749
253	0xbeb91e56	-0.36155957
254	0x3e0a8932	0.13528898
255	0x3e6e22cd	0.23255463

fc3.bias f4 [10]
0	0xbe40c05c	-0.1882338
1	0xbe8ff2c0	-0.2811489
2	0x3ec61264	0.38685906
3	0xbe421736	-0.18954167
4	0x3ed9e008	0.42553735
5	0x3ca10d85	0.019659767
6	0xbe043bbb	-0.1291341
7	0x3ee5e444	0.44900715
8	0x3d5e88fd	0.05432986
9	0xbf0502f7	-0.5195765
