ckpt/model_epoch36.pth (torch, 106247 bytes, 6 tensors)

fc1.weight f4 [128, 63]
00000000: c435 313d 7aaa 61be e457 c4be 6ad3 bc3d
00000010: 449d 553d 703b 1bbc d424 c13d 988a 253e
00000020: 8c53 0a3e a7b0 333c 8064 8b3e ac12 de3d
00000030: e76a 66bd 2857 9d3d bcf3 c43d a971 14bd
00000040: d876 1b3e e93d 8fbd aa77 03be 932c 2dbc
00000050: 8304 4ebe 2a32 cabd 53ce 073d 606b 78be
00000060: f54a 023c cb18 1f3d a4af 803e 6c12 f4bd
00000070: 63fe e9bb ea64 c8bc a5c2 813d ff02 473d
00000080: 61e5 a9bd 077b 9c3d a6a1 96bc 6a58 1d3d
00000090: 8de6 e9bd 2c16 39be c72f d83d 647d 5c3d
000000a0: dc92 a0bd 5d4b 1f3e e10f 79bd 7fda 1f3d
000000b0: e355 743d 86f8 37bd c6a5 2cbe 0678 0fbe
000000c0: ec1d 0e3e acef d5bd 9d4c e3be bef6 893d
000000d0: 05c9 09be 6e09 853e c2ad d63d 4c7a 223c
000000e0: 082d 573e db66 97bd 3b96 c6bc 1173 b43e
000000f0: cfcc 99bd 235f 3a3e c547 8c3e 0a0c 0f3e
00000100: a61d 963e 4db8 29bd d684 5ebd cbb1 203e
00000110: 5a56 0f3d b0d2 8cbc 5d63 723e 2b9e 633d
00000120: 13be 5cbb 5b07 283b a922 f33d 6ab4 713e
00000130: a834 e2be 700d 433e 8d27 26be f605 073e
00000140: df90 283e 07de 75be 3d0b 52bd 531b 5fbe
00000150: a0d1 40be ad62 e43d 0980 a0be 215b 993b
00000160: 581c 063e 3dfa acbc b4b6 1ebe bf8a 6e3b
00000170: 2517 fb3d 84ef 31be 8508 24bd 9749 3dbe
00000180: 874a 1abe 88b6 b43d c41f 013d ea48 96bd
00000190: a23e d03c e968 f93d e210 08be ca86 8dbd
000001a0: 0a02 cb3c 9d61 80bc a979 7c3d 84ff f13d
000001b0: fd8c 973e 288a 1b3e 2af3 60bd c4b9 973e
000001c0: 7b0c 893e 8f38 47be 94f5 44bd c25a 46be
000001d0: e3f8 c4bd 00d3 75bd 79d0 8abe 62b9 573e
000001e0: 1b04 593d 8566 83be 2172 503e 169b 903c
000001f0: 6b74 6bbe 739c 8fba a8a9 7a3d 8beb 66be
00000200: 1da6 513d 7b6e 743d aabc 1cbe b707 b93c
00000210: d8fd a2bd 1eba f23d c8e4 51bd dec3 903b
00000220: 5238 683e feb1 033e 399b 4abd e7c3 e93e
00000230: e2a6 bbbd 88c8 d83d c185 37bd 5b56 203d
00000240: 4adb 83bd f202 44bd c7e4 be3d 7340 39bb
00000250: 184b 7abe 9a38 913b 1426 123e 3a32 91be
00000260: 12c7 813d 6a64 3b3b 3e23 893d 4a0c 9e3d
00000270: d6ba eebc c47b dc3a 0fb5 d0bd 255a ea3c
00000280: 8b31 36be 1158 5bbc dab7 de3d 8bcf 1dbe
00000290: ed7e 143d 01c5 d53b 13e1 bbbc a58a f4bd
000002a0: 34a9 21ba f25c 723c a97a af3d abfc 00bd
000002b0: c2cd b1bd 7751 acbd 7a9f 11bd 7915 0abe
000002c0: 9f94 afbd 5441 b33d 1ea3 8fbd 24a4 553d
000002d0: a25e 013c d045 8b3d 90c9 b43d a261 1d3d
000002e0: 9ce7 0dbe 1cc5 b53d b5c8 01bc 2116 e2bd
000002f0: dde9 383d d657 3bbd 5144 543e 9ce1 513e
00000300: 654f 21be 2f95 813e 549b 4a3c 734e 0dbd
00000310: 6670 5e3e e27c 88bd 519b 603c dc0f 1e3e
00000320: ee16 29be bebd 09be 9e89 063e f383 a4bd
00000330: 6c01 173d cd34 1a3e 2111 29be db43 a2bd
00000340: 42b1 cd3d 5232 34bd e6cc d5bd cb55 0f3d
00000350: 6fa6 34be 492d 693d abe7 a63c bbe0 3fbe
00000360: 72a2 71bc fb88 913d 4168 e0bd 2e58 5ebd
00000370: b1e1 06be 2042 a03d 71c8 903d 66b1 17be
00000380: bd88 ba3d ab6c 40be 191d c9be 4899 c1bc
00000390: ade1 23bd f7cb e83d 8b5c a73d 86eb fabd
000003a0: 653b ee3c a3b0 193d e62d 363d cf84 123e
000003b0: 6c68 2bbe 825d 1cbe 54e2 02bc 4ceb 73be
000003c0: 2d98 72bd 91b1 0e3e 4f80 3e3e cac3 12bc
000003d0: 0939 ff3d 4735 f9bd 6132 503b fc08 93bc
000003e0: 0e85 5b3c a885 9bbd 050c 3f3e f61e d73d
000003f0: bf2a 853d d283 3fbe 13d3 0b3e 937d 5ebd
0.043264166 -0.22037688 -0.38348305 0.092200115 0.052151933 -0.00947462 0.094308525 0.1616615
0.13508433 0.01096741 0.27225113 0.10843405 -0.056254294 0.07682639 0.09616801 -0.036241207
0.15182054 -0.0699423 -0.12838617 -0.010569709 -0.20118909 -0.09872849 0.03315575 -0.2425971
0.007952441 0.038842004 0.25134003 -0.11917576 -0.007140921 -0.024462182 0.063359536 0.04858684
-0.08295704 0.07640653 -0.018387627 0.038414396 -0.11420927 -0.18074864 0.10555988 0.05383052
-0.07840511 0.15556093 -0.06080616 0.039026733 0.05965222 -0.044914745 -0.16860113 -0.14010629
0.13878602 -0.104461044 -0.4439439 0.067365155 -0.13455589 0.25983757 0.104823604 0.009916853
0.21013272 -0.07392665 -0.024241557 0.3524404 -0.07509767 0.18200354 0.27398506 0.13969436
0.29319495 -0.04143553 -0.0543259 0.15692823 0.03499446 -0.017190307 0.23670717 0.055570763
-0.003368263 0.002563915 0.11871845 0.23603979 -0.441808 0.19048095 -0.16226025 0.13185868
0.16461514 -0.24010478 -0.05128025 -0.21787767 -0.18829966 0.111516334 -0.31347683 0.004680053
0.1309675 -0.021115417 -0.15499383 0.0036398617 0.12260274 -0.17376524 -0.040047187 -0.18485104
-0.15067492 0.088238776 0.031524435 -0.07338126 0.02542049 0.12178213 -0.1328769 -0.069104746
0.024781246 -0.015671546 0.06163946 0.11816314 0.29599753 0.15189421 -0.0549194 0.29633915
0.26767334 -0.19455169 -0.048085764 -0.19370559 -0.09617784 -0.06001568 -0.27112177 0.21066812
0.05298243 -0.25664154 0.20356037 0.017652076 -0.22993629 -0.001095666 0.061196953 -0.2255079
0.05118381 0.059675675 -0.15306345 0.022586687 -0.07958573 0.11851905 -0.051243573 0.0044178804
0.22677734 0.12860867 -0.049464438 0.45657274 -0.0916269 0.10585123 -0.044805292 0.039144855
-0.064383104 -0.04785437 0.093209796 -0.0028267174 -0.24442708 0.0044317963 0.14272338 -0.28358632
0.06336798 0.0028593787 0.06696175 0.07717188 -0.029141825 0.0016821553 -0.10190784 0.028607437
-0.17792337 -0.013387696 0.10874911 -0.15411203 0.03625386 0.006523729 -0.022934472 -0.11940507
-0.0006166876 0.014792668 0.085683174 -0.031490963 -0.08681823 -0.08413976 -0.03555248 -0.13484754
-0.08573269 0.08752695 -0.07013534 0.05215849 0.007896097 0.06800425 0.088275075 0.038423188
-0.13857883 0.08875486 -0.007921387 -0.11039377 0.045144904 -0.045738064 0.20729186 0.2049622
-0.15752943 0.2530913 0.012366135 -0.034498643 0.21722564 -0.066644445 0.013708905 0.15435737
-0.16512653 -0.13451287 0.13138434 -0.0803298 0.03686659 0.15059204 -0.1651044 -0.07923099
0.10043575 -0.0439933 -0.10439472 0.034993928 -0.17641614 0.056927953 0.02037414 -0.18738072
-0.014748203 0.07106205 -0.10957385 -0.054283313 -0.13172032 0.07825112 0.07069481 -0.14813766
0.09108112 -0.18791454 -0.39280012 -0.02363266 -0.040010143 0.11367028 0.08171948 -0.12251954
0.029081056 0.03752197 0.044477366 0.14308475 -0.16739053 -0.15270045 -0.007988531 -0.23820227
-0.059227157 0.13934924 0.18603633 -0.008957813 0.124620505 -0.12168365 0.003176831 -0.01794862
0.013398422 -0.07593852 0.18656929 0.10503952 0.06502294 -0.18702629 0.13654737 -0.054318976

fc1.bias f4 [128]
00000000: e133 b4bd 2876 4abc 9c7e 143e 2ea3 3bbe
00000010: 2120 1d3d 864f 98bd 0375 5c3d 341e 40be
00000020: cccd 2f3e 198c 53be e87e 71be c4c5 903d
00000030: b8c1 043d 2ff5 0f3e 8261 793d 5d17 363e
00000040: 3e90 8c3d c95c 40be e6b7 423e c894 043d
00000050: 8ff2 5c3d 2b57 eabc ae83 e738 7a12 cabd
00000060: 9f49 0ebe e19d 00be 6dbf f2bd 93ec c33d
00000070: d586 d73d e8a0 8bbe fc9f 18bd f122 c3bd
00000080: 595e e9bd 7c43 9bbd d082 6dbd b7de 6dbd
00000090: 8532 c83d 4713 e8bd 4e04 2c3e f0b0 e73d
000000a0: 65b7 2d3d 6458 9a3b b5c1 c9bd ccf3 cf3d
000000b0: fe78 313c ef17 d1bc 2b31 76bd 6c30 c2bd
000000c0: 759d 5bbe f37f 71bc 1f07 8fbd 2cf5 1cbe
000000d0: 3a31 00be 9522 503d d851 65bc 62b2 11bd
000000e0: 0900 e9bc e3a5 e9bd da81 de3d b896 243e
000000f0: f03a ee3d 510e 243e 4e58 7ebd 9a51 0b3e
00000100: c5ac d13d 9b93 00b9 7b7e df3d c17d 793d
00000110: 7d58 bebd 3bd3 933d c7ec 0b3e b78f 91bd
00000120: 4aef 3b3d b52f e0bd c6cc a4bc 96ef 043d
00000130: 0ad4 e6bd a13e dcbd 845f 233e d3e0 373e
00000140: f751 e2bd 9bf9 58bd 199e a63d 7443 e0bb
00000150: effc ed3c d699 003e 7e84 f1bd 771a 7ebd
00000160: a49b c03d de90 203e a64f b3bc 97ee cebd
00000170: 197d abbd 4117 47be b113 083c 3f55 40bd
00000180: 36c0 223e 0622 163e 41fe edbb 5a4e 71bc
00000190: 1e10 4cbd c542 f53b 808b 293d 6e4e d6bc
000001a0: 8c2e e8bd 8d1c 80bc eee0 fe39 bd88 0cbe
000001b0: dcf1 4d3c 0119 bf3d fd30 91be f664 013e
000001c0: 2a0e ee3d f610 1c3d 4dd9 74bc 088d 513c
000001d0: bd50 91bd 1e3e f0bc 4357 5b3d fda2 a1bd
000001e0: f2f5 9d3d 217a 56bc 1bfa b73d 7c66 993d
000001f0: 100c ae3d c792 c53c e4f6 0dbe 0c33 a63d
-0.087989576 -0.012357272 0.14501423 -0.18323967 0.03836072 -0.07437043 0.05382253 -0.18761522
0.17168349 -0.20658912 -0.23583567 0.07068971 0.032411307 0.14058374 0.060884006 0.1778235
0.068634495 -0.18785395 0.19015464 0.03236845 0.05394226 -0.028606018 0.000110394656 -0.098668054
-0.13895272 -0.12560226 -0.11852918 0.09566607 0.10523764 -0.272712 -0.037261948 -0.09528149
-0.113949485 -0.07581231 -0.05798608 -0.058073726 0.09775261 -0.11331802 0.16798517 0.11313045
0.042411227 0.004710244 -0.098514 0.101539224 0.010832069 -0.025524108 -0.060105484 -0.09481892
-0.21446784 -0.014739978 -0.0698378 -0.153279 -0.12518778 0.05081423 -0.013996564 -0.03557051
-0.0284424 -0.114085935 0.10864611 0.1607312 0.11632335 0.16021086 -0.062095933 0.13605347
0.10238031 -0.00012262019 0.10912796 0.060910944 -0.092942216 0.072180234 0.13664542 -0.071074896
0.0458825 -0.109465994 -0.020117175 0.03245505 -0.11270912 -0.10754133 0.15954405 0.17956857
-0.1105079 -0.052972417 0.081356235 -0.0068439785 0.029051272 0.12558684 -0.11792849 -0.062036958
0.09404686 0.15680262 -0.021888565 -0.10104101 -0.0837347 -0.19442464 0.008305476 -0.046956297
0.15893635 0.14661416 -0.0072629754 -0.014728153 -0.049820058 0.007484766 0.041392803 -0.026160445
-0.11337003 -0.015638614 0.0004861424 -0.13724037 0.012569871 0.09330941 -0.28357688 0.1263617
0.11623795 0.038102113 -0.014944387 0.012789972 -0.07095478 -0.029326495 0.053550016 -0.07892416
0.07712926 -0.013090641 0.08983251 0.074902505 0.084983945 0.02411784 -0.13863713 0.08115205

fc2.weight f4 [128, 128]
00000000: 841e 343d ae52 8b3c efc9 823d 3c9a fcbc
00000010: 16cc 8c3d ef9d a1bd 79e7 40bb 7240 b13c
00000020: dbcb df3c 0064 de3c 6f04 38be 6ac3 213e
00000030: f04f 80bd 9e94 c03d bcbc 24be 90ee 993c
00000040: de55 1abd 841d 603c 4dcb 76bd e095 313e
00000050: b47d 71bd 325b 9b3d ee2b 743d 70a4 d93c
00000060: 4f6d d63d c843 c53d b35e 403c ce43 5fbe
00000070: f7b9 66be a743 5e3a ea39 f039 1bf6 e1bd
00000080: fb7f a43d d54d 4dbd 80f1 5f3d a063 2b3e
00000090: aad1 ae3c ec2e c93b 4d04 de3d 34c8 9dbd
000000a0: 534e 08be 3790 4fbe 45f1 133e 320a 613d
000000b0: 5b67 b63d 05ef cc3d 2516 493e a626 cabc
000000c0: 3154 18be 5928 bbbd 0c38 2abe 38c3 233c
000000d0: 5d19 bbbd 60bd ebbd edd7 3d3d b49a 12bc
000000e0: d138 2c3d 7d85 8d3d cf20 e53d 416c f63d
000000f0: 93cb 0cbd 852d 1fbd 6850 1f3c 25e0 34bd
00000100: 00ef 77bc 6946 79bd 064f 453e 5408 493e
00000110: c58d e5bd 7493 19bd 465f b73c a8fb a0bc
00000120: a936 403d 01fa ea3a 69d7 adbd c4a6 0b3e
00000130: b958 4dbe 7f2a a83d e5bc 04be 9d87 6bbd
00000140: e1d8 873d 26ca 17be 75c1 943d cb9d 673d
00000150: 2548 b03d 20e5 123b d10c b93c 82c7 8a3d
00000160: 6726 cebd 52bc fa3d e722 6e3d 3551 043c
00000170: 3d73 373e ee6b a1bc 6087 3a3e 4321 b8bd
00000180: 5e88 133e 73c9 eebd a26c 1f3d c6b0 4dbd
00000190: 5d48 91bc 59a5 3bbe e0ca 5c3b 433d 743d
000001a0: 38f3 44bd d403 183d cb17 cb3b 406c 75bd
000001b0: 1fd0 4c3c 2009 213e 4cf8 163d 50a1 073e
000001c0: 585c c8bd f8d4 083d 0174 ba3c 68a0 3abd
000001d0: 821d 63bd 2a93 a63d 55f6 423e 40ac af3c
000001e0: b994 2fbc 02d0 0c3e 54ab c7bc 1f5a 9e3d
000001f0: 1dc4 303e 78b9 5b3d fda6 5f3e 32de b3bc
00000200: 3f8e 253d 6e6a b93d eb22 243d 91f8 fb3d
00000210: 3ea7 7b3d f4b4 85bd ca80 edba 9967 57bc
00000220: 2f94 a5bb 219c d7bc 17e4 563d 9aa5 a9bd
00000230: aa86 233d 65e0 ebbb 4ee7 653e 9e67 98bd
00000240: b559 8dbc ee93 35bd cb73 c1bd 4f87 03bd
00000250: 4c8e 503c 254a 85bd ecba a3bc 8ad0 783d
00000260: 7177 053e c713 f53c d418 d4bc efc7 493e
00000270: 008a 673e 6b3b f03d 98d4 503d 4f81 ac3d
00000280: 5efc f33c 45a5 1d3e 8ff7 eb3d d40e c1bd
00000290: 4b6f a03d 168e 223c f757 4bbd d462 893e
000002a0: 73cd c7bd 3a70 423e b271 72bd 5c53 00be
000002b0: b67b bd3d b441 1abc 4154 1cbe 1af0 063d
000002c0: 97d6 513e 68fb 3a3b bcf9 153e eab6 f53c
000002d0: 39cf 753c 7741 ec3d 13c1 d93d bd38 833d
000002e0: c6a2 683e 0d78 523d 7f8c 41bd 60fd 26be
000002f0: 5da6 21bd 5083 1c3e d85f 74bc 052b 173e
00000300: 29c1 623a 7551 7a3c 4977 36be 61e6 bebe
00000310: d821 a93c 2b02 3e3e 7857 ccbd cb44 2cbc
00000320: 12e3 ed3d 4b71 5cbc af3d 553d 0f5c 84be
00000330: b6b2 6a3e 0bfe 35bd fa27 263e cd8a ab3c
00000340: 46cc 28bd 5561 323e 72f4 34be 9cd4 75bd
00000350: b7cf 8dbe eca4 e53c caa4 353c 6dc5 5b3d
00000360: ba3c ba3d 0196 493d 8f1d 72bb f55f b9bd
00000370: 3262 f4bd 06e3 84bd c6e6 23bd 778a fd3d
00000380: 013e 25be 3b40 f13d 2bbe 26bd 9b52 033d
00000390: 94b2 e5bd 9c67 1b3e 1357 ab3d aa0b ee3c
000003a0: 2a99 8ebd bb66 2dbc 1928 153e 1950 083c
000003b0: 85ef af3d ad15 52bd dafa c73c e0a4 1dbe
000003c0: 2d76 e4bc cbe4 7ebb 1d72 31bc eebb 0bbd
000003d0: d863 10bd caf2 ccbc 1a8d 0cbe ed0e a53c
000003e0: e093 c0bd 5743 00be 2d15 473c 184e efbc
000003f0: 29a9 20be 848a d5bd d16e 87be 6774 40be
0.043974414 0.017007198 0.06386172 -0.030835263 0.06874864 -0.078914516 -0.0029434843 0.021637175
0.027318886 0.027147293 -0.17970441 0.15797201 -0.06265247 0.094033465 -0.16087621 0.018790513
-0.037679546 0.013678912 -0.060252476 0.17342329 -0.05895777 0.075857535 0.059612207 0.026567668
0.10470068 0.09632069 0.011741328 -0.21803209 -0.22531877 0.0008478709 0.00045819517 -0.11033269
0.08032223 -0.050123055 0.05467367 0.16737223 0.02134021 0.0061396267 0.10840664 -0.07704201
-0.13311128 -0.20269857 0.14447506 0.054941364 0.08906432 0.10006527 0.19637354 -0.024676632
-0.14875866 -0.09138555 -0.16622943 0.009995274 -0.09135697 -0.1151073 0.0463485 -0.008948017
0.04204637 0.069102265 0.11187898 0.120323665 -0.03437383 -0.03886177 0.00972376 -0.044159073
-0.015132666 -0.060858164 0.19268426 0.19632083 -0.11208681 -0.037494138 0.022384297 -0.019651249
0.046927128 0.001792729 -0.08488352 0.13637835 -0.20053376 0.082112305 -0.12962683 -0.057502378
0.06633163 -0.14823207 0.072634615 0.056546967 0.086075105 0.0022414401 0.02258912 0.06776334
-0.100659184 0.122429505 0.058138754 0.008076002 0.17915054 -0.019704785 0.18215704 -0.08990719
0.14407489 -0.11659517 0.03892196 -0.050217412 -0.0177347 -0.18324794 0.003369026 0.059628736
-0.048083514 0.037113026 0.0061979047 -0.05991769 0.012500792 0.15726137 0.036857888 0.1324513
-0.09783238 0.033406228 0.022760393 -0.04556313 -0.055448063 0.08133538 0.1903928 0.02144444
-0.010716611 0.13751224 -0.024373688 0.07732033 0.17262311 0.053643674 0.21841045 -0.021956537
0.04041886 0.09053503 0.040072363 0.1230327 0.06143879 -0.06528655 -0.0018120047 -0.013147258
-0.0050530653 -0.026319565 0.052463617 -0.08283539 0.039923348 -0.007198381 0.22451517 -0.074416384
-0.01725469 -0.04433053 -0.09445914 -0.032111462 0.012729239 -0.065082826 -0.019986592 0.060745753
0.13033845 0.029916657 -0.025890745 0.19705175 0.22611237 0.11730083 0.050983995 0.08423101
0.029783424 0.15395077 0.115218274 -0.09426656 0.078337274 0.009921571 -0.049644437 0.26833212
-0.09755983 0.18988124 -0.05919046 -0.12531799 0.092521116 -0.009415079 -0.15266515 0.032943822
0.20492016 0.0028531197 0.14646047 0.029994447 0.015003019 0.11535924 0.10632529 0.06407306
0.22718343 0.05138402 -0.04725313 -0.16307592 -0.039465297 0.15284467 -0.014915429 0.14762504
0.0008649999 0.01527821 -0.17818941 -0.3728514 0.02064602 0.18555515 -0.09977621 -0.010514448
0.11615576 -0.0134547455 0.05206078 -0.25851485 0.22919735 -0.044431727 0.16226187 0.020940209
-0.041210435 0.17419942 -0.17671373 -0.060017213 -0.27697536 0.028032742 0.011086652 0.053655077
0.09093614 0.04921532 -0.0036943888 -0.090515055 -0.11932792 -0.06488614 -0.040015005 0.12379926
-0.16136934 0.11779829 -0.040708702 0.0320612 -0.11215702 0.15176243 0.083662175 0.029058296
-0.069628075 -0.010583575 0.14566077 0.008319878 0.085906066 -0.051290203 0.024411608 -0.15394926
-0.027888382 -0.0038893695 -0.010830429 -0.03411477 -0.03525147 -0.025018115 -0.13725701 0.020148719
-0.09403205 -0.12525688 0.012151045 -0.029212043 -0.1568953 -0.104268104 -0.26451734 -0.18794404

fc2.bias f4 [128]
00000000: 8383 f23d ef7e 113d 166b be3c cf7f 8a3d
00000010: 9fdf 443d 0ff2 763e 0354 9fbc a44c 8f3d
00000020: 32f8 b53d bde5 473e 5115 f53d 916a f93d
00000030: d0fd 033e 577f 04be 9789 753d fc68 963c
00000040: 8597 693d 8f2e 20bd a1e6 503a e379 403e
00000050: 7607 59bb 176b 3d3e c619 d0bd 116f a83c
00000060: 6139 c73c 2537 df3d 7a5a 6a3d 4b8b 58bd
00000070: 07f7 5f3e fd36 893d d50a 113d aea1 403b
00000080: 2c98 453e e3c1 9ebd 4d16 643e 4c8a 31bd
00000090: 5919 e9bc a9e0 703d 657a ba3d cfe0 3fbd
000000a0: 893b 763d 40b0 82bd 843c 1a3e b29c 903d
000000b0: 2af6 44bd 5658 a73e 17d6 263e af63 093e
000000c0: 5550 303e 2653 0b3e 82ae b1b9 aee1 033e
000000d0: 46d2 063e 86d4 023d 9fdd 073e 34d3 203d
000000e0: 521a 133d 29ba 75bc cda4 153e dcf0 c1bc
000000f0: 2efc ae3d 700b 7dbd 5624 85bd 9d26 153d
00000100: 43fd 843d 2cba d73d d081 eb3d 2a56 f1bc
00000110: 31a3 a8bd 007a e33c 7488 b63d 9d3e e13d
00000120: 8cba 543d 4da9 223e b9c6 f63c 2f22 333d
00000130: d497 803d 9120 b53d 721f 45bd 2be8 c5bc
00000140: 2428 fb3d c4b4 e93d 5992 543e b59f 083e
00000150: 964c b2bd cd6c 803d 3cf1 2d3d 12d9 833b
00000160: f4b5 673d 2613 4e3e 25ef 703c 948a f63c
00000170: 560d 133e e2f3 a13d d710 ca3c c1ae e23d
00000180: 13ca 093e 56b7 febc 09c3 8b3d d3a4 c3bd
00000190: 2f03 1d3d c98d 3f3d 7d7f 873e 0207 513e
000001a0: 7427 5c3d 2ea2 8b3e d68d 5d3e 9966 faba
000001b0: dbcf 4b3c f86e 04bd 57c0 6d3e 435d 23be
000001c0: 36fd 9ebd 62a9 7fbc 1d38 9f3c 1aa3 9aba
000001d0: a8b4 8f3d 8898 92bd f8cc 16be 78c6 523d
000001e0: 542e 40bd a9df 2d3e d5ac 143e 1a68 853e
000001f0: b09e 043e 9ee3 02bd dcf8 813c 4930 d7bd
0.1184149 0.035521444 0.023244422 0.06762659 0.048064824 0.24115776 -0.01944924 0.0699704
0.0888523 0.19521232 0.119669564 0.12178529 0.1288979 -0.12939201 0.05994567 0.018360607
0.057029266 -0.0391069 0.00079689367 0.18796496 -0.003311602 0.18497883 -0.10161166 0.020560773
0.024319353 0.1089919 0.05721519 -0.052867215 0.21871577 0.06699941 0.03541072 0.0029393244
0.1929633 -0.07751825 0.22274132 -0.04334478 -0.02845447 0.058808003 0.09105376 -0.046845254
0.06011537 -0.06381273 0.15062147 0.07061137 -0.048086323 0.32684582 0.16292606 0.13416933
0.17218144 0.13605937 -0.0003389009 0.12879059 0.1316615 0.03194096 0.13268135 0.03926392
0.035913773 -0.014997997 0.14613648 -0.023674421 0.08544193 -0.061778486 -0.06501071 0.036413778
0.06493618 0.10533556 0.11499369 -0.029460032 -0.08234251 0.027768135 0.08912745 0.10998271
0.051935717 0.15884896 0.030124055 0.043733772 0.06278959 0.08844102 -0.04812569 -0.024158558
0.122635156 0.114114314 0.20758952 0.13342173 -0.08706014 0.06270752 0.042466387 0.0040236795
0.05657001 0.20124492 0.014705454 0.030095376 0.14360556 0.07907845 0.024666233 0.11068488
0.13455991 -0.03109328 0.068243094 -0.09552922 0.038333114 0.046766076 0.26464453 0.2041283
0.053748563 0.2727217 0.21636137 -0.0019104063 0.012439693 -0.03233239 0.23217903 -0.15953545
-0.0776314 -0.015604349 0.019435937 -0.0011797876 0.07016879 -0.07157999 -0.14726627 0.051458806
-0.046919182 0.16979851 0.14519055 0.26055986 0.1295116 -0.031955354 0.015865736 -0.105072565

fc3.weight f4 [10, 128]
00000000: 20de d1be f3cc 003e 7227 ffbd 4259 5bbc
00000010: bbb9 94be 096a c83d ecfd 603d 6d7f bebe
00000020: 100b e7bd 26ee 463d 91a8 78bd 2328 553e
00000030: 2960 163e fa6c c23e a567 393e e95c 33be
00000040: 906e a8bc 59ac 2b3e 20d4 d0bd 5b5d 27bd
00000050: 82c5 73bd 6b9f 833e fc45 2e3f 4837 333e
00000060: 7ffa 31be 9d36 15bf 2c99 3b3d 201f 33bd
00000070: 96c2 1e3e 3f17 f1be 5918 4dbe ff15 a6bb
00000080: faf2 cebd 8d24 a3be 978c 9fbe f70e ba3e
00000090: a685 6ebd a7cf 603c 5e53 f23d 4c8c 343c
000000a0: 5522 d13d e500 223e 5971 01be 53ba b5bd
000000b0: aa0d 4c3d d477 3cbe d033 a9bc ef6b 2dbe
000000c0: a225 28bf 64f2 af3c 81b5 8c3e 5dc8 1dbe
000000d0: 7f1a a23d 004e 0e3e 8c8e 1d3e 37fe 693e
000000e0: 4ae9 da3d 3a24 283d d73f bebe 0983 a63e
000000f0: bf05 183d 8b1c 623c ed19 88bd ba9c 6a3d
00000100: 62b1 79bd 7121 783c cdba 513d eb10 6f3d
00000110: f37e d53d 9cb4 a6be ad7f b5bd 7577 90bc
00000120: ce2c 91bd b9e4 85be 8d4d aa3c c280 81bc
00000130: 28e0 81bc 4734 80be ca34 a93d 48cb 2b3e
00000140: 200f 05be c051 f8bc d56a 203e 90da 9bbe
00000150: 885e 243f 1a7d 94be cbf6 36bc 4c8b 083f
00000160: 2798 463d a392 fc3d 416f acbc 838a b9be
00000170: 7f49 f1be e0e6 a13e a110 ad3e 7125 e13e
00000180: 9360 8dbe 068c 82be 975a 2b3c 1c0a 58bd
00000190: bf0a b8bd a45c 6b3d 30f6 193e 4adb 6bbe
000001a0: fc7d 013f 31b8 643e 8ff7 cdbd def2 81be
000001b0: f990 1ebd 0703 2abd f64c da3d d5aa cbbd
000001c0: 9a74 01bb 35d0 cd3d 6813 6e3e 5935 eb3c
000001d0: 7ece d73e 6371 ff3e 1f93 50bd 0dda b2bd
000001e0: f7ed 58bd ebbe febe a73e 7a3d b88e 423e
000001f0: 002d cebd 8aff 793e 570b 0e3f 0fef 353f
00000200: 059d 9c3e 5cfb 41be 5504 15be 9a1b 88bc
00000210: 2d2c 40be 4ba4 103e 4553 bd3d 40b4 823e
00000220: 8d14 b53d 0b10 1f3f 111a ca3d 28e7 8a3e
00000230: 21f5 d8be 933e 98bd f410 023e 5bb5 54be
00000240: 79dd 7fbc 9c19 80bd fbc1 3fbe 5e1b 8b3e
00000250: dd8a 9e3d a46e d6bd a5b6 adbe 0154 a43e
00000260: 1bd7 173f 12fc b0be 9c2e 54bd 85d1 56be
00000270: aad1 353e 9633 eebe 330b 80be 60ac 263d
00000280: a86d d93d 6c63 dabe b997 ad3e 335b b0bd
00000290: 2972 f2bd f39a e6bd 1bab 893e 783b 5fbe
000002a0: e6ae cb3c 4c71 92be 7755 5b3e 1aac 8bbd
000002b0: 4b06 80bd 6dc7 2b3f b911 703e 29e9 ecbc
000002c0: 67b2 e93b af8b 943e 154c 243d 14f5 e1be
000002d0: 28f1 3b3c 7159 de3d fc80 8c3e bd1b 10be
000002e0: c1b8 1a3d 3981 c63c 183d 90be 47ca 31be
000002f0: 5453 4dbe 0e4a 45bd b755 c8bc cfc0 a13e
00000300: 17b5 1f3c 519a 2f3d d227 a33e 22c5 fcbc
00000310: 70f8 56be 9ded ee3e 8480 ef3c 7525 3c3d
00000320: ec10 243e 9925 fcbd a126 1f3d 1ed7 a5bd
00000330: b545 25be cfdc 1e3f 1ec9 49bd 72dc 1abe
00000340: 7984 8abe 5ed5 143c a184 2c3e 49d2 003b
00000350: 2723 4e3e f572 adbe 6dfd 8fbe 7656 48bd
00000360: a77f c0bd 79cf 513e c20d 5f3e de82 b2bd
00000370: 8959 c33e 7d45 a4be c134 90be a5f4 903e
00000380: 5f23 e83e bdc1 b5be 489f e83c 2d9d 72bd
00000390: 0a57 93be 2570 91be 8e6d c63e 6bd9 c23e
000003a0: 623a 21be e0f2 a33e 7797 723e f60e c3bd
000003b0: 5280 1abe 277a 3fbe b6bc 993e 07fa e7be
000003c0: 9827 bd3c a44f 59bd 3724 03bf d223 c73d
000003d0: f9f3 afbc 6da5 293e 8a0d d8be e434 52be
000003e0: 5e0b 34bc c076 f73e de3c 69be d434 823d
000003f0: cc9c b83e 4974 17be df37 8dbd bd70 7ebe
-0.4098978 0.12578182 -0.124586955 -0.01338798 -0.2904795 0.097858496 0.05492966 -0.37206593
-0.11281407 0.04856696 -0.060707632 0.20816092 0.1468512 0.37973768 0.18105944 -0.17515911
-0.020560533 0.16764964 -0.1019671 -0.040860515 -0.05951453 0.25707564 0.6807554 0.17501557
-0.17380713 -0.5828646 0.045800373 -0.043730855 0.15503916 -0.47088048 -0.20028819 -0.00506854
-0.10104938 -0.31863824 -0.3116195 0.36339542 -0.058232926 0.013721383 0.11832307 0.0110197775
0.102116264 0.15820654 -0.12640895 -0.08873429 0.04981772 -0.18405086 -0.020654589 -0.16935705
-0.65682423 0.021477886 0.27482226 -0.15408464 0.0791521 0.13896942 0.15386409 0.22850882
0.106890276 0.041050173 -0.3715808 0.32521847 0.037114855 0.0138007505 -0.0664557 0.057278372
-0.06096018 0.015144692 0.051203538 0.058365744 0.10424604 -0.3255967 -0.08862243 -0.017635087
-0.07088624 -0.26151064 0.020788932 -0.015808467 -0.015853956 -0.25039884 0.08262022 0.16776764
-0.12994051 -0.030312419 0.15665753 -0.30440187 0.64206743 -0.29001695 -0.0111672385 0.5333755
0.048484948 0.12332656 -0.021049144 -0.3623849 -0.47126386 0.31621456 0.3380175 0.43973878
-0.27612743 -0.25497454 0.01045861 -0.052744016 -0.08986425 0.057461396 0.1503532 -0.23032871
0.5058286 0.22335888 -0.10056984 -0.25380605 -0.038712475 -0.041506793 0.106592104 -0.09944693
-0.0019753338 0.10049478 0.2324959 0.028711962 0.4214973 0.49891195 -0.050921556 -0.08732996
-0.052961316 -0.49755034 0.061094906 0.18999755 -0.10067177 0.24413887 0.55486053 0.710679
0.30588546 -0.18943542 -0.14552434 -0.016614724 -0.18766852 0.14125173 0.09244398 0.25528145
0.088418104 0.62133855 0.09868253 0.27129483 -0.4237452 -0.0743381 0.1270178 -0.20772307
-0.015616768 -0.062548846 -0.18726341 0.27169317 0.0774133 -0.10470322 -0.3392841 0.3209534
0.593126 -0.34567314 -0.051802263 -0.20978363 0.17755762 -0.46523732 -0.25008544 0.040691733
0.106166184 -0.42653978 0.33904818 -0.08611145 -0.118381806 -0.11260023 0.26888356 -0.2180003
0.024863672 -0.28602064 0.21419321 -0.06819935 -0.062512 0.67101175 0.2344426 -0.028919773
0.007131863 0.2901282 0.04011162 -0.44132292 0.01147107 0.10856903 0.27442157 -0.14073081
0.03777385 0.02423154 -0.2817161 -0.17362319 -0.20051318 -0.048166327 -0.024454935 0.31592414
0.009747765 0.042871777 0.31866318 -0.030855719 -0.20993209 0.4666566 0.029236086 0.04593416
0.1602208 -0.12311859 0.0388552 -0.08097671 -0.16139872 0.6205568 -0.049264066 -0.15123156
-0.27054194 0.009084074 0.16847469 0.001965659 0.20130597 -0.33876768 -0.28123036 -0.04891058
-0.09399348 0.20489301 0.21782592 -0.08716367 0.38154247 -0.32084265 -0.28165248 0.2831165
0.45339486 -0.35499373 0.028396264 -0.059231926 -0.28777343 -0.28405872 0.3875546 0.38056502
-0.15744928 0.32021236 0.23690592 -0.09524338 -0.15088013 -0.18698941 0.30026788 -0.45307943
0.023090169 -0.053054467 -0.51227134 0.09723629 -0.02147864 0.16567011 -0.4219783 -0.20527989
-0.010989038 0.48332787 -0.22777125 0.063577324 0.36057127 -0.14790453 -0.06895422 -0.24847694

fc3.bias f4 [10]
00000000: df84 7c3c 6ba2 c13e 8ca5 9cbd adfd 41be
00000010: 9a47 5d3e 4e27 c8bd 0a6c 8b3e 8213 0a3e
00000020: 267d 5cbe 5003 0bbf
0.015412538 0.37819228 -0.07648763 -0.18944426 0.21609345 -0.09773122 0.27230865 0.13484004
-0.21532115 -0.5430193
