ckpt/model_epoch38.pth (torch, 106247 bytes, 6 tensors)

fc1.weight f4 [128, 63]
00000000: 6418 4f3d 4787 65be 5c11 bebe 0b0b c63d
00000010: 3cdc 5e3d 19e8 5d3b a559 c73d 1f7f 2e3e
00000020: d981 133e 0fe8 853c 094d 923e 5910 ea3d
00000030: b936 47bd 03d9 b43d 62ac cf3d a9f6 0fbd
00000040: 9e17 213e 4d03 7abd 0e54 04be 8fed 6cbb
00000050: e3f4 45be 0e21 cebd bf6d 1a3d a5e9 6bbe
00000060: 088d 7d3b 316a 263d 1dd5 8a3e 092a efbd
00000070: ac49 81bb 0e1a 84bc ad98 8c3d eaea 623d
00000080: b9b2 a3bd 9af5 a53d ee07 54bc c056 1f3d
00000090: 2a3a e3bd 6b69 33be 0b7d d63d d50f 6c3d
000000a0: 9b76 9fbd 8db2 263e ebee 52bd 9fe5 253d
000000b0: 10d9 793d 70e9 0fbd a7f4 2fbe 0ba5 15be
000000c0: 6128 173e cee9 e3bd 5868 eabe 74b2 943d
000000d0: f234 0cbe 9eec 883e 9734 eb3d 30b3 1a3c
000000e0: 2093 593e 5e9d 81bd a607 9cbc 8f29 b23e
000000f0: 14f0 86bd 3ed7 473e 9bfa 853e 94ab 0b3e
00000100: ab19 9b3e b77a 24bd b357 7ebd 9077 243e
00000110: 4e8d 083d 9a8f cbbc abc5 6d3e 281f 513d
00000120: 7de9 36bc 5501 3fbc 6275 e73d 635d 673e
00000130: 76fe edbe 6733 403e c86c 27be 32f5 033e
00000140: d39b 273e 44f5 73be f6f6 62bd 2094 63be
00000150: 86e1 38be 4639 ef3d e716 a1be 20d8 8a3c
00000160: c176 143e 777b 65bc ebc6 1ebe 9129 903a
00000170: db7c f83d 7e0f 34be 35ef 28bd f38e 3cbe
00000180: 2a55 24be 9fc6 bf3d f4a7 f73c 5b9f bbbd
00000190: 4e8f 093d 4794 f13d 0e33 08be 4ebc 91bd
000001a0: 8f04 b43c 38bd 7abc 3a10 7d3d f207 f43d
000001b0: 2cf0 973e dea8 233e 1dc3 73bd 0982 963e
000001c0: d095 8f3e 6486 53be 8ab9 45bd 29aa 47be
000001d0: 3292 cdbd a85f 71bd cd68 8cbe 888c 553e
000001e0: a245 5c3d ae1c 88be e122 483e e877 793c
000001f0: d600 7cbe 608d 86bc 417a 823d 3031 78be
00000200: affb 2c3d d020 753d 78a3 29be 957b 913c
00000210: a80e a8bd 57d5 e93d f019 55bd 4513 8737
00000220: 9d3a 6f3e 6888 053e 39f1 61bd 5702 f63e
00000230: 6330 b4bd 50b3 d03d 3d9c 2cbd 3068 0b3d
00000240: 4d5b 92bd b3c6 39bd a6ae bd3d c341 0bbc
00000250: 9d3b 81be 65b7 b33b 0130 0e3e a1c7 98be
00000260: 4c48 833d eb37 9938 220b 903d 9194 923d
00000270: 215c fdbc a2a4 153b 631c dbbd f3ec 033d
00000280: 358e 3cbe 280b 84bc 88ce e93d 32e1 25be
00000290: f64b 133d 8d82 953b 2c30 a2bc 4424 00be
000002a0: ef06 1aba 5e9a 7a3c 4492 ad3d 9c7a dfbc
000002b0: 9e88 b2bd 6b05 b1bd 95c6 f0bc f580 07be
000002c0: 001e b9bd 728d af3d f6c4 88bd dd85 3f3d
000002d0: 6732 b93b a4bb 903d 2be9 ba3d 1e92 153d
000002e0: 4c6a 07be e922 b73d 77de 1dbc b9c7 c9bd
000002f0: d659 293d 8b7a 4dbd 9af1 5a3e d4d2 4f3e
00000300: 0440 26be 5e1d 853e a50f 4d3c 9c65 20bd
00000310: ff1c 633e 9ac2 85bd 7ce1 213c b44d 203e
00000320: 94b9 26be 3737 0bbe d69b 063e 73a7 9ebd
00000330: bbd9 083d ada0 1a3e a006 29be 940e a2bd
00000340: 7855 ce3d 433b 32bd e31e d3bd 4d58 143d
00000350: 9d15 35be 542e 6e3d 56f4 ad3c 38ca 41be
00000360: 1095 85bc 1409 913d c868 e3bd f6a0 5ebd
00000370: f885 06be 02ed a03d fac6 8d3d b629 1cbe
00000380: 83d1 b63d 9f57 43be 0244 cebe df96 e5bc
00000390: 8fe2 25bd c5bd e93d d68d a23d 163e f8bd
000003a0: ce06 ff3c 4e79 0f3d 8d10 393d 638b 133e
000003b0: 205c 2dbe d636 1cbe 3189 14bc 2f9b 74be
000003c0: c1fd 72bd 6c45 103e d327 3b3e a543 17bc
000003d0: a83b 013e e72b 01be ddd1 b83a 6941 85bc
000003e0: ad27 523c 370e a3bd 2e7f 403e b00f de3d
000003f0: ef55 7c3d 9cad 3fbe 7599 063e 0348 6abd
0.05056037 -0.22414885 -0.3712262 0.09670075 0.05440925 0.0033860265 0.09733895 0.1704068
0.14405002 0.016346006 0.28574398 0.11428899 -0.048636172 0.08830454 0.10140301 -0.035147343
0.15731665 -0.061038304 -0.1292269 -0.0036152338 -0.19331698 -0.100648984 0.03770232 -0.23038347
0.0038688798 0.040628616 0.27115718 -0.116779394 -0.00394555 -0.016125705 0.06865058 0.055399813
-0.07993073 0.081034854 -0.012941344 0.03890109 -0.11095078 -0.17520683 0.10473069 0.057632286
-0.07786294 0.16279049 -0.05149738 0.040502187 0.060998023 -0.035134733 -0.17183171 -0.1461374
0.14761497 -0.11128579 -0.45782733 0.072606 -0.13692072 0.26743025 0.1148464 0.009442136
0.2124753 -0.063288435 -0.019046616 0.34797332 -0.0658876 0.19515702 0.2616776 0.1363967
0.3029302 -0.040156092 -0.062095355 0.16061234 0.033337884 -0.024848748 0.23219936 0.051055104
-0.011164066 -0.011658032 0.11301686 0.22594218 -0.464832 0.18769608 -0.1635009 0.12886503
0.16368036 -0.2382403 -0.0554113 -0.22224474 -0.1805478 0.11680846 -0.31462786 0.01694876
0.14498426 -0.014006487 -0.15505569 0.0010998716 0.12133189 -0.17584035 -0.04124375 -0.18413906
-0.16048113 0.09364056 0.030231453 -0.09161254 0.03358393 0.1179586 -0.13300726 -0.071159944
0.02197483 -0.015303902 0.061783053 0.11915578 0.29675424 0.15982386 -0.059512246 0.29396084
0.28043985 -0.20656735 -0.048272647 -0.19498505 -0.1003765 -0.058929116 -0.27423707 0.2085439
0.053777345 -0.2658438 0.19544555 0.015226342 -0.24609694 -0.016424835 0.06370974 -0.24237514
0.04223221 0.059845746 -0.16566265 0.017759124 -0.082059205 0.114176445 -0.05202669 1.6102227e-05
0.23362203 0.13040316 -0.05516169 0.4804866 -0.087982915 0.10190451 -0.042141188 0.034034908
-0.071463205 -0.04535551 0.09261827 -0.0084995655 -0.25240794 0.005484509 0.138855 -0.29839805
0.06410274 7.306024e-05 0.070333734 0.07157243 -0.03092772 0.0022833725 -0.10698774 0.032208394
-0.18413623 -0.016118601 0.11416346 -0.16199186 0.035961114 0.004562682 -0.01979836 -0.12513834
-0.0005875667 0.015295593 0.084751636 -0.027280144 -0.08717464 -0.086436115 -0.029391566 -0.13232787
-0.09038925 0.085719004 -0.06678192 0.04675852 0.0056517604 0.070670396 0.091265045 0.0365163
-0.13224143 0.089422055 -0.009635559 -0.09852547 0.04134544 -0.050165694 0.21381226 0.20295268
-0.16235358 0.25998968 0.012515937 -0.039159402 0.2217903 -0.06531258 0.00988042 0.15654641
-0.1628173 -0.13595282 0.13145384 -0.07746782 0.03341077 0.15100355 -0.16506433 -0.07912937
0.100748956 -0.043513548 -0.103086255 0.036217023 -0.17684026 0.05814965 0.021234673 -0.18924797
-0.01630643 0.0708181 -0.1110397 -0.054352723 -0.13137043 0.07857706 0.069227174 -0.15250286
0.0892668 -0.19076394 -0.4028626 -0.028026043 -0.040499266 0.11413149 0.07937209 -0.12121217
0.031131174 0.035027795 0.0451818 0.1440864 -0.16929674 -0.15255293 -0.009065912 -0.23887323
-0.05932403 0.14088982 0.1827691 -0.009232436 0.12620413 -0.12614404 0.001410063 -0.016266542
0.012826842 -0.07961696 0.18798515 0.10842836 0.06160539 -0.1871857 0.13144477 -0.057197582

fc1.bias f4 [128]
00000000: 796d a6bd 1993 81bc ba72 123e b038 40be
00000010: 7351 123d c711 97bd 46b7 6b3d 3866 40be
00000020: 6120 313e 81a6 50be 65e6 7cbe f7e2 903d
00000030: b8c1 043d 44d9 103e 4e90 7d3d 3a75 373e
00000040: 86d5 863d 9391 41be 28d9 483e b248 3a3d
00000050: 7c63 563d 34e9 fbbc 4645 28bb 7a12 cabd
00000060: 756e 0fbe c61b 04be fabf f2bd 400c b63d
00000070: c129 e03d 598a 8dbe def4 15bd d449 bcbd
00000080: 1ab3 f4bd c68d 99bd 41fa 7dbd 8639 6bbd
00000090: 8269 ca3d 132b e8bd 3586 2f3e 3f9f e43d
000000a0: 6318 193d e1a6 bf3b e997 c2bd 0bd3 d63d
000000b0: 84c2 033c b161 c4bc e6e3 70bd a070 c2bd
000000c0: 9c21 5ebe 8154 b8bc 7126 95bd 567a 1abe
000000d0: f71c 01be 5110 5c3d bf3d 62bc 68b5 11bd
000000e0: bb97 f0bc 4811 f2bd 8455 cc3d c5dc 283e
000000f0: 92d7 ef3d 5906 263e 4e58 7ebd 4592 0d3e
00000100: b2ea c63d 8f16 02bb b9c4 df3d 3e1e 783d
00000110: 2518 cabd 02c9 9e3d 1968 083e e9cd 91bd
00000120: f37d 4b3d b627 e7bd 72a7 ccbc 87bf c63c
00000130: e8d2 eabd 234a e2bd 975b 273e b5c8 383e
00000140: 0ace dbbd 47fd 66bd c3d9 a43d 4d98 e4bb
00000150: 22c1 a23c d699 003e b18b f1bd 6615 71bd
00000160: d88b ca3d cbc6 273e 01cf c5bc cc2b d5bd
00000170: 267a b1bd 5258 4abe 86af 343c e6ff 3abd
00000180: 2146 253e 2fb8 1a3e 90b2 efbb 3d4e 69bc
00000190: 8cd0 48bd 40cf 333b 808b 293d baee d5bc
000001a0: c82e e7bd aa45 b1bc 7e43 7b3b ac7b 0fbe
000001b0: 21ae 563c 7cef c63d dcee 8ebe 5420 063e
000001c0: 4861 f33d 4b89 0e3d 22f6 6abc 9530 423c
000001d0: c731 8bbd 21b7 07bd 71f4 5b3d 4ba2 a1bd
000001e0: 2b48 993d 9d3c efbb 748a b73d 02cf 983d
000001f0: f511 a83d dc40 c43c 679f 0ebe d9ff aa3d
-0.08126349 -0.015817212 0.14301577 -0.18771625 0.035722207 -0.07376438 0.05754783 -0.18788993
0.17297508 -0.20376016 -0.24697264 0.0707454 0.032411307 0.1414538 0.061905198 0.17915812
0.06583695 -0.18903188 0.19614089 0.045479484 0.05234097 -0.030750848 -0.0025676056 -0.098668054
-0.1400698 -0.1290122 -0.11853023 0.08889055 0.10945464 -0.27644613 -0.036610477 -0.09193769
-0.119482234 -0.07497744 -0.06200624 -0.057427905 0.09883405 -0.11336341 0.1714104 0.11163186
0.037376773 0.005848751 -0.09501631 0.10489472 0.008041982 -0.023972364 -0.05881109 -0.09494138
-0.21692508 -0.022501232 -0.07282723 -0.1508573 -0.12608705 0.053726498 -0.013808667 -0.035573393
-0.029369226 -0.118197024 0.09977248 0.16490467 0.11711039 0.16213359 -0.062095933 0.13825329
0.09712733 -0.0019849872 0.10926194 0.060575716 -0.098678865 0.07753183 0.1332096 -0.07119352
0.04968066 -0.11286871 -0.024982188 0.02426125 -0.114660084 -0.11049297 0.16343533 0.18045314
-0.10732658 -0.056393888 0.08049347 -0.0069761635 0.019867484 0.12558684 -0.11794222 -0.058858298
0.09889954 0.16384427 -0.024146559 -0.10408744 -0.08665876 -0.19760254 0.011028176 -0.0456542
0.16140033 0.15109323 -0.0073149875 -0.014239845 -0.04902701 0.0027436763 0.041392803 -0.02611481
-0.1128822 -0.021639664 0.003833979 -0.14012021 0.013103039 0.09713647 -0.2791661 0.1309827
0.11883789 0.0347989 -0.014340909 0.011852403 -0.06796604 -0.03313363 0.053699914 -0.07892283
0.07484468 -0.007300927 0.08961955 0.074613586 0.0820655 0.023956709 -0.13927995 0.0834958

fc2.weight f4 [128, 128]
00000000: c282 263d 4ace 8b3c a857 823d 45cb 10bd
00000010: 55b9 923d 355c a1bd 6a44 dfba 26a1 b23c
00000020: 1b28 d53c bbb6 d53c 050d 3abe 751a 233e
00000030: f04f 80bd 9d31 c63d 5115 28be 7d23 963c
00000040: b8cb 26bd f520 373c 373c 7cbd a863 333e
00000050: 022f 80bd 40dc 9b3d a33c 7b3d 70a4 d93c
00000060: 59e3 d03d 23b6 ca3d b35e 403c 12e7 63be
00000070: d468 68be b98c cbba a0dd 3cba 5e1b eabd
00000080: 1887 9a3d 4bc3 55bd 0470 5d3d ca00 2f3e
00000090: 7c88 813c 68b6 c63b f8cf da3d 4250 a3bd
000000a0: 7d21 0cbe 6588 51be c6fa 113e 0a16 5c3d
000000b0: af73 b33d 264e cf3d 1fd0 463e 6adf c9bc
000000c0: f9d1 18be 5eca b8bd bf61 2bbe b2c5 0d3c
000000d0: 4c16 babd b9b7 edbd 3d36 403d d099 12bc
000000e0: 810d 233d 224c 8b3d ed83 e63d 0625 fd3d
000000f0: 4c00 0dbd fdd9 29bd 6850 1f3c cc36 45bd
00000100: 410e 82bc bc61 83bd 1af7 433e 37e1 493e
00000110: d485 e4bd d277 1cbd 3b56 af3c 32e9 a0bc
00000120: 9c82 3c3d f813 5eb9 6c43 b4bd bfd4 0c3e
00000130: 77af 50be 910f a13d 777e 07be 9022 69bd
00000140: 176a 853d 7c04 19be eff6 983d 3f04 6f3d
00000150: 6fac b03d 20e5 123b f929 b93c 9239 8a3d
00000160: 9935 d6bd 8f99 013e 0b5a 733d 6ed9 113c
00000170: 09f3 363e 96c6 a9bc 78ac 393e 70aa bdbd
00000180: bb2b 143e 1916 f1bd 216b 1f3d 4789 4dbd
00000190: 6948 8cbc 5839 40be e0ca 5c3b b143 743d
000001a0: 389c 45bd bb10 123d e663 fc3b e4de 82bd
000001b0: 63aa 4d3c b5c3 1f3e 9453 223d 94f8 073e
000001c0: 9701 ccbd 8bb2 0f3d 3382 b33c 3de2 39bd
000001d0: a23a 66bd f2fc aa3d 6fbc 433e c1ab af3c
000001e0: 9c3d 58bc 7f13 0f3e 941e acbc 9f09 9f3d
000001f0: c7f7 323e 0b64 5d3d f991 5f3e 2c1d babc
00000200: 097c 223d 580c bb3d 7a98 293d ad6a 003e
00000210: 9194 783d 9d99 85bd cd0b 133a e8cb 6ebc
00000220: d8df 6bbb 1e9f fbbc 395d 553d de19 b6bd
00000230: aa86 233d e088 1bbc f4b1 673e 67f6 99bd
00000240: f680 8abc bb61 3abd fdba c0bd 04d7 08bd
00000250: 6881 833c 956f 81bd 2c1d b2bc 8ad0 783d
00000260: 94f9 043e ff63 e53c d118 d4bc d477 493e
00000270: c964 653e a61c ee3d d0fb 513d 4e47 af3d
00000280: 873c fc3c 0f2c 1f3e 56d8 eb3d e616 c5bd
00000290: 876b 9f3d c51a 223c 12b7 48bd e934 8a3e
000002a0: 2a2d c8bd 9888 443e 21c4 6fbd 06ca 00be
000002b0: 6c4f b93d 5978 3fbc f64e 1fbe f33b 033d
000002c0: eff2 543e 6a90 1d3b 7e23 183e 8b81 ef3c
000002d0: 1b58 803c a8c4 e33d 54ea d73d ba37 833d
000002e0: 3134 6a3e 6bb2 563d 31ba 49bd 654f 2bbe
000002f0: 9e20 2abd ab7d 1d3e d85f 74bc 6f34 113e
00000300: 987c d1ba 9d7e 7a3c ac15 3cbe 318b c0be
00000310: 85b8 9e3c f54f 3f3e dc08 cebd cb44 2cbc
00000320: f6ac f03d 54ac 78bc 7064 5e3d 3cab 86be
00000330: 91ce 6a3e 04b2 37bd 4148 233e 8597 993c
00000340: 56bc 2dbd 61b7 303e ebd7 36be 8618 73bd
00000350: 23db 8ebe eca4 e53c 1ea5 353c 5881 5e3d
00000360: ef4d ba3d 4575 4c3d fc38 bbbb f7eb babd
00000370: 16ee fabd a12a 86bd a5a3 30bd 004e 003e
00000380: 06a0 25be 4b47 ec3d aebc 26bd e7f2 023d
00000390: c761 e8bd bbac 1e3e 1357 ab3d f8f1 ed3c
000003a0: 698c 8ebd 151a 1abc cbda 143e 2f72 3f3c
000003b0: 291c b13d 08d6 50bd 31b7 ce3c 5b97 1ebe
000003c0: 4827 f8bc 6055 dfbb a1f6 06bc 4ad0 14bd
000003d0: 1676 1cbd 4cd1 e1bc f1a9 11be ed0e a53c
000003e0: 0c10 c4bd 77e8 01be a085 0b3c daed e3bc
000003f0: e1ac 22be fa38 d8bd dbab 88be b3a1 43be
0.040652044 0.01706614 0.06364375 -0.035350103 0.071642555 -0.07878915 -0.0017033939 0.021805357
0.0260201 0.02608811 -0.18169029 0.15928061 -0.06265247 0.09677432 -0.16414382 0.018327469
-0.040721625 0.011177291 -0.061580863 0.17518485 -0.06258966 0.07610369 0.061337125 0.026567668
0.10199613 0.09898021 0.011741328 -0.22256115 -0.22696239 -0.001552961 -0.00072046556 -0.11431001
0.07545298 -0.0521882 0.054061905 0.17090145 0.015812151 0.006064225 0.10684198 -0.07974292
-0.1368465 -0.20462187 0.14255819 0.053731956 0.08762299 0.101223275 0.1941533 -0.024642665
-0.14923848 -0.090229735 -0.16736506 0.008653091 -0.09086284 -0.11607308 0.046926726 -0.008947805
0.0398078 0.068016306 0.112556316 0.12360577 -0.03442411 -0.041467655 0.00972376 -0.04814796
-0.015875937 -0.06415126 0.1913723 0.19714819 -0.11158338 -0.038200207 0.021403423 -0.019642446
0.046022996 -0.00021179009 -0.08801922 0.13753031 -0.20379435 0.07864297 -0.13231836 -0.056917727
0.06514376 -0.14943117 0.07468974 0.05835366 0.08626639 0.0022414401 0.022603022 0.06749262
-0.10459442 0.12656234 0.059412044 0.008901937 0.17866148 -0.020724576 0.18132198 -0.09261024
0.14469807 -0.11771793 0.038920525 -0.050179746 -0.017124372 -0.18771875 0.003369026 0.059634868
-0.048244685 0.035660487 0.0077023385 -0.06390169 0.01255283 0.15602 0.039630488 0.13278419
-0.09961241 0.03508238 0.02191267 -0.045381773 -0.05620826 0.08349027 0.1911485 0.021444203
-0.013198283 0.13972281 -0.021010675 0.07765507 0.17477332 0.054050487 0.21833028 -0.022718988
0.03966907 0.09133214 0.04140518 0.12540694 0.06068856 -0.0652344 0.00056093634 -0.014574982
-0.0035991576 -0.030715521 0.052090857 -0.088916525 0.039923348 -0.009493083 0.22626477 -0.07517701
-0.016907196 -0.04550336 -0.09410665 -0.03340818 0.016052917 -0.06320111 -0.021742426 0.060745753
0.12985831 0.028001783 -0.02589074 0.19674617 0.22401728 0.11626558 0.051265538 0.08558522
0.03079058 0.15544151 0.11515872 -0.09623508 0.07784181 0.009894078 -0.049002714 0.26993492
-0.09774239 0.19192731 -0.058536652 -0.12577066 0.09048352 -0.011686408 -0.15557465 0.032039594
0.20795797 0.0024042376 0.14857289 0.029236576 0.015667012 0.111214936 0.105427414 0.064071134
0.22871472 0.052416246 -0.04924983 -0.16729505 -0.041535012 0.1537997 -0.014915429 0.14180158
-0.0015982566 0.015288976 -0.18367642 -0.37606195 0.019375095 0.18682845 -0.100602835 -0.010514448
0.1175174 -0.015177805 0.054295003 -0.26302516 0.22930361 -0.044847503 0.15945531 0.018749008
-0.04241594 0.17257454 -0.17855804 -0.05934956 -0.27901563 0.028032742 0.01108673 0.05432257
0.09096896 0.049916524 -0.00571358 -0.09127038 -0.122524425 -0.065510996 -0.043124814 0.12529755
-0.16174325 0.115370356 -0.040707283 0.03196993 -0.113467745 0.15495579 0.083662175 0.029046044
-0.06960375 -0.0094056325 0.14536588 0.011684938 0.08647949 -0.050985366 0.025233837 -0.15487425
-0.030292168 -0.0068155974 -0.008237512 -0.036331452 -0.038198553 -0.02756562 -0.14224984 0.020148719
-0.09573373 -0.12686335 0.008515745 -0.027823377 -0.1588626 -0.105577424 -0.26693615 -0.19104652

fc2.bias f4 [128]
00000000: 3067 f03d b7fe fd3c e5a0 e83c da7e 8f3d
00000010: 1da1 3b3d 9633 7a3e 4dd7 90bc 4d0b 8b3d
00000020: ba7c b03d 5fa7 4a3e 2625 f73d 0279 f73d
00000030: 6117 083e d5a4 0dbe a1d9 8c3d 7a78 893c
00000040: 1e0e 6d3d f364 24bd 1793 af3b 0070 493e
00000050: e5ed e13a 4c7d 3e3e 106a ddbd 2c6d c63c
00000060: 629f bd3c 3cc2 df3d 886f 2a3d 3ca8 4bbd
00000070: 4a54 623e 5dab 983d ce4a 1b3d c99f a53b
00000080: 60aa 493e 72ba a3bd e4b1 673e 591f 3abd
00000090: 1a5f fbbc 1451 703d f4fc c33d 22cd 5ebd
000000a0: fb1a 7b3d dffd 7abd 0796 203e 3204 913d
000000b0: 575e 42bd 0837 ac3e d4a5 2a3e 0bdb 0d3e
000000c0: 48bc 2b3e 0a1a 163e 24de 9cbb 8f8b 063e
000000d0: a5f0 093e ea56 0e3d f068 053e 1f01 343d
000000e0: ea84 1e3d 5f42 7dbc 29f9 0b3e 3b00 b7bc
000000f0: 25f5 b13d ca9d 82bd 1d9d 85bd 766e 063d
00000100: 523a 8f3d 3e70 d43d 5f2f ec3d 8b23 e7bc
00000110: a450 acbd fc73 f53c c182 cb3d 7126 e43d
00000120: 93f8 373d dd8c 273e b4ff f93c 7e05 4c3d
00000130: 3803 793d f588 c03d 258f 45bd eafd f5bc
00000140: b354 f63d 14eb f93d 4cf9 533e 4762 163e
00000150: 262d babd cf5e 843d 753e 203d fde9 cf3b
00000160: 0bfc 743d d15c 4f3e 86fe 3e3c 5aa0 f03c
00000170: 83df 0c3e 2361 a03d f6e9 c73c a7b6 e63d
00000180: 4bbf 003e 6a1e 00bd dc49 983d 2eac c0bd
00000190: 1cbe 123d 62c7 473d 1313 8c3e 9ac6 4e3e
000001a0: a949 4b3d d0aa 8d3e c64d 5e3e edae 0bbb
000001b0: 6c9b a23c 606b f4bc f2c1 6c3e 8017 2abe
000001c0: 71e4 a1bd d022 81bc d084 893c 0b86 aa3a
000001d0: 341e 9b3d 6364 99bd 38a3 21be 73e6 603d
000001e0: 255a 3bbd e294 223e f53c 123e bdc5 853e
000001f0: 5821 033e aade 00bd 6981 5d3c 9cd4 e1bd
0.117384315 0.031005247 0.028397033 0.07006617 0.045807946 0.24433741 -0.017680788 0.06789265
0.0861754 0.1979041 0.120676324 0.12083627 0.13290168 -0.1383241 0.06877447 0.01678108
0.05787479 -0.040135335 0.0053581106 0.19671631 0.0017237036 0.18602484 -0.108112454 0.02422198
0.023147289 0.10925719 0.04161027 -0.049720988 0.22102466 0.0745456 0.037913136 0.0050544483
0.19693899 -0.07994546 0.22626454 -0.04544005 -0.030684996 0.058671072 0.09569731 -0.05439485
0.061305027 -0.061277267 0.15682231 0.07080878 -0.04745325 0.33635736 0.16664821 0.1385309
0.16771042 0.1465837 -0.0047872234 0.13139175 0.13470705 0.034750856 0.13028312 0.04394638
0.038700975 -0.015457719 0.13669266 -0.022338977 0.08689336 -0.06377752 -0.065241076 0.032820188
0.069935456 0.10372971 0.11532473 -0.02821519 -0.084138185 0.029962532 0.09937049 0.111401446
0.044914793 0.16362329 0.030517437 0.049809925 0.060794085 0.094011225 -0.048232216 -0.030028302
0.12027874 0.12203041 0.20700568 0.14685927 -0.09090643 0.06463396 0.039122064 0.0063450322
0.05981068 0.2025025 0.011657363 0.029373337 0.13757138 0.07831027 0.024403553 0.11265307
0.12572972 -0.031279005 0.074359626 -0.09407841 0.035825834 0.04877413 0.27358302 0.20192948
0.049630795 0.27669382 0.21709356 -0.002131398 0.019849502 -0.029836357 0.2312086 -0.16610527
-0.079049 -0.01576367 0.016786963 0.0013009919 0.0757412 -0.0748985 -0.1578492 0.054907274
-0.045740265 0.15877107 0.14281066 0.26127425 0.12805688 -0.03146235 0.013519623 -0.1102688

fc3.weight f4 [10, 128]
00000000: 52e6 d2be 509c fd3d a5f1 05be a630 58bc
00000010: 5155 96be e8a4 c33d 96fe 683d 607f bfbe
00000020: 2824 d2bd 28a8 463d 7360 82bd 815a 563e
00000030: 397b 173e 84e7 c63e 6a31 383e 7da7 34be
00000040: d3d3 acbc 09a8 2f3e 9a6c d2bd 5134 31bd
00000050: d909 78bd 41aa 883e 80dd 2e3f c852 383e
00000060: 44b9 32be f4f5 15bf f3e1 2c3d f53c 33bd
00000070: c713 2a3e 4ec8 f2be d68f 52be 3bd7 a4bb
00000080: e68a d6bd ec65 a1be 2abe 9dbe 06a5 bc3e
00000090: b72e 6abd de66 0d3c 55c3 f43d 9a87 6e3c
000000a0: 97a8 d63d 13ee 2a3e e31a 03be 151b b8bd
000000b0: 5efc 4b3d 9400 41be 23e7 b0bb a371 2fbe
000000c0: e474 28bf 50cd 133d 2554 8f3e a230 20be
000000d0: 2646 a23d 168b 133e b100 223e 705c 753e
000000e0: e4e5 d93d 0ecc 273d f013 c0be baa4 a83e
000000f0: 8522 043d 2e2a 5d3c 8238 88bd 1b4f 6d3d
00000100: ffbc 79bd d10b bb3c 0f82 4b3d bba1 663d
00000110: 07ad dc3d c4a4 a7be 9d45 bcbd aaa6 a9bc
00000120: 4db4 8fbd d89d 8abe 387c ae3c c62f 99bc
00000130: 711a 9cbc beba 80be 82f2 a93d 2204 383e
00000140: 4a28 0cbe f67d e9bc 0f82 1e3e a5a4 9dbe
00000150: 965b 253f 2d4a 96be eb1b 85bc bf72 093f
00000160: 4930 463d 5b13 fe3d 2312 a4bc 332e b8be
00000170: 14c6 f1be f5d4 a13e c62d b03e 595f e53e
00000180: 0e9e 8dbe d50b 83be 7298 7f3c bf50 59bd
00000190: a6da bdbd 79ca 6b3d 6ac0 1a3e ba23 6fbe
000001a0: c418 033f 044c 693e ac72 c3bd 6e82 82be
000001b0: d291 1ebd ea07 2ebd cff5 e33d f995 bebd
000001c0: 5a03 a2ba b496 cf3d 4bda 713e 4b6a f23c
000001d0: 3547 dc3e d666 023f 4ca7 48bd 65f9 bdbd
000001e0: 6321 53bd 2e1c ffbe 55ed 793d b9a4 413e
000001f0: 8b22 d3bd 5bde 813e f4a3 0f3f dfa6 373f
00000200: 13e5 9d3e 86fb 38be 9747 0ebe 9c30 87bc
00000210: d54b 43be 9408 183e 1c9a bd3d 0095 823e
00000220: 0652 c03d aa9e 213f 1d79 d73d d168 8d3e
00000230: 0f2d d7be e9b1 a1bd c74f 033e 88b4 57be
00000240: 3fa9 83bc 8453 87bd 81eb 3ebe bddb 8c3e
00000250: d668 a03d 49fd cebd 0271 b0be 80d2 a73e
00000260: b10b 193f 6cfa b4be d223 49bd 54f9 5abe
00000270: 7094 413e 7583 f1be bdd4 7ebe ceac 233d
00000280: e506 de3d 31a8 ddbe 44ae b83e f2c8 b8bd
00000290: f8c9 fcbd 15fd ddbd 5a2b 8a3e bef4 63be
000002a0: 4c3b c73c 76fe 94be 1d76 5d3e ee3a 88bd
000002b0: 0447 7fbd bcaf 2e3f f14d 6f3e 76e2 dfbc
000002c0: 0735 193c 102c 923e ffd1 193d 0149 e5be
000002d0: 563b 583c a040 e13d 7b8e 8f3e 0bed 14be
000002e0: 12b5 1c3d bbd4 c63c 2155 94be 3de0 36be
000002f0: fd77 56be c3c2 46bd 44f2 c7bc 2c23 9e3e
00000300: 6cb9 103c c06b 0f3d 32ff a03e ec79 fabc
00000310: 7216 5cbe 606f ef3e a9fc 023d cefa 393d
00000320: 1117 253e ae39 f6bd 9285 1d3d 8fb7 aebd
00000330: a6e4 23be 6851 203f 15bc 49bd e41c 19be
00000340: 6dee 8fbe 387b 463c 433e 2e3e 9eb3 053c
00000350: e3a3 4d3e 84b0 b0be 6cb3 93be 64c6 21bd
00000360: 6b66 c0bd 1ac1 563e bf6a 633e 145d b0bd
00000370: a571 c63e 8f05 a1be 7a4b 8fbe 09f7 8e3e
00000380: 19e4 e53e 8b5b b5be 7235 093d 5233 77bd
00000390: 4168 92be aa29 92be 2c95 c83e d366 c63e
000003a0: 3ccc 10be 5cbc 9f3e 4cc9 783e dace bdbd
000003b0: 90df 1bbe 8a7b 44be 90fe 953e 5e08 eabe
000003c0: 0d5f bc3c 8aaf 56bd 66a9 03bf 0258 cb3d
000003d0: c62f 8fbc ba72 283e 0e52 d9be bbe7 53be
000003e0: a4be 2cbc 8414 fb3e 61d3 63be f208 8e3d
000003f0: df9f b63e efa3 13be a4b0 7abd fca4 80be
-0.41191345 0.1238333 -0.13080461 -0.013195192 -0.29361966 0.09552938 0.056883417 -0.37401867
-0.102608025 0.04850021 -0.063660525 0.20932962 0.147931 0.38848507 0.179876 -0.17642017
-0.0210971 0.17153944 -0.1027462 -0.043262783 -0.060556266 0.26692393 0.6830673 0.18000329
-0.17453486 -0.5857842 0.04220767 -0.043759305 0.16609107 -0.47418445 -0.20562682 -0.0050305403
-0.104757115 -0.31523073 -0.30809146 0.36844653 -0.057173457 0.0086304825 0.11951319 0.014558697
0.10481375 0.1669238 -0.12803225 -0.089895405 0.049801223 -0.18847877 -0.0053986474 -0.17133193
-0.6580336 0.036084473 0.27993885 -0.15643552 0.07923536 0.14408526 0.15820576 0.23961043
0.10639551 0.040966086 -0.3751521 0.32938176 0.032259483 0.013498826 -0.06651403 0.05793677
-0.060971256 0.022832783 0.04968458 0.056306582 0.1077519 -0.32742894 -0.09192965 -0.020709354
-0.070168115 -0.2707355 0.021299466 -0.018699538 -0.019055577 -0.25142473 0.08298208 0.17970327
-0.13687244 -0.028502446 0.15479301 -0.30789676 0.64592874 -0.29353467 -0.016248664 0.53690714
0.048385892 0.124060355 -0.02002818 -0.35972747 -0.47221434 0.31607786 0.34409922 0.44799307
-0.2765965 -0.25594965 0.015600311 -0.05305552 -0.092702195 0.05756614 0.15112463 -0.23353472
0.51209664 0.22782904 -0.09543356 -0.25490135 -0.038713284 -0.042488016 0.11130869 -0.09305949
-0.0012360618 0.10136166 0.23618428 0.0295917 0.43023077 0.50938165 -0.04898767 -0.09276084
-0.051545512 -0.49826187 0.061017353 0.18910493 -0.10309323 0.25364956 0.5610955 0.71739
0.30838832 -0.18064699 -0.13894497 -0.016502671 -0.19071896 0.14847022 0.0925791 0.25504303
0.09390645 0.6313273 0.105211474 0.2761903 -0.42026564 -0.07895262 0.12823401 -0.21064961
-0.016071914 -0.06607726 -0.18644525 0.27511397 0.07832496 -0.10106904 -0.34461218 0.32777786
0.59783465 -0.35347307 -0.049106427 -0.21384174 0.1890428 -0.47170606 -0.2488584 0.03995972
0.10841159 -0.43292382 0.36070454 -0.09022702 -0.1234321 -0.10839287 0.269862 -0.2226133
0.024320267 -0.29100388 0.21627088 -0.06651865 -0.062323585 0.682369 0.23369576 -0.027329665
0.009351022 0.28549242 0.037553784 -0.4478226 0.013197741 0.10998654 0.2803839 -0.1454355
0.03825862 0.02427136 -0.28971198 -0.17858978 -0.2094421 -0.048525583 -0.024407513 0.3088621
0.0088332705 0.035014868 0.314447 -0.030575715 -0.21492937 0.4676466 0.031979237 0.0454052
0.1612208 -0.1202272 0.03845746 -0.08531105 -0.16005191 0.62624216 -0.049251635 -0.14952427
-0.28111592 0.012114339 0.17015938 0.0081605 0.20082049 -0.3450967 -0.28847826 -0.03949584
-0.09394535 0.209721 0.22208689 -0.08611503 0.3875858 -0.31449553 -0.27987272 0.27922848
0.44900587 -0.35421404 0.033498235 -0.060351677 -0.28595164 -0.28547412 0.3917631 0.38750324
-0.14140409 0.31198394 0.24295539 -0.092679694 -0.15222001 -0.19187751 0.29295778 -0.4570951
0.022994542 -0.0524135 -0.51430357 0.099288955 -0.017478835 0.16450015 -0.42445415 -0.20693867
-0.010543499 0.4903909 -0.22248603 0.069353 0.35668847 -0.14418004 -0.061203614 -0.25125873

fc3.bias f4 [10]
00000000: 7794 323c 9eb2 c43e ed7e 9fbd 0d3e 46be
00000010: 0fe3 613e 517b d3bd ebcf 933e 09e2 0a3e
00000020: 1c6f 62be eb9d 0cbf
0.010899655 0.38417524 -0.07787881 -0.19359608 0.22059272 -0.10326255 0.28869566 0.13562788
-0.22112697 -0.54928464
