ckpt/model.pth (torch, 105799 bytes, 6 tensors)

fc1.weight f4 [128, 63]
0.31359267 0.25844797 0.17013764 0.23849458 0.09221421 -0.41341937 0.14406592 0.20820846
-0.5470654 -0.09997869 0.08960254 -0.41867635 -0.14794677 -0.17563954 -0.28056818 0.08433543
0.25946763 -0.48037076 -0.16553319 0.16482279 -0.15708132 -0.07413356 0.11982282 0.17410345
-0.0599179 -0.2579872 0.5226222 0.0044649024 0.12387785 -0.0941413 -0.13243856 -0.016666211
-0.033194635 -0.0010351362 -0.013755967 -0.25940183 -0.044043753 -0.055511955 -0.5346748 0.19724528
0.021713799 0.6076098 -0.09827475 0.09028408 -1.3074208 -0.020028988 0.16086914 -0.45520458
-0.17459127 0.022072658 1.1985382 0.22340715 -0.063928016 1.2231865 0.04663881 -0.17243241
-0.71583503 0.00042095897 -0.17579898 -0.5213256 0.037264396 -0.18054576 0.0038192298 0.053496484
0.09065832 -0.010567437 -0.0148231 -0.070803635 0.0084952125 -0.10383378 -0.0029911133 -0.3278275
-0.15351737 -0.036358543 -0.40419188 -0.26044622 0.23406447 -0.5865043 -0.057528254 -0.13206698
0.4160266 -0.13883667 -0.25933436 0.8534277 -0.17323913 0.032267835 1.111556 -0.30902147
0.20185891 0.74352545 0.021244736 -0.13333914 0.27033558 0.15227853 -0.08635558 -1.3962934
0.07987861 0.04858925 -0.86038125 0.19093135 -0.14966206 0.43261236 0.22328284 0.026621347
0.13721374 0.16666698 0.08509909 -0.19409421 0.11085837 -0.1134668 -0.22587772 0.14142843
0.061314978 -0.53822964 0.2681827 0.1905299 -0.10085625 0.041849345 0.12828568 0.1743266
0.044547513 0.19964415 0.4130687 -0.13300738 0.16534436 0.06637118 1.1122094 -0.70935154
0.0366464 0.8586536 -0.5859445 -0.2543674 0.33488786 -0.50001496 -0.13697039 0.13222596
-0.047374044 -0.24518487 0.19876812 0.559102 0.010006438 -0.19539851 -0.26828724 0.42582318
-0.28770816 -0.33237433 0.29788372 -0.15217602 -0.25201464 0.34473744 -0.25206894 -0.084334224
0.19450884 -0.11982853 -0.1390978 0.03929885 0.14328338 -0.05547788 -0.44043535 0.36910096
0.10935688 -0.35882187 0.6714804 0.15530267 -0.03217091 0.39212924 -0.26325977 -0.47060987
0.4483461 -0.3605092 0.26477242 -0.041227456 -0.46300912 0.16143921 -0.6951153 -0.35308322
-0.12770629 0.6115155 -0.29376763 -0.98213106 0.62962884 0.17424917 0.31298763 -0.5151222
0.8186023 0.2576634 -2.0943599 1.6388181 -0.3425348 -0.735044 -0.19350316 0.47453052
-0.57639706 -0.049285017 0.031232262 -0.2920519 0.05175069 0.047487393 0.97897726 0.16679984
0.03708007 3.0795357 0.15532452 -0.19556263 -0.62833583 -0.14378028 0.059879776 -0.46734372
-0.064906776 0.06697149 -0.25729498 -0.28084764 0.193623 -0.094868444 -0.5054895 0.06605957
-0.35845798 -0.1896346 0.12179148 -0.48245654 -0.014436051 0.02250049 -0.20423938 -0.1349667
-0.17462161 -0.3143291 0.036794122 -0.10758442 -0.40393087 -0.14370772 0.37848693 -0.28327715
-0.0025325404 -0.0452456 -0.1239042 0.051875222 -0.0988967 0.014836634 0.29627904 -0.06661393
-0.44328487 -0.1326469 0.5685217 -0.36022305 -0.11531509 0.010638217 -0.24372913 0.11372133
-0.12992021 -0.20012856 0.10763272 -0.13616125 -0.6367464 0.07925237 0.46972793 -0.34918317
00000000: 388f a03e 4b53 843e 9038 2e3e ec37 743e
00000010: ceda bc3d b4ab d3be 0486 133e 9934 553e
00000020: 7a0c 0cbf a1c1 ccbd 8981 b73d bf5c d6be
00000030: 5c7f 17be dada 33be a2a6 8fbe 0eb8 ac3d
00000040: f1d8 843e 28f3 f5be 8881 29be 4ec7 283e
00000050: edd9 20be 56d3 97bd ab65 f53d 2d48 323e
00000060: 796c 75bd e616 84be 92ca 053f 514e 923b
00000070: acb3 fd3d 27cd c0bd f99d 07be 9487 88bc
00000080: 19f7 07bd 68ad 87ba b560 61bc 51d0 84be
00000090: 3967 34bd 8160 63bd 73e0 08bf abfa 493e
000000a0: 23e1 b13c 518c 1b3f 4644 c9bd dce6 b83d
000000b0: 9159 a7bf d513 a4bc e1ba 243e 9310 e9be
000000c0: 0ec8 32be b8d1 b43c b369 993f d8c4 643e
000000d0: b1ec 82bd 6091 9c3f 5608 3f3d 1f92 30be
000000e0: f740 37bf 28b4 dc39 a604 34be 9875 05bf
000000f0: 8da2 183d fde0 38be 0b4c 7a3b 211f 5b3d
00000100: 12ab b93d 0b23 2dbc 96dc 72bc 7f01 91bd
00000110: 812f 0b3c cea6 d4bd 8e06 44bb 02d9 a7be
00000120: a833 1dbe b2ec 14bd 3df2 cebe 3559 85be
00000130: 99ae 6f3e 2525 16bf bfa2 6bbd 913c 07be
00000140: 7001 d53e 332b 0ebe 79c7 84be 3d7a 5a3f
00000150: 9965 31be 472b 043d 7847 8e3f 1038 9ebe
00000160: 1ab4 4e3e af57 3e3f 7109 ae3c 0e8a 08be
00000170: 6d69 8a3e e7ee 1b3e 32db b0bd beb9 b2bf
00000180: 6697 a33d 8505 473d f241 5cbf 8283 433e
00000190: 0341 19be 5e7f dd3e 42a4 643e 0315 da3c
000001a0: c281 0c3e c0aa 2a3e 6f48 ae3d a2c0 46be
000001b0: b709 e33d 4861 e8bd 7d4c 67be 9dd2 103e
000001c0: 6a25 7b3d 6bc9 09bf 3e4f 893e 451a 433e
000001d0: b98d cebd 386a 2b3d 525d 033e ac82 323e
000001e0: 7477 363d 846f 4c3e be7d d33e 1633 08be
000001f0: 0850 293e 9ded 873d e15c 8e3f 1098 35bf
00000200: 891a 163d b9d0 5b3f 7500 16bf 723c 82be
00000210: 6c76 ab3e fb00 00bf f741 0cbe 3e66 073e
00000220: 490b 42bd be11 7bbe df89 4b3e 4f21 0f3f
00000230: 0bf2 233c 8c16 48be f25c 89be 7f05 da3e
00000240: 7c4e 93be f82c aabe 3784 983e 08d4 1bbe
00000250: 1008 81be 6d81 b03e 2e0f 81be 6cb7 acbd
00000260: 532d 473e a968 f5bd a76f 0ebe d5f7 203d
00000270: e1b8 123e c63c 63bd be80 e1be cdfa bc3e
00000280: 80f6 df3d 80b7 b7be 24e6 2b3f aa07 1f3e
00000290: a5c5 03bd 2ac5 c83e fcc9 86be c7f3 f0be
000002a0: 9f8d e53e a994 b8be 4090 873e 1fde 28bd
000002b0: 880f edbe 5250 253e 14f3 31bf 53c7 b4be
000002c0: 70c5 02be 488c 1c3f b668 96be f16c 7bbf
000002d0: 5b2f 213f 606e 323e ea3f a03e 0cdf 03bf
000002e0: ec8f 513f 75ec 833e fe09 06c0 cbc4 d13f
000002f0: b960 afbe d82b 3cbf b125 46be aaf5 f23e
00000300: c28e 13bf 16df 49bd cdda ff3c d487 95be
00000310: 88f8 533d 2482 423d 419e 7a3f 94cd 2a3e
00000320: 45e1 173d 1d17 4540 640d 1f3e 9241 48be
00000330: 9eda 20bf 233b 13be 7f44 753d ad47 efbe
00000340: d8ed 84bd 5928 893d 2bbc 83be 43cb 8fbe
00000350: 1c45 463e 634a c2bd c367 01bf 3d4a 873d
00000360: ce87 b7be 932f 42be d06d f93d 8b04 f7be
00000370: 3085 6cbc f352 b83c 2124 51be b634 0abe
00000380: 02d0 32be beef a0be 6fb5 163d 3855 dcbd
00000390: 07d0 cebe 1e28 13be 0ac9 c13e b409 91be
000003a0: faf8 25bb 7353 39bd 7cc1 fdbd 1d7b 543d
000003b0: 5a8a cabd 5a15 733c e3b1 973e e26c 88bd
000003c0: 3cf6 e2be 97d4 07be a38a 113f 286f b8be
000003d0: 512a ecbd eb4b 2e3c 2194 79be bbe6 e83d
000003e0: ce09 05be 80ee 4cbe 8b6e dc3d db6d 0bbe
000003f0: d001 23bf 114f a23d 2e80 f03e 23c8 b2be

fc1.bias f4 [128]
0.2776635 -0.058463406 -0.1745929 0.13152145 -0.17408551 0.1492792 -0.23007962 -0.31733364
-0.08398628 -0.08198399 -0.10965145 -0.06615118 -0.07764903 0.26205978 -0.3251908 -0.0051026344
0.13515925 -0.020786582 -0.044977967 0.103191614 0.09795174 -0.12435138 -0.026297554 -0.19991009
-0.1905874 -0.15003303 -0.058205422 -0.11858898 0.17911668 -0.02104663 0.21748522 0.044825643
0.2581895 -0.13655084 -0.21593407 0.21437657 -0.05455776 -0.038033184 0.08188823 -0.062001027
0.112702616 0.12564752 -0.101225846 0.048430055 0.075088665 -0.13493651 0.06358287 -0.07829982
-0.075422555 -0.15624142 -0.085633636 0.40174896 0.1619783 0.1842509 0.024221493 0.00046433238
0.0092568025 -0.22361667 -0.017100394 0.15067177 0.0006943641 -0.19578567 0.31208143 0.12796031
0.0714913 0.104798526 -0.07669628 -0.36642662 -0.13036633 0.03836552 -0.04653328 -0.14524688
-0.07802838 -0.03475598 -0.23737217 -0.15842772 0.11389643 -0.12615019 -0.10449132 0.11124421
-0.10380793 0.19346511 0.0285365 -0.009593326 -0.08870016 0.28951412 0.012222295 0.03965725
0.15019251 0.0019802484 -0.23969574 -0.12023443 -0.0723362 0.17208801 0.0871384 -0.032789968
0.17850044 0.09568047 -0.05441638 -0.01860059 0.021907512 -0.089063905 -0.19224043 -0.041529905
0.006180841 -0.011520488 0.3616865 0.20815456 -0.08147321 -0.10980411 -0.18528053 0.15101899
-0.0064297724 -0.011763507 -0.066041484 -0.20323774 0.04657355 -0.016359508 -0.03598503 -0.20653653
0.20042497 0.26316464 -0.11104858 0.021001313 0.0056856447 0.0714604 -0.027189584 0.028384069
00000000: e929 8e3e 5377 6fbd 7bc8 32be 8fad 063e
00000010: 7943 32be a6dc 183e fe99 6bbe 8e79 a2be
00000020: 0001 acbd 39e7 a7bd f090 e0bd 457a 87bd
00000030: 7406 9fbd b32c 863e 697f a6be 0034 a7bb
00000040: 3067 0a3e 9f48 aabc d13a 38bd 2056 d33d
00000050: ec9a c83d f0ab febd f86d d7bc 3bb5 4cbe
00000060: 5829 43be 42a2 19be cf68 6ebd c7de f2bd
00000070: 5d6a 373e fb69 acbc 72b4 5e3e 189b 373d
00000080: 6a31 843e fcd3 0bbe d21d 5dbe 8885 5b3e
00000090: f577 5fbd afc8 1bbd 04b5 a73d caf4 7dbd
000000a0: a1d0 e63d bea9 003e 7f4f cfbd 985e 463d
000000b0: 16c8 993d cc2c 0abe bc37 823d a85b a0bd
000000c0: 2477 9abd c0fd 1fbe b060 afbd 0ab2 cd3e
000000d0: a4dd 253e 45ac 3c3e 276c c63c a371 f339
000000e0: d8a9 173c c5fb 64be 2016 8cbc b349 1a3e
000000f0: fc05 363a 0a7c 48be 23c9 9f3e 0708 033e
00000100: 086a 923d 9ca0 d63d f012 9dbd 459c bbbe
00000110: c07e 05be 2a25 1d3d ae99 3ebd 99bb 14be
00000120: 58cd 9fbd 495c 0ebd b111 73be e03a 22be
00000130: 8842 e93d 842d 01be 8cff d5bd 01d4 e33d
00000140: 4199 d4bd b81b 463e 61c5 e93c 532d 1dbc
00000150: 6ea8 b5bd 323b 943e 0540 483c a46f 223d
00000160: 11cc 193e 0ec7 013b cd72 75be 783d f6bd
00000170: 0025 94bd d737 303e 9e75 b23d c64e 06bd
00000180: d2c8 363e 1ff4 c33d b6e3 5ebd 4460 98bc
00000190: 6277 b33c 2367 b6bd adda 44be 431b 2abd
000001a0: a788 ca3b 6ec0 3cbc f92e b93e 7826 553e
000001b0: 6ddb a6bd fae0 e0bd 2eba 3dbe b9a4 1a3e
000001c0: d7b0 d2bb b9bb 40bc c240 87bd 8e1d 50be
000001d0: e8c3 3e3d 6004 86bc 0a65 13bd 507e 53be
000001e0: 343c 4d3e 84bd 863e 706d e3bd f20a ac3c
000001f0: a54e ba3b d559 923d b1bc debc b585 e83c

fc2.weight f4 [128, 128]
-0.17233516 -0.019436436 0.017067207 0.101616025 -0.015150985 0.050247874 -0.13683137 0.004268022
0.008197955 -0.2926919 0.13453504 0.0035511206 -0.034427103 0.112603836 -0.1459146 -0.037296135
0.14343905 0.23681097 -0.03814861 0.20887457 0.11095467 0.156118 0.029097952 -0.0006506034
-0.030280774 -0.037648767 -0.22832747 -0.024688086 -0.09326447 -0.007144739 -0.05031636 0.032477014
-0.060081244 0.11841999 -0.026146296 0.026264267 -0.0689305 -0.1408307 -0.04605784 0.084815405
0.09750928 -0.20018996 -0.17450713 -0.03795055 0.08344004 -0.0011905518 0.16702735 -0.064785056
-0.10109032 0.1511811 0.09958384 0.16045669 0.11302144 0.052047264 0.17325038 0.03226606
0.0470377 -0.12842774 0.07737752 -0.13471746 -0.027528431 -0.019873522 0.036705084 0.08771735
0.16326699 -0.27422738 0.16622534 0.1344026 0.03359504 0.4646449 -0.00664709 0.13453555
-0.022558123 -0.1039014 0.015526438 -0.095049895 -0.111737326 0.06484443 -0.0652751 -0.021511836
-0.032442074 -0.07240149 -0.0609977 0.048063587 0.06588328 0.2438688 0.11647369 0.0007760152
-0.1825552 0.05393289 -0.047629684 -0.021341436 -0.109974615 -0.08855659 0.042453714 -0.09502972
-0.11998696 0.25311923 -0.12415312 0.028052066 0.2881984 0.016324356 -0.10708297 0.13188055
0.0053825877 0.23144294 0.13376333 0.27276704 -0.28137305 -0.06297556 -0.058754303 -0.040312067
0.23086518 -0.02949366 -0.08402595 -0.096674316 0.07838291 0.04421539 -0.073579915 -0.09432476
-0.17669399 4.830483e-05 -0.0018957988 -0.012867946 0.134563 -0.18789746 0.048166074 0.089167066
0.11324156 0.30310607 -0.27159184 -0.3918581 -0.7421148 0.14811184 0.20022693 -0.45760888
0.30298445 0.006165969 -0.01509259 0.09349424 0.007602849 -0.21172366 -0.2758473 0.014405258
0.078260615 0.007779912 -0.31466526 0.28917047 0.19502623 -0.4314036 -0.026364295 0.01828901
-0.14170775 -0.21843831 -0.07939613 0.04718609 -0.09987343 -0.017777838 0.114886 -0.028627846
-0.24709286 -0.2247717 -0.6934607 0.3723952 -0.09760733 -0.066039175 0.043946978 -0.1815524
0.0011674808 -0.21944885 -0.155967 -0.005893782 -0.06954466 0.006436861 0.105689734 0.039864726
-0.25829348 -0.31896147 -0.18686739 -0.14054392 0.3125727 0.089429684 0.17989776 -0.20536312
0.0047296146 -0.103587076 -0.079715386 -0.13995202 -0.014160147 0.061331354 0.32182077 -0.3698937
0.74363375 -0.18500088 0.06427712 -0.18287924 -0.12016176 0.49060133 0.06868026 -0.047466654
-0.5106075 -0.036318816 -0.46445027 0.614782 0.2180702 0.021240206 -0.08272522 0.28202975
0.03665187 -0.0317323 0.08389209 0.123274446 0.017188296 -0.19234471 0.33882236 -0.08550469
-0.089367196 -0.056369103 0.01716396 -0.47328773 0.10160401 0.023525748 0.13640524 0.08772946
-0.1333345 0.14716156 -0.2680873 -0.08520527 0.27242678 0.13025922 -0.066205956 0.14841145
-0.05097665 0.2468095 0.03442795 0.20716965 -0.27051204 -0.07943217 0.19450589 -0.39937702
0.11342788 -0.16512345 -0.2565307 0.045438524 -0.08061599 -0.010403741 0.06629865 -0.07156394
0.122708395 0.26624602 -0.0123324515 -0.14936617 -0.112143114 -0.2081584 -0.014020154 -0.15757917
00000000: a178 30be 2939 9fbc 87d0 8b3c 101c d03d
00000010: d63b 78bc b7d0 4d3d 861d 0cbe c3da 8b3b
00000020: b750 063c b6db 95be 8ec3 093e ebb9 683b
00000030: 6f03 0dbd d79c e63d a36a 15be d5c3 18bd
00000040: b0e1 123e 937e 723e b841 1cbd 37e3 553e
00000050: 343c e33d 66dd 1f3e d45e ee3c 418d 2aba
00000060: 630f f8bc 9835 1abd adce 69be ab3e cabc
00000070: 7101 bfbd 6a1e eabb 8718 4ebd 9e06 053d
00000080: c017 76bd 2e86 f23d c230 d6bc 2928 d73c
00000090: 6f2b 8dbd ec35 10be 25a7 3cbd b3b3 ad3d
000000a0: f2b2 c73d 99fe 4cbe ffb1 32be 0972 1bbd
000000b0: 9de2 aa3d 4a0c 9cba 3809 2b3e 07ae 84bd
000000c0: 7108 cfbd 38cf 1a3e 9df2 cb3d c24e 243e
000000d0: c977 e73d 832f 553d 8c68 313e 6b29 043d
000000e0: 9aaa 403d 9082 03be 1b78 9e3d 60f3 09be
000000f0: 4e83 e1bc cccd a2bc 1258 163d 27a5 b33d
00000100: 762f 273e 8867 8cbe fa36 2a3e d6a0 093e
00000110: f49a 093d f0e5 ed3e d5cf d9bb b0c3 093e
00000120: d0cb b8bc 42ca d4bd 9a62 7e3c 85a9 c2bd
00000130: 8ad6 e4bd 28cd 843d f4ae 85bd 9739 b0bc
00000140: fbe1 04bd 3b47 94bd b9d8 79bd 53de 443d
00000150: d0ed 863d beb8 793e c289 ee3d 806d 4b3a
00000160: c0ef 3abe bce8 5c3d 5817 43bd 3cd4 aebc
00000170: 5f3a e1bd 285d b5bd f2e3 2d3d f19e c2bd
00000180: b9bb f5bd d898 813e fe43 febd 72cd e53c
00000190: be8e 933e a8ba 853c 514e dbbd b20b 073e
000001a0: 6b60 b03b 61ff 6c3e 41f9 083e 1fa8 8b3e
000001b0: 2110 90be 55f9 80bd 5aa8 70bd 441e 25bd
000001c0: ec67 6c3e b09c f1bc cc15 acbd 2ffd c5bd
000001d0: 3887 a03d 321b 353d 11b1 96bd 572d c1bd
000001e0: 45ef 34be eb9a 4a38 747c f8ba 14d4 52bc
000001f0: e2ca 093e 3168 40be ca49 453d 399d b63d
00000200: 31eb e73d b830 9b3e 160e 8bbe a0a1 c8be
00000210: 3cfb 3dbf a1aa 173e 4a08 4d3e b64b eabe
00000220: c720 9b3e e60b ca3b e946 77bc e879 bf3d
00000230: 5221 f93b 16ce 58be db3b 8dbe 0804 6c3c
00000240: 1a47 a03d a2ee fe3b ce1b a1be 270e 943e
00000250: f5b4 473e efe0 dcbe eff9 d7bc d5d2 953c
00000260: d61b 11be 4bae 5fbe 709a a2bd 3446 413d
00000270: 718a ccbd d4a2 91bc 5a49 eb3d f284 eabc
00000280: e905 7dbe 8d2a 66be a486 31bf 95aa be3e
00000290: 5ae6 c7bd 8c3f 87bd bf01 343d dfe8 39be
000002a0: 2806 993a 33b7 60be d0b5 1fbe a020 c1bb
000002b0: 6e6d 8ebd 4eec d23b dc73 d83d 3249 233d
000002c0: 0b3f 84be eb4e a3be 2a5a 3fbe bfea 0fbe
000002d0: 8709 a03e e926 b73d 1e37 383e b64a 52be
000002e0: e2fa 9a3b 7625 d4bd d241 a3bd 954f 0fbe
000002f0: f6ff 67bc 9636 7b3d b1c5 a43e b562 bdbe
00000300: c85e 3e3f df70 3dbe b9a3 833d b244 3bbe
00000310: 5e17 f6bd 1930 fb3e 3ca8 8c3d 656c 42bd
00000320: 2cb7 02bf 0ac3 14bd 6dcc edbe 5a62 1d3f
00000330: cb4d 5f3e f1ff ad3c d76b a9bd 3466 903e
00000340: 4520 163d baf9 01bd 9ecf ab3d 5077 fc3d
00000350: 78ce 8c3c 03f6 44be 207a ad3e 151d afbd
00000360: 2606 b7bd 4ae3 66bd 6f9b 8c3c c552 f2be
00000370: c315 d03d 12b9 c03c d1ad 0b3e 81ab b33d
00000380: d788 08be 85b1 163e bd42 89be 1a80 aebd
00000390: 867b 8b3e ac62 053e fd96 87bd 2cf9 173e
000003a0: e4cc 50bd a1bb 7c3e 5204 0d3d 4824 543e
000003b0: 8e80 8abe 55ad a2bd 8d2c 473e 257b ccbe
000003c0: e04c e83d 1f16 29be fe57 83be bf1d 3a3d
000003d0: ff19 a5bd 7474 2abc 96c7 873d 1d90 92bd
000003e0: 8a4e fb3d 6651 883e 0d0e 4abc 72f3 18be
000003f0: 4aab e5bd 7a27 55be cab4 65bc 6f5c 21be

fc2.bias f4 [128]
0.057536248 -0.07727262 0.08533221 0.05310893 0.10941648 0.028676782 -0.06716718 0.023766518
0.030139053 -0.1667772 -0.066834874 -0.08393926 -0.025520265 -0.038120676 0.30106115 0.06691306
-0.14904575 0.05351542 -0.06974217 0.13424134 -0.03350801 -0.07960396 -0.06493215 0.0154849505
-0.15265647 -0.067970514 0.030226907 -0.09164661 -0.03589283 -0.03830598 -0.04181497 0.034394287
0.105957896 0.07982527 0.064388484 0.22980389 -0.06637827 -0.15348929 -0.05174821 -0.050127584
0.15924808 0.010143909 0.0044489843 -0.11013063 -0.06907658 0.11430853 0.010244909 -0.05640669
-0.039850496 0.011312783 -0.039372683 0.019191178 0.25303417 -0.04085147 0.24376883 0.27922773
-0.033910092 0.18479301 0.042401657 0.06600724 -0.19509664 0.10541146 -0.14244667 -0.13790508
0.03346284 -0.0717367 0.2141772 -0.075437024 -0.13255179 0.13052851 0.034603886 -0.0130229425
0.048751432 -0.008191713 -0.08064893 -0.061987918 0.20107262 -0.04581044 0.12925938 0.019962484
0.044520997 0.09285104 -0.12321792 0.100281976 -0.061372723 -0.07495476 -2.723043e-05 -0.016285129
0.020012846 0.014873495 -0.08477056 0.019855624 -0.099823736 0.15432905 -0.06632328 0.000101706915
-0.014580569 0.2465122 0.064766526 0.21136953 0.028353946 -0.058420017 -0.058244944 0.087434754
0.11998985 -0.031762246 -0.03983418 0.09080069 0.019872302 -0.12963034 0.0927588 0.005763273
-0.010086412 -0.093014255 0.06262061 0.18169326 0.15014961 -0.09590328 -0.16766766 0.06656334
-0.022080367 -0.06485277 -0.08281905 -0.03390913 0.24250382 0.09399442 -0.0898465 0.19657278
00000000: 21ab 6b3d 1b41 9ebd a7c2 ae3d c088 593d
00000010: bf15 e03d 92eb ea3c f28e 89bd 00b2 c23c
00000020: 2de6 f63c a4c7 2abe b9e0 88bd 59e8 abbd
00000030: e00f d1bc 6d24 1cbd b024 9a3e b709 893d
00000040: 739f 18be fc32 5b3d fcd4 8ebd 9076 093e
00000050: b23f 09bd 6707 a3bd 26fb 84bd 97b4 7d3c
00000060: fa51 1cbe 2034 8bbd 6b9e f73c 38b1 bbbd
00000070: 5c04 13bd bbe6 1cbd 2d46 2bbd 06e1 0c3d
00000080: 7400 d93d 6e7b a33d 1cde 833d b651 6b3e
00000090: 55f1 87bd 4c2c 1dbe eef5 53bd 9552 4dbd
000000a0: ee11 233e a332 263c c9c8 913b 2b8c e1bd
000000b0: 0678 8dbd 971a ea3d 43da 273c b40a 67bd
000000c0: 463a 23bd 4059 393c 4045 21bd d136 9d3c
000000d0: b28d 813e df53 27bd 899e 793e f0f6 8e3e
000000e0: 4fe5 0abd 613a 3d3e 5cad 2d3d ce2e 873d
000000f0: 6ac7 47be f7e1 d73d 8add 11be fd36 0dbe
00000100: 5510 093d b1ea 92bd 4551 5b3e ba7e 9abd
00000110: a8bb 07be 44a9 053e cebc 0d3d 2e5e 55bc
00000120: 95af 473d 8936 06bc 442b a5bd 0be7 7dbd
00000130: fbe5 4d3e baa3 3bbd 925c 043e 5d88 a33c
00000140: a65b 363d b028 be3d ad59 fcbd a360 cd3d
00000150: f761 7bbd e281 99bd e76c e4b7 6468 85bc
00000160: fbf1 a33c f6af 733c 309c adbd 43a8 a23c
00000170: 6370 ccbd 6f08 1e3e 80d4 87bd 7c4b d538
00000180: 57e3 6ebc b26d 7c3e 50a4 843d 4171 583e
00000190: 8946 e83c d449 6fbd 4092 6ebd fe10 b33d
000001a0: 3dbd f53d 2119 02bd 2a29 23bd b6f5 b93d
000001b0: 3dcb a23c d1bd 04be 53f8 bd3d d7d9 bc3b
000001c0: 7a41 25bc 427e bebd 3c3f 803d cc0d 3a3e
000001d0: d2c0 193e f068 c4bd 12b1 2bbe 5c52 883d
000001e0: e3e1 b4bc 87d1 84bd 099d a9bd 4de4 0abd
000001f0: ec52 783e 2580 c03d 7101 b8bd 604a 493e

fc3.weight f4 [10, 128]
-0.85686564 -0.29423353 0.16349213 -0.010282367 0.42547095 -0.08622457 -0.18507236 -0.01717488
0.7019378 0.6830321 0.005751383 -0.33088496 0.49656498 -0.018131757 -0.1637994 0.3960388
8.099369e-05 0.30994272 0.39071882 0.18381764 -0.10051817 -0.102784 -0.118260026 0.25798792
-0.36454326 -0.2914147 -0.040228073 -0.24042447 -0.5448852 -0.2731099 0.087251514 -0.1456952
0.15943398 0.35249972 0.37414384 0.1005434 -0.45275655 -0.26533377 -0.21156707 0.042045143
0.53869873 -0.03943278 0.5439462 -0.04683828 -0.051575314 -0.35000867 0.022103244 -0.027601406
-0.015334393 -0.51679325 0.80162287 0.15501176 0.23405094 0.12388064 0.25810054 0.41471404
-0.34196225 -0.5841805 0.00794719 -0.11823498 -0.11710036 0.19331363 -0.26181334 0.018416181
-0.103849955 -0.3093971 -0.5135486 -0.031598043 0.2116006 -0.23765065 -0.117375866 0.5164849
0.036402542 -0.4626423 0.006852025 0.44799885 -0.0745856 -0.09435196 -0.43982902 -0.09911569
-0.018873863 -0.23723625 -0.32933798 -0.38342378 0.21833926 0.6705431 -0.029665083 -0.12036699
-0.21083024 -0.20443718 -0.05854993 0.052702665 -0.016715774 0.67361534 0.021703754 -0.20835893
0.0081124315 0.6043223 0.38406402 0.07139979 0.09899819 -0.2001518 0.7098955 0.14985394
0.8775666 0.13160446 0.035428848 -0.37850285 0.60974294 -0.40479025 0.041999813 -0.06647742
0.02884119 -0.4644798 -0.8033483 -0.18836097 0.33806568 0.1766143 -0.092373095 0.107305914
0.4130227 -0.22213624 -0.09779799 -0.14513592 0.47970343 0.1886237 -0.19783127 -0.38842103
-0.29782307 0.4214117 0.06363709 -0.35677588 -0.037888482 -0.07835958 -0.05751297 -0.21709143
-0.44569495 -0.4072135 -0.110169135 -0.1460091 -0.11036061 -0.09708536 0.82423604 0.30569607
-0.65151453 -0.36579132 0.028098075 0.052147895 0.11312193 -0.03737766 0.18166722 0.08344937
-0.33187875 -0.05403061 0.005603888 0.3178482 0.20153964 -0.43803144 0.014108859 0.027460214
0.17229582 0.26135972 -0.18987907 0.7930318 -0.6261024 -0.047591653 0.13319552 -0.16862394
0.64842623 -0.09676541 -0.627596 0.015608523 -0.4312104 0.5750407 -0.33592197 0.064501174
-0.007660538 0.59209937 -0.2182424 -0.031514015 -0.0791078 -0.096165165 0.11216518 0.6984103
-0.10992018 -0.7517376 0.2571968 0.54053926 -0.09107275 0.054809287 -0.056417286 -0.34891966
0.25204745 -0.33297852 0.40385035 -0.07105644 0.009729564 0.15038124 -0.11408006 -0.11952656
0.066464916 0.46171793 0.14685363 -0.16248627 0.014246968 0.0797962 -0.045034878 0.14622504
0.09799977 -0.71614486 -0.27134305 -0.51425767 -0.13881354 -0.22654212 -0.14698751 0.1366418
0.13204664 0.041857887 0.09628221 0.018983725 -0.096485205 0.33735412 -0.07699464 0.053493585
-0.05132481 0.49642935 -0.08135266 0.4521169 -0.01093938 -0.12812905 -0.27768144 0.00040434857
0.03095725 -0.18134443 -0.0077296607 0.23225394 -0.17016372 0.36137402 -0.013502911 0.012779774
0.14508502 0.0959007 -0.18027265 -0.0019989095 0.077265136 0.5902156 0.03200973 0.6278245
-0.6204678 0.67481315 0.09396034 0.1393065 0.47923824 0.073518515 -1.0339122 1.1205486
00000000: 8c5b 5bbf c7a5 96be 7b6a 273e 5f77 28bc
00000010: 54d7 d93e 8296 b0bd 9c83 3dbe 55b2 8cbc
00000020: 32b2 333f 31db 2e3f 1976 bc3b c169 a9be
00000030: c43d fe3e 0d89 94bc 08bb 27be 99c5 ca3e
00000040: 28db a938 d0b0 9e3e 4c0c c83e b13a 3c3e
00000050: 78dc cdbd 6b80 d2bd 5032 f2bd fe16 843e
00000060: 6aa5 babe 4f34 95be 31c6 24bd d531 76be
00000070: 997d 0bbf 10d5 8bbe ecb0 b23d 1f31 15be
00000080: a942 233e d87a b43e c88f bf3e b3e9 cd3d
00000090: b5cf e7be d4d9 87be 0aa5 58be 8737 2c3d
000000a0: 29e8 093f 4484 21bd 0f40 0b3f 7fd9 3fbd
000000b0: a340 53bd 5634 b3be dd11 b53c 581c e2bc
000000c0: 1b3d 7bbc 904c 04bf 2837 4d3f 67bb 1e3e
000000d0: 0dab 6f3e 22b5 fd3d c125 843e 6655 d43e
000000e0: ad15 afbe da8c 15bf ee34 023c 2e25 f2bd
000000f0: 50d2 efbd 02f4 453e 660c 86be 88dd 963c
00000100: 49af d4bd 4c69 9ebe ec77 03bf f36c 01bd
00000110: d4ad 583e b15a 73be c262 f0bd 5b38 043f
00000120: d51a 153d 74df ecbe f486 e03b 1b60 e53e
00000130: 56c0 98bd 9a3b c1bd 4531 e1be 2bfd cabd
00000140: 5c9d 9abc 0fee 72be fd9e a8be 1f50 c4be
00000150: 5494 5f3e b6a8 2b3f 3004 f3bc f882 f6bd
00000160: e2e3 57be fb57 51be 0dd2 6fbd c0de 573d
00000170: 85ef 88bc 0e72 2c3f 12cc b13c 0b5c 55be
00000180: 01ea 043c deb4 1a3f 0aa4 c43e 0e3a 923d
00000190: 90bf ca3d 98f4 4cbe b6bb 353f 5073 193e
000001a0: 34a8 603f 52c3 063e d71d 113d 20cb c1be
000001b0: 1d18 1c3f ab40 cfbe ff07 2c3d 5025 88bd
000001c0: 5c44 ec3c 4cd0 edbe 3ca8 4dbf b3e1 40be
000001d0: f216 ad3e 61da 343e 1b2e bdbd 34c3 db3d
000001e0: b677 d33e af77 63be 504a c8bd 839e 14be
000001f0: b09b f53e 9226 413e 4894 4abe 1fdf c6be
00000200: 447c 98be 46c3 d73e 2a54 823d 54ab b6be
00000210: f430 1bbd fd7a a0bd b892 6bbd 374d 5ebe
00000220: 2132 e4be 4a7e d0be 5ba0 e1bd 6983 15be
00000230: be04 e2bd b0d4 c6bd 2201 533f 3284 9c3e
00000240: a8c9 26bf 0049 bbbe ef2d e63c 0899 553d
00000250: 78ac e73d 5119 19bd f906 3a3e 81e7 aa3d
00000260: 03ec a9be 334f 5dbd d2a0 b73b 00bd a23e
00000270: 6860 4e3e a845 e0be d828 673c 3ef4 e03c
00000280: 516e 303e f1d0 853e a96f 42be 2204 4b3f
00000290: 3f48 20bf 77ef 42bd 6864 083e c1ab 2cbe
000002a0: 43ff 253f f12c c6bd 22aa 20bf e4ba 7f3c
000002b0: 9cc7 dcbe de35 133f f7fd abbe 3119 843d
000002c0: 4005 fbbb d393 173f f07a 5fbe d714 01bd
000002d0: 4503 a2bd 3ef2 c4bd dcb6 e53d 04cb 323f
000002e0: d51d e1bd e071 40bf 4daf 833e c860 0a3f
000002f0: 5a84 babd b47f 603d d015 67bd 99a5 b2be
00000300: 5d0c 813e 297c aabe 79c5 ce3e 0a86 91bd
00000310: c068 1f3c 8afd 193e cea2 e9bd 57ca f4bd
00000320: c21e 883d 4b66 ec3e cc60 163e cd62 26be
00000330: 1d6c 693c 316c a33d 7e76 38bd 04bc 153e
00000340: 1ab4 c83d 4555 37bf 7aed 8abe 64a6 03bf
00000350: 2325 0ebe a8fa 67be e583 16be d4eb 0b3e
00000360: 3c37 073e 2d73 2b3d 9b2f c53d c283 9b3c
00000370: 099a c5bd aeb9 ac3e 5eaf 9dbd 171c 5b3d
00000380: f739 52bd fd2b fe3e 399c a6bd de7b e73e
00000390: 163b 33bc 4334 03be 432c 8ebe bffe d339
000003a0: 0f9a fd3c 5bb2 39be 1849 fdbb fad3 6d3e
000003b0: 663f 2ebe 0406 b93e 503b 5dbc 4262 513c
000003c0: 2b91 143e 9667 c43d 6599 38be 2300 03bb
000003d0: 2f3d 9e3d 5f18 173f a21c 033d 1bb9 203f
000003e0: fad6 1ebf 8ec0 2c3f 476e c03d 5da6 0e3e
000003f0: b75e f53e e090 963d 3c57 84bf 236e 8f3f

fc3.bias f4 [10]
-0.10588636 0.17301777 0.18281507 0.11230786 0.07514742 -0.2140397 0.114793845 0.17282577
0.38568598 -0.49451032
00000000: f3da d8bd 922b 313e e033 3b3e aa01 e63d
00000010: e4e6 993d 392d 5bbe 0919 eb3d 3df9 303e
00000020: a278 c53e 7530 fdbe
