ckpt/model_epoch4.pth (torch, 106175 bytes, 6 tensors)

fc1.weight f4 [128, 63]
0.018731588 -0.086725585 0.15064868 0.053237885 0.020797709 0.035982143 -0.019364186 0.06427054
0.02081066 -0.04756159 0.12398465 0.009552051 -0.0019015351 0.076207995 -0.15714493 -0.012670914
0.10374282 0.110897884 0.016094383 0.02391126 0.097809 -0.0814169 -0.10889169 -0.053310417
0.068452835 -0.028061524 -0.0920977 0.016549025 0.026737755 0.053084847 0.1174306 0.035305932
0.05258168 -0.009796116 0.076847255 -0.1110534 -0.05320675 -0.062235836 -0.020597875 -0.053219788
-0.1152324 0.10436635 0.030992346 0.05819677 0.06460269 0.07067213 -0.10935827 -0.05439074
0.038039356 0.097414225 0.081485696 -0.09367306 0.105251476 0.099631734 0.09671563 -0.028281052
-0.018108452 -0.0023962758 -0.10345116 0.17075825 0.061113004 0.07382183 0.12342625 -0.011393508
-0.09324351 0.019996207 0.09435778 0.0666238 0.12980688 0.047590714 -0.050705295 0.14427966
-0.02749374 -0.06958758 0.0077088624 -0.06522276 -0.06012654 0.045101702 -0.0022913313 -0.101148754
0.09531235 -0.07745012 0.08583564 0.041205224 -0.09613582 -0.11456122 -0.08135337 0.047281377
-0.056616485 -0.16043769 -0.019036582 -0.121305145 0.059150714 -0.052104104 -0.042174872 0.19003995
-0.0037189345 -0.09396232 0.19782917 0.05738142 -0.020330532 0.14146875 -0.11592937 -0.04943659
0.00092978764 0.034918003 0.057386976 0.13829833 0.11452217 0.10877272 0.02281469 -0.051336788
0.098106675 -0.05887498 0.07340982 0.035853177 0.08141193 -0.13128605 0.05273162 0.15400061
0.112573534 -0.04946078 0.09330949 -0.13111213 0.030047148 0.079472415 0.075501546 -0.12171732
0.0070937136 0.004697055 0.016618261 -0.10778978 0.086226836 -0.06545733 0.052669734 0.05888302
0.019491233 0.10569911 0.070769526 -0.016804636 0.029404482 0.098495774 -0.05589088 -0.013806638
0.09561935 -0.0457219 0.04294142 0.052022208 0.11868187 0.024207689 -0.107653 -0.005671694
-0.07191466 0.03572338 -0.11996433 0.05823571 0.11575962 -0.064678304 -0.10526371 0.0063474006
-0.088519506 0.10285161 -0.07811028 -0.008641093 0.01590127 -0.11781168 0.10916259 0.11161634
0.017278183 0.10377889 -0.0076821707 -0.09482546 0.08775872 -0.079140544 -0.0048611546 0.05194286
-0.11915582 0.01907589 -0.09697215 -0.018555028 -0.039042715 0.00052081485 0.08514129 -0.05607143
-0.07096835 -0.091161996 0.036124993 0.036879186 0.04780326 0.11313593 0.05479546 0.04003132
-0.028411167 0.11229574 -0.04029753 0.12201762 -0.0784259 0.031100476 0.006747432 0.090727344
-0.06916135 -0.002921098 -0.011085041 0.06511961 -0.08468078 -0.0629876 0.05135397 0.05745035
-0.10912589 0.12415098 0.05293063 -0.120331585 -0.052337304 -0.06840427 0.09394474 0.110736065
0.0092262225 0.0017373406 -0.025469843 0.104849845 -0.11853779 0.00016401197 0.09731853 -0.110344924
-0.10582181 0.034266874 0.12315364 0.015960047 -0.06224282 0.09186571 -0.10778245 -0.0919437
-0.017063813 -0.010802515 0.05580953 -0.051185384 -0.11119254 -0.07731852 -0.112807825 -0.03316752
0.121764496 0.021516044 -0.0872677 0.035957348 -0.06592916 0.11896644 0.018901093 -0.058828373
0.0042065424 -0.07048558 -0.037660263 -0.0108288275 0.04777686 -0.11601318 0.054196592 -0.109641336
00000000: fd72 993c 2f9d b1bd a643 1a3e f80f 5a3d
00000010: f55f aa3c 0362 133d a4a1 9ebc 46a0 833d
00000020: 1e7b aa3c f1cf 42bd aaeb fd3d 3580 1c3c
00000030: ee3c f9ba f012 9c3d 9aea 20be aa99 4fbc
00000040: 1e77 d43d 6e1e e33d 5ed8 833c 8ce1 c33c
00000050: 1650 c83d e7bd a6bd 9b02 dfbd 065c 5abd
00000060: 0031 8c3d 48e1 e5bc b89d bcbd d291 873c
00000070: 2309 db3c 7f6f 593d 747f f03d f49c 103d
00000080: e35f 573d e37f 20bc 1862 9d3d f76f e3bd
00000090: 52ef 59bd 01eb 7ebd e0bc a8bc fefc 59bd
000000a0: f7fe ebbd 06be d53d a9e3 fd3c bc5f 6e3d
000000b0: 6a4e 843d 8dbc 903d 3bf7 dfbd d3c8 5ebd
000000c0: 28cf 1b3d 1c81 c73d f9e1 a63d a9d7 bfbd
000000d0: 168e d73d b90b cc3d d812 c63d aaad e7bc
000000e0: 2d58 94bc d60a 1dbb 34de d3bd 40db 2e3e
000000f0: a151 7a3d e62f 973d e7c6 fc3d d6ab 3abc
00000100: 74f6 bebd 16cf a33c a73e c13d 0f72 883d
00000110: 18ec 043e 7bee 423d 5bb0 4fbd 0cbe 133e
00000120: 8d3a e1bc ef83 8ebd a09a fc3b 8393 85bd
00000130: 3f47 76bd 90bc 383d 292a 16bb 1427 cfbd
00000140: 1f33 c33d 2b9e 9ebd 99ca af3d cfc6 283d
00000150: dbe2 c4bd 139f eabd 989c a6bd 1eaa 413d
00000160: b0e6 67bd c749 24be 9bf2 9bbc d56e f8bd
00000170: 0548 723d 1d6b 55bd 8fbf 2cbd d599 423e
00000180: 5eb9 73bb 516f c0bd bb93 4a3e c808 6b3d
00000190: 378c a6bc 2fdd 103e 616c edbd 067e 4abd
000001a0: febc 733a 2e06 0f3d 9b0e 6b3d 149e 0d3e
000001b0: 998a ea3d 3bc4 de3d dfe5 ba3c 8646 52bd
000001c0: 27ec c83d e426 71bd e357 963d c8da 123d
000001d0: 4cbb a63d da6f 06be 1cfd 573d 56b2 1d3e
000001e0: f48c e63d 6397 4abd 0c19 bf3d 4242 06be
000001f0: 7025 f63c 6fc2 a23d 8ea0 9a3d ee46 f9bd
00000200: 6272 e83b c1e9 993b 0523 883c e3c0 dcbd
00000210: b297 b03d 7e0e 86bd 38bc 573d 522f 713d
00000220: 14ac 9f3c c678 d83d 9def 903d e0a9 89bc
00000230: abe1 f03c 27b8 c93d d6ed 64bd 3d35 62bc
00000240: 14d4 c33d e346 3bbd 58e3 2f3d 3d15 553d
00000250: 7b0f f33d 344f c63c 2d79 dcbd 9ed9 b9bb
00000260: fe47 93bd ae52 123d dcaf f5bd 9188 6e3d
00000270: 6113 ed3d 0f76 84bd 8094 d7bd dbfd cf3b
00000280: b749 b5bd dda3 d23d 48f8 9fbd 5f93 0dbc
00000290: 6143 823c 4047 f1bd a390 df3d 1c97 e43d
000002a0: fa8a 8d3c 078a d43d b8ba fbbb da33 c2bd
000002b0: d8ba b33d 7014 a2bd 524a 9fbb 09c2 543d
000002c0: f707 f4bd 0a45 9c3c 5699 c6bd b700 98bc
000002d0: 41eb 1fbd 4b87 083a 8f5e ae3d 28ab 65bd
000002e0: db57 91bd 24b3 babd cdf7 133d a10e 173d
000002f0: 5acd 433d cfb3 e73d 3471 603d e2f7 233d
00000300: 89be e8bc 4ffb e53d 060f 25bd 60e4 f93d
00000310: c29d a0bd 6dc6 fe3c 9019 dd3b 42cf b93d
00000320: 77a4 8dbd e46f 3fbb 089e 35bc 6e5d 853d
00000330: 1e6d adbd a5ff 80bd 8a58 523d 0f51 6b3d
00000340: 657d dfbd de42 fe3d cacd 583d 6870 f6bd
00000350: a45f 56bd 8a17 8cbd 1a66 c03d 97c9 e23d
00000360: 9529 173c 7ab7 e33a 22a6 d0bc 84bb d63d
00000370: f1c3 f2bd a1fa 2b39 f04e c73d 85fc e1bd
00000380: 1bb9 d8bd 6c5b 0c3d fa37 fc3d a5be 823c
00000390: 54f2 7ebd 1724 bc3d 0cbd dcbd fb4c bcbd
000003a0: 69c9 8bbc 08fd 30bc 8998 643d c4a7 51bd
000003b0: eab8 e3bd 2c59 9ebd ca07 e7bd aada 07bd
000003c0: aa5f f93d 6a42 b03c 68b9 b2bd 0348 133d
000003d0: de05 87bd ada4 f33d 77d6 9a3c 05f6 70bd
000003e0: 09d7 893b be5a 90bd a641 1abd 656b 31bc
000003f0: abb1 433d 5198 edbd 3ffd 5d3d a38b e0bd

fc1.bias f4 [128]
0.023114033 0.112288654 -0.08675389 0.020190407 -0.014898089 -0.036026295 0.015902728 0.11443479
-0.023095543 0.020048931 0.08637127 0.08117329 0.051225185 -0.08759606 -0.0063708047 -0.049563777
-0.084723696 -0.1119062 0.12074072 0.09625629 0.030714126 -0.10405043 0.12725842 -0.11545012
0.079242945 -0.07636887 -0.062283915 0.15355751 -0.07372765 -0.107146926 0.077072136 -0.0023704995
0.15293008 0.11462146 -0.024294179 -0.05817651 -0.12257822 0.103383124 -0.051469926 -0.048104264
0.0077901087 -0.0830906 0.03606686 0.061945014 0.114698276 0.012766654 -0.0721534 0.009162669
-0.08709665 -0.03780949 -0.047660355 -0.036854424 0.12430619 0.036209658 0.040593125 -0.027350742
-0.08442084 -0.05045948 0.12756874 0.10443345 0.08257537 -0.0887463 0.1137959 -0.08749543
-0.0577064 0.0811169 0.039526153 0.12298099 -0.06540603 -0.06750176 -0.0043346733 0.024580773
-0.111272305 0.056050736 0.03769793 0.025361676 0.094571106 0.08864525 -0.04881204 0.07970797
0.10324149 0.051615067 -0.046142876 -0.03348011 -0.053790912 0.0809372 0.06825837 0.049049485
-0.10630527 -0.11498521 0.14044616 0.08878358 -0.059463266 -0.08821691 -0.0024978768 0.0031420111
0.082365066 0.07368539 0.082375616 -0.10150772 0.10288681 0.1077042 -0.09129166 0.008501228
0.113087505 0.03737837 0.00990264 0.077155516 0.10729938 -0.084495805 0.05753843 -0.060488403
0.02191075 0.033414964 -0.05497854 0.041521985 -0.07676704 0.042552363 -0.044807915 0.09516441
-0.09635682 -0.11801907 -0.07201047 0.10617255 0.01666575 -0.006672963 -0.12467436 0.14012688
00000000: a459 bd3c 98f7 e53d 06ac b1bd 5a66 a53c
00000010: 1d17 74bc 4f90 13bd 7046 823c ca5c ea3d
00000020: dd32 bdbc a83d a43c 6ce3 b03d 2f3e a63d
00000030: 80d1 513d 9065 b3bd 2fc2 d0bb 6303 4bbd
00000040: 9e83 adbd 142f e5bd e946 f73d 0522 c53d
00000050: 319c fb3c 6418 d5bd 0850 023e 1d71 ecbd
00000060: 204a a23d 4867 9cbd 6b1d 7fbd 2e3e 1d3e
00000070: 86fe 96bd d96f dbbd ffd7 9d3d 625a 1bbb
00000080: b499 1c3e a8be ea3d 9604 c7bc 7e4a 6ebd
00000090: 4a0a fbbd 88ba d33d 21d2 52bd fa08 45bd
000000a0: 2b44 ff3b 682b aabd d8ba 133d 0eba 7d3d
000000b0: eee6 ea3d 3a2b 513c 29c5 93bd 051f 163c
000000c0: ba5f b2bd 20de 1abd 8137 43bd aaf4 16bd
000000d0: 3e94 fe3d 9450 143d fa44 263d aa0e e0bc
000000e0: d5e4 acbd 9aae 4ebd 61a1 023e 34e1 d53d
000000f0: 471d a93d 9fc0 b5bd d30d e93d ce30 b3bd
00000100: 8c5d 6cbd 9e20 a63d 2de6 213d 75dd fb3d
00000110: 99f3 85bd 5d3e 8abd e009 8ebb 9e5d c93c
00000120: bce2 e3bd 7595 653d 2569 1a3d 4ac3 cf3c
00000130: 7fae c13d a48b b53d 22ef 47bd ef3d a33d
00000140: 4670 d33d 526a 533d 5000 3dbd 7122 09bd
00000150: dc53 5cbd 67c2 a53d 0bcb 8b3d 1de8 483d
00000160: 94b6 d9bd 5e7d ebbd 1ed1 0f3e 2ad4 b53d
00000170: c18f 73bd 11ab b4bd 6bb3 23bb 33ea 4d3b
00000180: 04af a83d 5ee8 963d 8cb4 a83d 48e3 cfbd
00000190: 52b6 d23d 0594 dc3d 1ff7 babd bc48 0b3c
000001a0: 6c9a e73d 101a 193d af3e 223c b603 9e3d
000001b0: c7bf db3d 230c adbd 6bad 6b3d b0c2 77bd
000001c0: 2c7e b33c 21de 083d 2d31 61bd f512 2a3d
000001d0: 0a38 9dbd 634b 2e3d 8188 37bd 8fe5 c23d
000001e0: b956 c5bd fbb3 f1bd 3a7a 93bd fe70 d93d
000001f0: 9c86 883c dfa8 dabb 4555 ffbd 6c7d 0f3e

fc2.weight f4 [128, 128]
-0.032404672 -0.10513303 0.06469225 0.03558296 0.02706773 0.05669996 -0.02598138 0.06088037
0.07641135 -0.048752815 0.027717644 0.014870753 0.055119213 0.095950745 0.021064734 0.01611657
0.08369242 0.055355743 -0.114855126 0.03735966 -0.024857912 0.050344296 0.012686701 -0.0086877765
-0.054555394 -0.0787551 0.036370523 -0.12028354 0.020379486 -0.05256851 -0.03390711 0.06767854
0.040819634 -0.079997145 -0.023468276 0.039632447 0.077860214 0.028052716 -0.06874704 -0.059138816
0.028912213 0.022569714 0.069479525 -0.021060396 -0.0524537 0.008052315 0.04935534 0.04667936
0.028559886 0.058488246 -0.05481378 0.035211302 0.07665119 0.018882306 0.035017613 0.054267455
-0.056937788 0.055809714 0.14148696 -0.033756513 -0.012322441 -0.068252414 -0.051494326 -0.03250779
0.040750347 0.062939614 0.07140326 0.024195503 -0.0057513714 -0.08599308 -0.0056575784 0.050458442
0.07310701 0.02500173 0.0012239465 0.005410139 -0.04630448 0.112354115 0.046683606 0.07624141
-0.011890128 0.011280675 -0.081783295 -0.043031443 0.05695457 0.094924085 0.00028779882 0.012028227
0.053815473 0.04905245 0.061117016 -0.022840371 -0.07633175 0.029940432 0.0923368 -0.043660067
0.025612816 0.046558253 -0.032194503 -0.10602718 0.058285046 0.08572256 0.033976503 -0.061395522
0.083480395 0.02789206 -0.05257432 0.057674095 0.05305751 0.0812679 -0.019619754 0.047573518
-0.021839397 -0.07275328 -0.048878673 -0.067869574 0.027120987 -0.08654891 -0.0858694 -0.05983184
-0.034407508 -0.06147311 0.0012235963 0.06258174 0.02050039 -0.03446768 0.00795196 0.074054636
0.02131907 0.058669813 -0.023885379 -0.002699016 -0.08795745 -0.03813374 0.02065293 -0.010220562
-0.025707249 -0.03186969 -0.0149626145 0.0644561 -0.075722486 -0.024167096 -0.047947027 0.054524053
0.037454437 0.0797804 -0.014576456 0.018972887 -0.07190195 -0.058036216 0.077821694 0.03885701
-0.012115709 0.002373846 0.06881452 -0.03974188 0.060724847 -0.019947456 -0.031089684 0.021088995
0.059180003 -0.07964349 0.0004630636 -0.06748673 0.05356965 -0.01693839 0.03609252 -0.06376843
0.018476363 -0.017668 -0.06895379 -0.1043042 0.020672796 0.013897168 -0.053268123 0.0035963252
-0.024688808 -0.070677616 -0.082054384 0.03570436 0.100983985 -0.079131454 -0.08151154 0.05339159
0.07754262 0.03301157 0.105873354 -0.034508664 0.020898022 0.015935224 0.06483332 0.037621487
0.1077733 0.08776594 0.07770493 0.028520636 0.07787383 -0.030425418 0.047312476 -0.06607027
-0.056886435 0.1181509 0.009571076 0.034420177 -0.11328645 0.034995936 -0.067842886 0.0588938
-0.055471964 -0.02390909 -0.022530645 0.07391408 -0.081470065 0.07551097 0.06663482 -0.06071546
-0.05562758 -0.022633808 0.042750094 -0.046504147 0.0386399 0.014934648 0.04282866 -0.022662824
0.04319147 0.045384463 0.09764523 0.0030738804 -0.019718522 -0.04159391 0.040589403 0.068055645
0.025174066 -0.06746222 -0.07056629 -0.027517503 0.11024785 0.055582874 0.059100192 -0.026809048
0.012655344 -0.07624896 0.05637502 -0.09811974 -0.058553427 -0.022242092 -0.033020567 -0.05759679
-0.01641079 0.04538732 0.08357223 0.028125653 0.015288104 0.07796608 0.024272487 -0.09282324
00000000: c3ba 04bd fc4f d7bd 5f7d 843d 70bf 113d
00000010: 25bd dd3c 383e 683d e7d6 d4bc b25d 793d
00000020: 8e7d 9c3d 08b1 47bd 1d10 e33c 75a4 733c
00000030: afc4 613d d381 c43d f38f ac3c e606 843c
00000040: ee66 ab3d b4bc 623d 2a39 ebbd 7106 193d
00000050: d2a2 cbbc d235 4e3d e1db 4f3c 2d57 0ebc
00000060: 7a75 5fbd 5b4a a1bd 42f9 143d 3757 f6bd
00000070: e1f2 a63c 1452 57bd 2fe2 0abd 0c9b 8a3d
00000080: 7d32 273d 8bd5 a3bd 8b40 c0bc a255 223d
00000090: 2d75 9f3d cfce e53c 40cb 8cbd 8b3b 72bd
000000a0: 4ed9 ec3c 1fe4 b83c 484b 8e3d da86 acbc
000000b0: b1d9 56bd dbed 033c d328 4a3d db32 3f3d
000000c0: 6cf6 e93c 5f91 6f3d 6a84 60bd ba39 103d
000000d0: 4dfb 9c3d 11af 9a3c a16e 0f3d 8d47 5e3d
000000e0: 9937 69bd ba98 643d f5e1 103e 4544 0abd
000000f0: 10e4 49bc ecc7 8bbd b7eb 52bd e326 05bd
00000100: d6e9 263d 7ce6 803d df3b 923d a635 c63c
00000110: 0076 bcbb 241d b0bd 3563 b9bb 83ad 4e3d
00000120: 21b9 953d 6ed0 cc3c d46c a03a 8947 b13b
00000130: c4a9 3dbd ea19 e63d 4f37 3f3d 7524 9c3d
00000140: d0ce 42bc 95d2 383c 007e a7bd bd41 30bd
00000150: 3249 693d 8f67 c23d b4e3 9639 0a12 453c
00000160: 9d6d 5c3d 39eb 483d d655 7a3d bb1b bbbc
00000170: d253 9cbd a345 f53c 141b bd3d e6d4 32bd
00000180: f8d1 d13c deb3 3e3d 62de 03bd c724 d9bd
00000190: 4dbc 6e3d 4f8f af3d f22a 0b3d df79 7bbd
000001a0: c5f7 aa3d e47d e43c 2c58 57bd ac3b 6c3d
000001b0: d552 593d c96f a63d 9bb9 a0bc 73dc 423d
000001c0: 89e8 b2bc acff 94bd 0135 48bd 34ff 8abd
000001d0: d52c de3c 8e40 b1bd 4cdc afbd 3b12 75bd
000001e0: e3ee 0cbd 3acb 7bbd 1461 a03a db2a 803d
000001f0: 6ff0 a73c fb2d 0dbd f048 023c f5a9 973d
00000200: 55a5 ae3c c24f 703d 45ab c3bc f9e1 30bb
00000210: 0923 b4bd 2032 1cbd 5530 a93c 2574 27bc
00000220: 0298 d2bc cb89 02bd c125 75bc 8f01 843d
00000230: 6414 9bbd 13fa c5bc 1a64 44bd 9d54 5f3d
00000240: d369 193d e863 a33d 16d2 6ebc 076d 9b3c
00000250: 5441 93bd 62b7 6dbd fb60 9f3d 8728 1f3d
00000260: f780 46bc 8792 1b3b a1ee 8c3d 62c8 22bd
00000270: 9eba 783d d968 a3bc cbaf febc d4c2 ac3c
00000280: bb66 723d 201c a3bd 58c7 f239 7c36 8abd
00000290: d96b 5b3d 61c2 8abc c0d5 133d 0699 82bd
000002a0: be5b 973c 7bbc 90bc a537 8dbd 719d d5bd
000002b0: ff59 a93c f3b0 633c ad2f 5abd 53b0 6b3b
000002c0: 2f40 cabc 6dbf 90bd 210c a8bd bc3e 123d
000002d0: b1d0 ce3d ac0f a2bd 86ef a6bd 24b1 5a3d
000002e0: aace 9e3d 2437 073d 21d4 d83d f558 0dbd
000002f0: 5432 ab3c 968a 823c 55c7 843d fd18 1a3d
00000300: 3fb8 dc3d a1be b33d c323 9f3d 1ca4 e93c
00000310: 517c 9f3d ba3e f9bc baca 413d da4f 87bd
00000320: c001 69bd 19f9 f13d 01d0 1c3c 2cfc 0c3d
00000330: ba02 e8bd e657 0f3d 36f1 8abd a03a 713d
00000340: 9236 63bd ffdc c3bc 3092 b8bc 4460 973d
00000350: c7d9 a6bd 7fa5 9a3d d677 883d c6b0 78bd
00000360: bfd9 63bd 896a b9bc b91a 2f3d 227b 3ebd
00000370: df44 1e3d 74b0 743c 1b6d 2f3d 63a7 b9bc
00000380: 8ae9 303d 0fe5 393d 39fa c73d 2873 493b
00000390: bd88 a1bc 605e 2abd 1341 263d c260 8b3d
000003a0: d839 ce3c a229 8abd 0f85 90bd 636c e1bc
000003b0: a0c9 e13d deaa 633d 0b13 723d a69e dbbc
000003c0: 5c58 4f3c 6a28 9cbd 7ee9 663d 01f3 c8bd
000003d0: b8d5 6fbd 0c35 b6bc 9340 07bd 9dea 6bbd
000003e0: ec6f 86bc 0ee8 393d eb27 ab3d c567 e63c
000003f0: f57a 7a3c aeac 9f3d 18d7 c63c 1c1a bebd

fc2.bias f4 [128]
0.01757719 0.08256349 0.053517602 0.097020335 0.033882335 0.08125281 0.04129152 0.058127593
-0.050409332 0.041578747 -0.009364475 -0.011434701 -0.025519323 0.085466065 0.07408275 -0.028132282
0.08784545 0.065063775 0.07708622 -0.013852809 -0.05605535 0.033156227 -0.057209775 0.08032268
0.03603344 0.08399766 0.10863571 -0.042686056 0.00058345054 -0.06689419 0.005592972 -0.058444124
0.07678267 0.006908716 -0.07680442 -0.055614714 0.059582487 -0.06478655 0.069828965 0.04715164
-0.07211797 0.020619927 0.04031054 0.06823768 0.07681397 0.09139334 -0.06877738 -0.057190843
-0.050003 0.061162513 -0.034294754 0.022830918 -0.014948605 -0.023572197 0.031107305 0.0806434
0.013560275 0.04671051 0.08747741 0.010993345 -0.0076670884 -0.027860085 0.019094998 0.058162086
0.014843339 0.038070418 0.06473084 0.008933832 0.06951675 -0.07096515 0.06020605 -0.03761883
-0.08559249 0.026376989 -0.079296805 -0.04646698 -0.061989695 0.022464987 0.06334731 0.001859681
-0.024608677 0.020945258 0.049284723 0.07945649 0.005711016 0.03836578 0.06318867 -0.05535848
-0.023633365 0.09747551 -0.016239926 -0.04104789 0.06785049 0.08233862 0.0153397005 -0.061696958
-0.022475468 -0.028193207 -0.0646709 0.070968635 0.091214314 0.02609353 -0.03643661 0.0002019913
-0.0054565715 0.05005017 0.039329506 -0.08450462 0.004778165 -0.08760848 0.0039776936 0.026667843
-0.032113843 0.112616464 -0.02751043 -0.039573763 0.0069127684 0.021247309 0.007642838 -0.04688171
-0.025727037 0.030132372 0.023160432 -0.01637505 -0.0916187 0.058465216 -0.01205953 -0.021477697
00000000: 0afe 8f3c 0c17 a93d 4635 5b3d 99b2 c63d
00000010: 34c8 0a3d e067 a63d 4c21 293d 3317 6e3d
00000020: 047a 4ebd 7a4e 2a3d 746d 19bc 9d58 3bbc
00000030: e60d d1bc d508 af3d b2b8 973d ac75 e6bc
00000040: 51e8 b33d 2840 853d 61df 9d3d e4f6 62bc
00000050: 4b9a 65bd d3ce 073d cc54 6abd 3880 a43d
00000060: cd97 133d f706 ac3d 667c de3d 93d7 2ebd
00000070: b4f2 183a d2ff 88bd 4045 b73b 1b63 6fbd
00000080: 3c40 9d3d 8362 e23b a34b 9dbd 41cc 63bd
00000090: c40c 743d d0ae 84bd 7d02 8f3d 1422 413d
000000a0: 96b2 93bd 1feb a83c aa1c 253d 32c0 8b3d
000000b0: a550 9d3d 6e2c bb3d 28db 8cbd f240 6abd
000000c0: f2cf 4cbd 8b85 7a3d a878 0cbd e807 bb3c
000000d0: feea 74bc 7b1a c1bc bfd4 fe3c 5e28 a53d
000000e0: ea2b 5e3c 8553 3f3d 5b27 b33d 6e1d 343c
000000f0: 333c fbbb d53a e4bc 1d6d 9c3c 5e3b 6e3d
00000100: 7a31 733c baef 1b3d 9a91 843d 355f 123c
00000110: cc5e 8e3d 2d56 91bd 9e9a 763d 3416 1abd
00000120: 1e4b afbd 8e14 d83c 5d66 a2bd 2954 3ebd
00000130: e8e8 7dbd 7e08 b83c 3cbc 813d 8ac0 f33a
00000140: 2398 c9bc 6495 ab3c c7de 493d 16ba a23d
00000150: 7923 bb3b 7025 1d3d 1069 813d 93bf 62bd
00000160: c29a c1bc 3da1 c73d 9809 85bc d521 28bd
00000170: 33f5 8a3d 27a1 a83d 5e53 7b3c f3b5 7cbd
00000180: 791e b8bc 71f5 e6bc 2d72 84bd 0158 913d
00000190: 92ce ba3d 19c2 d53c 8e3e 15bd a0cd 5339
000001a0: 0acd b2bb 6801 4d3d fa17 213d c210 adbd
000001b0: 2792 9c3b 136c b3bd 5057 823b 8576 da3c
000001c0: ce89 03bd 76a3 e63d 8e5d e1bc 1918 22bd
000001d0: 8184 e23b d60e ae3c c670 fa3b 0907 40bd
000001e0: 82c1 d2bc 2ad8 f63c f2ba bd3c f824 86bc
000001f0: 96a2 bbbd 3979 6f3d 5695 45bc fff1 afbc

fc3.weight f4 [10, 128]
0.23363517 0.16530919 0.08912571 -0.033829737 0.15991423 -0.035962436 0.04006735 0.2782904
-0.070431545 -0.008902855 0.024232704 0.14076225 0.23333828 -0.23952387 -0.014976583 0.027234184
0.0306325 -0.14966065 -0.05658265 0.02589081 -0.067893155 -0.15365952 -0.026739132 0.00017006566
0.06907164 -0.16911756 0.0057676868 -0.041376363 0.2648551 -0.03687951 0.00071731256 0.02809817
-0.080787376 -0.17348205 -0.00043794513 0.08657937 0.16316931 -0.031441145 -0.24683434 -0.1546552
-0.020843912 0.03736283 -0.010225127 -0.16306722 -0.07891535 0.019339863 0.16474539 -0.044476155
-0.071916685 0.19083637 0.082409985 -0.0026300997 -0.06901273 -0.018962698 0.019517597 -0.14573023
-0.19190717 0.043727778 -0.041676156 0.12074806 0.042925775 0.021045333 0.044929635 -0.029115906
-0.15882857 0.08632591 0.13938574 -0.09365268 -0.14907737 0.047661655 0.07026593 -0.023085635
-0.038735483 -0.03927874 0.073611714 -0.19825669 0.036625817 0.17694981 0.071855165 0.056576233
0.055491723 0.09205118 0.015111038 -0.113303095 -0.021815049 0.18674108 0.088737994 0.2393804
0.35615847 0.15676786 -0.20152572 -0.18384603 -0.07803525 0.032551102 0.020490414 0.04137159
0.15922569 0.03649841 0.01740493 -0.08092374 0.16768758 0.20804252 -0.11955002 0.013738994
0.22244059 0.21513844 0.04106265 -0.019129995 -0.057247374 -0.02769991 -0.012978498 0.16613877
0.12770437 -0.15819556 -0.14329964 0.05960764 -0.0365187 -0.039183084 0.12773453 0.060353942
0.057805788 0.091507874 -0.26058537 0.15567711 -0.07525479 0.11410517 -0.10281829 -0.020243017
0.07285708 0.0023447594 -0.058364876 -0.085976645 0.04911361 0.11533297 -0.031624146 0.033315923
-0.017788908 0.02211031 -0.05627871 0.08948386 -0.04019704 -0.052396636 0.11787098 -0.02860598
-0.027323635 -0.0058642686 -0.027035644 0.001587006 0.08394954 -0.06055319 0.07494261 0.060984235
-0.011695605 -0.08274265 0.06539888 -0.09252896 0.0335837 -0.0777678 -0.06739299 -0.08813897
-0.048662618 -0.1008324 -0.04733195 0.07427867 0.05925144 -0.11845145 0.05717489 -0.07219765
0.055048965 0.059926134 -0.015873857 -0.007222588 0.0035927377 0.059639547 0.05384375 0.014276172
-0.02061902 -0.13787267 -0.040881768 -0.04305391 -0.040553574 -0.031240981 0.005000471 -0.03784626
-0.035074785 -0.06931396 -0.0800955 -0.07143452 -0.18674836 -0.05152615 -0.029864673 0.039972886
-0.054938063 0.014784064 0.048415147 0.024524728 -0.027667837 -0.05205214 0.06989375 0.04685514
0.08293148 0.027370032 -0.049408097 0.06291686 -0.01856359 -0.029825171 -0.0818887 -0.1218592
0.011891874 -0.16294083 0.01780141 -0.04825663 -0.02814653 0.0571514 -0.024120042 -0.021454783
0.03722998 -0.059091724 0.11545362 0.100866556 -0.06113231 -0.06730891 0.09649813 -0.08616698
-0.10538911 -0.030810162 -0.062220164 0.057769243 0.08258874 -0.06656296 -0.0019365619 -0.17541313
0.0067206225 -0.13344279 0.081058994 -0.022414535 -0.098419175 0.006353773 0.011267458 -0.10888052
-0.060113408 0.10666452 0.09819484 -0.023325244 -0.13359094 0.029898144 0.006233155 0.04025709
0.03771198 -0.044728916 -0.002355179 -0.033590667 -0.07152818 -0.069644496 0.12503414 -0.15814877
00000000: 0f3e 6f3e d046 293e 8a87 b63d 0d91 0abd
00000010: 8ec0 233e 594d 13bd a91d 243d 147c 8e3e
00000020: 6a3e 90bd 48dd 11bc aa83 c63c fb23 103e
00000030: 3bf0 6e3e bf45 75be 5860 75bc 391a df3c
00000040: 02f1 fa3c a440 19be 35c3 67bd f718 d43c
00000050: 910b 8bbd ec58 1dbe 060c dbbc a753 3239
00000060: 6f75 8d3d 272d 2dbe ddfe bc3b 437a 29bd
00000070: 169b 873e f80e 17bd 080a 3c3a 222e e63c
00000080: da73 a5bd 47a5 31be 009c e5b9 8650 b13d
00000090: db15 273e 6ec8 00bd 24c2 7cbe ef5d 1ebe
000000a0: dac0 aabc c409 193d 4b87 27bc 18fb 26be
000000b0: 5f9e a1bd a26e 9e3c 04b3 283e a12c 36bd
000000c0: 0e49 93bd 9c6a 433e 91c6 a83d c05d 2cbb
000000d0: 8c56 8dbd a957 9bbc 5ee3 9f3c 4e3a 15be
000000e0: 5083 44be e61b 333d 9eb4 2abd c24a f73d
000000f0: f0d2 2f3d 4367 ac3c 2308 383d 7b84 eebc
00000100: f5a3 22be a4cb b03d 23bb 0e3e facc bfbd
00000110: bda7 18be de38 433d 95e7 8f3d 161e bdbc
00000120: 19a9 1ebd bee2 20bd bdc1 963d cd03 4bbe
00000130: f404 163d 5532 353e cd28 933d 7bbc 673d
00000140: 4a4b 633d 5485 bc3d 4a94 773c 740b e8bd
00000150: 79b5 b2bc 0e39 3f3e 44bc b53d 2320 753e
00000160: 675a b63e c187 203e c25c 4ebe 2242 3cbe
00000170: f2d0 9fbd 4e54 053d 83db a73c 4275 293d
00000180: 0f0c 233e 5b7f 153d c994 8e3c 59bb a5bd
00000190: 4bb6 2b3e 1909 553e a4d6 f4bd 8419 613c
000001a0: 77c7 633e 404d 5c3e 4f31 283d 82b6 9cbc
000001b0: 397c 6abd ecea e2bc c4a3 54bc 4820 2a3e
000001c0: efc4 023e 04fe 21be 24bd 12be 2427 743d
000001d0: a294 15bd 717e 20bd d7cc 023e b235 773d
000001e0: c3c5 6c3d 7b68 bb3d 726b 85be d269 1f3e
000001f0: 2f1f 9abd f9af e93d 6592 d2bd afd4 a5bc
00000200: 1836 953d 89aa 193b 0210 6fbd 8614 b0bd
00000210: 5a2b 493d b133 ec3d 5288 01bd 4776 083d
00000220: 0bba 91bc ae20 b53c 8184 66bd 5043 b73d
00000230: a7a5 24bd db9d 56bd 5766 f13d 1757 eabc
00000240: d1d5 dfbc 0d29 c0bb db79 ddbc 1603 d03a
00000250: bded ab3d 9f06 78bd 837b 993d 9bca 793d
00000260: ec9e 3fbc fa74 a9bd d9ef 853d d37f bdbd
00000270: 108f 093d b944 9fbd 5605 8abd 3482 b4bd
00000280: 7452 47bd 3881 cebd 26df 41bd 6a1f 983d
00000290: a3b1 723d ac96 f2bd 3830 6a3d 5ddc 93bd
000002a0: 067b 613d 1b75 753d e409 82bc 76ab ecbb
000002b0: 2374 6b3b 9948 743d 448b 5c3d 9be6 693c
000002c0: 38e9 a8bc 7e2e 0dbe a473 27bd 4c59 30bd
000002d0: 811b 26bd 16ed ffbc feda a33b ae04 1bbd
000002e0: 94aa 0fbd 7af4 8dbd 1c09 a4bd 434c 92bd
000002f0: f63a 3fbe 160d 53bd c2a6 f4bc 9cba 233d
00000300: bc06 61bd dc38 723c f64e 463d 15e8 c83c
00000310: a9a7 e2bc a034 55bd 7424 8f3d 2deb 3f3d
00000320: fbd7 a93d 1e37 e03c 2560 4abd 8eda 803d
00000330: ab12 98bc eb53 f4bc 43b5 a7bd 5191 f9bd
00000340: 22d6 423c f6d9 26be 43d4 913c bea8 45bd
00000350: 8d93 e6bc 9617 6a3d 6597 c5bc f1c1 afbc
00000360: 777e 183d 2a0a 72bd f372 ec3d 2093 ce3d
00000370: e065 7abd 41d9 89bd d0a0 c53d 5078 b0bd
00000380: 3fd6 d7bd 9865 fcbc 92da 7ebd 719f 6c3d
00000390: 4924 a93d 2952 88bd 3cd4 fdba 809f 33be
000003a0: ab38 dc3b 3aa5 08be 4202 a63d b09e b7bc
000003b0: fe8f c9bd 5033 d03b 259b 383c c0fc debd
000003c0: 7a39 76bd ee72 da3d 601a c93d 9514 bfbc
000003d0: 10cc 08be f4ec f43c 7e3f cc3b 9ee4 243d
000003e0: e177 1a3d ab35 37bd 5959 1abb 5e96 09bd
000003f0: 5e7d 92bd c6a1 8ebd f308 003e c0f1 21be

fc3.bias f4 [10]
-0.10848319 0.06108912 -0.0037547823 0.103976466 -0.07163679 -0.004351964 0.0020008895 0.008055691
0.13315772 -0.018796712
00000000: 6f2c debd 9638 7a3d cb12 76bb 9df1 d43d
00000010: 4fb6 92bd ec9a 8ebb 5b21 033b 04fc 033c
00000020: 7f5a 083e 90fb 99bc
