ckpt/model_epoch17.pth (torch, 106247 bytes, 6 tensors)

fc1.weight f4 [128, 63]
00000000: 2462 803d 3e31 19be 1d0a a1be 05e0 e23d
00000010: e403 9c3d eb34 e5bc dd2c ec3d c233 f93d
00000020: 3525 063e 53f3 103d 81a9 4d3e ce64 e23d
00000030: 4452 adbc 88a7 f13c 5ad5 7b3d 4815 dfbc
00000040: 6155 c43d 3773 d9bb a8eb 06be 635c 7abd
00000050: 9715 ffbd 35b6 e2bd 1a67 ed3c c9c9 83be
00000060: e548 ca3b 7171 953d 7442 983d 0194 d1bd
00000070: 166b 4abd ffc3 fa3a 3a43 633d 99d1 383c
00000080: 3954 c23b 05d4 723d 1698 fdbb 80be b53d
00000090: 5400 09be 8035 0dbe d6c0 b53d f816 a53d
000000a0: 6990 d0bd c181 153e 66e4 7ebd bc8e 223d
000000b0: 3a75 db3d 3d63 8bbd 1845 ddbd e460 4cbd
000000c0: 27ce d03d a61e 923b 49cc a3be 436a d43d
000000d0: a4a8 0bbe 8683 3c3e ceec f63d 3f54 183c
000000e0: 4ad2 153e 8951 84bd 6331 91bd 7df7 a93e
000000f0: 9eed 72bd 4d4a 8a3d 2d2f 9d3e 8f15 043e
00000100: 90cd 123e 1107 aebd eff3 ddbc a756 2d3d
00000110: 6239 d43c 4a36 a43c a438 503e dbcb b43d
00000120: 00cf 0b3d d8f5 b13d f1c9 343e f88f 863e
00000130: f048 5ebe 3748 663e 1311 01be f8f2 fe3d
00000140: 7319 033e 6437 56be d86f 04bd e41f 0cbe
00000150: c3f5 6dbe cd63 953d 81fb 63be 6964 fabd
00000160: 2720 473d 285d 67bc a3ac ffbd 864e 263c
00000170: e74d a23d 12aa 08be 24ec 1cbd b3f3 3abe
00000180: d95b d0bd cdc0 6a3d c5c8 613d ba20 003c
00000190: b716 97bb 40be 173e 2396 c8bd a1fd 6fbd
000001a0: 00cc cb3a 8240 c8bb 1334 603d 46a1 923d
000001b0: 28a0 6f3e a62f c13d 27e8 2ebd 1bd1 623e
000001c0: b0c2 453e 8a48 dcbd 04ee b5bb 6ee0 3ebe
000001d0: c4fa c2bd 1695 0dbd b02c 82be ac3f 383e
000001e0: 6c72 273d aad7 46be d137 723e 5b96 2f3c
000001f0: 4a7e d1bd 0017 e23d 9dbb 48bc 09f3 f5bd
00000200: f62e ae3c 6af1 873b c3a6 9fbd a9bf 633c
00000210: 16e2 e2bd a3a5 013e 4a52 82bd 14fa 803c
00000220: 7283 ed3d dcd6 013e ab35 573b b54a 1d3e
00000230: bb1c 8ebd 0071 9e3d 8895 1bbd 5155 a23c
00000240: 97ca 74bd 99fe ffbc 3ec2 783d ed22 c0bc
00000250: 4adc 0abe 198e f3bb 2588 b83d 733e d4bd
00000260: 7b36 c43d 2df5 82bc e76a 643d 15cc 9d3d
00000270: 75e9 a4bc ee32 a73c d1c6 86bd e651 0b3b
00000280: e58f e3bd f536 ae3c 4434 8c3d c2ed 95bd
00000290: cd68 773d 97ba aebb e85a 38bd 4f1c cabd
000002a0: 2383 99bb 4d16 e63c c408 d53d 550a 7bbd
000002b0: 8b61 74bd b93d 96bd 286d 9ebd 3db1 fcbd
000002c0: c17e 94bd 5eef a63d f4ed e1bd 74bb c73d
000002d0: bd53 7f3c cbc4 853d 1576 bc3d 1f77 2c3d
000002e0: 3fd1 0bbe d45c c13d 4a2d f1bb f25b fbbd
000002f0: 7777 8f3d e1a9 4dbc d152 1a3e cbf2 5b3e
00000300: 090e 06be 901d 3c3e 0498 7e3c 17b6 2aba
00000310: ba3f 183e b3b9 95bd fcd7 7e3d 875e d03d
00000320: fd18 3bbe 19a6 a0bd d8f5 b63d ea0d e4bd
00000330: 0e38 5e3d 4fec ed3d b370 37be 2ff4 94bd
00000340: eda6 6d3d adf6 4ebd 6a13 d3bd 4555 34bc
00000350: 4192 32be 7c0e 843d 4fb9 77bc d31d 3dbe
00000360: baab 243a 8ce6 543d 111c e6bd e945 21bd
00000370: 87d6 1dbe 0b45 193d f297 cd3d 1b0f bcbd
00000380: 6590 993d 6ab2 10be 88d2 79be 9cc4 07bc
00000390: f34f c0bc 4077 bc3d 6b2b b23d 47ad dbbd
000003a0: b42e 7bbb 175e 533d d43e 8f3d 9af0 fb3d
000003b0: 67ed 18be e279 f1bd 97ce c2ba 4807 6ebe
000003c0: 29b3 16bd f6f1 d93d 2231 4c3e c8d7 813c
000003d0: 3e96 b83d 621d b6bd 9fc3 013d 0501 70bd
000003e0: 70d6 30bb 0afe 18bd c9c6 133e 102d 143d
000003f0: c734 d63c 733d f2bd f20d 1a3e 1ab9 fbbd
0.06268719 -0.1496019 -0.31453028 0.110778846 0.076179296 -0.027979335 0.115319945 0.12168075
0.13100131 0.035388302 0.20084192 0.11054383 -0.021157391 0.02949883 0.061482765 -0.027231827
0.09586597 -0.006636049 -0.13175833 -0.061123263 -0.1245529 -0.110699095 0.028979827 -0.25739887
0.0061732405 0.07297028 0.0743455 -0.10233308 -0.04941853 0.0019131898 0.055484034 0.011280441
0.0059304503 0.05928423 -0.0077390773 0.088742256 -0.13379031 -0.1378994 0.08874671 0.080610216
-0.10183794 0.14600278 -0.062229536 0.039686903 0.107157186 -0.068060376 -0.10804194 -0.04989709
0.101955704 0.00445922 -0.31991795 0.1037183 -0.1363855 0.18409547 0.12056886 0.00929743
0.14631 -0.06460864 -0.07089498 0.3319663 -0.05930864 0.06752453 0.30700055 0.12898849
0.14336228 -0.084974416 -0.027093856 0.042318966 0.025906269 0.020045418 0.20334107 0.08827945
0.034132957 0.08689469 0.1765516 0.26281714 -0.21707511 0.22488485 -0.1260417 0.12448686
0.12802677 -0.20919567 -0.032333225 -0.1368404 -0.23238282 0.07294426 -0.2226391 -0.12226183
0.048614647 -0.014121331 -0.124841 0.010150557 0.07925015 -0.13346127 -0.03831114 -0.18257026
-0.101737686 0.057312775 0.05512311 0.007820303 -0.004610862 0.14818668 -0.09794261 -0.05859149
0.0015548468 -0.0061112056 0.05473716 0.07159667 0.23400939 0.09432916 -0.042701866 0.2215008
0.19312549 -0.10756023 -0.0055520553 -0.186403 -0.09520486 -0.034566008 -0.2542472 0.17993039
0.040880606 -0.19418207 0.23654105 0.010717 -0.10229166 0.11039543 -0.012251762 -0.12009246
0.021262627 0.004148652 -0.07795479 0.013900676 -0.11078279 0.12660842 -0.06363352 0.015744247
0.11597337 0.12679619 0.0032838385 0.1536053 -0.06939074 0.07736397 -0.0379844 0.019816073
-0.059763517 -0.031249331 0.06073212 -0.023454154 -0.13560596 -0.007432711 0.090103425 -0.10363474
0.09580704 -0.01598605 0.055766013 0.07704941 -0.020130852 0.020410027 -0.0658089 0.0021258532
-0.1111143 0.02126644 0.068459064 -0.07320739 0.06040268 -0.005332302 -0.04500857 -0.09868681
-0.004684822 0.028086806 0.104020625 -0.06128915 -0.059663337 -0.073359914 -0.07735664 -0.12338493
-0.07250739 0.081511244 -0.11031714 0.09752551 0.01558393 0.06531676 0.0920221 0.04210579
-0.1365404 0.09441534 -0.007360135 -0.122733966 0.07005208 -0.012552709 0.15070654 0.21479337
-0.13091291 0.18370652 0.015539173 -0.0006512119 0.1486806 -0.0731081 0.062217698 0.1017428
-0.18271251 -0.078441806 0.0893361 -0.111354664 0.054252677 0.11617338 -0.17914085 -0.07273137
0.05802052 -0.050528217 -0.10306437 -0.011006658 -0.17438604 0.06448075 -0.015119865 -0.18468408
0.0006281693 0.05197768 -0.11235822 -0.039373312 -0.15413867 0.03741936 0.10038747 -0.09182569
0.07498244 -0.1413056 -0.24396718 -0.008286621 -0.023475623 0.09202433 0.086996876 -0.107264094
-0.0038327398 0.051603403 0.069944054 0.123017505 -0.14934312 -0.117908254 -0.0014862594 -0.23244965
-0.036791954 0.106418535 0.19940618 0.015849963 0.090130314 -0.08892323 0.0316807 -0.058594722
-0.0026983283 -0.037351646 0.144313 0.036175787 0.026148213 -0.11828127 0.15044382 -0.12291165

fc1.bias f4 [128]
00000000: b147 76bd b453 01bd 8473 013e 52bf 1bbe
00000010: c900 5b3d 4df4 9ebd 4e55 3d3d 9b72 1cbe
00000020: ee77 363e 13f3 3dbe 00ca 0dbe 0a3b 6f3d
00000030: b8c1 043d 40f7 ff3d 4b9b c73d 09cb 313e
00000040: 6067 bf3d 8725 31be 645b 0d3e e336 1b3d
00000050: 5e5e 633d 6f7d b8bc 0270 4c3b 7a12 cabd
00000060: 25b9 a1bd 0e88 04be be6e f2bd 5111 ba3d
00000070: 64a5 ca3d 1e62 8bbe a1eb 61bd 395a afbd
00000080: 337a c3bd facf 6fbd f9e2 57bd d774 6ebd
00000090: 6f45 c13d 91a9 e5bd eeef fe3d 6865 f03d
000000a0: 0c14 823d 17c7 993c 7d8f 0bbe c5bd a83d
000000b0: 49e2 06bd dc99 0bbd b720 91bd 1009 c5bd
000000c0: a0c9 1cbe fa9d 30bd 7e3c a8bd 7ca0 e9bd
000000d0: 565b cfbd 2029 293d ed85 debc 9867 11bd
000000e0: 5e5c 82bd 045b 92bd 291d e83d 85ea e43d
000000f0: caeb f53d 50da 0f3e 4e58 7ebd 8e94 163e
00000100: 18a1 d23d c4bc 9a3c 79d7 ad3d 8a23 8c3d
00000110: 1216 eabd 311d d03c 1689 463e c49f 94bd
00000120: 364a 263d f1d0 c8bd 1165 df3c bb56 663d
00000130: e280 8fbd b5f7 c3bc 4ce4 ce3d e417 253e
00000140: d145 c2bd 4536 1dbd 4687 ea3d 2b5a 24bd
00000150: e02b bd3d d699 003e b3db f1bd 1e65 94bd
00000160: d021 ea3d 8c66 f73d d09c 35bd fcae e3bd
00000170: 06bb 49bd e24f 45be 4621 003d 4f38 4cbd
00000180: 6150 213e 9ac7 f33d 173b bfbb 481a 97bc
00000190: 7895 54bd 264a a23c 808b 293d fd3f c7bc
000001a0: 52f7 eabd 7ec8 31bc 4557 e0bc 6cc7 bdbd
000001b0: dea1 db3c 95a6 903d 9c82 7fbe da8a 373e
000001c0: 26fd e63d cf88 f73c 9d37 e7bc 5eed d8bb
000001d0: 6dc9 d5bc 85ad 3ebd 647a 9b3d 0306 a1bd
000001e0: 8405 bb3d daa0 e0bb adc8 e63d cfad 8b3d
000001f0: f54e 8a3d e1ee 373d db8a ffbd e1b9 cc3d
-0.060126964 -0.031573966 0.12641722 -0.15209702 0.053467546 -0.077614404 0.04622393 -0.15278094
0.17819187 -0.18549757 -0.13846588 0.058405913 0.032411307 0.12498331 0.09746417 0.17362608
0.09345889 -0.17299472 0.13804394 0.03789414 0.055509917 -0.022520749 0.0031194692 -0.098668054
-0.07896642 -0.12942526 -0.11837529 0.09085334 0.09894827 -0.27223295 -0.055156354 -0.085621305
-0.09544792 -0.05854795 -0.052706692 -0.058216896 0.094370715 -0.11213983 0.12448107 0.11738092
0.0635148 0.018771691 -0.13628955 0.08239321 -0.032930646 -0.03408228 -0.07086318 -0.09620869
-0.15311289 -0.04311941 -0.08214663 -0.11407563 -0.10124843 0.041298985 -0.02716347 -0.035499185
-0.06365274 -0.07146266 0.11333687 0.111775436 0.12007864 0.14048123 -0.062095933 0.14705107
0.102846324 0.018888839 0.08488364 0.06842716 -0.11429991 0.025404545 0.19388232 -0.072570354
0.040598117 -0.098054774 0.027269872 0.056235056 -0.07007004 -0.023921827 0.10102138 0.16122395
-0.09485973 -0.038381834 0.114515826 -0.040125053 0.09236884 0.12558684 -0.118094824 -0.07245849
0.114322305 0.12080106 -0.044339 -0.1111736 -0.049250625 -0.19268754 0.031281732 -0.049858388
0.15753318 0.11903305 -0.0058359015 -0.018445149 -0.051900357 0.019810747 0.041392803 -0.024322504
-0.11472954 -0.010851024 -0.027385363 -0.09266552 0.026810583 0.07063023 -0.24952167 0.17924061
0.11278753 0.030216603 -0.02822476 -0.0066200932 -0.026097024 -0.0465522 0.075917035 -0.07862475
0.091319114 -0.0068551125 0.112687446 0.06820261 0.06753341 0.044905547 -0.124776565 0.09996391

fc2.weight f4 [128, 128]
00000000: 7889 d93c 5359 8f3c 07f6 8e3d 1954 c5bc
00000010: 56cd 253d bd53 a3bd 7238 b1bc e135 8a3c
00000020: 10a3 673c 65a4 093d c7d5 1bbe 79f4 003e
00000030: f04f 80bd 2479 873d a380 f0bd ff95 f93c
00000040: 7fd0 82bc 473d 463c 8ba2 6bbd c859 093e
00000050: ae75 1fbd 21ca 223d efeb 293d 70a4 d93c
00000060: 772e c33d dd5f 573d 3b8f 403c f01c 33be
00000070: 18d9 53be e007 9e3b e8d6 3abb 6727 8abd
00000080: dee5 ae3d a1bd 01bd 203b 853d 453a 0e3e
00000090: 0d8f 733d 11f9 e03b 7748 eb3d a8be 1abd
000000a0: 1e5f e8bd b16d 2ebe c8e4 0a3e 568f 6e3d
000000b0: ff28 b23d 5b19 a03d 0c98 423e 245f c2bc
000000c0: 66b6 20be 7c1a 9ebd 3583 19be dbe8 5a3c
000000d0: 6dac d7bd 7084 b3bd 5ba5 143d 288e 12bc
000000e0: 9488 1d3d 0831 9b3d 01ba d63d 27e2 bc3d
000000f0: e6d9 06bd b6d9 a5bc 6850 1f3c b122 b0bc
00000100: c589 a0bc 13a4 0abd 5a9b 393e 6893 313e
00000110: 109a c5bd 6ea7 d8bc 395d c33c 4869 a2bc
00000120: 6080 463d 42e4 e63c 7aae 61bd d957 ca3d
00000130: 8bee 27be 31a1 e33d 1cb0 c3bd ac7f 3cbd
00000140: 51d8 973d cf36 c5bd 0528 703d 8da0 033d
00000150: 5c1d 8e3d 20e5 123b bb23 b83c dcc5 8c3d
00000160: fe8f bbbd c44a ad3d c042 213d f581 ba3b
00000170: 6bb4 273e 95f0 0cbd 1df8 153e 953b 8dbd
00000180: 3a87 0e3e d4d0 cabd 2495 1f3d 4237 4bbd
00000190: e13c e6bc d4f4 f8bd e0ca 5c3b 23c4 743d
000001a0: 1ee9 43bd b5e6 413d b93f 753c 9c36 dcbc
000001b0: c0a5 57bc bc55 f23d 3fb7 a93b a4f3 de3d
000001c0: a587 a2bd 5d68 1d3d a830 f23c b136 57bd
000001d0: 614a f2bc 61c9 113d 3c13 293e facb af3c
000001e0: 2630 a1bb cbee d03d 1167 4cbd 54c9 a43d
000001f0: 400d 0c3e 868f 573d f170 493e ff3d a9bc
00000200: 9ad2 2f3d 7d35 a03d b82f c43c 101f fa3d
00000210: 6d12 633d 10d3 86bd ad58 1ebc d47b 08bc
00000220: f931 01bc 1216 9c3c 94fb 5a3d 9fee 02bd
00000230: aa86 233d 5882 36bc fe71 563e 9e6c a5bd
00000240: 6916 913c a8d6 aebc 8359 bcbd 2aa0 b0bc
00000250: 97a1 ba3c cf78 64bd 75c8 5fbc 8ad0 783d
00000260: 63a8 fb3d d888 113d 0822 d4bc 8d1d 413e
00000270: d8c7 793e 4395 063e eb65 653d 1dd1 973d
00000280: 7a07 043d 767a 193e 5da3 da3d 1cfe 9fbd
00000290: 5e78 b33d 23dd 353c c557 47bd 2b0b 753e
000002a0: 5a34 87bd 1a60 263e dd75 48bd 5113 00be
000002b0: 63b1 ce3d 65c3 44ba 2186 eebd 4224 c93c
000002c0: 0ede 3c3e 4146 ce3c 1cb7 003e 6e6f 203d
000002d0: 34d6 753c 9104 0e3e dc4a bf3d d842 833d
000002e0: dbe6 453e 781e 663d 4515 1fbd bcdb 00be
000002f0: 088b 18bd 55ed 073e d85f 74bc 2c6c 1e3e
00000300: 17ae 9c3c c912 dd3c e95c 00be bbe6 a4be
00000310: 2a49 003d 12a1 2b3e 035e bdbd b32e 2cbc
00000320: e794 c63d 12dc 4bbc 5089 3e3d 67d8 56be
00000330: 892d 623e 0a77 5ebd d47a 273e 3797 eb3c
00000340: 6204 23bd f257 3a3e 693f 20be 08aa 52bd
00000350: ae7d 71be eca4 e53c 3ce2 353c 2f7e 673d
00000360: de85 c23d e766 733d 5ecf 843b 4fb5 b9bd
00000370: 7cbf a4bd e7b6 72bd 7160 5bbc a65b e83d
00000380: 2125 24be 239c e33d a2e7 26bd 7e14 e13c
00000390: 8f9c c7bd 12a5 f23d 1357 ab3d d0f4 ed3c
000003a0: 4cf4 8ebd 2ce1 61bc 1827 0c3e b4ed 9d39
000003b0: ee45 913d a244 d5bc d9aa 963b 1f41 09be
000003c0: db95 87bc 1c49 fa3c e498 b0bc 47cf 1dbc
000003d0: 6f08 0ebd 7528 b73b 845d bebd 6709 a53c
000003e0: 2e0a b5bd f2aa e9bd b533 143d dbf6 1dbd
000003f0: 72cc 0ebe d824 babd 756d 64be 14b2 26be
0.026554808 0.017498648 0.0698052 -0.024087952 0.040479027 -0.07974956 -0.02163336 0.016871395
0.014137998 0.033604044 -0.15218268 0.12593259 -0.06265247 0.066149026 -0.117432855 0.030467032
-0.01596856 0.012099571 -0.05752806 0.13413155 -0.038930587 0.039743546 0.04148477 0.026567668
0.09530347 0.052581657 0.011752899 -0.17491508 -0.20688283 0.004822716 -0.0028509442 -0.06745797
0.085399374 -0.031674985 0.06505418 0.13889416 0.059462596 0.0068656285 0.11488431 -0.03777948
-0.11346267 -0.17034031 0.13563836 0.058242165 0.08699226 0.07817336 0.19003314 -0.023727007
-0.1569458 -0.07719895 -0.14991458 0.013361181 -0.105309345 -0.08765495 0.036290508 -0.0089450255
0.03846033 0.07577711 0.10484696 0.09222823 -0.032922648 -0.020245414 0.00972376 -0.021500917
-0.019596944 -0.03384788 0.18125668 0.17341387 -0.09648526 -0.026447024 0.023848163 -0.019825593
0.04846227 0.028185014 -0.055098034 0.09880037 -0.1639959 0.11114729 -0.095550746 -0.046020195
0.07414306 -0.096295945 0.058631916 0.032135535 0.069391936 0.0022414401 0.022477975 0.06873676
-0.09158324 0.08461526 0.0393703 0.0056917616 0.16377418 -0.034409124 0.14645429 -0.0689613
0.13918772 -0.09903112 0.03896059 -0.049613245 -0.028105201 -0.12156072 0.003369026 0.059757363
-0.04782974 0.04733916 0.014968806 -0.026881509 -0.0131620765 0.11832759 0.0051793153 0.108863145
-0.079360284 0.038429607 0.029564217 -0.052542392 -0.029576482 0.03559244 0.16511244 0.021459568
-0.00491907 0.10201796 -0.04990298 0.08046213 0.1367693 0.05262711 0.1967199 -0.020659445
0.042925455 0.07822702 0.023948535 0.12212956 0.055437494 -0.06583226 -0.009664697 -0.008330304
-0.00788545 0.019053493 0.05346258 -0.031965848 0.039923348 -0.011139475 0.20941922 -0.08077358
0.017710881 -0.02134259 -0.091967605 -0.021560747 0.02278213 -0.055779275 -0.0136586325 0.060745753
0.122879766 0.035530895 -0.025895134 0.18858929 0.2439264 0.13142876 0.0560054 0.07412932
0.032233693 0.14988121 0.1067569 -0.078121394 0.087631926 0.011100086 -0.048667688 0.23930041
-0.06601782 0.16247597 -0.04894053 -0.12507369 0.100924276 -0.00075059227 -0.11646677 0.024553422
0.18444082 0.025179984 0.1256985 0.039168768 0.015004683 0.1386893 0.0934045 0.06409234
0.19326346 0.0561814 -0.038838644 -0.12583822 -0.037241966 0.13274129 -0.014915429 0.15470952
0.019125981 0.026986497 -0.12535442 -0.32207283 0.031319775 0.16760662 -0.09246447 -0.010509181
0.096963696 -0.012442606 0.04651767 -0.20980988 0.22087683 -0.054312743 0.16355449 0.028758628
-0.0397991 0.18197611 -0.15649189 -0.051431686 -0.23583099 0.028032742 0.011101302 0.056516822
0.094981894 0.059424307 0.0040530404 -0.09067785 -0.08044335 -0.05925646 -0.013389693 0.113456056
-0.16029789 0.11113765 -0.040748246 0.027475592 -0.09746658 0.11847891 0.083662175 0.0290474
-0.0698019 -0.013786595 0.13686788 0.00030122476 0.07093416 -0.026033703 0.0045980033 -0.13403748
-0.016550949 0.03055244 -0.021557279 -0.009631938 -0.03467601 0.0055895397 -0.092951804 0.020146085
-0.08839832 -0.11409558 0.036182124 -0.038565498 -0.13945177 -0.09089059 -0.2230738 -0.16278869

fc2.bias f4 [128]
00000000: a5bf 8e3d 5c47 8b3d f2eb af3c cf8c 003d
00000010: 734e 833d 18e4 073e 1fd7 19bd c3da d43d
00000020: 3e4e 8e3d 7610 273e a155 823d 8568 a03d
00000030: 7e49 033e ca8d cebd 7461 22bc e90f afbb
00000040: f71f 573d 16e1 03bd 201a 65bc 2f63 c23d
00000050: 6fa8 cdbc f7b2 2a3e 16f5 99bc 74e2 473b
00000060: 67bc 8039 8aff fa3d ad58 103d bc02 7abd
00000070: 929b 523e 4230 9e3d 06c1 8dbc bf22 53bc
00000080: 3e50 c33d ac91 03bc 1898 583e f3c3 adbc
00000090: 949f 883c 99ad 7f3d d640 f73b 5378 13bd
000000a0: ab23 523d 2fa3 92bc ce28 be3d cbb9 913d
000000b0: af1f 3dbd 690d 813e acfd 1f3e d2a0 f43d
000000c0: 062e 263e 8cea 023e b266 09bc c47f 173e
000000d0: 18df ce3d 3170 28bc 85ea 833d 5a05 773d
000000e0: a75a 00bb 02db 63bc 09f9 183e e266 233c
000000f0: e06c 763d 1e63 90bd 537a 81bd 8395 943c
00000100: 2177 603d 5881 e93d a4cb 373d d46b 6cbd
00000110: 1889 8dbd 8dcc 823d 63bd 61bc 1533 f13c
00000120: aef3 993d 3e7c f13d 0150 c4bb ee39 113d
00000130: a81a 423d 0e1d 283d 027f 3dbd 676c 2e3d
00000140: 59fa 0b3e 7acf 3f3d 642f 4d3e ecd6 793d
00000150: 36ea fcbc 833a 823d 48b2 393d 0021 643c
00000160: 55c3 593d 1504 053e 1b2b 4e3c 885a 223d
00000170: e65e e63d 4691 823d ad4b 223d 208e ec3d
00000180: 7f03 0d3e 09a7 98bc a0a8 6e3d 235e d6bd
00000190: ff22 823d 472f 3c3d 7985 273e 8022 323e
000001a0: 1acb 793d f41b 703e 63d0 173e 8d78 37bc
000001b0: 7da5 3e3b 55c7 45bd c4e3 333e a3c1 c9bd
000001c0: 89af 87bd 0301 9bbc 720f 9c3d 2394 f9bc
000001d0: 1c71 8a3d e90a 66bc b123 01be ba5e 88bc
000001e0: c069 83bd ca6e 453e 8282 0d3e 245f 563e
000001f0: 681f 903d 5373 88bd b14e 013c e4c2 45bd
0.06970147 0.0680072 0.021474812 0.031384286 0.064114474 0.13270605 -0.03755867 0.10393288
0.06948517 0.16314873 0.06363989 0.078324355 0.12821004 -0.10085638 -0.00991093 -0.005342473
0.05252072 -0.03219708 -0.0139832795 0.09491574 -0.02510473 0.16669832 -0.018793624 0.0030499967
0.00024554433 0.122557715 0.035240818 -0.061037764 0.20567158 0.07724048 -0.017303955 -0.012886702
0.09536789 -0.008030336 0.21151769 -0.0212116 0.016677655 0.062421415 0.007545571 -0.036003422
0.051303547 -0.017900078 0.092851266 0.07115515 -0.046172794 0.25205544 0.15624112 0.119447365
0.16228494 0.12784785 -0.008386301 0.14794832 0.101011455 -0.010280655 0.064412154 0.060307838
-0.0019585283 -0.013907196 0.1493875 0.00997326 0.060162425 -0.07050155 -0.063221596 0.018137699
0.05480111 0.114016235 0.04487194 -0.05772002 -0.06910914 0.06386671 -0.0137780635 0.029443303
0.07517181 0.117912754 -0.0059909825 0.035455637 0.047388703 0.041043334 -0.046263702 0.04258385
0.13669719 0.046828724 0.2003761 0.06099598 -0.0308734 0.063588165 0.045336038 0.013923883
0.0531648 0.12989838 0.012583519 0.03963712 0.11248569 0.06375365 0.03962295 0.11550546
0.13770865 -0.018634336 0.058266282 -0.10467174 0.06354331 0.045943525 0.1635951 0.17395973
0.06098471 0.23448163 0.14825587 -0.011198175 0.0029090338 -0.0482858 0.17567354 -0.098513864
-0.066252775 -0.01892138 0.076201335 -0.030466145 0.06759855 -0.014040687 -0.12611271 -0.016646732
-0.064166546 0.19280544 0.13819316 0.20934731 0.0703724 -0.06662621 0.007892297 -0.048281565

fc3.weight f4 [10, 128]
00000000: 0c63 aabe a176 283e 147a 54bd edc8 33bc
00000010: 36fd 7cbe 7874 e63d 28fc 323d 911f 9cbe
00000020: fc90 37be ffa2 bb3d e192 01bd 52f5 583e
00000030: dc7f 083e d90f 923e 9648 373e a183 27be
00000040: 0d3e 9fbc 5d01 ea3d 7ef2 afbd d341 81bb
00000050: f599 4ebd 4ca5 643e 0854 203f adce 073e
00000060: b180 06be 9a64 05bf 8623 be3d 6876 33bd
00000070: 691e b33d 4d19 d8be c93e 0ebe d79a 71bb
00000080: 2f8d 82bd fe9d a6be 00c6 a4be caa0 923e
00000090: ccf7 80bd 30f3 623d 77b9 033e 19de 7abc
000000a0: 1f7b 993d 5833 c43d 3fc2 bcbd 45f8 86bd
000000b0: e52b 4a3d 568c c0bd 8dd4 09be 6819 0abe
000000c0: 7ee7 16bf 43d8 a9bd abb2 773e 4f9b c3bd
000000d0: 12bd 7a3d 23c6 c73d 3854 0a3e 8695 cc3d
000000e0: 1a6f cc3d 33fa 223d b499 98be a7ab 843e
000000f0: 3f7d a83d 59af 933c eaea 87bd af45 b13d
00000100: 48ea 6bbd 7624 d7bc 0bdc c23d 4ded 973d
00000110: ec43 ba3d 5dce 85be 9c25 8fbd 9ef6 9bbb
00000120: 6f93 59bd ea30 37be b715 bb3c b2e1 c53c
00000130: 9d41 c23c d2ea 53be fbbc a43d b847 ae3d
00000140: 6c09 1bbd 41cf fcbc ecf4 1a3e fbc2 95be
00000150: 9375 1c3f 916e 5abe e299 1c3d 00f6 e63e
00000160: 3323 413d 7dc2 173e e067 9cbc 4eb5 bbbe
00000170: 3a4f dcbe b147 9e3e 5886 8f3e eff3 d43e
00000180: 278c 58be 777e 77be 5abe 92bd b108 4fbd
00000190: d37b 53bd abb1 403d 6fcc 0a3e 6e5d 1cbe
000001a0: 6fbe 013f 28fc 6c3e 1a0e c8bd 55ec 5ebe
000001b0: 2c72 5cbd 788e 40bd 2319 ab3d 6840 20be
000001c0: ded3 bbbb 3de5 b63d e80f 1c3e 8590 d73c
000001d0: 6706 b83e 91f8 f43e 5fb1 d0bd 3d91 0ebd
000001e0: 81a6 73bd e8e7 d6be 060b 693d c771 473e
000001f0: 27e4 31bd e8e7 2d3e 1414 013f 7c1f 193f
00000200: 3460 963e 5db7 88be d7fb 43be 04e3 94bc
00000210: ee87 d6bd 3aee 7c3c 7436 ae3d e49c 533e
00000220: 89be 113c e194 d43e 31e4 193d 6655 4d3e
00000230: 6a0f d7be 40c1 4abd 8973 893d 3402 26be
00000240: 261e 31bc 7a55 17bd e4b5 4dbe 6006 213e
00000250: 3fc9 8f3d f70a 2dbe cd41 53be d10d 7e3e
00000260: c42f d93e d9fa 7bbe 57bb 96bd e217 25be
00000270: f1ea 293d 167a c8be 479b 85be ea3d 483d
00000280: c92d 9a3d 9baf 84be 22cf 993e ed71 b4bc
00000290: 8907 39bd 4947 24be f62b 3f3e 5d6a 0cbe
000002a0: 6fb0 cb3c 1282 2bbe feed f33d 7c78 a0bd
000002b0: cf15 8bbd 342b eb3e ff05 b23d 335e 8fbd
000002c0: c162 a5bc 57db 7b3e 5d6c 5f3d 5d77 b4be
000002d0: 25d7 31bc 40a1 863d a489 ec3d dd9f 01be
000002e0: 30a7 2e3d 9c1e d03c f968 40be 0628 04be
000002f0: f9cb c0bd 2e87 39bd 2f1f c5bc 7f73 943e
00000300: fcc2 313d 441f 413d 5464 893e 4b45 f6bc
00000310: 09d5 f9bd 81c3 cd3e ca57 843c 006d 8f3c
00000320: 8405 323e 17e9 18be 9b64 ed3c 4e6d b63b
00000330: d9d7 34be f5ab f73e 5b7b 40bd 5da8 bfbd
00000340: 1077 dfbd 45d8 0bbd 8c33 373e 053e 1ebd
00000350: 6d9c 603e 2bab 53be 68c9 19be 7392 19be
00000360: 7565 bbbd 4753 153e 06f6 3f3e b82d f6bd
00000370: 59a7 3b3e 5b94 9abe 7a20 88be 5b85 893e
00000380: ff63 cc3e 0ca7 b9be 2c3b e4bc 8148 5ebd
00000390: 29af 9bbe 64d4 76be 2170 783e 62dc 2e3e
000003a0: e995 a2be fd8d b13e 59f4 473e 1b09 f5bd
000003b0: 0aea e4bd 6ece f8bd b423 893e acd0 c8be
000003c0: 4e59 ba3c 2829 65bd e969 e0be 8996 ab3d
000003d0: ecf5 bebd c44e 293e 53c5 90be 19e3 12be
000003e0: 0a41 7cbc f03b d23e c713 72be fa43 25bd
000003f0: c21e aa3e 3d92 42be 618d 02be 1b1d 32be
-0.33278692 0.16451503 -0.051874235 -0.010973197 -0.24705967 0.112526834 0.043697506 -0.30492833
-0.17926401 0.091619484 -0.031634215 0.21187332 0.13330024 0.28527716 0.17898783 -0.16358806
-0.019438768 0.11426041 -0.085911736 -0.0039446144 -0.050439794 0.22328681 0.6262822 0.13262434
-0.1313503 -0.5210663 0.09284119 -0.043814093 0.08746035 -0.42206803 -0.13891138 -0.0036865973
-0.06374585 -0.32542413 -0.32182312 0.28638297 -0.062972635 0.055407703 0.12863718 -0.015311741
0.074941866 0.095801055 -0.09216737 -0.065903224 0.049358267 -0.09401767 -0.13459988 -0.13486254
-0.5894698 -0.08293202 0.2418925 -0.09551107 0.061215468 0.097545885 0.1350869 0.09989457
0.099821284 0.03978939 -0.29804766 0.2591221 0.08227014 0.018027948 -0.06636603 0.08655869
-0.057596475 -0.026262503 0.09514626 0.074183084 0.09094986 -0.26134005 -0.06989595 -0.0047596237
-0.05311912 -0.17889753 0.022837503 0.024155471 0.023712927 -0.20695046 0.08043858 0.08509773
-0.037850782 -0.030860545 0.15132493 -0.2925032 0.61116904 -0.2133124 0.03823269 0.45109558
0.04715271 0.14820285 -0.0190925 -0.36661762 -0.43029195 0.3091407 0.28032184 0.41592357
-0.21147214 -0.24169336 -0.07165213 -0.0505454 -0.05163176 0.047044437 0.13554548 -0.15270016
0.50681204 0.23143065 -0.09768315 -0.21769841 -0.05381982 -0.04701087 0.08354404 -0.15649569
-0.0057320436 0.089304425 0.15240443 0.02631403 0.35942385 0.4784589 -0.10190081 -0.03480648
-0.059484962 -0.41973805 0.05689528 0.19476996 -0.043430474 0.16982996 0.5042126 0.59813666
0.29370272 -0.26702395 -0.19139038 -0.018174656 -0.10475145 0.015437657 0.0850648 0.20665318
0.008895525 0.41519836 0.037571136 0.20052108 -0.42003947 -0.049500704 0.0671149 -0.16211778
-0.010810411 -0.03694675 -0.20088917 0.15725088 0.070208065 -0.16898714 -0.2063057 0.24809958
0.42419255 -0.2460741 -0.07359951 -0.16122392 0.041483823 -0.39155644 -0.2609503 0.04888717
0.07528264 -0.25915226 0.30040842 -0.02202698 -0.0451732 -0.16042818 0.18669114 -0.1371245
0.024864404 -0.16748837 0.11910628 -0.078354806 -0.06791269 0.459314 0.0869255 -0.07000389
-0.020188691 0.2459539 0.054546703 -0.35247317 -0.010854517 0.06573725 0.1154969 -0.12658639
0.04263991 0.02540522 -0.18790044 -0.12905893 -0.09413905 -0.045294933 -0.024062721 0.28994367
0.043398842 0.047148958 0.26834357 -0.030062338 -0.12198836 0.4018822 0.016155142 0.01750803
0.17384917 -0.14932667 0.028978636 0.0055672294 -0.17660464 0.4837338 -0.04699264 -0.093582846
-0.10911381 -0.034141798 0.17890757 -0.038633365 0.21934672 -0.20670764 -0.15018237 -0.14997272
-0.09150211 0.14582549 0.18746194 -0.12020439 0.18325557 -0.3019131 -0.26587278 0.26859555
0.3992004 -0.3626026 -0.027860247 -0.054268364 -0.30407074 -0.24104458 0.24261524 0.17076257
-0.31754997 0.3467864 0.19526805 -0.11964627 -0.11177452 -0.12148748 0.26785052 -0.39221704
0.022747662 -0.055947453 -0.43830803 0.08378322 -0.093242496 0.16533953 -0.28275546 -0.14344443
-0.015396366 0.41061354 -0.23640357 -0.04034803 0.3322659 -0.19001098 -0.12749244 -0.17393915

fc3.bias f4 [10]
00000000: 7b88 cc3d 0f51 583e 420f 05bc cb99 b5bd
00000010: 48a7 0b3e 49ff 56bd 9818 bbbc 0a7c df3d
00000020: 0030 f0bd 92a7 bebe
0.09986969 0.21124671 -0.0081213135 -0.08867224 0.13638031 -0.052489553 -0.022838876 0.109123304
-0.11727905 -0.3723722
