ckpt/model_epoch14.pth (torch, 106247 bytes, 6 tensors)

fc1.weight f4 [128, 63]
00000000: d894 49be 474a 58bf 8217 133f 5285 c3bc
00000010: c2ec 9dbe 7200 be3d d71c b13c 837d 32be
00000020: 386c 46be 0785 0ebd e65f 84be 0eac 6cbe
00000030: ae50 a2be 317d 29be c8dd 89be ab15 a23d
00000040: bc21 61be faac c13e 3215 b8be a48e 88be
00000050: 37ff 993e dd2c 913d b4e5 b33e 2d16 abbe
00000060: 95a4 193d f766 1e3f 9c8f 3abf 7bc1 2c3c
00000070: c29e c53c de9f 6a3e b55b 0dbf 12eb 93bf
00000080: b075 3b3f 26c2 a0be 1cb3 0dbf f41b 0b3f
00000090: 1db6 71ba e976 fb3e 08d7 8ebd db8f 663e
000000a0: c28d 8b3d cf2a 09bf 4c8c 01bf d8d8 b2bf
000000b0: 1aef 7a3f 2a9b 073e 2713 af3e 9d6a e83e
000000c0: 6dfd 573f 0d75 1140 0699 36bf 70bd c23e
000000d0: bb37 bb3e cf42 8bbf 21de 75be f4ce 32bf
000000e0: 5c76 09be 1b90 93bb 0c21 62be 56c0 fabc
000000f0: bb7e a43e 0e08 673f 174f f6be e423 ccbe
00000100: 4d82 3e3d 731f 003f 3367 e0bd 48c1 cabd
00000110: f33d 993f 05d0 dd3e e68f 10be dd0f d23e
00000120: 5e8a 0b3f f477 b33e 611d 9bbf 06fc 91be
00000130: 9953 983f 27a0 81c0 1c83 683e 6d41 5e3e
00000140: 1cbc 44bf 4785 4f3e 80e9 aa3e fce8 5c3e
00000150: 2ff0 383d 5dcd 56be 2162 4c3f 7986 933e
00000160: 63f8 d1be 5c05 743f 966f 993e 9483 2d3e
00000170: 77e5 75bf 7268 68bd 007a c23d 2399 bc3e
00000180: 3a17 97be 4b13 b33d 1041 193f c9d5 f43d
00000190: 2398 623e 2d53 c63d c33a db3d 5741 a2bd
000001a0: 606b 19bf 4ec8 1ebb 4ed7 6e3d 889b 5c3e
000001b0: 0135 07bf 89ed 6abe 3c3a bf3e c324 18bf
000001c0: 34a6 d3be e05e 1dbf e760 b0be de08 52be
000001d0: 5609 48be 92a8 8abe 80f3 abbd 5e70 633f
000001e0: a135 a53e deed a63d 6eb7 a23f f343 893f
000001f0: f26b fe3e 87e9 353f 7693 a13d 0dc8 f5be
00000200: bda0 183f adfb d3be 716e 0bbf fb02 d83e
00000210: 729b 43bf 64d0 29be 6646 10be b533 943e
00000220: fe9c 493f 7fa8 39bf 61b6 3140 5306 4340
00000230: 4bd8 83bf 1d17 a83e d59c 253f 8de2 8c3d
00000240: e51b 8b3e caaa 2e3e 9178 84bc 8798 1abf
00000250: ca12 cabe 6c18 a83e 7f4c 56bf e12b 4fbf
00000260: 05e6 8d3e 3f1d 143f faf4 1a3f 8f56 8bbe
00000270: 0f88 ca3d 87f3 81be 68af a5be fdca df3b
00000280: bdfc cdbc ecfd 8c3e fb73 383e 16bd db3e
00000290: 10c9 d13e 3cb4 873e 6eb0 753e cfa7 26bd
000002a0: f9b7 6fbe 701b 25bf 4299 5d3d 28e4 99be
000002b0: 0640 32bf b22b 133e bdf7 933e ed6e 2fbe
000002c0: 1924 acbe cb55 02be 6578 f03d 0d20 f83b
000002d0: a8c2 9dbf 44bd 43bf c5bf e03e c201 5fbf
000002e0: 88e4 19bf 2956 dd3e 5b52 243e e7f7 a1bd
000002f0: 41f7 8abd ebcf 073e d319 833e 3215 f1bd
00000300: 9c81 2e3e 9487 823f 88f6 423e a90d 813d
00000310: 054c 573f 1e82 8b3e 81bf 173e 4ebd 2bbf
00000320: b88d c3be 2d14 d83d 880e 8dc0 c4c5 cdbf
00000330: 6df5 b9bd d210 6dbf 7b12 abbe 3f9e e73d
00000340: a2bd febe 4ce6 08bd 9088 b2bd 7e57 863f
00000350: 705c d03e cb8d 8bbe d88b c03f 08af 403f
00000360: 73f0 bdbd d994 68bf 8a38 b3be 1e1f 093f
00000370: 2fc8 3fbd b8af dfbe a157 053e 0d3e b13e
00000380: dba6 d63d afe8 a6be af7d abbc b81e 13be
00000390: 40e3 79bd d979 01bf a797 52be 9afb a53e
000003a0: 5230 1c3f 7b3e 0c3e 0b75 263e 3592 b73e
000003b0: 5dd7 b03e 3030 5e3d 5e7e 13bf 257f 07bf
000003c0: ed53 f9ba 9190 8f3d fe85 093d dbbd 60be
000003d0: 040d 953f 64d7 543f 929c 17be af41 8e3f
000003e0: b751 4c3f 9ee1 7ebe 63c3 e53e f715 b7bc
000003f0: 10b5 a43e 52a6 863f 59c1 9dbe 66f1 18be
-0.19685686 -0.8448834 0.57457745 -0.023867283 -0.30844694 0.09277429 0.021620197 -0.17430691
-0.1937722 -0.034794834 -0.25854415 -0.23112509 -0.3170218 -0.16551663 -0.26927018 0.07914289
-0.21985525 0.37827283 -0.3595367 -0.26671326 0.30077526 0.07088635 0.35136187 -0.33415356
0.037510473 0.6187586 -0.7287538 0.010544176 0.024123553 0.22912547 -0.5521806 -1.1556113
0.7322645 -0.31398124 -0.55351424 0.5433953 -0.00092205574 0.4911416 -0.06974608 0.22515814
0.068141475 -0.53580946 -0.506047 -1.3972425 0.9802109 0.13242784 0.341943 0.4539384
0.8437107 2.2727692 -0.71327245 0.38035154 0.36565956 -1.0879763 -0.24010517 -0.69847035
-0.13424057 -0.0045032627 -0.22082919 -0.030609291 0.32127938 0.90246665 -0.48107216 -0.39871132
0.046510983 0.5004799 -0.10957184 -0.09900147 1.197203 0.4332277 -0.14117393 0.41027728
0.54508007 0.35052454 -1.2118341 -0.2851259 1.1900512 -4.0508 0.22706264 0.21704645
-0.7684953 0.20265685 0.3338127 0.21573251 0.045150932 -0.20976777 0.7983723 0.28813532
-0.41009817 0.9532068 0.29967946 0.16944724 -0.9605326 -0.05674023 0.09495926 0.36835584
-0.29509908 0.08743914 0.598649 0.11954839 0.22128348 0.09683833 0.10704567 -0.07922619
-0.59929466 -0.0024228278 0.0583108 0.21543705 -0.5281525 -0.22942175 0.37349117 -0.59431094
-0.4133774 -0.6147289 -0.3444893 -0.20511195 -0.19534811 -0.27081734 -0.08396053 0.88843334
0.32267478 0.08150838 1.2712228 1.0723861 0.4969173 0.7105946 0.07889454 -0.4800419
0.5962027 -0.4140295 -0.54465395 0.42189774 -0.76409066 -0.16583401 -0.14089355 0.289457
0.78755176 -0.7252273 2.7767565 3.047261 -1.0300382 0.32830134 0.6469243 0.06879149
0.2716972 0.17057338 -0.016170772 -0.6038899 -0.3946746 0.32831132 -0.83710474 -0.8092633
0.27714553 0.57857126 0.60530055 -0.27214476 0.09889232 -0.2538111 -0.32360387 0.006829618
-0.025144929 0.27537477 0.18012993 0.429177 0.4097371 0.26504695 0.23993084 -0.04068738
-0.23410024 -0.6449499 0.054101236 -0.30056882 -0.6962894 0.14372137 0.28899947 -0.17132159
-0.3362129 -0.1272804 0.117417134 0.00757218 -1.2325029 -0.7646067 0.4389631 -0.8711206
-0.60114336 0.43229797 0.16047041 -0.07908612 -0.06785441 0.13262908 0.2560564 -0.11771621
0.1704163 1.0197625 0.19039357 0.063014336 0.8410037 0.2724771 0.14819147 -0.6708573
-0.3819406 0.10550723 -4.408024 -1.6075978 -0.090800144 -0.9260379 -0.33412537 0.1130948
-0.49754053 -0.033422753 -0.087174535 1.049545 0.40695524 -0.27256617 1.5042677 0.75267076
-0.09274378 -0.90852123 -0.35004073 0.53563106 -0.04682177 -0.4368875 0.13021709 0.34617653
0.10481044 -0.32599398 -0.020933954 -0.14367187 -0.061007738 -0.5057655 -0.20565663 0.3241852
0.6101123 0.1369571 0.16255586 0.35853735 0.3453931 0.054245174 -0.57614696 -0.5292838
-0.0019022204 0.07009996 0.03357505 -0.21947424 1.1644597 0.8314116 -0.1480582 1.1113795
0.79812187 -0.24890754 0.4487563 -0.02234934 0.3216939 1.0519507 -0.30811575 -0.14935836

fc1.bias f4 [128]
00000000: 09de adbf 75c1 00c0 b4ff ddbf 488b e0bf
00000010: c86c a7bf 963e c2bf 32ec a2bf 482c aebf
00000020: 524d 8cbf 0395 a6bf 9cd8 a8bf 4a4e 70bf
00000030: a39d c3bf b864 89bf 517c 9cbf cbfa b0bf
00000040: 80b7 a7bf 1d34 98bf 3e36 9ebf d015 d2bf
00000050: 55d2 26c0 5c34 83bf 42ad 8cbf f29d 9ebf
00000060: 73a5 c8bf 7a1c 6dbf 07cf 60bf 35f3 b1bf
00000070: d146 79bf 3e35 8abf bdba ebbf 3546 52bf
00000080: 4ce9 8abf 39c2 85bf 1556 98bf 1ff2 f3bf
00000090: 1cf8 74bf 1546 92bf 0ba0 07c0 7605 b6bf
000000a0: 23dc 80bf f24f 8cbf 77ff a2bf 13b7 d1bf
000000b0: 0411 aabf 9c37 a2bf 34c0 abbf e6d5 7ebf
000000c0: b24d 60bf a855 96bf 87de abbf 682c 83bf
000000d0: ca61 f8bf 7000 b1bf ddac 9bbf ac4a b8bf
000000e0: 66f5 e2bf 7b0a 06c0 7cd7 c9bf 5606 6bbf
000000f0: ba6d 68bf a751 cdbf a488 cebf d6ba c5bf
00000100: 1aef 83bf 3225 dbbf 8344 abbf 06c3 a8bf
00000110: ad8f a5bf a089 b7bf 2ae8 a2bf d713 a3bf
00000120: c121 80bf 3a24 babf 2339 a4bf dc39 adbf
00000130: 0ef8 00c0 01c5 4bbf 61cb 92bf cf00 99bf
00000140: a1ac b2bf 87a8 a8bf 9337 abbf e5f4 18c0
00000150: e514 9ebf 0d3f 97bf b345 fdbf 8a10 b4bf
00000160: fab0 60bf 6e8e 9abf 927d afbf 9a06 99bf
00000170: cb6e 7cbf 03bc a0bf e6ce bcbf 81f7 b0bf
00000180: c8df 91bf d49a adbf d8cd d8bf ac0c 97bf
00000190: 5945 c0bf 8210 8dbf 206d d1bf e1b4 42bf
000001a0: 395f 64bf 78a4 86bf 7cd4 c9bf 5a54 f7bf
000001b0: 55f8 cbbf ac76 b7bf e03b 98bf eab0 40bf
000001c0: 4770 9bbf eaca c2bf 07c9 9fbf 3dbc 66bf
000001d0: d387 84bf 6ed8 a6bf d2e2 a1bf 7737 8abf
000001e0: 943d abbf a700 8fbf 0131 b3bf 0849 9bbf
000001f0: a8ff 74bf 020b 07c0 64f3 bbbf 0389 b2bf
-1.3583385 -2.0118077 -1.7343659 -1.7542505 -1.3080072 -1.517535 -1.2728331 -1.3607264
-1.0961096 -1.3014225 -1.3191104 -0.9386946 -1.5282482 -1.0733862 -1.2225438 -1.3826536
-1.3102875 -1.1890904 -1.2360303 -1.6412907 -2.6065876 -1.0250354 -1.0990374 -1.2391951
-1.5675491 -0.92621577 -0.878159 -1.3902346 -0.9737368 -1.0797498 -1.8416363 -0.8213838
-1.0852447 -1.0449897 -1.190127 -1.9058264 -0.95691085 -1.1427637 -2.1191432 -1.4220417
-1.006718 -1.0961897 -1.2734212 -1.6383995 -1.3286443 -1.2673221 -1.3418031 -0.99545133
-0.87618554 -1.174489 -1.3427285 -1.0247927 -1.9404843 -1.3828259 -1.2162129 -1.4397788
-1.773114 -2.0943897 -1.5768886 -0.9180654 -0.9079243 -1.6040543 -1.613545 -1.5447643
-1.0307343 -1.7120726 -1.3380283 -1.3184516 -1.2934471 -1.4338875 -1.2727101 -1.274043
-1.0010301 -1.4542305 -1.2829937 -1.3533282 -2.01514 -0.7959748 -1.1468316 -1.1953372
-1.3958932 -1.317643 -1.3376335 -2.3899472 -1.2350127 -1.1816117 -1.9786896 -1.4067547
-0.87770045 -1.2074716 -1.3710196 -1.195514 -0.98606557 -1.2557377 -1.475064 -1.3825532
-1.1396418 -1.3562875 -1.6937819 -1.1800742 -1.5021163 -1.1020663 -1.6361427 -0.7605725
-0.892078 -1.0518942 -1.576797 -1.9322617 -1.593516 -1.4333091 -1.1893272 -0.7526995
-1.2143639 -1.5218174 -1.2483224 -0.9013098 -1.035395 -1.3034799 -1.2647345 -1.0798177
-1.3378167 -1.1172074 -1.399933 -1.2131662 -0.957026 -2.1100469 -1.4683652 -1.3948063

fc2.weight f4 [128, 128]
00000000: 74df c1be 4fec 13bf 98c8 a5be edb4 bbbe
00000010: 1274 d8bd 630f 27be 8c1e 12be cbdd ba3d
00000020: 5874 0f3d 2d94 c3be a7eb fabe 87ee e4be
00000030: e4a6 7bbe 1c53 acbe 226f e7be e0b8 d03d
00000040: 9071 9abe 1d5f 203e df56 b6be 1bdc 323e
00000050: 41d7 95be 8733 10be 8892 a3be 536d f63d
00000060: b18f d03d 4606 cfbe 0b2d 0ebd 7030 a9be
00000070: 6400 a3be d501 bc3d 7230 09bf 9042 8d3e
00000080: 8919 d4be f426 f23c 5daf 90be 545d 07bf
00000090: d79c bb3d 2bf6 443e 8029 9abe b0c2 9cbe
000000a0: 5251 8ebe 25cd e9bd cb56 fdbe da0e b0be
000000b0: ddcd 063e 6c1e 16be 5de2 57be 04a7 d9be
000000c0: 2c25 1abe fbac cabe 1222 91be 5f74 cdbe
000000d0: b746 6abd ed36 11be 5665 25bd 29f9 07bf
000000e0: 34a6 e7be 529a 793e 37e9 d2be 3239 04bf
000000f0: be6a 15bf 8887 f8be f764 12bf a810 aebe
00000100: 1bb0 b8be 3a8f b7be 316e ddbe fb34 a0be
00000110: 22f4 56be 12c3 dbbe 101e 89be fba4 5fbe
00000120: 5a41 9cbd c75e fdbe 8ecb 13bf 37df ca3c
00000130: 9c33 0ebf 9d29 32be 2976 dfbd ea08 55be
00000140: 9856 73be ffe1 3e3e 3176 32be 3b7c bfbe
00000150: a457 80bd fac0 cbbe 2086 55be 0ccc 823d
00000160: cdfd 9f3d 0a24 bdbd 93ab 78be d9f9 c13d
00000170: 4588 f0bd 7e58 e93c 3b73 01be 7889 293e
00000180: 4ecc 87be 44c4 fcbe 1ed7 1ebf d3db a2bd
00000190: 7da2 eabd c23f dcbe 75ed 21bf 98d4 8e3e
000001a0: 3c93 1f3d 0b98 493e 4797 dcbe f48a a4be
000001b0: d4c4 1dbf 35b2 efbe 75d7 fbbd 8f1c e03d
000001c0: 8271 54be 40b8 93be 3956 8ebe 5a2f dcbe
000001d0: 6c27 16bf 3dbe 1fbe 9109 01bf ca54 b0bd
000001e0: 8547 cbbe 1af6 59bd 4a85 9bbe 7658 09be
000001f0: bdd0 a2be 2bea 51be 1e92 123e dd4d 7abe
00000200: d848 c53d 18ee dc3d 3dbc 603d 77ad 023e
00000210: a741 c5be 9cc3 0cbd 496e 92be 4fd2 2dbe
00000220: 8d28 73be 02b4 dbbd ccb7 6fbd 116f 80be
00000230: 233d a5be fe3b 9abe c5a2 303e a1d0 02be
00000240: 6508 063e 60b0 6abe 7868 bfbe 158d a9bd
00000250: a838 28be 9a39 483d b46f 203d 572f 2bbe
00000260: 74f7 4ebe d11d c7be 22d4 f13d 102b 08bf
00000270: 5c93 56be d81f 73be 65cf 193e 046f 1cbe
00000280: 0eb5 0e3e b0a5 b33d 37cc f0be f374 b2bd
00000290: 61cc 433d ba29 dbbe 9b11 b7bd 9123 edbd
000002a0: c807 bdbe b676 03be 336f 63be 7f8d 073d
000002b0: 3421 adbd 3c64 5cbe ed4b d3be 3586 1abf
000002c0: f91c 6fbe 39d8 9f3b 976f 553e 6f41 a8be
000002d0: f6ef 543e 6005 5cbd 5ef4 44be 9d88 93bc
000002e0: d27f 87bd 756f 11be db49 b4be 2bc1 233e
000002f0: 61aa e0be 6ede 653e 6bc2 fbbd 03da 3d3e
00000300: 7d6a 61bd 582d 6b3b 3639 2e3e 1269 e23d
00000310: 8b98 b2be ec3c d8be 8751 65be ef28 033d
00000320: 38be 453e dcca bd3d 29c9 e2be cff3 29be
00000330: 010f e93c de28 9ebe e2d0 9dbe 59f3 023e
00000340: 2c2d c1be f69d 9e3e dfd7 39be 25f7 52bc
00000350: 25b9 96be b5c6 2cbe 8c83 5f3e 5d0d 39be
00000360: 3702 49be cea5 9dbe 91a3 2f3d d8a8 5ebe
00000370: c8a3 193e 565a fc3d ac19 9ebe 90a3 813d
00000380: 10e7 ef3d 51fa 20bd efd9 003e 3c6a 6abe
00000390: 5298 bdbe d213 213e 15c4 0bbd 3182 82be
000003a0: dee6 0bbe c72f 093c 3753 a03c 05a9 5f3d
000003b0: b8fa ab3d 978b 493e 81c2 84be 2e2c 8abe
000003c0: 69f0 6d3d 3e9a 21bd d075 603d c7c8 89be
000003d0: 3f18 90bd 83bd 613e 7529 443e 4d76 413d
000003e0: f1c9 da3d f77b 8d3d 0f90 05be e0b9 66bd
000003f0: ba99 223d 4018 1fbc 9487 97bc aafe 82be
-0.37865794 -0.57782453 -0.32379603 -0.36661473 -0.10569014 -0.16314463 -0.14269465 0.09124335
0.035023063 -0.38198987 -0.49007913 -0.44713232 -0.24575382 -0.33657157 -0.45201975 0.10191512
-0.30164766 0.15661283 -0.35613152 0.17466776 -0.29265788 -0.14082156 -0.31947732 0.12032571
0.10183657 -0.40434474 -0.034710925 -0.33044767 -0.31836236 0.09180037 -0.53589547 0.27589846
-0.41425732 0.02955959 -0.28258792 -0.5287678 0.09160774 0.1923453 -0.30109787 -0.30617285
-0.27796417 -0.11416081 -0.4948028 -0.3438633 0.13164468 -0.14660043 -0.21082444 -0.42510235
-0.15053242 -0.395851 -0.28346306 -0.40127847 -0.057196345 -0.14181109 -0.040379845 -0.53114563
-0.4524399 0.24375275 -0.41193554 -0.51649773 -0.58366 -0.48540902 -0.5718531 -0.33997083
-0.36071858 -0.3585146 -0.43248132 -0.3129042 -0.20991567 -0.42922264 -0.26780748 -0.21840279
-0.07629652 -0.49486372 -0.57732475 0.02476464 -0.555475 -0.17398687 -0.10911209 -0.20804182
-0.23763502 0.18640898 -0.17427899 -0.37399468 -0.06266716 -0.39795667 -0.20851946 0.06386575
0.078120805 -0.092353895 -0.242842 0.09471483 -0.11744741 0.02848458 -0.12641613 0.16556346
-0.2652306 -0.4936849 -0.6204699 -0.079520844 -0.114567734 -0.43017393 -0.63252956 0.2789657
0.038958773 0.19686906 -0.43084165 -0.32137263 -0.6162846 -0.4681565 -0.122969545 0.10942947
-0.20746425 -0.2885151 -0.27800158 -0.43004876 -0.58653903 -0.15599914 -0.5040522 -0.08609922
-0.39703003 -0.053213216 -0.3037513 -0.13412651 -0.3179988 -0.20499484 0.14313552 -0.24443765
0.096330345 0.107876 0.054867018 0.12761484 -0.3852665 -0.034366235 -0.28599766 -0.16974758
-0.23745938 -0.10727693 -0.05852489 -0.25084737 -0.32273206 -0.30123895 0.17249592 -0.12774898
0.1308914 -0.22918844 -0.3738439 -0.082788624 -0.16427863 0.048883058 0.03916903 -0.16717277
-0.20211583 -0.38889936 0.11808039 -0.5319071 -0.2095465 -0.23742616 0.15020521 -0.15276724
0.13936254 0.08771837 -0.47030804 -0.087137125 0.047802333 -0.42805272 -0.08938905 -0.115790494
-0.3692 -0.12838253 -0.22210388 0.033093926 -0.084535986 -0.21522611 -0.41268864 -0.60361034
-0.23350896 0.0048780707 0.2084335 -0.32862422 0.20794663 -0.053716063 -0.19233844 -0.018009478
-0.06616177 -0.14202674 -0.35212597 0.15991656 -0.4387999 0.22448131 -0.12292942 0.18540196
-0.055033196 0.0035885181 0.17014012 0.11055197 -0.34882006 -0.4223398 -0.22394381 0.03202146
0.19310844 0.09267208 -0.44294098 -0.16596912 0.028449537 -0.30890554 -0.30823427 0.12788142
-0.37729776 0.3097989 -0.18148755 -0.012876307 -0.2943813 -0.16872676 0.21827525 -0.18071504
-0.19629751 -0.3079056 0.0428806 -0.21744096 0.15003884 0.12321918 -0.3087896 0.06330025
0.117139935 -0.03930122 0.12583135 -0.22892088 -0.37030274 0.15730217 -0.034122545 -0.25489953
-0.13662288 0.008373207 0.01957093 0.05460455 0.0839743 0.19682156 -0.25929645 -0.2698683
0.0580906 -0.039453737 0.054799855 -0.26910993 -0.070358746 0.22044949 0.1915644 0.04723196
0.106830485 0.0690841 -0.13043235 -0.056329608 0.039697386 -0.0097103715 -0.018497266 -0.25584918

fc2.bias f4 [128]
00000000: d674 693f ce75 9c3e 462e a6bf 6673 b0bf
00000010: 7384 6dbd 360a 9dbe aac2 fb3e 72d9 bc3e
00000020: 36c3 7fbd dbe2 c4bf 3b3c 693f 60b5 1c3e
00000030: ef74 403e 71d2 1b3f 3603 3b3f 2773 9abf
00000040: f590 e2be 9093 37bf 1bf1 43bf b9e3 f33e
00000050: b2c1 493d a733 d1be 2fb4 7bbe 4cdc 82be
00000060: 891a 803c 3d79 2f3f 964e c33e c3f2 773d
00000070: 1bfb 2d3e aa74 d2be 10c3 e3be 06eb 7dbf
00000080: 05c6 42bf afba 383f cb7c bebf 3584 7ebf
00000090: 3215 183f 1484 21bf 4f48 1abf d06e d53e
000000a0: bd63 64bf 0e50 d23e 500b 9d3f 9bef 24be
000000b0: 2586 d5be 630a 0fbf eb22 883e c345 543f
000000c0: e5ce 783d 69e6 8abf b61f 05bf c645 5ebf
000000d0: 80d2 db3b fbc4 48be 2980 4cbf b527 81bf
000000e0: 6ba1 8dbf 5df6 b93e ac0d c0be 6b86 733f
000000f0: c5b9 12bf 10fb 8abe 6aa8 d7be d8e4 65bf
00000100: 8af6 81bf dfe6 13bd 6aeb ddbe 7ade 73bd
00000110: 91a5 d0bf f706 51bf 6d8e 353c 4b97 573f
00000120: c664 293f c541 923e a8e5 8abf 9872 82be
00000130: 8020 39bf ed31 5abf f897 833e 15b7 78be
00000140: 0557 a2bf 4371 bfbd aa37 33bf fddd 93bf
00000150: fff4 413f dded 1d3f 76b9 923f 2a2b 4cbe
00000160: d2a4 863f a6a2 51be e4a7 08bf 98f8 19bf
00000170: b8b4 a03f 6410 b33d 6c76 823e dddd a3be
00000180: 41d4 20bf fbad 5dbf edd1 4bbe c666 2dbf
00000190: 6856 b7be b0c2 ebbc f617 5ebf 250c a1bf
000001a0: be9e 813e 9790 cabd 7349 93bf 84bc 88be
000001b0: 9efc 46bf 033f ccbe 9cf5 e83e 8efa e8be
000001c0: f001 b7be a51d 683e 3228 40bf a974 d43e
000001d0: 0c09 23bf 17f6 833f e0fc a03e 71fa 96bd
000001e0: 7491 c93e fd86 ebbc 042a 813f 3abe 2b3f
000001f0: bf23 46bc 0e7f 6d3e 2ae3 353f cf90 68bc
0.911939 0.30558628 -1.2982872 -1.3785217 -0.05798764 -0.30671853 0.49171954 0.36884648
-0.062442027 -1.5381731 0.9110753 0.15303564 0.18794607 0.60867983 0.73051775 -1.2066392
-0.44251218 -0.7170954 -0.7653977 0.47634676 0.049256988 -0.4085972 -0.24580453 -0.25558698
0.015637653 0.6854437 0.38145894 0.06053425 0.1699032 -0.41104633 -0.44484758 -0.9918674
-0.76083404 0.72159857 -1.4881834 -0.9942048 0.5940734 -0.6309216 -0.60266584 0.41686106
-0.8921469 0.41076702 1.2269077 -0.16107027 -0.41703907 -0.55875224 0.2658914 0.8291895
0.060744185 -1.0851566 -0.5200151 -0.86825216 0.006708443 -0.19606392 -0.79883057 -1.0090243
-1.1064886 0.36320773 -0.3751043 0.9512698 -0.5731471 -0.2714467 -0.42120677 -0.8980231
-1.0153363 -0.036108848 -0.4334367 -0.059538342 -1.6300527 -0.8165125 0.01108132 0.8421523
0.66169393 0.28565803 -1.0851336 -0.25478053 -0.72315216 -0.8523243 0.2570188 -0.2428859
-1.2682806 -0.09347775 -0.7000681 -1.155212 0.7576446 0.61691076 1.1462848 -0.19938341
1.0519049 -0.20472202 -0.5338118 -0.6014495 1.2555151 0.08743361 0.25480974 -0.32005206
-0.62823874 -0.865936 -0.19904299 -0.67734945 -0.3580811 -0.028779358 -0.8675531 -1.2581831
0.25316423 -0.098908596 -1.150679 -0.26706326 -0.77729213 -0.39891824 0.45499885 -0.45503658
-0.35743666 0.22667558 -0.75061333 0.41495255 -0.6368568 1.0309476 0.31442928 -0.07371987
0.39368784 -0.02875089 1.0090947 0.6708714 -0.0120934835 0.23192999 0.7104975 -0.014194681

fc3.weight f4 [10, 128]
00000000: 20c4 8dbe 3064 d0bd 1383 2e3e d614 3cbe
00000010: f65e 2f3e 66fc 81be 29ba 35be 079e 18be
00000020: 61f6 283e e812 49be 6337 f6bd 4726 44bd
00000030: 4280 24bd 63ec 693d e1a0 36be 1a86 0c3e
00000040: e270 d43e ab00 9cbe 6780 a83e 16f1 8dbe
00000050: b7af 9d3d 250f 40be a300 763e dee6 503e
00000060: c4be 0fbf 797e bdbe 63d0 843e 5da9 403e
00000070: 4dd5 6ebe 7034 793e 0112 a7be be70 90be
00000080: a97e a63e 9f02 063d 30cc 08bf 69b5 a2be
00000090: ef8c d7bd 3f17 c43d 8c52 57be 82aa b0be
000000a0: b706 fb3d d34b b1be 0891 58be 333b d93e
000000b0: 3a21 a33d 8f05 91bc f855 76bd 1d51 b9be
000000c0: 27e1 de3e 8888 4c3e 2092 023f 059b d03e
000000d0: 1d03 bc3d edaa 04bf 38e4 08be 8d29 ccbe
000000e0: 4fc3 f2bd c16b a9be b051 bb3e 6dae 82be
000000f0: 7a6a 463e dc1c c9bb d570 bdbe b5c2 643e
00000100: ced3 b0be dac5 3ebe d6f7 57bd 6a64 bb3e
00000110: ebfc c03d 7dbd 813e 65c9 403d ec37 9bbc
00000120: ffa4 83be 2300 563d 7e9c 8ebe 0dee 433e
00000130: 6170 923e 6ce5 b5bd ab87 98be 9f56 c93d
00000140: 84de 8a3c eb6b 89bd 902e 8b3e 3da4 a33e
00000150: b6df debd a13f f5bd 0e65 5bbd a27d 46be
00000160: 4174 183e 2e15 12bf f362 66bd bf9f 58be
00000170: 2c8c d63b 273f 3d3e 3da0 71be 450a d23e
00000180: 9467 353e 5916 1fbe 5dde 9e3e f824 7bbe
00000190: 7b86 b03d a0d2 0b3e 6652 963e 9579 32be
000001a0: 31d8 88be fde8 0e3e c012 b23c e3dd e0bc
000001b0: d02d 903e c3eb b93e 1a50 36be f4c0 bdbc
000001c0: b264 8e3e eedf 8fbe 875b 4cbd 790d 45be
000001d0: 7464 e3be a831 9dbd d33f 22be 21d8 90bc
000001e0: abf3 afbe 38bb fa3d dc12 5bbe e56d b83d
000001f0: ab4f 82be 1748 0b3c e2ba abbe a146 c23e
00000200: 4b05 b53e 2492 7e3a bfb7 a93c 8249 38bb
00000210: 3fe4 16be 7208 85be da93 013f 344f 5d3d
00000220: 11f2 ba3d 3eaf dd3d d68e 853e bada 4dbe
00000230: 72a7 c43e ae75 cf3e 4a87 f8bd 8543 9abc
00000240: 5c98 39be 22b9 7f3d 3ca5 93bc 4c1c b93e
00000250: e20a 1f3e 2393 633d cb9d 803e b2a8 a63d
00000260: 7c6b 233e 6924 4e3e dd76 c43e 6356 d73d
00000270: 8e1b 2f3d b516 e53c ffbe 893e 4068 90be
00000280: 0e09 4dbd a89a 583e 85df 483e 3cca 9e3d
00000290: 72fe e63e ae6a a83e 53c0 8b3e 3804 25be
000002a0: 9544 d8bc 0493 053f c5b4 073f ee54 2c3e
000002b0: 0496 a83e 79cf 39bd 9086 a2bd 38e2 b63e
000002c0: 3d6e 533e 80d8 293d 2c65 0d3e 0e60 2c3d
000002d0: 63b6 8c3e 9a80 5f3b 36e1 8b3d b9ae 0c3e
000002e0: 44c2 3bbd a5b6 943e b159 bb3c 443c ed3e
000002f0: 5aea 83bd 6816 0f3d 1c83 1c3e 1edc 0e3e
00000300: 0441 32be ce34 9bbe 786b 623e 60df 28bc
00000310: 4d1f 67bd bae3 79bb 81a0 37be 0437 323e
00000320: 39ea 173f 71ed 0abd b174 f83c 9dd1 e1bc
00000330: 2dc2 903e 245d 453e acfb a83e 8d21 9c3d
00000340: 813b 2c3c 2365 83be 61c8 c43d 437e 94bd
00000350: 39bf 383e 58f0 e83e d07a 203e bf1c 5a3e
00000360: e6cb ef3d 2304 813e e369 193c 4944 853a
00000370: 2cbe bc3e 2a4c 61be 9b14 21be ca7a ccbd
00000380: a023 903e 6400 4c3e 2de2 08bd b1bf babd
00000390: ab4b 0c3e 73fc 69be 76d6 95bb 185c c2bc
000003a0: 4e0f 30be ec8b 59be a03e 69be e1e8 dc3e
000003b0: a678 103e c375 033e e02b 2bbe c8be b5be
000003c0: 81ed 393d 7670 a3be 7eda 51bd 32da 1b3e
000003d0: d880 793e b3a1 db3e 26e3 943e ae48 b2bc
000003e0: 8d57 9a3e a80f a33d c0a2 c93e 6f97 093f
000003f0: 4f8a 833c 3836 b1be 012f 1c3f 7c47 8b3e
-0.27688694 -0.10175359 0.17042188 -0.18367323 0.17126068 -0.25387877 -0.17746796 -0.14904033
0.16500236 -0.19636118 -0.12022283 -0.047888067 -0.04016138 0.0571102 -0.17834808 0.1372303
0.41492373 -0.3046926 0.32910463 -0.27722996 0.076995306 -0.18755777 0.2402368 0.20400569
-0.5615046 -0.37010553 0.25940236 0.18814607 -0.23323555 0.2433641 -0.32630923 -0.28211015
0.3251851 0.032717343 -0.53436565 -0.3177903 -0.10524928 0.09574746 -0.21027583 -0.34505087
0.1225714 -0.34628162 -0.21149075 0.42427978 0.07965322 -0.017702846 -0.06014058 -0.36194697
0.43531153 0.19973958 0.5100422 0.4074327 0.09180281 -0.5182331 -0.13368309 -0.3987545
-0.118536584 -0.33090022 0.3658576 -0.255237 0.19376555 -0.0061374735 -0.37000147 0.223399
-0.34536594 -0.18630162 -0.05272659 0.36600047 0.0942324 0.2533988 0.047067065 -0.018947564
-0.2571182 0.052246224 -0.2785377 0.19133778 0.28601363 -0.088816494 -0.29791006 0.09830975
0.016951807 -0.06710037 0.27183962 0.3196124 -0.10882513 -0.11975027 -0.05356317 -0.19383863
0.14888097 -0.5706357 -0.05624671 -0.21154688 0.0065474715 0.18481122 -0.23596282 0.4102346
0.17715293 -0.15535869 0.31029025 -0.24525821 0.086194 0.13654566 0.2935974 -0.17429192
-0.2672744 0.13956065 0.021737456 -0.027449554 0.28159952 0.36312684 -0.17803994 -0.023163296
0.278112 -0.28100532 -0.049891975 -0.1924342 -0.44412577 -0.07675487 -0.1584466 -0.017681183
-0.3436559 0.122427404 -0.21393913 0.09005336 -0.25451407 0.008501074 -0.33541018 0.3794451
0.353556 0.00097111077 0.0207175 -0.0028119986 -0.14735506 -0.25983006 0.5061623 0.054030612
0.09128202 0.108244404 0.26085538 -0.20102969 0.38409 0.4051947 -0.12135179 -0.018831024
-0.18124527 0.062432416 -0.018023126 0.361544 0.15531495 0.055560242 0.25120386 0.08137645
0.15958971 0.20131077 0.38371935 0.10514524 0.042750888 0.02796493 0.2690353 -0.28204536
-0.050057463 0.21152747 0.19616516 0.07753417 0.45116 0.3289389 0.2729517 -0.1611489
-0.02639989 0.52177453 0.5301021 0.16829273 0.32926953 -0.045363877 -0.07935822 0.35719466
0.20647521 0.041466236 0.13808125 0.042083792 0.274829 0.0034103752 0.06830065 0.13738526
-0.045839563 0.29045597 0.022869917 0.46335042 -0.064411834 0.034933478 0.1528439 0.13951156
-0.17407614 -0.30313724 0.22111309 -0.010307163 -0.056426335 -0.003813012 -0.17932321 0.174038
0.5934177 -0.033917848 0.03032908 -0.027565772 0.28273144 0.19273812 0.3300451 0.07623587
0.010512234 -0.256631 0.09608532 -0.07250645 0.18041696 0.45495868 0.15671849 0.21300028
0.117088124 0.2519847 0.009363624 0.0010167445 0.3686384 -0.2200171 -0.15730517 -0.09984358
0.2815218 0.19922024 -0.033418823 -0.091185935 0.1370074 -0.22850208 -0.004572685 -0.023725554
-0.17193338 -0.21244782 -0.22777796 0.43146423 0.14108524 0.12837891 -0.16715956 -0.35497117
0.045392517 -0.31921738 -0.05123376 0.15219954 0.24365556 0.42896804 0.2907955 -0.021763172
0.3014492 0.079619706 0.3938198 0.53746694 0.016057162 -0.34611678 0.6100922 0.27202976

fc3.bias f4 [10]
00000000: f9ef a73f 7c62 5bbf 1bc1 c7bf 7ea3 f93e
00000010: 1f75 873e 2b90 55bf 1737 39bf e556 e73f
00000020: 63af 4abf b9bb 4e3f
1.3120109 -0.8569715 -1.5605806 0.48757547 0.26456544 -0.8342311 -0.72349685 1.8073393
-0.7917387 0.8075519
