ckpt/model_epoch39.pth (torch, 106247 bytes, 6 tensors)

fc1.weight f4 [128, 63]
-0.06265514 -0.04932651 -0.087580085 0.09501472 -0.047960088 0.07226309 -0.111056864 -0.0104171485
-0.04823885 -0.057398282 -0.039361194 -0.059192285 0.11101279 0.123877704 -0.03871063 0.081737205
-0.10455388 0.004233524 -0.042304985 -0.066006176 -0.124215364 -0.016664736 0.09058398 -0.0025927648
0.023623317 -0.0075958967 -0.08945046 0.043143407 -0.06889093 0.074851856 0.05520861 0.07068011
-0.089298986 -0.09894498 -0.097617134 0.07076791 -0.073556095 0.10080364 -0.11525428 -0.1205928
0.012988672 0.012607664 0.030887023 0.0585472 -0.11089729 -0.04889901 -0.049178995 0.08661993
-0.00337293 -0.12040442 0.089727744 -0.037398256 0.045283407 -0.022791676 0.008122787 -0.099381186
0.0047377497 -0.10106617 -0.098434314 -0.07903739 0.054539368 0.11656654 0.0858634 0.14413863
-0.2921827 -0.16574489 0.08957675 -0.2904444 0.10572737 -0.081630416 -0.10401008 0.15172897
-0.11936931 -0.086809576 -0.05059209 0.19362415 -0.010426446 -0.09884783 0.015838766 -0.18221043
0.42986614 -0.036863744 0.11011912 0.20702799 0.12966143 0.22328523 -0.09133592 0.29502022
0.27815968 0.0048654354 -0.019050155 -0.018360268 0.18388523 -0.057459485 0.11655595 -0.4615615
-0.10668927 -0.43853837 -0.22181171 -0.13135964 -0.8045095 0.17841917 -0.03713217 0.112508066
-0.028774315 -0.077448584 0.1283602 0.15167043 -0.11769767 0.03794247 0.11566045 0.057279676
-0.21312767 -0.00014007888 0.17460181 0.008307567 -0.104471974 0.14645058 0.07809022 0.10336521
0.040009808 0.066865705 0.1792219 0.12795688 0.09357131 -0.14702486 -0.059640143 0.050383925
0.017986953 -0.08445131 0.09042035 -0.025526268 -0.11279191 -0.046037234 0.042808406 -0.10700961
0.06425366 -0.029299902 -0.12975714 -0.12853 -0.11668775 -0.056819547 0.08090457 0.08968259
-0.008915261 -0.09074573 -0.049810737 -0.072769456 0.07391778 -0.060944784 0.09103207 -0.0015520521
0.09562631 0.003040156 -0.050307143 -0.026550628 0.052737318 -0.10834616 0.04389159 0.07520583
-0.12149157 -0.043017257 -0.08085692 0.0129953595 -0.029054485 0.0018631704 0.008282309 0.094223805
-0.10702155 0.0008241373 -0.015536188 -0.052744567 0.0019000529 -0.11360509 -0.12531531 0.043713607
-0.09036387 0.08328597 0.020871049 -0.053260036 0.04697009 0.10145749 0.07271816 0.05781459
0.06775341 0.05609154 -0.057442885 0.051791478 -0.0677043 0.034756344 0.018333128 -0.079363935
0.08817858 -0.0039443914 0.120019786 0.006572992 0.11773202 -0.009443972 0.054177962 -0.16701119
-0.08959577 -0.0645693 -0.23160124 -0.09874059 0.05765651 -0.018951254 0.09476109 0.107057564
0.13355345 -0.024204781 0.03421602 0.09298818 -0.015205644 0.02887213 -0.06963786 0.018178653
-0.14472894 0.09455205 0.07062363 -0.10631347 0.06528906 0.09920009 -0.10965512 -0.028450463
-0.040078428 -0.27784008 -0.066385746 -0.011097513 -0.15461797 0.02798655 0.018939633 -0.08469068
0.16972359 0.009337341 -0.08943437 0.12178354 -0.18954438 -0.07531368 0.059260037 0.03690264
-0.117117114 -0.038005948 0.14143987 -0.1258069 -0.034520995 -0.17372574 0.15105549 0.11401333
-0.13138057 0.23591544 -0.1355802 0.049554184 -0.015562391 0.06874599 0.20137478 -0.08370368
00000000: 5751 80bd 980a 4abd 305d b3bd 1497 c23d
00000010: cc71 44bd acfe 933d c871 e3bd b0ac 2abc
00000020: 1a96 45bd 761a 6bbd 3439 21bd 9c73 72bd
00000030: ac5a e33d 98b3 fd3d 0a8f 1ebd d665 a73d
00000040: 5820 d6bd 60b9 8a3b fe47 2dbd 3f2e 87bd
00000050: a064 febd 7c84 88bc 1884 b93d 60eb 29bb
00000060: b085 c13c 00e7 f8bb ce31 b7bd 24b7 303d
00000070: b016 8dbd ee4b 993d 6c22 623d bcc0 903d
00000080: 63e2 b6bd aaa3 cabd 7eeb c7bd c4ee 903d
00000090: 94a4 96bd 2472 ce3d 700a ecbd 5cf9 f6bd
000000a0: 70ce 543c 6090 4e3c c806 fd3c 30cf 6f3d
000000b0: 1e1e e3bd 544a 48bd ea6f 49bd ca65 b13d
000000c0: 600c 5dbb 9896 f6bd 2ec3 b73d ea2e 19bd
000000d0: 187b 393d 9cb5 babc 7015 053c 5d88 cbbd
000000e0: 203f 9b3b c8fb cebd ee97 c9bd 5bde a1bd
000000f0: ac64 5f3d 70ba ee3d 26d9 af3d 1499 133e
00000100: f998 95be 07b9 29be 0474 b73d 21b5 94be
00000110: 9787 d83d d92d a7bd 3d03 d5bd d75e 1b3e
00000120: e677 f4bd 38c9 b1bd a739 4fbd 6945 463e
00000130: afd3 2abc bb70 cabd 4dc0 813c 5f95 3abe
00000140: 6a17 dc3e 70fe 16bd 2286 e13d 25ff 533e
00000150: f7c5 043e e2a4 643e 540e bbbd e40c 973e
00000160: f26a 8e3e 3b6e 9f3b 120f 9cbc 4668 96bc
00000170: 694c 3c3e a35a 6bbd e3b4 ee3d ca51 ecbe
00000180: e77f dabd 1a88 e0be 9c22 63be 2483 06be
00000190: 56f4 4dbf 84b3 363e e717 18bd a16a e63d
000001a0: 1db8 ebbc 5d9d 9ebd db70 033e 7e4f 1b3e
000001b0: 7a0b f1bd 9069 1b3d 63df ec3d 189e 6a3d
000001c0: 243e 5abe 23e2 12b9 d1ca 323e 761c 083c
000001d0: 67f5 d5bd 24f7 153e c4ed 9f3d 24b1 d33d
000001e0: 53e1 233d e3f0 883d f285 373e 2107 033e
000001f0: 51a2 bf3d af8d 16be 3949 74bd 605f 4e3d
00000200: 6059 933c cff4 acbd 4e2e b93d 771c d1bc
00000210: 72ff e6bd 8a91 3cbd de57 2f3d db27 dbbd
00000220: 6c97 833d 5906 f0bc 0edf 04be 5e9d 03be
00000230: fdf9 eebd 9dbb 68bd 4cb1 a53d 81ab b73d
00000240: 5111 12bc e6d8 b9bd 5806 4cbd 2708 95bd
00000250: 3462 973d 3da1 79bd 066f ba3d 3a6e cbba
00000260: bad7 c33d 5b3d 473b dd0e 4ebd b480 d9bc
00000270: 1603 583d 97e4 ddbd abc7 333d 8405 9a3d
00000280: 92d0 f8bd dd32 30bd 5098 a5bd 7dea 543c
00000290: ac03 eebc a035 f43a 86b2 073c 69f8 c03d
000002a0: 1d2e dbbd eb0a 583a 7f8b 7ebc b00a 58bd
000002b0: 320b f93a c9a9 e8bd a852 00be 0a0d 333d
000002c0: b110 b9bd d691 aa3d c3f9 aa3c 3227 5abd
000002d0: b663 403d f2c8 cf3d 42ed 943d fece 6c3d
000002e0: 4dc2 8a3d 3ec0 653d 3b49 6bbd 4d23 543d
000002f0: 8da8 8abd ab5c 0e3d 5b2f 963c 8f89 a2bd
00000300: f996 b43d f43f 81bb efcc f53d 4162 d73b
00000310: 7c1d f13d e4ba 1abc b6e9 5d3d fb04 2bbe
00000320: fd7d b7bd e93c 84bd e028 6dbe 8238 cabd
00000330: 3c29 6c3d a93f 9bbc 1a12 c23d ff40 db3d
00000340: 3cc2 083e 1b49 c6bc 1926 0c3d 9670 be3d
00000350: 1821 79bc 3f85 ec3c 4b9e 8ebd 66eb 943c
00000360: d333 14be 81a4 c13d 1fa3 903d e0ba d9bd
00000370: 45b6 853d 6b29 cb3d dd92 e0bd f210 e9bc
00000380: 4729 24bd 0e41 8ebe 40f5 87bd 58d2 35bc
00000390: 2c54 1ebe 0d44 e53c 4a27 9b3c 4f72 adbd
000003a0: 05cc 2d3e a6fb 183c 5e29 b7bd a669 f93d
000003b0: ec17 42be 0f3e 9abd a7ba 723d 3927 173d
000003c0: 19db efbd 20ac 1bbd 9dd5 103e 86d3 00be
000003d0: e365 0dbd 29e5 31be 4aae 1a3e d27f e93d
000003e0: a188 06be d193 713e 89d5 0abe 54f9 4a3d
000003f0: 66f9 7ebc b3ca 8c3d 3135 4e3e d66c abbd

fc1.bias f4 [128]
0.044922188 -0.12775782 -0.12624021 -0.016462939 0.075037874 0.15899281 -0.0038915214 -0.22453433
0.12483552 -0.06318849 -0.07538042 -0.11016642 -0.005075492 -0.091971695 -0.11091192 0.061264187
0.10195779 -0.12655765 -0.116407216 0.023848962 0.009668692 0.009139912 -0.088307835 -0.0684476
-0.1087921 0.13031904 -0.036571573 -0.095197745 -0.016675511 0.011275481 0.21589658 -0.06316256
0.17092724 -0.109146565 -0.13517942 -0.10417525 -0.07887973 0.12934554 -0.15977977 -0.0048261182
-0.21202728 0.043774072 0.036885217 -0.034904867 0.0317899 -0.07483127 0.010831341 -0.11328729
0.100746036 0.12429108 0.0128071485 -0.06319926 0.017851463 -0.23936203 -0.09991132 0.063771985
-0.009199297 -0.15860422 0.11354631 -0.035600968 0.002080739 -0.19905972 -0.005768465 -0.19918415
-0.040873837 0.025936002 -0.007975203 -0.03842824 0.1388512 -0.12740803 0.12572058 -0.06494997
-0.076717384 -0.10852049 -0.31247208 -0.007884399 -0.124972135 0.037372217 0.040507026 -0.22310394
-0.07591542 -0.16076712 0.011378498 -0.053447455 0.0338558 -0.060763896 -0.1696429 -0.3520562
0.07096492 -0.118286476 -0.13860214 0.08022664 -0.024930831 -0.12713882 -0.060233198 0.05578808
0.124819346 -0.25158903 0.035008926 -0.10019684 0.13796838 -0.0039914907 0.021070452 0.0108169
0.11087129 -0.18212564 0.12487127 -0.007001145 0.03693089 -0.05599906 -0.07779337 0.3089365
0.1217017 0.08016607 0.052914795 0.18280667 -0.051891003 -0.099600464 -0.124431364 -0.05699021
0.07058899 0.07905324 -0.0718385 -0.08524938 0.053164918 -0.1371024 -0.08281844 0.09420657
00000000: 5400 383d f2d2 02be 1d45 01be 49dd 86bc
00000010: 75ad 993d 03cf 223e e508 7fbb 54ec 65be
00000020: c4a9 ff3d f868 81bd 0d61 9abd ef9e e1bd
00000030: 5050 a6bb a85b bcbd ca25 e3bd 28f0 7a3d
00000040: 3fcf d03d 5498 01be e866 eebd e65e c33c
00000050: 6f69 1e3c 92bf 153c bdda b4bd 412e 8cbd
00000060: 64ce debd 5b72 053e 13cc 15bd 09f7 c2bd
00000070: 159b 88bc ccbc 383c fe13 5d3e 5f5b 81bd
00000080: 8d07 2f3e 3c88 dfbd 796c 0abe d559 d5bd
00000090: b28b a1bd 2873 043e 4f9d 23be 6a24 9ebb
000000a0: ae1d 59be 714c 333d f414 173d 68f8 0ebd
000000b0: 2036 023d 2341 99bd f075 313c 2b03 e8bd
000000c0: f053 ce3d 528c fe3d 13d5 513c 9d6e 81bd
000000d0: 3b3d 923c 521b 75be 4e9e ccbd e39a 823d
000000e0: a6b8 16bc 2569 22be f88a e83d 52d2 11bd
000000f0: 025d 083b 50d6 4bbe 6405 bdbb eef6 4bbe
00000100: 536b 27bd bd77 d43c 6daa 02bc ee66 1dbd
00000110: 022f 0e3e 4077 02be e5bc 003e 7d04 85bd
00000120: 011e 9dbd fe3f debd 57fc 9fbe 912d 01bc
00000130: 64f1 ffbd 9c13 193d b2ea 253d 5c75 64be
00000140: 8b79 9bbd 23a0 24be e16c 3a3c b8eb 5abd
00000150: 61ac 0a3d 90e3 78bd deb6 2dbe b640 b4be
00000160: 0e56 913d 2e40 f2bd b8ed 0dbe dd4d a43d
00000170: be3b ccbc ae30 02be 16b7 76bd 0b82 643d
00000180: 49a1 ff3d 47d0 80be 8565 0f3d 0034 cdbd
00000190: 9547 0d3e 0dcb 82bb f19b ac3c 5e39 313c
000001a0: 7d10 e33d 257f 3abe 82bc ff3d dc69 e5bb
000001b0: d844 173d 455f 65bd 2152 9fbd ed2c 9e3e
000001c0: be3e f93d 1c2e a43d 2fbd 583d ac31 3b3e
000001d0: a98b 54bd 54fb cbbd dfd5 febd 916e 69bd
000001e0: f690 903d aae6 a13d 1020 93bd 3a97 aebd
000001f0: 75c3 593d 9264 0cbe b79c a9bd 60ef c03d

fc2.weight f4 [128, 128]
-0.05575737 0.02450161 -0.08117812 0.04451825 0.04025222 0.0067707864 0.0088595105 -0.040743772
0.054615267 0.01357393 -0.03629064 0.18644968 0.007551238 0.010823917 0.1025459 0.04361563
0.032532573 0.031686503 -0.07466494 0.021366615 -0.00023035005 0.038980678 0.08886779 -0.028126687
0.07882017 -0.047292594 0.009052038 -0.075956136 -0.0740225 0.015678244 0.14196733 -0.04945177
-0.007468033 0.08193922 0.13662022 -0.038013 -0.007658827 0.026717613 0.021279916 0.2350474
0.075599715 -0.1992865 0.22579922 -0.044354543 -0.0028430126 0.062190305 -0.08804761 0.1435968
0.013180709 -0.063650444 -0.020838268 0.10139088 0.19830735 0.030878125 -0.03818473 0.14303593
0.029934105 0.09398519 0.015162721 0.1565288 0.0074565676 0.06727302 -0.0046743616 -0.037516087
0.23739271 0.18866834 -0.057428237 -0.031393256 -0.043349594 0.14288536 0.073627375 0.022910777
0.020375885 0.056932725 -0.002021988 -0.020250015 0.00896451 -0.016476119 0.06325945 0.17931989
0.0675927 0.15039751 -0.13825424 0.025524393 0.24924193 -0.008171134 0.16547298 -0.044766475
0.009834386 0.074788004 0.05459938 -0.07071378 0.04905851 0.04760415 -0.05766162 0.015247894
-0.057495024 0.074276604 0.08582548 -0.14283682 -0.021260707 0.038256783 -0.12533496 0.067440644
0.10956837 0.1197327 -0.026633682 -0.009359235 0.116295815 0.006624512 0.06472539 -0.13254392
-0.06819184 -0.0722229 0.099500634 -0.057331916 -0.16843784 0.14546616 -0.054009113 -0.051137153
-0.078317985 0.21413599 0.10596949 -0.060943805 -0.1626135 0.171242 0.010916159 -0.050331313
0.062236644 -0.06511454 0.013480758 -0.04973392 -0.0314659 -0.051825434 0.04561337 -0.069055706
0.057832934 0.043102812 -0.028044567 -0.06822389 0.01635342 0.020550378 -0.056891114 0.052867986
-0.05186177 -0.012992793 0.03204907 0.025002804 -0.009631211 -0.0035747518 -0.086760096 -0.08832148
-0.07652807 0.0908102 0.0667756 0.050953437 -0.0152863525 0.014797534 0.123424016 0.05351257
0.0069403322 -0.042648375 -0.075173944 -0.00091929006 -0.08132824 -0.03032688 0.072861105 -0.08171357
-0.006661114 0.042310007 -0.039398946 -0.035617646 0.07690928 0.024477603 -0.040739924 0.026007162
0.0027539467 -0.024805611 -0.09021305 -0.0025708384 -0.04216332 -0.0008035665 0.070434816 0.05964589
-0.021468109 0.037966177 0.010820583 0.075425275 0.028601995 -0.04593001 -0.0019221938 0.06808944
0.021052927 -0.02258554 0.03517693 -0.0038739976 0.020179166 0.028203705 0.0059514376 0.039975397
-0.0022791293 -0.03640713 -0.09329049 -0.045098063 0.0013119916 0.045820683 -0.0038475937 -0.035410464
-0.037223015 -0.007978687 -0.005037035 0.054495953 0.039709367 -0.061785024 0.07713084 0.0070828707
-0.03411153 -0.07435981 0.010041671 -0.010825094 -0.05277808 -0.047555085 -0.0010258654 -0.040237226
-0.05044506 0.03137231 0.08258206 -0.048025712 -0.038065996 0.025280334 -0.012376696 -0.04014825
-0.07333398 -0.054337855 0.07564105 -0.0064678174 -0.038541574 -0.045841597 0.046866164 -0.08750935
-0.061036266 0.034292128 0.0003477954 -0.04412403 -0.07503076 -0.07026863 -0.07098645 -0.0110332845
-0.09316392 -0.076327145 -0.05080796 0.0577664 -0.019937413 0.03225288 0.03884039 -0.015713671
00000000: d761 64bd 9ab7 c83c b740 a6bd c558 363d
00000010: 83df 243d 79dd dd3b 7b27 113c f1e2 26bd
00000020: 42b4 5f3d 3065 5e3c 7ea5 14bd aaec 3e3e
00000030: 6070 f73b cc56 313c 9603 d23d 4ea6 323d
00000040: e040 053d b5c9 013d efe9 98bd 0a09 af3c
00000050: 1f8a 71b9 34aa 1f3d 5100 b63d f069 e6bc
00000060: 786c a13d e1b5 41bd 004f 143c e48e 9bbd
00000070: 1c99 97bd a96f 803c e25f 113e f08d 4abd
00000080: 67b6 f4bb c0cf a73d 2ce6 0b3e 85b3 1bbd
00000090: e6f6 fabb e5de da3c 3853 ae3c 44b0 703e
000000a0: 06d4 9a3d c311 4cbe e937 673e 1cad 35bd
000000b0: d651 3abb 43bb 7e3d 4e52 b4bd 0a0b 133e
000000c0: e7f3 573c 2a5b 82bd 04b5 aabc 06a6 cf3d
000000d0: 1511 4b3e 1ff4 fc3c 9767 1cbd 0378 123e
000000e0: 5e38 f53c 4f7b c03d 106d 783c 1649 203e
000000f0: 3956 f43b 70c6 893d 632b 99bb 78aa 19bd
00000100: 1317 733e 4632 413e df39 6bbd 3796 00bd
00000110: 588f 31bd 8a50 123e f3c9 963d 62af bb3c
00000120: 54eb a63c 4a32 693d 5483 04bb 5ce3 a5bc
00000130: e1df 123c edf8 86bc 2c8e 813d a29f 373e
00000140: 0b6e 8a3d ce01 1a3e 8592 0dbe 8818 d13c
00000150: 4739 7f3e 38e0 05bc c071 293e 0d5d 37bd
00000160: 6820 213c 742a 993d 99a3 5f3d 63d2 90bd
00000170: 94f1 483d 92fc 423d 972e 6cbd 4ed2 793c
00000180: e77f 6bbd 551e 983d 45c5 af3d d143 12be
00000190: ef2a aebc 25b3 1c3d cf57 00be 521e 8a3d
000001a0: 6265 e03d 6b36 f53d e12e dabc 7a57 19bc
000001b0: 802c ee3d 6f12 d93b bf8e 843d 98b9 07be
000001c0: 2aa8 8bbd 9ae9 93bd fdc6 cb3d dfd4 6abd
000001d0: f87a 2cbe 15f5 143e a938 5dbd 3175 51bd
000001e0: 2e65 a0bd 7746 5b3e 8806 d93d 36a0 79bd
000001f0: 2784 26be 105a 2f3e b0d9 323c 3528 4ebd
00000200: daeb 7e3d c65a 85bd 66de 5c3c cbb5 4bbd
00000210: 63e2 00bd e846 54bd 16d5 3a3d 146d 8dbd
00000220: 3ae2 6c3d 938c 303d b8bd e5bc f8b8 8bbd
00000230: 9cf7 853c 4459 a83c a806 69bd 1a8c 583d
00000240: 026d 54bd b9df 54bc e345 033d aed2 cc3c
00000250: 3acc 1dbc 6246 6abb 47af b1bd e4e1 b4bd
00000260: c0ba 9cbd b3fa b93d a5c1 883d 8db4 503d
00000270: 9c73 7abc 5b71 723c bbc5 fc3d ff2f 5b3d
00000280: ba6b e33b 10b0 2ebd ccf4 99bd 83fc 70ba
00000290: 6c8f a6bd 1470 f8bc 3438 953d 7259 a7bd
000002a0: 7945 dabb 424d 2d3d ca60 21bd cfe3 11bd
000002b0: 9d82 9d3d 4185 c83c e8de 26bd f90c d53c
000002c0: 8f7b 343b 2335 cbbc 9fc1 b8bd 837b 28bb
000002d0: 72b3 2cbd 6fa6 52ba 2140 903d 404f 743d
000002e0: e3dd afbc 6c82 1b3d d148 313c 9178 9a3d
000002f0: bb4e ea3c 1b21 3cbd 1ff2 fbba 7a72 8b3d
00000300: 3077 ac3c 4f05 b9bc af15 103d e5e2 7dbb
00000310: c74e a53c 750b e73c 4704 c33b 3ebd 233d
00000320: 725d 15bb a51f 15bd 160f bfbd bfb8 38bd
00000330: 22f7 ab3a 78ae 3b3d e927 7cbb 900a 11bd
00000340: 2977 18bd 0ab9 02bc b60d a5bb 2637 5f3d
00000350: 4aa6 223d 4b12 7dbd c6f6 9d3d 6d17 e83b
00000360: 88b8 0bbd f549 98bd d285 243c bc5b 31bc
00000370: d42d 58bd 1fc9 42bd 5576 86ba cacf 24bd
00000380: 7b9f 4ebd 4080 003d c820 a93d 9cb6 44bd
00000390: 17eb 1bbd b418 cf3c a0c7 4abc 7e72 24bd
000003a0: 2030 96bd 5f91 5ebd b2e9 9a3d fcef d3bb
000003b0: c5dd 1dbd 66c4 3bbd bcf6 3f3d 1a38 b3bd
000003c0: 2a01 7abd e775 0c3d 4f58 b639 66bb 34bd
000003d0: baa9 99bd 00e9 8fbd 5861 91bd f3c4 34bc
000003e0: bacc bebd 6851 9cbd 021c 50bd 769c 6c3d
000003f0: c953 a3bc 991b 043d 1a17 1f3d f5b9 80bc

fc2.bias f4 [128]
-0.02664777 -0.0019081421 0.11205054 0.12944694 0.16663747 0.10085653 0.017545419 0.17529704
0.30964556 0.13941711 -0.032428663 0.027489962 0.059657086 0.003174363 0.109932795 0.09224225
0.033236496 0.02704596 0.23590125 0.022137893 -0.028440032 0.19423173 0.0809736 0.2270863
0.10158987 0.011159258 -0.00047826284 0.06544051 -0.03269495 0.17492704 0.042450584 0.11890193
0.086624555 0.20633334 0.11410536 0.1402557 0.089001484 0.30558646 0.09485952 -0.037059672
0.055986058 0.08599971 0.097111024 0.15233622 0.28820786 0.030044476 -0.067252114 -0.05917273
-0.031230034 0.13127545 0.14422745 0.029913886 -0.013096308 -0.039482586 0.10142125 0.26651043
-0.016628573 0.010746304 -0.06188448 0.17430776 0.24856219 0.014696658 0.19828917 0.10911493
0.17622106 0.05869602 0.091571674 -0.13306761 -0.06332729 0.21634646 0.1262189 0.1983527
0.051271096 0.050201915 0.2474297 0.054017756 -0.0038771438 -0.027003268 -0.025827583 -0.055225287
0.092789374 0.06509516 0.01774178 0.12446427 0.15030141 0.15540597 0.101172574 0.043027487
0.20148493 0.12450485 0.08843733 0.03701522 0.24329568 -0.08488278 0.30273145 0.064381205
-0.0780319 -0.07490143 0.2061752 0.120274186 0.18434843 0.13069108 -0.008986683 -0.03263384
0.12507254 0.265165 0.22815248 0.075538635 -0.008286564 -0.025296062 0.22342236 0.17309915
-0.02661744 0.027453363 0.22609498 -0.0012611431 -0.040892646 0.09375283 -0.0076899575 0.010719074
0.07148745 0.03884287 0.0050278483 0.048495393 -0.051344953 0.10240739 -0.012991401 0.13183253
00000000: 6d4c dabc a01a faba c17a e53d bd8d 043e
00000010: 03a3 2a3e de8d ce3d 69bb 8f3c 1181 333e
00000020: dd89 9e3e 5cc3 0e3e ebd3 04bd a132 e13c
00000030: fd5a 743d f908 503b 7224 e13d 81e9 bc3d
00000040: fe22 083d 7d8f dd3c 1990 713e 875a b53c
00000050: 12fb e8bc afe4 463e 7dd5 a53d 5089 683e
00000060: 5a0e d03d 52d5 363c 5abf fab9 ad05 863d
00000070: 24eb 05bd 1320 333e aae0 2d3d db82 f33d
00000080: 3768 b13d 0c49 533e 12b0 e93d 319f 0f3e
00000090: 6946 b63d d475 9c3e b545 c23d e2cb 17bd
000000a0: a351 653d 9e20 b03d 25e2 c63d 07fe 1b3e
000000b0: fb8f 933e d51f f63c 7abb 89bd 1b5f 72bd
000000c0: 21d6 ffbc 126d 063e 5cb0 133e f70d f53c
000000d0: e691 56bc 7eb8 21bd f2b5 cf3d 0e74 883e
000000e0: a538 88bc 4411 303c 957a 7dbd bc7d 323e
000000f0: 1687 7e3e 40ca 703c 510c 4b3e a677 df3d
00000100: 4b73 343e 3d6b 703d ee89 bb3d e042 08be
00000110: bdb1 81bd ed89 5d3e 873f 013e f81c 4b3e
00000120: a401 523d 86a0 4d3d 365e 7d3e b941 5d3d
00000130: ae17 7ebb f535 ddbc 5e94 d3bc e933 62bd
00000140: 5b08 be3d 9c50 853d 3657 913c 20e7 fe3d
00000150: 9de8 193e be22 1f3e 9133 cf3d 973d 303d
00000160: 1152 4e3e 66fc fe3d a21e b53d 459d 173d
00000170: 8122 793e 06d7 adbd 9eff 9a3e 4bda 833d
00000180: 30cf 9fbd ec65 99bd 971f 533e 5052 f63d
00000190: d6c5 3c3e e2d3 053e e13c 13bc 10ab 05bd
000001a0: 0413 003e b5c3 873e cea0 693e 00b4 9a3d
000001b0: 5ec4 07bc b039 cfbc d5c8 643e e740 313e
000001c0: d10c dabc e0e5 e03c 7185 673e f14c a5ba
000001d0: 0c7f 27bd 7c01 c03d 0afc fbbb 0e9f 2f3c
000001e0: 0368 923d b419 1f3d a6c0 a43b 1ba3 463d
000001f0: 164f 52bd f7ba d13d e3d9 54bc 1bff 063e

fc3.weight f4 [10, 128]
0.38418433 -0.06685002 0.3214811 -0.21987347 0.060166333 0.10148585 0.4220605 -0.13040805
-0.463121 0.20645238 0.38873038 0.2998138 -0.052534364 0.3716117 -0.041053683 -0.088779084
0.043408647 -0.03791454 -0.40717375 -0.07324365 -0.23588245 -0.23643617 0.32791635 0.2768424
0.14358468 0.10489569 0.0720529 0.1724059 0.17369366 0.11212311 0.40962538 -0.15992136
-0.10295564 0.0068199416 -0.058965154 0.14820296 0.19239673 -0.2836206 0.14694741 0.002025156
0.32786596 -0.14286159 0.25613293 0.24125648 -0.35857213 0.34357518 0.50197023 -0.059823815
-0.15681368 -0.014516973 -0.0037456667 0.07236095 0.13061103 0.42755356 -0.528224 -0.06970831
0.1554248 0.10062522 0.13475908 -0.059740778 0.20135134 -0.011146768 -0.22310753 -0.18701096
-0.19641654 0.386985 -0.11501527 0.42382228 0.06868381 -0.037563834 0.10824939 -0.32933068
0.4562934 0.15630963 -0.054285835 -0.50080466 0.3966524 0.4918637 0.42764586 -0.4185474
0.17546348 0.09125918 -0.33018038 0.104312696 0.39471793 0.25963882 0.37080637 0.42708695
-0.23250937 0.082772896 -0.3219014 0.23325455 -0.03814164 -0.04542913 -0.43241414 -0.26907083
0.087770075 0.46825126 -0.3733525 0.23551297 -0.10179549 0.24478836 -0.21070573 0.20899594
0.31947863 -0.3831116 -0.43101636 -0.36826545 0.31684792 0.19556466 -0.44603035 0.080572315
-0.16595751 0.015561733 0.090953425 -0.008612777 0.19618613 0.31364736 0.2360606 -0.011892196
0.08166868 0.2876498 0.50309247 0.18436731 0.25299492 0.23406594 -0.04293577 0.02846158
-0.014938587 0.055005353 0.04506056 -0.12020296 -0.26615086 -0.011609242 0.23813736 -0.31373823
-0.45503262 0.36973253 0.25611183 0.2841319 -0.16843653 0.38378435 -0.2924039 0.5108247
0.058283415 0.43911877 -0.39134508 0.10189476 0.38344887 -0.42392668 0.22358096 0.15026358
-0.62727404 0.38996673 0.050844956 0.11805309 -0.008814063 -0.3047545 -0.07123589 -0.109461196
-0.31420353 0.23347703 0.1468377 0.25570035 0.28260434 -0.74093753 0.2977657 -0.008601461
-0.24852006 0.30314893 0.008695979 -0.15891305 -0.3551077 0.30394846 0.20552231 0.01954144
0.08611058 -0.7392012 -0.35114205 0.008682436 0.18248554 0.020988569 0.3359005 -0.41744488
-0.041834548 -0.059286874 -0.21345645 0.27639326 -0.19417645 -0.52936506 -0.38768718 0.57453614
-0.6009318 0.42278415 -0.31330523 0.020934353 -0.07224447 0.10375937 0.32701698 -0.5935675
0.0702954 -0.44297254 -0.05286489 0.35400206 0.41012466 -0.32631668 -0.01702594 -0.11090345
0.009607979 -0.17838453 0.31724522 0.30957532 -0.10241539 0.32631463 -0.1122286 -0.075185604
-0.59723616 -0.24096607 -0.3026215 -0.039155252 0.30680102 0.4593608 -0.1705688 -0.18504094
0.30849147 0.4369195 -0.5369128 0.055035967 -0.33731467 0.32849357 -0.2576697 0.35775918
0.3927819 -0.40812168 0.30100986 -0.4554427 -0.0068163523 0.082225375 -0.011200618 -0.16429052
-0.1931634 0.15041324 -0.003531119 0.15974805 0.41092378 -0.03753955 0.39615396 -0.10907125
-0.21615316 -0.08078433 0.5126797 -0.38349536 0.0294037 -0.43078306 0.2132641 0.28591195
00000000: cfb3 c43e aae8 88bd 2c99 a43e 8326 61be
00000010: f970 763d d0d7 cf3d 5018 d83e b089 05be
00000020: 321e edbe 4168 533e ab07 c73e 3281 993e
00000030: 462e 57bd e443 be3e e827 28bd cfd1 b5bd
00000040: 44cd 313d 474c 1bbd 1479 d0be c400 96bd
00000050: 2b8b 71be 531c 72be a7e4 a73e 49be 8d3e
00000060: dd07 133e 8dd3 d63d 7990 933d 2c8b 303e
00000070: c0dc 313e cda0 e53d 6bba d13e 6dc2 23be
00000080: 68da d2bd d179 df3b 7285 71bd 84c2 173e
00000090: a603 453e b836 91be 6279 163e 7bb8 043b
000000a0: 0cde a73e 4f4a 12be db23 833e f00b 773e
000000b0: c496 b7be 16e9 af3e 1f81 003f d109 75bd
000000c0: c493 20be 99d8 6dbc dc79 75bb fa31 943d
000000d0: e6be 053e 4de8 da3e b039 07bf 3bc3 8ebd
000000e0: ae27 1f3e 9814 ce3d 49fe 093e bfb2 74bd
000000f0: 0c2f 4e3e efa0 36bc 4d76 64be cd7f 3fbe
00000100: 6b21 49be e622 c63e 208d ebbd 3cff d83e
00000110: 19aa 8c3d 89dc 19bd dbb1 dd3d 089e a8be
00000120: 4a9f e93e a20f 203e d35a 5ebd bc34 00bf
00000130: 0616 cb3e 8fd5 fb3e 66f4 da3e d84b d6be
00000140: b3ac 333e 18e6 ba3d 670d a9be e5a1 d53d
00000150: 7818 ca3e 61ef 843e 55da bd3e 24ab da3e
00000160: f016 6ebe d684 a93d 43d0 a4be 48da 6e3e
00000170: 693a 1cbd e513 3abd 6365 ddbe a7c3 89be
00000180: ccc0 b33d a1be ef3e 0f28 bfbe 502a 713e
00000190: 277a d0bd cda9 7a3e 3ec3 57be 0803 563e
000001a0: b492 a33e 3427 c4be 2dae dcbe 4a8d bcbe
000001b0: e439 a23e 1a42 483e 175e e4be 1903 a53d
000001c0: c4f0 29be a4f6 7e3c ca45 ba3d 9b1c 0dbc
000001d0: 04e5 483e 6396 a03e dfb9 713e 7cd7 42bc
000001e0: e941 a73d d646 933e abca 003f c9ca 3c3e
000001f0: 8d88 813e fbae 6f3e 6bdd 2fbd 4228 e93c
00000200: fac0 74bc 4b4d 613d 6c91 383d f82c f6bd
00000210: ed44 88be b134 3ebc 48da 733e 4ca2 a0be
00000220: 09fa e8be 954d bd3e 1721 833e bd79 913e
00000230: a07a 2cbe 627f c43e f7b5 95be 68c5 023f
00000240: 97ba 6e3d 2dd4 e03e 625e c8be 33ae d03d
00000250: 6953 c43e eb0c d9be 68f2 643e b2de 193e
00000260: 0895 20bf b8a9 c73e cd42 503d d2c5 f13d
00000270: dc68 10bc c808 9cbe 1fe4 91bd 312d e0bd
00000280: 49df a0be 9a14 6f3e 9f5c 163e 28eb 823e
00000290: 84b1 903e 15ae 3dbf bf74 983e 24ed 0cbc
000002a0: 0b7c 7ebe 5636 9b3e 9479 0e3c 1aba 22be
000002b0: add0 b5be 229f 9b3e 7174 523e 5f15 a03c
000002c0: be5a b03d 4a3c 3dbf e4c8 b3be c740 0e3c
000002d0: 7ddd 3a3e 38f0 ab3c 26fb ab3e 56bb d5be
000002e0: b45a 2bbd cbd6 72bd 5494 5abe 6b83 8d3e
000002f0: 31d6 46be 7884 07bf ef7e c6be cd14 133f
00000300: abd6 19bf 2a77 d83e 8b69 a0be 857e ab3c
00000310: e9f4 93bd cb7f d43d c56e a73e 0af4 17bf
00000320: 09f7 8f3d 4ccd e2be db88 58bd c23f b53e
00000330: dcfb d13e fb12 a7be fc79 8bbc 5921 e3bd
00000340: c96a 1d3c 6faa 36be f76d a23e a880 9e3e
00000350: 29bf d1bd b612 a73e 1cd8 e5bd e9fa 99bd
00000360: 78e4 18bf cfbf 76be 35f1 9abe 4261 20bd
00000370: 0615 9d3e 5731 eb3e 96a9 2ebe 5f7b 3dbe
00000380: 98f2 9d3e eab3 df3e 1e73 09bf 656d 613d
00000390: 82b4 acbe 4f30 a83e 48ed 83be 362c b73e
000003a0: b61a c93e 53f5 d0be f71d 9a3e c92f e9be
000003b0: b55b dfbb c765 a83d cc82 37bc c63b 28be
000003c0: a0cc 45be ee05 1a3e 596a 67bb fe94 233e
000003d0: 9a64 d23e 12c3 19bd b1d4 ca3e bf60 dfbd
000003e0: 4157 5dbe 4172 a5bd fa3e 033f 8159 c4be
000003f0: 07e0 f03c 998f dcbe e761 5a3e 0d63 923e

fc3.bias f4 [10]
-0.19158167 -0.2983368 0.49111786 -0.37581733 0.56029886 0.0452698 -0.11852243 0.47165483
-0.006600498 -0.5497253
00000000: fc2d 44be 9abf 98be cd73 fb3e 216b c0be
00000010: bf6f 0f3f d36c 393d e3bb f2bd be7c f13e
00000020: fe48 d8bb ccba 0cbf
