ckpt/1026_01/model_epoch14.pth (torch, 106183 bytes, 6 tensors)

fc1.weight f4 [128, 63]
0	0xbce190c1	-0.027534844
1	0xbea73128	-0.3265469
2	0xbf94dc54	-1.1629739
3	0xbdf92b5f	-0.121664755
4	0xbba474a5	-0.005018788
5	0xbea6dbd8	-0.32589602
6	0x3d44c3d2	0.04803831
7	0x3d652a1a	0.055948354
8	0xbdd1cbdc	-0.10243961
9	0x3db1f2b6	0.086888716
10	0x3e3f31db	0.18671362
11	0x3f0910a1	0.53541
12	0x3e5a35d3	0.21309595
13	0x3e0370e9	0.1283604
14	0x3f8b81a5	1.0898939
15	0xbeb8dea7	-0.3610737
16	0x3e07a5be	0.1324682
17	0xbef1c0b4	-0.47217333
18	0x3d946424	0.07245663
19	0xbe99cced	-0.30039158
20	0x3fc6cedc	1.5531878
21	0x3d9fd3bd	0.07804058
22	0xbe46b955	-0.19406636
23	0x3eede2ec	0.4646219
24	0xbeb6af63	-0.35680684
25	0x3da2b70c	0.0794507
26	0xbf68f13a	-0.9099308
27	0xbe4ae46a	-0.19813696
28	0x3e3c0936	0.18362889
29	0xbeabde1f	-0.33567902
30	0x3e0ca8ae	0.13736221
31	0xbe8c8986	-0.27448672
32	0x3f7f27b4	0.9966996
33	0xbdb1bba3	-0.08678367
34	0xbe223e1c	-0.15844005
35	0x3e2f1558	0.17097986
36	0x3e0a679d	0.13516088
37	0xbd33eb3a	-0.0439255
38	0xbea6c73f	-0.32573888
39	0xbe3c9568	-0.18416369
40	0xbe28ca22	-0.16483358
41	0xbe99e62c	-0.3005842
42	0x3e9cb32e	0.30605453
43	0xbe7510c9	-0.23932184
44	0x3f62e034	0.88623357
45	0xbe485628	-0.19564116
46	0xbe16374e	-0.14669535
47	0xbd1ea6f4	-0.038733438
48	0xbe8d28dc	-0.27570236
49	0x3d27e1c2	0.040986784
50	0xbf8bf37a	-1.0933678
51	0xbda48680	-0.08033466
52	0xbe34689f	-0.17618035
53	0x3d38a390	0.04507786
54	0x3e807798	0.25091243
55	0xbe1b309d	-0.15155263
56	0x3f6c9a0b	0.9242255
57	0x3d9c3011	0.076263554
58	0xbe81227b	-0.2522162
59	0x3ebbab0e	0.36653942
60	0x3e86a7b6	0.26299828
61	0xbe04dd05	-0.12974937
62	0xbe887421	-0.266511
63	0xbea7d558	-0.32779956
64	0x3ee12283	0.43971643
65	0xbf004391	-0.501031
66	0xbe8fa1f1	-0.2805324
67	0xbeb83a52	-0.35981995
68	0xbf04fe16	-0.51950204
69	0x3d7d40b2	0.061829276
70	0xbe8410a1	-0.25793937
71	0x3efc7337	0.49306652
72	0x3e2bc7a6	0.16775379
73	0xbdb5f3e9	-0.08884413
74	0x3f10cbbf	0.5656089
75	0x3f0627be	0.5240439
76	0x3e6243dd	0.220962
77	0x3e1ab6f2	0.1510885
78	0x3ebb9c27	0.36642572
79	0xbe9f7e17	-0.31150886
80	0xbe57d9ef	-0.21079229
81	0xbf1eb2fa	-0.61991847
82	0x3d0682bc	0.03283952
83	0xbf36d24f	-0.71414655
84	0xbf044fb1	-0.516841
85	0x3d6cb7fe	0.057792656
86	0x3d6772fe	0.05650615
87	0xbd6b519e	-0.057450883
88	0xbe3c8c64	-0.1841293
89	0x3f733f87	0.9501881
90	0x3f3589ab	0.7091319
91	0xbe948f35	-0.29015508
92	0xbd198949	-0.03748444
93	0xbe257d87	-0.16161166
94	0x3dfe29cc	0.12410316
95	0xbecb18e0	-0.39667416
96	0x3ef93a47	0.48677275
97	0xbe8b0cbf	-0.27158162
98	0xbf975ce0	-1.1825218
99	0x3f751892	0.95740616
100	0xbefe37a3	-0.49651822
101	0xc01393bc	-2.305892
102	0x3ed230f8	0.41052985
103	0xbe4da040	-0.20080662
104	0x3ea91f25	0.33031574
105	0x3d98d1bb	0.07461878
106	0x3cf9a93b	0.030476203
107	0xbd8a0184	-0.0673857
108	0x3dd1e9a6	0.10249643
109	0xbe7fd93a	-0.24985209
110	0xbee6465a	-0.4497555
111	0x3d299493	0.041401457
112	0xbe801584	-0.25016415
113	0xbf2c0a37	-0.67203087
114	0xbe569ea6	-0.20958957
115	0x3db732d1	0.08945239
116	0x3f31fc2f	0.69525427
117	0xbedcdf61	-0.43139175
118	0x3e7194eb	0.23591964
119	0x3f226286	0.63431585
120	0xbf301a2f	-0.68789953
121	0x3e598e3d	0.21245666
122	0x3fa3deff	1.2802428
123	0xbf10ed37	-0.5661196
124	0x3e86f550	0.26359034
125	0x3ff3d570	1.9049511
126	0x3f43c986	0.76479375
127	0x3f1262f8	0.57182264
128	0xbe632be3	-0.2218471
129	0x3e1324d5	0.14369519
130	0xbd021acd	-0.03176384
131	0x3cb5ed1d	0.022207791
132	0x3d9e7f08	0.07739073
133	0x3dd09f7a	0.10186668
134	0xbe05af95	-0.1305526
135	0x3e4dbfd8	0.20092714
136	0x3ed315e7	0.41227648
137	0xbeb6ef79	-0.35729578
138	0x3f13471b	0.57530373
139	0x3f0ee03c	0.55810905
140	0xbdc43eb9	-0.09582276
141	0xbf6d9736	-0.92808855
142	0xbf88d1c7	-1.0689019
143	0x3f5b0338	0.85551786
144	0xbf702012	-0.93798935
145	0xbf44be34	-0.76852727
146	0x3ef546a3	0.47905454
147	0x3def5b5d	0.11687348
148	0xbdceb3e5	-0.10092906
149	0xbe0beb64	-0.13664013
150	0x3f25bd45	0.6474193
151	0x3f46e604	0.77694726
152	0xbea43707	-0.32073233
153	0xbf4d8f70	-0.80296993
154	0xbf4352b1	-0.7629805
155	0x3f017e2f	0.50583166
156	0xbf861d38	-1.0477667
157	0xbf69ea14	-0.913728
158	0x3f42a29f	0.7602939
159	0xbf312059	-0.69189984
160	0xbf549314	-0.83036923
161	0x3ec17cfc	0.37790668
162	0xbef4c91a	-0.47809678
163	0xbee433c7	-0.44570753
164	0x3efa2dfb	0.48863205
165	0xbf09b111	-0.53785807
166	0xbe8b2f27	-0.27184412
167	0x3e13ae05	0.14421852
168	0xbf729aa0	-0.9476719
169	0xbf5a7652	-0.8533679
170	0x3ee0c490	0.43899965
171	0xbe0b30a5	-0.13592775
172	0xbe82437c	-0.25442111
173	0x3ded637a	0.11591239
174	0x3e78697f	0.24258994
175	0x3eed3519	0.46329573
176	0xbe277c17	-0.1635593
177	0xbe0d503b	-0.13800137
178	0xbc3afd9b	-0.011413003
179	0xbe4daff2	-0.20086649
180	0xbe494093	-0.1965354
181	0x3bb675fd	0.0055682645
182	0xbd8edfc9	-0.069762774
183	0x3f20af5b	0.6276757
184	0x3f331dcc	0.6996734
185	0xbf02c281	-0.5107804
186	0x3f97a735	1.1847903
187	0x3f989b3c	1.1922374
188	0xbf1535de	-0.5828532
189	0xbf86f9f8	-1.0545034
190	0x3d0ada54	0.03389962
191	0x3f0e357b	0.55550355
192	0x3ef4a2fe	0.47780603
193	0x3ca4408c	0.02005031
194	0xbe937075	-0.28796735
195	0x3d61cd70	0.05512756
196	0x3df8974b	0.12138232
197	0xbed0240a	-0.40652496
198	0xbd32c321	-0.04364312
199	0xbd6f9e21	-0.058500413
200	0x3d4f421f	0.050600167
201	0xbf4ba31d	-0.79545766
202	0x3d690313	0.056887697
203	0xbdc3db59	-0.095633216
204	0x3e49aeb5	0.19695552
205	0xbe5286fa	-0.20559302
206	0xbcd8ccc7	-0.026464833
207	0xbe8b1c56	-0.27170056
208	0xbc6ed552	-0.014577227
209	0x3de4d267	0.111729436
210	0xbf69c083	-0.91309375
211	0x3e1fa0c5	0.15588672
212	0x3e753da9	0.23949303
213	0xbfc664bf	-1.5499495
214	0x3f26da24	0.65176606
215	0x3e3d8d06	0.18510827
216	0xbd7cfafc	-0.061762795
217	0x3e22eace	0.15909883
218	0xbc0f0ebc	-0.00873154
219	0xbeafe8dc	-0.34357345
220	0x3e5f4e96	0.21807322
221	0xbe93e12b	-0.28882727
222	0xbef2f784	-0.47454464
223	0x3e9c2285	0.30495086
224	0xbe3af556	-0.1825765
225	0xbf1b2f58	-0.60619116
226	0x3f03a5bc	0.51424766
227	0xbeb96d2c	-0.36216104
228	0x3dc911bb	0.09817835
229	0x3dfc27e7	0.12312298
230	0xbd18e0b4	-0.03732367
231	0x3e34f41e	0.17671248
232	0xbce99543	-0.028513556
233	0x3d2f728e	0.042833857
234	0x3e0d5ade	0.13804194
235	0x3b4d76ad	0.0031351254
236	0x3e9a0bc5	0.30087104
237	0x3e09a674	0.13442403
238	0xbe9645e6	-0.29350203
239	0x3ea91296	0.33021992
240	0x3ea805d5	0.3281695
241	0x3de02b6a	0.109457806
242	0xbc331039	-0.010929161
243	0x3f47eb7c	0.78093696
244	0xbcec38f7	-0.028835757
245	0xbe8a969f	-0.2706804
246	0x3f538603	0.8262636
247	0xbea177eb	-0.31536803
248	0x3cbf7034	0.023368932
249	0x3f5a10c9	0.8518186
250	0xbebe0499	-0.37112883
251	0x3f047742	0.51744473
252	0x3d95b95c	0.07310745
253	0xbd60c3bc	-0.054874167
254	0xbded6d77	-0.115931444
255	0xb9cc9200	-0.0003901869

fc1.bias f4 [128]
0	0xbee29014	-0.44250548
1	0xbe847ea2	-0.25877863
2	0xbdf4fe27	-0.11962538
3	0x3d4ae5a1	0.049535397
4	0xbdb5bdbe	-0.08874081
5	0xbdf0c32e	-0.117559776
6	0x3d74aa49	0.05973271
7	0xbd89e9e2	-0.06734063
8	0x3d3e8b04	0.046519294
9	0x3dd7446e	0.10511099
10	0x3c04a340	0.008095562
11	0xbe1d51ab	-0.15363185
12	0x3e91ec0f	0.2850041
13	0xbc204dd9	-0.009784185
14	0xbeadeee3	-0.3397132
15	0xbdff2d1d	-0.124597766
16	0x3ebbdef6	0.36693543
17	0xbdad1085	-0.084504165
18	0x3da55457	0.08072727
19	0xbeb94b1a	-0.3619011
20	0xbd85cbfd	-0.06533048
21	0xbda8edad	-0.08248458
22	0x3d8b5346	0.068029925
23	0x3e95300b	0.29138216
24	0x3ebf3514	0.37345183
25	0x3e37965c	0.17928451
26	0x3b03a121	0.0020085054
27	0xbf022b8e	-0.5084771
28	0xbed638e8	-0.4184029
29	0xbdeac127	-0.11462622
30	0xbf187ba0	-0.59563637
31	0x3dbf16a9	0.09330494
32	0x3e91a007	0.28442404
33	0xbb5e15a0	-0.0033887401
34	0xbe915b27	-0.28389856
35	0xbe455171	-0.19269349
36	0xbe997609	-0.29972866
37	0xbe93e1a5	-0.2888309
38	0x3df05c8a	0.117364004
39	0xbd8b00bd	-0.0678725
40	0x3dd24cb5	0.10268537
41	0xbf272ec9	-0.65305763
42	0x3d99ab44	0.075033695
43	0xbe92d56b	-0.2867845
44	0x3e267290	0.1625464
45	0xbea2cde7	-0.31797716
46	0xbd353c52	-0.04424698
47	0xbed42b43	-0.41439256
48	0x3eb1599d	0.34638682
49	0xbebd14f4	-0.36930048
50	0xbed42363	-0.41433248
51	0x3e9d1f6a	0.3068803
52	0x3e63c9b6	0.22244915
53	0xbe94b56c	-0.29044664
54	0xbd3ef18d	-0.04661708
55	0xbf2ccc8c	-0.67499614
56	0xbf8cef01	-1.1010438
57	0xbcbd1f2c	-0.023086153
58	0xbc1c0e7a	-0.009524936
59	0xbeeee68a	-0.46660262
60	0xbd861207	-0.06546407
61	0x3e147cb5	0.14500697
62	0x3d42e002	0.04757691
63	0xbecab678	-0.39592338
64	0xbe9ddf8b	-0.30834612
65	0x3e29ff6a	0.16601339
66	0xbe1b961b	-0.1519398
67	0xbede219b	-0.43385014
68	0xbd86015d	-0.06543229
69	0xbb2cc97a	-0.0026365207
70	0x3e8d827a	0.27638608
71	0xbe68e855	-0.22744878
72	0x3d675139	0.056473944
73	0xbe1bbe61	-0.15209343
74	0xbcb2a231	-0.021805855
75	0xbb412858	-0.002947351
76	0x3ce3ee0b	0.027823469
77	0xbe93c5a6	-0.2886173
78	0xbf6a8719	-0.9161239
79	0xbe6687ea	-0.22512785
80	0xbe8d8aa9	-0.27644852
81	0xbd0c1a6e	-0.034204893
82	0xbe1b4ade	-0.15165278
83	0xbe7117b8	-0.23544204
84	0xbe9d5070	-0.3072543
85	0x3e356384	0.17713743
86	0x3ea28380	0.31740952
87	0x3e42fb4c	0.19041175
88	0x3ec564f2	0.38553578
89	0xbe146a06	-0.1449357
90	0xbea5f10d	-0.3241047
91	0xbdbc8164	-0.09204367
92	0xbd8db0ee	-0.06918512
93	0x3c294797	0.01033201
94	0x3e05e690	0.13076234
95	0xbe75f01c	-0.24017376
96	0x3cb7be49	0.022429602
97	0xbc9f2cb7	-0.019430501
98	0xbdd2bb83	-0.10289671
99	0xbf0af3c0	-0.54278183
100	0x3d5b2019	0.053497408
101	0x3d026965	0.031838793
102	0xbe7e5015	-0.24835236
103	0xbedfa9ff	-0.43684384
104	0xbda563a5	-0.08075646
105	0xbe7cda7c	-0.2469272
106	0xbda87996	-0.08226316
107	0x3f1dbf9b	0.6162049
108	0xbe93fceb	-0.289039
109	0x3f1fff2b	0.6249873
110	0x3d30f201	0.043199543
111	0xbcfac925	-0.030613491
112	0xbdf2681f	-0.11836266
113	0x3eb2129a	0.34779817
114	0x3dd44197	0.10364073
115	0xbf3db5b1	-0.74105364
116	0xbe0ae29a	-0.13563004
117	0x3ef36ea7	0.4754536
118	0x3e46cc54	0.19413882
119	0x3de83912	0.1133901
120	0x3de76b2e	0.1129974
121	0xbc5a6bca	-0.013331363
122	0xbd8926c6	-0.066968486
123	0x3f194f65	0.5988677
124	0xbee328b8	-0.44367003
125	0xbed07b3f	-0.4071903
126	0xbf0126d4	-0.5044987
127	0xbe03998e	-0.12851545

fc2.weight f4 [128, 128]
0	0xbe157dc8	-0.14598763
1	0x3f128d26	0.57246625
2	0xbcd8aedb	-0.026450565
3	0xbe847daa	-0.25877124
4	0x3ce3bcc0	0.027799964
5	0xbda5ec1c	-0.08101675
6	0xbd5a14ef	-0.05324262
7	0x3d0d7d2c	0.0345432
8	0xbe7dd17a	-0.2478694
9	0x3bf128dc	0.007359607
10	0xbe4c5214	-0.19953185
11	0x3e32ce07	0.17461406
12	0x3e3eb21c	0.18622631
13	0x3ea3d1d5	0.31996027
14	0x3e0a083d	0.13479705
15	0x3d168362	0.03674639
16	0x3b60e2a6	0.003431478
17	0xbe998e49	-0.29991367
18	0x3d183ee9	0.03716937
19	0xbe650743	-0.22366051
20	0x3e740ec1	0.23833753
21	0xbda47251	-0.080296166
22	0x3e896710	0.26836443
23	0xbcd33e16	-0.02578644
24	0x3e457623	0.19283347
25	0x3c56eadc	0.013117518
26	0x3e626e50	0.22112393
27	0x3d859ccd	0.06524048
28	0x3d5ed14f	0.05439883
29	0xbda33ce1	-0.07970596
30	0xbde36e50	-0.11105025
31	0xbd37e29a	-0.04489384
32	0x3d25f4a5	0.040516514
33	0x3d6c633a	0.057711817
34	0xbec27958	-0.37983203
35	0x3db01bd1	0.085990556
36	0x3c5e33a2	0.013562115
37	0xbd950ed2	-0.072782174
38	0x3e0777d2	0.13229302
39	0xbd1f32c3	-0.03886677
40	0xbd2aad52	-0.041669197
41	0xbc4cb636	-0.012494614
42	0xbd827cfa	-0.06371494
43	0x3e2acfc0	0.16680813
44	0xbd24acc5	-0.04020383
45	0xbe8c7d51	-0.2743936
46	0xbea67284	-0.32509243
47	0xbf0da3c1	-0.55327994
48	0xbdfb7ba3	-0.12279441
49	0x3e076545	0.13222225
50	0x3dc5b119	0.09652919
51	0x3e00ff24	0.12597328
52	0x3e4fc4fd	0.20289989
53	0xbe59b4d4	-0.21260387
54	0xbe444781	-0.19167902
55	0xbeb812e1	-0.35951903
56	0x3d9c0fff	0.076202385
57	0xbe588bd0	-0.21147084
58	0x3e8ed15b	0.278941
59	0xbe33684d	-0.17520256
60	0x3cac4695	0.02102975
61	0xbec47810	-0.3837285
62	0xbe2a3868	-0.1662308
63	0xbeaa8a39	-0.3330858
64	0xbe132f3f	-0.14373492
65	0xbc94d8d4	-0.018169798
66	0xbf12b68d	-0.573098
67	0x38ad7fbe	8.273077e-05
68	0x3dc556d4	0.09635702
69	0xbb916b4a	-0.0044378387
70	0x3e321a10	0.17392755
71	0xbe574617	-0.21022831
72	0x3d99eab7	0.075154714
73	0x3e547515	0.20747788
74	0x3de2ab74	0.11067858
75	0x3e82fef3	0.25585136
76	0x3e3f2ff5	0.18670638
77	0xbefdafac	-0.4954809
78	0xbe2a0490	-0.16603303
79	0x3d52d52c	0.051472828
80	0x3e6a6ca7	0.2289301
81	0x3e2aca5c	0.16678756
82	0x3d7a46ce	0.06110268
83	0x3c40f23d	0.011776504
84	0x3da41b03	0.080129646
85	0x3e80e25a	0.25172693
86	0xbe237bd5	-0.15965207
87	0xbe79ac02	-0.24382022
88	0x3e742b8d	0.23844738
89	0x3bed681f	0.007245078
90	0xbd3a6e26	-0.045515202
91	0x3e0113c6	0.12605199
92	0x3e074e69	0.13213505
93	0xbd456a62	-0.048197158
94	0xbd5a1111	-0.053238932
95	0xbedb9ff4	-0.42895472
96	0x3ea8e87f	0.3298988
97	0x3e3328a6	0.17495975
98	0xbecc323c	-0.39882076
99	0x3edab202	0.42713934
100	0xbc54232d	-0.01294784
101	0x3cd1ed1d	0.02562576
102	0xbd299588	-0.04140237
103	0x3e4478d8	0.19186723
104	0x3dda3a22	0.10655619
105	0xbe6b4fa7	-0.22979604
106	0x3e146133	0.14490204
107	0xbe67b97b	-0.22629349
108	0x3e627538	0.22115028
109	0x3e817b65	0.25289455
110	0x3d81007f	0.06298923
111	0x3db9323e	0.09042786
112	0x3d920a89	0.07130916
113	0xbed95f29	-0.42455414
114	0x3d4dde7c	0.050261006
115	0x3dc6e28c	0.09711179
116	0xbd1dab5a	-0.03849349
117	0x3eff39c7	0.49848768
118	0x3e553af5	0.20823272
119	0xbd66b29f	-0.05632269
120	0x3d352ec1	0.04423404
121	0x3e9be7a0	0.30450153
122	0xbf1f4f58	-0.62230444
123	0x3ea3fb5e	0.32027715
124	0xbdc52272	-0.096257105
125	0xbe87d87b	-0.2653235
126	0xbf09603b	-0.5366246
127	0x3e48d08b	0.19610803
128	0x3e8d644f	0.27615592
129	0xbe8a283d	-0.26983824
130	0x3d01ff06	0.03173735
131	0x3eb7a16e	0.3586535
132	0xbd304e95	-0.04304369
133	0x3c872a47	0.016499652
134	0x3d5ffe81	0.054686073
135	0x3ce781eb	0.028260192
136	0x3c2d1bf3	0.010565746
137	0x3d8217b0	0.06352174
138	0xbd70d4ff	-0.05879688
139	0xbebff584	-0.37492
140	0x3d932659	0.071850486
141	0xbe2908c1	-0.16507246
142	0xbe83c2fb	-0.25734696
143	0x3cf5a7ee	0.029987302
144	0xbd36a113	-0.044587206
145	0x3ef09785	0.469906
146	0xbad8b4af	-0.001653334
147	0xbeb8b524	-0.360757
148	0xbe18752e	-0.1488845
149	0xbd1f71f5	-0.038927037
150	0x3ed447ed	0.41461125
151	0x3e928359	0.28615835
152	0xbe4af6a5	-0.1982065
153	0x3e4e64a4	0.20155579
154	0x3b69a720	0.0035652593
155	0x3daeb3ca	0.08530386
156	0xbe9cf7f4	-0.30657923
157	0xbd3d0aca	-0.046152867
158	0x3edbfd20	0.42966557
159	0x3e319ab2	0.17344168
160	0xbef93a4f	-0.48677298
161	0xbd5d1e5c	-0.05398403
162	0xbdc713d0	-0.09720576
163	0xbe51ed76	-0.2050074
164	0x3d8e4e23	0.06948497
165	0xbdef5b33	-0.11687317
166	0xbeb79596	-0.35856313
167	0xbd5c4437	-0.053775992
168	0x3ce47674	0.027888514
169	0x3e580e8a	0.21099296
170	0xbd85b84a	-0.06529291
171	0x3e9ed127	0.31018946
172	0xbe934096	-0.28760213
173	0xbb7ad99c	-0.0038276678
174	0x3ecdbd75	0.40183607
175	0xbc7159f9	-0.014730924
176	0xbd394570	-0.045232236
177	0x3ecf4a04	0.40486157
178	0x3e7d52ff	0.24738692
179	0x3e3ed055	0.1863416
180	0xbe9cbaa7	-0.30611154
181	0xbe0b552c	-0.13606709
182	0x3dc8282b	0.097732864
183	0x3e64a5a1	0.22328807
184	0x3da25c39	0.07927746
185	0xbc2c95fa	-0.010533804
186	0xbd752baf	-0.059856113
187	0x3e69b137	0.22821508
188	0xbd4a4a46	-0.04938724
189	0xbe878aae	-0.26472992
190	0xbcfb1816	-0.030651134
191	0x3e12fdcf	0.14354633
192	0x3dbcbd64	0.09215811
193	0xbe9364d3	-0.2878786
194	0x3e35b5d3	0.17745142
195	0x3cff8111	0.031189473
196	0xbd56bf9a	-0.05242882
197	0x3d97b905	0.074083365
198	0x3e216b2c	0.15763539
199	0x3e465108	0.19366848
200	0xbde4de50	-0.11175215
201	0xbe3f2e1b	-0.18669932
202	0x3e2f2d88	0.17107213
203	0xbbc051bb	-0.005869118
204	0xbc8e576c	-0.01737567
205	0xbd2ecba4	-0.042674676
206	0xbdd0d5fb	-0.101970635
207	0x3e8d0449	0.27542332
208	0xbd8320c9	-0.06402738
209	0xbd9269c8	-0.071490824
210	0xbe3290c2	-0.17438033
211	0xbe476f13	-0.19475965
212	0xbe96ce5d	-0.29454318
213	0xbc71a4d2	-0.014748769
214	0xbd640e31	-0.055677596
215	0xbe94dac7	-0.29073164
216	0xbe85693e	-0.26056856
217	0xbd43d155	-0.047807056
218	0x3e4a7cd6	0.19774184
219	0xbe483675	-0.19552024
220	0xbe33f724	-0.17574745
221	0x3d100990	0.03516537
222	0xbe399ec6	-0.18126974
223	0x3f3c18f3	0.7347557
224	0x3eaec29e	0.34132856
225	0xbe03bc18	-0.12864721
226	0xbd8e9b10	-0.069631696
227	0xbe12b2e7	-0.14326058
228	0xbea3c9f0	-0.31990004
229	0xbc3aaa8c	-0.011393201
230	0xbe835204	-0.2564851
231	0x3d216260	0.03940046
232	0x3e8eab9d	0.27865306
233	0xbe445b85	-0.19175537
234	0xbe5b2886	-0.21402177
235	0xbe3dac90	-0.18522859
236	0xbe1c272a	-0.15249315
237	0xbece3ea3	-0.40282163
238	0x3d063cce	0.03277283
239	0xbd379508	-0.04481986
240	0xbd8f7436	-0.07004587
241	0xbf3feaa1	-0.7496739
242	0x3da4b5a5	0.080424584
243	0x3dea1232	0.11429252
244	0xbdb1f048	-0.08688408
245	0xbec3c602	-0.38237005
246	0xbdecef15	-0.11569039
247	0xbdfa3c1d	-0.12218497
248	0xbdc8d62c	-0.09806475
249	0xbe5328e4	-0.20621067
250	0xbd930355	-0.0717837
251	0xbebd92db	-0.37026104
252	0xbe059251	-0.13044097
253	0x3e685c5a	0.2269148
254	0x3e2b6619	0.16738166
255	0xbd8fb9df	-0.07017874

fc2.bias f4 [128]
0	0x3d4a5e9e	0.04940664
1	0xbe194682	-0.14968303
2	0xbdad7c50	-0.08470976
3	0x3ee6d006	0.45080584
4	0xbdd94354	-0.10608545
5	0x3f13c6e9	0.5772539
6	0x3d86e9d6	0.065875694
7	0xbe471c05	-0.19444282
8	0xbe299bd0	-0.16563344
9	0x3d2f9bc7	0.04287317
10	0x3dc92367	0.098212056
11	0xbeb694cf	-0.35660407
12	0xbf6289f4	-0.8849175
13	0xbe37519f	-0.1790223
14	0xbe6da215	-0.2320636
15	0x3dc19966	0.094530866
16	0xbee58dd4	-0.4483477
17	0xbd95cd92	-0.073146
18	0x3d6785b5	0.056523997
19	0xbe62a21e	-0.22132155
20	0xbeb56282	-0.35426718
21	0xbeca3b6c	-0.3949846
22	0xbd726acd	-0.059183884
23	0xbef9a0fc	-0.48755634
24	0xbe25df79	-0.1619853
25	0xbcec3ba7	-0.028837038
26	0xbedf8a55	-0.43660226
27	0xbed45f45	-0.41478935
28	0xbef5fca8	-0.48044324
29	0xbe8714fc	-0.26383197
30	0x3fddc655	1.7326151
31	0xbe5335dc	-0.20626014
32	0x3d6965dd	0.05698191
33	0xbe05f209	-0.1308061
34	0xbec3cfe6	-0.3824455
35	0x3c768bd2	0.015047984
36	0xbdd7c844	-0.105362445
37	0xbdbead5a	-0.09310408
38	0xbe14da50	-0.14536405
39	0xbf0ad123	-0.5422537
40	0x3c965023	0.018348759
41	0xbd9baabc	-0.076009244
42	0xbe8a44a6	-0.270055
43	0x3e4ea115	0.20178635
44	0xbe82d16f	-0.2555041
45	0xbd8b182f	-0.06791722
46	0xbe760d94	-0.24028617
47	0x3c978f7a	0.018501032
48	0x3e9335c8	0.2875197
49	0xbdc94bbd	-0.09828899
50	0xbe94b52b	-0.2904447
51	0xbdd907b4	-0.105971724
52	0xbe11398c	-0.14182109
53	0x3ddeea6e	0.10884558
54	0xbda78b8a	-0.08180912
55	0xbec1be58	-0.37840533
56	0xbef9b63b	-0.48771843
57	0xbda64da1	-0.08120275
58	0xbf0d259a	-0.551355
59	0x3c15fbd0	0.009154275
60	0xbf6184d5	-0.8809331
61	0x3e06f657	0.13179909
62	0xbec21c93	-0.37912425
63	0xbe4a432b	-0.19752185
64	0xbea212fc	-0.3165511
65	0xbe5a7628	-0.21334136
66	0x3e2364e4	0.15956455
67	0xbdecac12	-0.11556257
68	0xbe30825b	-0.17237227
69	0xbf1e96fa	-0.6194912
70	0xbedf288a	-0.43585616
71	0xbf5ee7b3	-0.87072295
72	0xbe31e215	-0.173714
73	0xbe248658	-0.16066873
74	0x3cb40760	0.021976173
75	0xbcbad529	-0.02280672
76	0x3e28b11a	0.16473809
77	0x3dcdc418	0.100471675
78	0xbe8a2625	-0.26982227
79	0x3fa853dc	1.3150592
80	0xbdfd29cd	-0.123614885
81	0xbd462167	-0.0483717
82	0xbea7e67b	-0.3279303
83	0x3ccfdf0b	0.02537491
84	0x3e2ab976	0.1667231
85	0xbe12aac2	-0.14322951
86	0x3cef06d4	0.02917806
87	0xbf6f82d4	-0.93559
88	0xbe1fc306	-0.1560174
89	0x3eed7f86	0.46386355
90	0x3f48bade	0.78410137
91	0xbf222f38	-0.633533
92	0x3fa74ae0	1.3069725
93	0xbe533177	-0.20624338
94	0xbe306eb3	-0.17229728
95	0x3f91d16f	1.1392039
96	0x3f16b354	0.58867383
97	0xbe087063	-0.13324122
98	0x3e992656	0.2991206
99	0xbc70ad23	-0.0146897165
100	0xbf03dbc8	-0.51507235
101	0x3f047df6	0.517547
102	0x3dbb181c	0.09135458
103	0x3d6ec82a	0.05829636
104	0x3e3cfc59	0.18455638
105	0x3f37b3ec	0.71758914
106	0xbea0cc95	-0.31406084
107	0xbf013394	-0.50469327
108	0xbebba5fe	-0.3665008
109	0xbdf20ef8	-0.11819261
110	0x3d41ae08	0.04728511
111	0xbe9b87c7	-0.30377027
112	0x3e9cc2f8	0.306175
113	0xbd459fd1	-0.048248116
114	0x3ed8d2d1	0.4234834
115	0xbf3b08e3	-0.73060435
116	0xbece4189	-0.40284374
117	0xbda850ba	-0.08218522
118	0x3d25ae11	0.040449206
119	0xbe19efb6	-0.15032849
120	0x3f4628c6	0.77405965
121	0x3f57bbe6	0.84271085
122	0xbe6a2339	-0.22864999
123	0x3e91b0c0	0.28455162
124	0xbe2bb942	-0.16769889
125	0xbcc20656	-0.023684662
126	0xbda0b5a3	-0.078471445
127	0xbf423efe	-0.7587737

fc3.weight f4 [10, 128]
0	0xbe56948d	-0.20955105
1	0x3ec3655a	0.38163263
2	0x3ef84de9	0.4849694
3	0xbf31af41	-0.6940804
4	0xbf735c70	-0.95062923
5	0x3fa55df0	1.2919292
6	0x3dea92cf	0.11453783
7	0x3f63033b	0.88676804
8	0xbe811676	-0.2521245
9	0xbeb6f6b5	-0.35735098
10	0xbecbc32e	-0.39797348
11	0x3f18f9ff	0.59756464
12	0x3f493697	0.7859892
13	0xbde2b788	-0.11070162
14	0x3f36292f	0.7115659
15	0x3d5e6692	0.054297037
16	0xbe44f5cb	-0.19234388
17	0xbd83f6d5	-0.06443564
18	0x3cc05840	0.02347958
19	0xbf1c3b93	-0.61028403
20	0x3f08b4ed	0.5340107
21	0xbe9ea713	-0.30986843
22	0xbf27b7d3	-0.6551487
23	0xbe565275	-0.20929892
24	0x3dc9f8d7	0.098619156
25	0x3e909acf	0.2824311
26	0xbc9cc929	-0.01913889
27	0xbe4f5d0c	-0.20250338
28	0x3e6f3bb6	0.23362622
29	0x3f6b3104	0.91871667
30	0x3d3e3c0b	0.04644398
31	0xbeafd2cc	-0.34340513
32	0x3df38075	0.118897356
33	0xbe4ec68d	-0.20192929
34	0x3f2cb913	0.674699
35	0x3df76d79	0.12081427
36	0x3f34ad80	0.7057724
37	0x3ef19559	0.47184256
38	0xbd7ad1b4	-0.061235145
39	0x3f011b1e	0.50432
40	0x3cb29e8e	0.02180412
41	0x3ee28e0a	0.44248992
42	0xbd82cbfb	-0.063865624
43	0x3e37b04e	0.17938349
44	0x3e25eef5	0.16204436
45	0x3d7ede58	0.062223762
46	0xbe9864a9	-0.29764298
47	0xbd9691d4	-0.07352033
48	0x3f19af24	0.6003287
49	0xbea99c5a	-0.331271
50	0xbe81625f	-0.25270364
51	0x3f2f0cb9	0.6837879
52	0x3e3bc281	0.18335916
53	0xbe30a249	-0.17249407
54	0xbe9a8d17	-0.30185768
55	0x3ecfeba4	0.40609467
56	0x3ea1f651	0.31633237
57	0x3eb8b95c	0.36078918
58	0xbf326796	-0.6968931
59	0x3ee3f59a	0.44523317
60	0xbf00b85e	-0.5028132
61	0x3f47d8a1	0.78064924
62	0xbf60700f	-0.8767099
63	0x3e73a709	0.23794188
64	0xbeb38619	-0.35063246
65	0xbf10bad6	-0.5653509
66	0x3e0e8ada	0.13920155
67	0xbd91ae5d	-0.07113335
68	0x3e85d504	0.2613908
69	0xbecb6e3d	-0.39732543
70	0x3ec6cc0a	0.38827544
71	0xbdedcc2b	-0.116112076
72	0xbe699afd	-0.2281303
73	0x3e15b411	0.14619471
74	0xbe1bc7c1	-0.15212919
75	0x3d7ee98f	0.062234458
76	0xbf0bd3f9	-0.5462032
77	0xbf1401f7	-0.578155
78	0x3ed1ed63	0.41001424
79	0x3c2c7abf	0.010527312
80	0x3e86ac3c	0.2630328
81	0xbe80c23c	-0.2514819
82	0xbe6c02d6	-0.23047957
83	0x3ec114a8	0.37711072
84	0x3e9d0d8d	0.306744
85	0xbf19a7d4	-0.6002171
86	0xbee4a022	-0.44653422
87	0xbf0362ff	-0.5132293
88	0x3f4ffbc0	0.81243515
89	0xbe7cb998	-0.24680173
90	0xbedd1424	-0.4317943
91	0x3f7315cb	0.9495513
92	0xbe0be35a	-0.13660946
93	0x3eff1640	0.49821663
94	0x3dfcd403	0.123451255
95	0xbf1d8161	-0.6152554
96	0x3f1b740d	0.60723954
97	0x3edd0a69	0.43172005
98	0xbf646b3e	-0.8922614
99	0x3d9e5250	0.077305436
100	0x3d4aadae	0.04948204
101	0xbed3b1c9	-0.41346577
102	0x3f09b87c	0.53797126
103	0xbef9df5b	-0.4880322
104	0x3e364bfd	0.17802425
105	0xbec37e10	-0.38182116
106	0xbeae21e5	-0.34010234
107	0x3e8d7d19	0.27634504
108	0x3f36446b	0.7119815
109	0x3edbf2f1	0.42958787
110	0xbf551dbd	-0.832485
111	0xbd99ce26	-0.07510023
112	0xbea1819d	-0.315442
113	0x3f164e35	0.58713084
114	0x3f151e5e	0.5824946
115	0x3ec91416	0.39273137
116	0x3e61f7fc	0.22067255
117	0xbf74c488	-0.9561238
118	0x3e97d59d	0.29655161
119	0xbef154df	-0.47135064
120	0xbf17df39	-0.59324986
121	0xbf60c8b9	-0.8780628
122	0x3dca0322	0.09863879
123	0x3ede5363	0.43422994
124	0xbf1f1be3	-0.62151927
125	0xbe21a5d2	-0.15785912
126	0xbf2670aa	-0.6501566
127	0xbcac5c68	-0.021040156
128	0xbeb665e2	-0.35624605
129	0x3e548395	0.2075332
130	0xbec16de5	-0.37779155
131	0x3f42f3dc	0.7615335
132	0xbf12824c	-0.5723007
133	0x3ec278e9	0.37982872
134	0xbee8048f	-0.45315978
135	0xbd35c7ad	-0.04437988
136	0xbd17a0b2	-0.037018485
137	0x3ec0b2a9	0.37636307
138	0x3bd28e3e	0.006425648
139	0xbe069984	-0.13144499
140	0xbd83de47	-0.064388804
141	0xbeb270d3	-0.34851703
142	0x3e586915	0.21133836
143	0x3e61d605	0.22054298
144	0xbbde9324	-0.006792443
145	0x3e948be1	0.2901297
146	0x3f001e41	0.50046164
147	0x3c8cfce6	0.017210435
148	0x3e65a553	0.22426347
149	0x3e1c0252	0.1523526
150	0xbe29b930	-0.1657455
151	0xbedfa994	-0.43684065
152	0xbe9a8e66	-0.30186766
153	0xbe98b398	-0.2982452
154	0x3e08932d	0.13337393
155	0x3dc407c8	0.09571797
156	0x3f14ecdf	0.58173937
157	0xbd70cd4b	-0.058789533
158	0x3ef0b818	0.47015452
159	0x3dce857f	0.10084056
160	0x3e510f6d	0.2041604
161	0x3f791976	0.97304475
162	0x3d2a6b2f	0.041606124
163	0xbe420faf	-0.18951295
164	0xbd57f41c	-0.052723035
165	0x3ebcb6b6	0.36858147
166	0x3dfc5a10	0.123218656
167	0xbdf265bd	-0.11835811
168	0xbee8cb45	-0.45467582
169	0xbea5e1d4	-0.32398856
170	0xbd0194d4	-0.031636074
171	0x3f04cad1	0.51871973
172	0x3e5d5eba	0.21618167
173	0x3d68f0f9	0.056870434
174	0x3e857d60	0.26072216
175	0x3e184079	0.14868344
176	0x3e74f52b	0.23921649
177	0x3e573f20	0.21020174
178	0xbe008af1	-0.12553002
179	0x3e0aab26	0.1354185
180	0x3ec89684	0.39177334
181	0xbec5b0c2	-0.38611418
182	0x3c6d004c	0.014465403
183	0xbedfe78f	-0.43731353
184	0x3de2f7d6	0.11082427
185	0x3e73cd9b	0.23808901
186	0x3db8bb9a	0.09020157
187	0x3e02c3c9	0.12769999
188	0xbe3eddfc	-0.18639368
189	0x3d285799	0.041099165
190	0xbe494a96	-0.19657359
191	0x3ed301d7	0.4121234
192	0x3ea0a3e8	0.3137505
193	0x3e61d649	0.220544
194	0x3f280e2a	0.6564661
195	0x3e0c176e	0.13680813
196	0xbe3e8abf	-0.18607615
197	0x3d0ce6c6	0.03439977
198	0xbd39cdbf	-0.04536223
199	0xbf991809	-1.196046
200	0xbd5c499b	-0.053781133
201	0x3f1809ae	0.5938977
202	0xbd1ed6f0	-0.0387792
203	0x3e356ff4	0.17718488
204	0x3ead34dc	0.3382939
205	0x3e7d4d5c	0.24736542
206	0x3e62f722	0.22164586
207	0x3f5aa510	0.85408115
208	0x3e989c36	0.2980668
209	0x3daba1ce	0.08380471
210	0xbedd825c	-0.4326352
211	0xbe885007	-0.26623556
212	0x3e82a319	0.2551506
213	0xbd762e1a	-0.06010256
214	0xbe43ca52	-0.19120148
215	0x3e95e2f6	0.2927472
216	0x3e5b82a3	0.21436553
217	0x3eba56dc	0.36394393
218	0x3f1d98ad	0.6156109
219	0xbf2c684a	-0.6734663
220	0x3ef32ced	0.47495213
221	0xbeadf8eb	-0.33978972
222	0xbcf514d3	-0.029917156
223	0x3f78e799	0.9722839
224	0x3f150ace	0.5821961
225	0xbeccc941	-0.39997295
226	0x3eb3ef0f	0.35143325
227	0x3d911f72	0.07086076
228	0xbefc985c	-0.4933499
229	0x3ea71d3d	0.32639495
230	0x3ed3deb8	0.41380858
231	0xbc3ac8c4	-0.011400405
232	0x3e6124e5	0.2198673
233	0x3f643393	0.89141196
234	0x3cf7f169	0.03026648
235	0x3e6e6eb5	0.23284419
236	0x3e44fba6	0.19236621
237	0x3da04413	0.07825484
238	0xbef25a2f	-0.4733443
239	0x3e37b84a	0.17941394
240	0x3ddd55ee	0.108074054
241	0xbf096d9b	-0.5368287
242	0x3f0704f7	0.5274195
243	0xbe269547	-0.16267882
244	0xbe03feb1	-0.12890126
245	0x3ed58154	0.41700232
246	0xbd09b451	-0.03361923
247	0x3ef1ab89	0.47201183
248	0x3f450637	0.7696261
249	0x3dc2326b	0.09482273
250	0x3e3b6a94	0.18302375
251	0x3e27463d	0.16335388
252	0x3f0708fb	0.5274808
253	0x3e15e390	0.1463759
254	0xbf85e171	-1.0459424
255	0xbefa47ec	-0.48882997

fc3.bias f4 [10]
0	0xbe85ca87	-0.2613108
1	0x3fb098ac	1.3796592
2	0xbf113366	-0.5671905
3	0xbe9b33de	-0.3031301
4	0x3ea63759	0.32464102
5	0xbf4f1291	-0.80887705
6	0xbf431a5d	-0.762121
7	0x3fc6f857	1.5544537
8	0xbf62985c	-0.8851373
9	0x3ecfe4be	0.40604204
