ckpt/1026_01/model_epoch7.pth (torch, 106175 bytes, 6 tensors)

fc1.weight f4 [128, 63]
00000000: 5455 9fbd 5772 c7be 1692 77bf 87e4 c5bd
00000010: a7c6 c5bd 3a34 98be 1f94 9e3d 50b8 573c
00000020: 0260 55bd 2593 663d 2043 c83d e652 143f
00000030: 5c41 513e 2a89 443d c7b1 873f 2d90 a7be
00000040: f313 113e 605f e2be fac6 923d 4547 30be
00000050: 50ef 913f 4282 1d3e 7bb4 a3bd 78dc 893e
00000060: 803a 45be e763 fd3d 86c8 45bf cd72 33be
00000070: 9509 3e3e 5d7d 9ebe 23fe f63d a90e 63be
00000080: 4827 4e3f 86de 97bc da69 18be 9b26 f73d
00000090: 3b58 5b3e cd86 febd d861 8dbe a697 35be
000000a0: 7d60 27be e614 86be 2ed4 843e 76ef 7dbe
000000b0: 929f 433f 19fc 0dbe d8d3 04be 0867 c73d
000000c0: 9746 51be e880 8e3d 0886 48bf 6936 82bd
000000d0: 5410 2cbe 0cc8 4e3d fcd4 7a3e ccf0 27be
000000e0: 9222 463f b7ac 603d aba3 6fbe 89f5 cd3e
000000f0: 4b1c 423e cb55 9abd e5a9 f5bd ae2d 80be
00000100: 44d3 a03e 902a 4bbe 5ab1 a6be be93 52be
00000110: 4267 d5be 31f7 30bd c89a fabd a54c a93e
00000120: f014 833d 7249 b1bd 2ea8 9d3e 86b0 f03e
00000130: b02e ac3d 001a 3cbe 9bf1 aa3e deb0 4ebe
00000140: 5e7a 53be 5097 ccbe 9c9d 683b 842d a7be
00000150: 0809 c0be cf77 193e ba3a 483e 153a 8bbd
00000160: 336b b4bc 943f 3b3f cf24 0f3f d644 98be
00000170: de82 6dbd fc65 8fbd d159 e23c dec5 57be
00000180: d814 023f ab05 77be 6aa5 71bf d2fc 803f
00000190: 3bf6 d3be 53dd 00c0 4f04 893e 55b5 8cbe
000001a0: 5454 983e d468 893d 8906 cdbd e910 fabd
000001b0: 4985 c03d a2d3 76be c406 acbe 2c9d 053e
000001c0: fa21 46be 8ff0 ddbe 168f 83be 7228 01bd
000001d0: 5142 233f 694e 9abe ed38 c13d 1965 e73e
000001e0: 18a1 09bf 0fb8 363e f3e2 833f b625 b9be
000001f0: 1d92 8c3e 7865 c73f 8ea3 293f f553 013f
00000200: 9687 89be 35fa eb3d a7cb b03c 827d 493d
00000210: 3d48 0c3e 26bf d83d 2919 80bc 2bda 793e
00000220: 9dc5 c13e 6792 64be 1e9d e63e 8165 e83e
00000230: c56f bebc dcdc 4dbf f21c 73bf 6b72 293f
00000240: ca59 21bf dbcb 1abf fdd1 b33e 7cd2 693e
00000250: c42f 6dbd f3c7 13be 1e3d 233f 35d3 183f
00000260: c493 8fbe 0e1f 39bf 5840 36bf 0922 a63e
00000270: ecb7 58bf 55e5 3fbf 8ee1 223f b5bc 0cbf
00000280: eaf7 2ebf 2ef2 a23e 9e08 d4be 2e1f c4be
00000290: c45a cf3e 6fa0 f3be 1858 80be 7932 e43c
000002a0: 398c 3dbf d1c1 1ebf 21cc b13e 1d94 b2bd
000002b0: 2f92 0dbe ca28 233e fccd 2a3e 297f c13e
000002c0: c688 99bd 657e e4bd 9297 0dbd e859 72be
000002d0: fd9e 00be 28c8 5c3d c3ea 2bbd 6f2f 013f
000002e0: 5d09 0f3f a580 a7be e5fc 663f 5a23 5d3f
000002f0: 0e12 a6be 5bb6 30bf 0133 113e 1f8a f43e
00000300: 81c3 bc3e bedc aa3d d9a8 72be 212f d7bc
00000310: eda1 fc3d e4b7 cbbe b06a 8abd cf54 c0bd
00000320: 3329 27bd 2cb3 d8be a3a7 0ebd dfb3 2bbe
00000330: a47c 5f3e 7199 a7be 2f54 efbc 5da9 91be
00000340: ff77 e3bc 7b68 123e 76f7 4ebf 431f d53d
00000350: a775 4f3e b0d7 9abf 6b12 ea3e 0d10 493e
00000360: 54be 16bc 8c3a 903c d9f4 c8bc 2a7f a9be
00000370: d3a9 073e b9b8 5ebe c7c9 f3be 36d9 8d3e
00000380: b437 01be cb4f 0dbf a9d9 033f 1a9a a4be
00000390: 70e8 f43d bba1 8b3c ce98 b3bd 295f 643d
000003a0: 7b13 78bd ef60 bd3c 3e30 063d d5e4 273d
000003b0: 071d 713e f2ac d13d 30e0 4bbe c2d7 6a3e
000003c0: c93e 693e e4a9 ae3d 5a8f 75bd 725c 083f
000003d0: a546 6bbc 7b25 68be 7faf 313f 12b1 8abe
000003e0: e523 853d 2dd8 593f 4d9c 98be 218b 043f
000003f0: 5cb9 953d bcc3 60bd 776d edbd 0092 ccb9
-0.07779947 -0.38954422 -0.96707284 -0.09662729 -0.096570306 -0.29727346 0.077430956 0.013166502
-0.052093513 0.05629267 0.09778428 0.5793899 0.20435089 0.047982372 1.0601128 -0.32727185
0.14167766 -0.4421339 0.07166858 -0.17214687 1.1401157 0.1538172 -0.07993408 0.26926017
-0.19260597 0.123725705 -0.772591 -0.17524262 0.18558343 -0.3095502 0.120601915 -0.22173561
0.8052869 -0.018538725 -0.14884129 0.1206791 0.21420376 -0.12428055 -0.2761371 -0.1773363
-0.16345401 -0.2618782 0.2594313 -0.24798378 0.7641536 -0.13865699 -0.12971437 0.097364485
-0.20437084 0.06958181 -0.78329515 -0.06358034 -0.16803104 0.05048375 0.2449531 -0.1640045
0.773965 0.054852214 -0.23402278 0.4022639 0.18956105 -0.07535895 -0.119952954 -0.2503485
0.31411183 -0.19840455 -0.32557184 -0.20564172 -0.41680342 -0.04320449 -0.122365534 0.33066288
0.06400478 -0.08656587 0.30792373 0.47009677 0.084073424 -0.18369293 0.33387455 -0.20184657
-0.20652148 -0.39959192 0.0035494333 -0.32651913 -0.3750689 0.1498711 0.19553652 -0.06798188
-0.022023773 0.7314389 0.5591554 -0.29740018 -0.057986133 -0.07001874 0.027630718 -0.21071574
0.50813055 -0.24123256 -0.94393027 1.0077155 -0.41398796 -2.0135086 0.267611 -0.27482095
0.29751837 0.067094475 -0.10011012 -0.122102566 0.09400422 -0.24104169 -0.33598912 0.13048238
-0.19348899 -0.43347594 -0.25695103 -0.031532712 0.63773066 -0.30137947 0.09434686 0.4519432
-0.53761435 0.1784365 1.0303634 -0.36161584 0.27455226 1.5577841 0.6626519 0.50518733
-0.26861256 0.115223326 0.021581484 0.04919196 0.13699432 0.10583334 -0.015636997 0.2439963
0.3784608 -0.22321473 0.45041746 0.4538994 -0.023246655 -0.8041513 -0.9496604 0.6619021
-0.6302763 -0.6046731 0.35121146 0.228342 -0.05790688 -0.14431743 0.6376513 0.59697276
-0.28042424 -0.7231301 -0.7119193 0.32447842 -0.8465564 -0.7495931 0.6362542 -0.54975444
-0.68347037 0.31825393 -0.41412824 -0.38305038 0.40498936 -0.4758334 -0.2506721 0.027856098
-0.7404209 -0.6201449 0.3472605 -0.087196566 -0.13825296 0.15933529 0.1668014 0.37792328
-0.074967906 -0.1115692 -0.034568377 -0.23667109 -0.12560649 0.05390182 -0.041971933 0.50463
0.5587366 -0.32715335 0.90229636 0.8638207 -0.3243565 -0.6902825 0.14179613 0.47761628
0.36867908 0.083428845 -0.23697223 -0.02626759 0.123355724 -0.39788735 -0.0675863 -0.09391176
-0.040810775 -0.42324197 -0.03482784 -0.16767834 0.2182489 -0.32734254 -0.029214947 -0.28449526
-0.02776718 0.14297669 -0.80846345 0.10406353 0.20259725 -1.2097073 0.45717177 0.19635029
-0.009200651 0.017606042 -0.024530815 -0.3310483 0.13248377 -0.21750154 -0.4761488 0.2770478
-0.12618905 -0.5519988 0.51504 -0.3214882 0.119583964 0.017044893 -0.087693796 0.055754814
-0.060565453 0.02311751 0.03276085 0.040989716 0.2354623 0.10238065 -0.1990974 0.22933868
0.22777857 0.08528498 -0.059951164 0.5326606 -0.014360105 -0.22670548 0.6940841 -0.2708822
0.06500987 0.85095483 -0.29806748 0.51774794 0.07310745 -0.054874167 -0.115931444 -0.0003901869

fc1.bias f4 [128]
00000000: 3287 a7be 1f42 2abe b123 e3bd 3a9b f33c
00000010: bebd b5bd 7b59 ebbd 8f85 b73c e291 80bd
00000020: f103 703d be91 d63d abfe 313d 0045 65be
00000030: 18ef 263e f32a 883d 8546 8cbe 122e ffbd
00000040: d3ca a93e e732 7f3c 9923 a93d 7a44 83be
00000050: 3db7 103c aded a8bd 6dbd c33d 5b4c 9d3e
00000060: e1c6 ac3e 5bb4 243e d69a 6f3c fbb9 c8be
00000070: f1f5 9ebe 27c1 eabd 1157 f8be bd8c 863d
00000080: ddc2 793e a015 5ebb e9a5 74be 7e1c 2fbe
00000090: e738 57be 053b 9dbe a905 c33c a7a7 95bd
000000a0: 5ffe d13d 4cc8 0abf b9be 463d a970 32be
000000b0: 2eb7 133e f829 53be 64f3 88bd 0469 ecbe
000000c0: 6174 8a3e a91b 66be d283 8dbe 4a79 9b3d
000000d0: e009 3f3d 656d 53be f84b 9cbb 1d3f 18bf
000000e0: 3acb 7abf 6c92 62bc d25e 843d e69d babe
000000f0: b1b2 42bc 6590 103e cb05 473d 137d b2be
00000100: 6975 36be 233b 653e 60ad b3bd ca7e 89be
00000110: 8ab7 99bd b4e0 c63d b14b d83d e9af 66be
00000120: 7847 73bc d282 35be a82d eb3d d465 023d
00000130: 09b8 1f3d fc38 69be fc13 35bf 1a6b 2fbe
00000140: ba7c 70be 9023 0fbd c2b9 ffbd 431d 31be
00000150: 966a 42be f0b8 f73d a870 893e 4ea2 653e
00000160: 0d06 9f3e 8bf7 0abd e4bd 47be 97cb 13bd
00000170: d4a7 6bbc 115b 663d 05d2 b13d 6a94 72be
00000180: 5b3d 22bd b153 61bd fe7d 07be 1c4b d8be
00000190: 4e2c bb3d 2d4f 3c3d 0b3a 7bbe 7fdc b5be
000001a0: c567 c0bd daaf 70be 9991 01be 3c4f fd3e
000001b0: f751 35be 7676 fc3e 0431 043d c3e3 9cbd
000001c0: 1f68 f2bd 585b 8f3e acaa cc3d a6dc 0cbf
000001d0: 17b3 f4bd 50d3 c13e 6f53 b23d 3a45 273e
000001e0: c239 eb3d b72d 32bd d6e5 ecbd 9e9b d13e
000001f0: 83d9 cdbe 0409 95be 6a9d cdbe 4ff4 9cbd
-0.32720333 -0.16626786 -0.11090792 0.029737104 -0.08874081 -0.114916764 0.022402553 -0.06277825
0.05859751 0.10477017 0.04345576 -0.22389603 0.16302145 0.06648817 -0.27397552 -0.12459959
0.33162555 0.015576101 0.08258743 -0.2563818 0.00883275 -0.08248458 0.095576145 0.30722317
0.33745483 0.16084425 0.014624318 -0.39204392 -0.31047013 -0.11462622 -0.48503926 0.065698124
0.2439074 -0.0033887401 -0.23891415 -0.17100713 -0.210178 -0.3070909 0.02380641 -0.07307368
0.102535956 -0.5421188 0.04852173 -0.17425789 0.14425346 -0.20621479 -0.06687048 -0.4617387
0.27041915 -0.22471489 -0.27639633 0.075914934 0.046640277 -0.206472 -0.0047697984 -0.59471303
-0.9796635 -0.013828855 0.06463398 -0.36448592 -0.011883424 0.14117582 0.04858951 -0.3486105
-0.17818226 0.2238584 -0.08773303 -0.26854545 -0.075057104 0.097108275 0.10561312 -0.22528042
-0.014848582 -0.17725685 0.114833176 0.031835392 0.03899387 -0.22775644 -0.7073362 -0.171307
-0.2348508 -0.034946024 -0.12486602 -0.17296319 -0.18985972 0.12095821 0.26843762 0.22425196
0.31059304 -0.03392748 -0.19506031 -0.03608283 -0.014383275 0.05623919 0.08682636 -0.23689428
-0.039609294 -0.055011455 -0.13231656 -0.42244804 0.0913931 0.045973945 -0.2453386 -0.35519788
-0.093947925 -0.23504582 -0.12653197 0.49474514 -0.17707048 0.4930913 0.032273307 -0.076606296
-0.11836266 0.27999377 0.099934906 -0.5502418 -0.11948221 0.3785653 0.0870732 0.16335002
0.11485626 -0.04350063 -0.11567275 0.4093904 -0.4020501 -0.2910844 -0.4015916 -0.07663786

fc2.weight f4 [128, 128]
00000000: 296a abbd 2bcf 873e 83ff a6bc 2166 3bbc
00000010: c0bc e33c 1cec a5bd b21b 2fbd 5a7e 1a3d
00000020: ad7b 2fbe 886a eb3b 5e91 4c3c 3bd7 db3d
00000030: 888c 073e 8413 ea3d 7cf2 133e 6283 163d
00000040: 0dcc 44bd 2e65 cfbd e83e 183d 983d 8fbe
00000050: fce9 fe3d 5172 a4bd 05e0 463e 3a72 603d
00000060: 963a 943e a5e6 89bd e841 f93d 7d4f a23c
00000070: 57cf 07bd e13c a3bd 7514 40be a1ec 0b3d
00000080: 3b3d 1a3d 3a63 6c3d 2b0f 4cbe b480 423c
00000090: da0d 673d c816 4dbe a05d 323d 20ba 1dbd
000000a0: 50ad 2abd f40e 22be 5391 20bb ce1f c7bc
000000b0: 07ef 8a3d f4e5 3cbe 1db4 0fbe f56c 9cbe
000000c0: ae73 d4bd 5081 453e f585 853d 73bf 3c3d
000000d0: 0797 223e 9f87 10bd 1c15 98bc 7f24 90be
000000e0: 8a44 633c dccc 5bbe 88f6 053e 4312 9ebd
000000f0: fa98 97ba ee26 b4be 4d75 ddbd a8c3 8bbe
00000100: 554e 14be ea63 413c bb84 57be 728d 79ba
00000110: 0b33 ed3c 5a21 9d3d 6dfb d03c 5dc8 58be
00000120: e270 f03c 8be3 1f3e e656 c63c 0c11 aa3d
00000130: c3d9 ef3d ffe3 7cbe 86ed 07bd 954a 6bbd
00000140: 558f 0c3e d190 a53d c2da 003e debb 043e
00000150: 2009 093e b7d6 2c3e de07 eebd 5063 06be
00000160: 2d91 5e3d 4337 d3bd eb0b d0bb 700f c23d
00000170: b5fc b03d 4a96 0f3d 552f 0d3d b832 7cbe
00000180: 92e1 5c3e 3f9b 103d c80f 6abe 1acc 763e
00000190: 9590 53bd 0e87 c63d 288d 4bbd 04ff 6a3e
000001a0: c295 2f3c 14d5 e8bd cbf8 d63d 0b25 0dbe
000001b0: 1724 8a3e c571 0e3e 0c6b 913d 84cd ee3d
000001c0: 890a 923d 8b2a 9cbe e655 af3d e232 463d
000001d0: bafe a6bd 0c1a b23e afd9 0a3e 8e49 4a3c
000001e0: dc4b 313d bc0c a73e d248 04bf 95b2 3c3e
000001f0: 4d8e fdbd ea2e 23be 7ee3 d1be 3b80 b63d
00000200: 0ed4 813e d9f7 94be 801c 14bc beb9 273e
00000210: 954e 30bd 432a 873c d959 87bc a923 093d
00000220: b30b 933c ef11 823d 0a92 efbd 2c87 67be
00000230: f4af 75bd 0227 a2bd d69d 53be eea7 f53c
00000240: 4750 b43b 0d2a d23e 53b1 d8ba e64d dfbd
00000250: e07d 69be f571 1fbd 8fe8 6a3e 586f d53d
00000260: 7a86 07be 654c f83d 38ef 713d f1a4 ea3c
00000270: d69d 8ebe ca0a 3dbd 1eca 7d3e 6ac1 073e
00000280: 4ecb e9be 5c1e 5dbd 308c 8bbd cc63 96bd
00000290: fd9e e53d f2b1 89bd e4f3 85be 36e2 5cbd
000002a0: 7476 e43c 99a0 073e 3d74 99bd 9336 723e
000002b0: 4c91 78be 446e eebc b6e4 913e 41f0 01bb
000002c0: b959 bebd 9f3a 9e3e b870 9e3d d8ae 413d
000002d0: 03da 6bbe 418d a9bd 5823 5d3c 96c1 293e
000002e0: f035 743d f3ed 86ba 31e5 0fbd 1cc1 803e
000002f0: 77db 4a3c 43c6 49be a956 97bd 6157 563e
00000300: ada2 043d 0eb4 8bbe b09d 063e 241e 043e
00000310: ac77 34bd fa81 7fbd 24ad 053e 3d72 4e3d
00000320: 8dd4 7cbd 9461 0dbe b178 043e a222 003e
00000330: cff1 0bbe 6eb6 1dbd 1463 f2bd 8c51 bb3d
00000340: 94d1 17be 0f6a a2bd b589 75bd 96aa 95bd
00000350: 5634 3cbe d35e 9fbd 848b cabd 2301 1ebe
00000360: b251 53be d9d0 b8bd ab69 ff3d 5a1b 4bbe
00000370: cf5d 31be 2af4 053d 6f0d 1fbe 8d0b 053f
00000380: 74ec 663e 56a5 6cbd d612 d8bd 3283 11be
00000390: e220 5cbe 4674 77bd 6693 2fbe fbf2 503d
000003a0: dfd2 713e 7b80 3abe 2db6 09be b137 63be
000003b0: b16f cabd 64e1 95be fe48 fd3c 38a6 d63b
000003c0: 3674 8fbd 61a1 16bf c7f4 b23d 2123 ab3c
000003d0: 7bdc 0dbe 14bf 95be 30b1 95bd bd41 3abd
000003e0: ad42 c1bd 0b0a 3cbe 1a2e c5bd e64e 85be
000003f0: 1439 06bd 9b50 2b3e e5ed 8e3c a2fc 04bd
-0.08369858 0.26525244 -0.02038551 -0.011437924 0.027799964 -0.08101675 -0.04275102 0.037718154
-0.17137022 0.0071843304 0.01248583 0.10734411 0.13237202 0.114295036 0.14447969 0.03674639
-0.04804616 -0.1012672 0.037169367 -0.2797668 0.12446973 -0.080296166 0.19421394 0.054796435
0.28950948 -0.06733445 0.12170774 0.019813294 -0.03315672 -0.07970596 -0.18757804 0.034161214
0.03765605 0.057711817 -0.19927661 0.0118715055 0.056409694 -0.20028222 0.04354632 -0.03850758
-0.04166919 -0.15826017 -0.0024500682 -0.024307158 0.06783872 -0.18447095 -0.14033552 -0.30551878
-0.10373627 0.1928761 0.06519691 0.046081018 0.15877925 -0.03528559 -0.018564753 -0.28152844
0.013871321 -0.21464866 0.13082325 -0.07718327 -0.0011565976 -0.3518595 -0.10813389 -0.2729771
-0.14483006 0.0118036065 -0.21046726 -0.0009519673 0.028955003 0.07672377 0.025510514 -0.21170183
0.029350702 0.15614145 0.024211358 0.08304033 0.117114566 -0.24696349 -0.033185504 -0.057444174
0.13726552 0.08084262 0.1258345 0.1296229 0.13382387 0.16878782 -0.11622594 -0.13123822
0.05433767 -0.10313275 -0.006349077 0.09475601 0.0864195 0.035055436 0.034468967 -0.24628723
0.21570423 0.035304304 -0.22857583 0.24101296 -0.051651556 0.096937284 -0.049695164 0.22948843
0.010716857 -0.113687664 0.10496672 -0.13783662 0.2698066 0.13910587 0.07100496 0.11660293
0.07130916 -0.30501208 0.08561306 0.04838837 -0.08154054 0.34785497 0.13559602 0.012346638
0.043285236 0.32626903 -0.51673615 0.18427499 -0.12380657 -0.15935865 -0.40993875 0.08911177
0.25357097 -0.29095343 -0.009039998 0.16379449 -0.04304369 0.016499644 -0.016522335 0.033481274
0.017949915 0.06351077 -0.116977766 -0.22610158 -0.059982255 -0.079175964 -0.20665678 0.029987302
0.005502734 0.41047707 -0.0016532339 -0.1090353 -0.22801924 -0.038927037 0.22940277 0.10421628
-0.13234892 0.12123946 0.059066027 0.028643103 -0.27854794 -0.046152867 0.24784133 0.13257375
-0.45662922 -0.05398403 -0.06813848 -0.073432535 0.11211965 -0.067233935 -0.26162636 -0.05392667
0.027888514 0.13244857 -0.07492874 0.23653631 -0.24274176 -0.029105313 0.28494805 -0.001982704
-0.09294457 0.309041 0.07736343 0.047285885 -0.23032384 -0.08278895 0.013497196 0.16577753
0.05962175 -0.0010294303 -0.035130683 0.2514733 0.012381426 -0.19704537 -0.07389576 0.2093177
0.032381702 -0.27285808 0.1314609 0.12902123 -0.04405944 -0.062379815 0.13054329 0.050401915
-0.06172614 -0.13806754 0.12936665 0.12513211 -0.13666461 -0.038504057 -0.11835304 0.09146413
-0.14826041 -0.07930385 -0.05994578 -0.07307927 -0.1837934 -0.07781758 -0.09889892 -0.15430121
-0.20636633 -0.090242095 0.124713264 -0.19834653 -0.17320941 0.032703556 -0.15532468 0.5197075
0.22551137 -0.057774864 -0.10550468 -0.14210203 -0.21496919 -0.06041362 -0.17146072 0.051012974
0.23615597 -0.18213074 -0.13448401 -0.22189213 -0.09884585 -0.29273522 0.030918594 0.0065505765
-0.07004587 -0.58839995 0.08738094 0.020890774 -0.13853638 -0.29247344 -0.073091865 -0.04547285
-0.094365455 -0.18363206 -0.09627934 -0.26036757 -0.032769278 0.16729967 0.017447421 -0.032467492

fc2.bias f4 [128]
00000000: f0fa a0bc 881f d6bd 7b4e 63bd a809 cc3e
00000010: 4a85 d1bd c60d fc3e 4666 683d 85e9 ecbd
00000020: d7a2 e7bd 1ab3 3c3d 752e cd3d bc35 96be
00000030: f536 3fbf 0174 2bbe 0684 38be 38cd 9a3d
00000040: 60bd b0be 7460 d3bc 3acc 443d 5f3e 68be
00000050: 3c15 84be a039 f9bd e0ee 41bd 12d5 9cbe
00000060: fd9c f2bd 2bdf e9bb d54f acbe e6a1 a0be
00000070: 6ff1 9fbe d127 5cbe 332d b13f ddfd 38be
00000080: 11ad 9b3d 87be 5dbd 177a 6dbe 2d19 523d
00000090: 5202 c5bd 3f02 b2bc 5993 55bd 4349 dabe
000000a0: 84d8 4abd a985 43bd aaf4 5dbe 7843 333e
000000b0: b6fa 4abe 9b91 843d 1184 50be 4a0b 223c
000000c0: 64dd 923e a48b 6ebd 38b3 87be 65de babd
000000d0: af63 693c 2e1a 9a3d 5844 72bd 7b0e b4be
000000e0: 6296 b5be c987 4f3d 56bf d3be 6df4 743d
000000f0: b6a1 36bf 0ae7 8d3e 5399 a5be afcc 3cbe
00000100: 522c 2ebe 34f6 5abe 2776 103e bdd3 22bd
00000110: 1217 80bd f672 ebbe a8dd 8cbe a161 28bf
00000120: 38a7 02be 5315 b5bb 819d 16bc f5d2 38bd
00000130: c6df 823e 6789 4b3e 4d47 36be c1ce 883f
00000140: 3bad febd 7352 a03c b934 6cbe 3836 303d
00000150: dfe5 3e3e d4fc 08bd 8eb8 ae3c 3744 43bf
00000160: cc99 bebd 84af ce3e d8f6 343f 5446 d7be
00000170: b3a2 543f b9a5 30be 3ce7 18be 48e1 4d3f
00000180: b05b 043f 2b1d 493c 4f6a a83e 3f1e 99bc
00000190: 4e9e e3be 557a e03e 74a2 ef3d 6267 9e3d
000001a0: 908b 0c3e cd36 173f c498 82be 8938 bdbe
000001b0: 9dbb 66be 145a f8bd 57cc 5e3d 0a82 4cbe
000001c0: 7c64 603e 20ed 89bd f08a ed3e 0dfe 04bf
000001d0: 32d1 88be 078f d2bd d179 483d f87e 08be
000001e0: b23b 403f b514 393f a1a1 fcbd 59e9 873e
000001f0: 7354 03be 6f35 c7bc 0d76 41bc 2cc6 0cbf
-0.019650906 -0.10455233 -0.055494767 0.39851117 -0.10230501 0.49229258 0.05673816 -0.11567978
-0.11310356 0.046069242 0.100186266 -0.2933787 -0.7469323 -0.1674347 -0.18019113 0.075586736
-0.34519482 -0.025802828 0.048046328 -0.22680043 -0.2579745 -0.12169194 -0.04734695 -0.3063131
-0.118463494 -0.0071371994 -0.33654657 -0.3137352 -0.31238887 -0.21499564 1.3841919 -0.18065591
0.07601369 -0.05413678 -0.23191105 0.05129354 -0.09619583 -0.021729587 -0.052142475 -0.4263402
-0.04952289 -0.04773489 -0.21675363 0.17506206 -0.19822201 0.064730845 -0.2036288 0.009890387
0.28684533 -0.05823864 -0.2650392 -0.0912445 0.014244958 0.07524525 -0.05914721 -0.35167298
-0.35466295 0.050666604 -0.41356915 0.059803415 -0.713405 0.2771533 -0.3234354 -0.18437456
-0.17009094 -0.21382982 0.14107572 -0.03975271 -0.062544 -0.45986146 -0.2751286 -0.6577397
-0.12759101 -0.0055262237 -0.009192825 -0.04512306 0.2556135 0.19876634 -0.17800637 1.0688096
-0.12435385 0.019570565 -0.23066987 0.043020457 0.18642376 -0.03344424 0.021328237 -0.7627596
-0.09306678 0.40368283 0.70689154 -0.42045844 0.8306076 -0.17250718 -0.14931959 0.80421877
0.51702404 0.012275021 0.32893607 -0.01869118 -0.44456714 0.43843332 0.11700907 0.077345625
0.13725114 0.59067994 -0.25507176 -0.36957195 -0.22532506 -0.12126556 0.054394092 -0.19971481
0.21913332 -0.06734681 0.46395063 -0.5195015 -0.26722103 -0.102811866 0.0489443 -0.13329685
0.7509109 0.7229722 -0.12335516 0.26545218 -0.12825184 -0.024317471 -0.011807931 -0.54989886

fc3.weight f4 [10, 128]
00000000: 73d5 93be 3712 b53e cb01 9c3e 5f55 20bf
00000010: 435f 72bf 594d 733f 6594 1fbd c1fe 2f3f
00000020: b995 5dbe 24fd 55be bdcb b2be 1943 0d3f
00000030: d5b5 5d3f 533a 45be ce67 333f 6fef 203d
00000040: eba2 10be a65d 47bd ee60 f03d 806b eabe
00000050: 5420 2b3f 8f93 71be 3f04 1bbf 11c0 56be
00000060: 2dad 5b3d 1a77 073e ce6f a2bd 3794 74be
00000070: faff 143e c942 253f 6f1a 80bd 78e4 55be
00000080: a429 383e 7748 f7bd ef24 193f 4f41 073e
00000090: ea8b 073f 78b9 ef3e e476 a5be 276f c03e
000000a0: 1e3a fa3b 8ef1 7a3e c7be 483d 37d7 933e
000000b0: c2d2 a83d 880d f93d 2558 83be 873d 4dbd
000000c0: 7d98 003f 9360 7fbe 864e cebe 276e e93e
000000d0: bd0b 1a3e 4767 06be c865 04be cd18 833e
000000e0: 8a68 7f3e 6e30 613e 6c88 1ebf c922 ab3e
000000f0: 4bc9 24bf 4118 223f f49b 36bf 79f3 423e
00000100: a068 bbbe 9e35 eabe 70f2 8b3d b8ff 08be
00000110: 2a38 343e 3b5a b0be ae41 d23e 2583 a1be
00000120: d960 25be 8a65 203e acd2 2dbe 280f 0f3e
00000130: bd6a 0abf 4ef7 33bf 6f9e be3e c25f 6f3e
00000140: 4b80 783e 745d 9bbe 448c fdbd bbe1 c23e
00000150: 4e9a a73e 5ddc f9be b6ce aabe 758d c9be
00000160: 2701 3a3f 8860 afbe f557 eebe 80c9 413f
00000170: 93ac 80be 85ad b83e 8cfc 1a3e 7192 0bbf
00000180: da67 163f 4e55 923e ef4d 64bf fe5b 7a3d
00000190: e208 b13c 5686 95be 9d32 d13e 2622 88be
000001a0: 1659 563e d6e5 7abe 2956 9dbe b65b c03e
000001b0: 370a f03e 1e4c aa3e 5751 47bf 7bca 2cbd
000001c0: 3636 a7be 1817 a33e b958 183f 77df ca3e
000001d0: cbbf a03e be65 55bf 2575 6a3e 6132 90be
000001e0: 4f02 f0be aa5f 55bf c1a0 973e abfa cb3e
000001f0: 098c 2cbf a7d9 01be 15d3 1bbf 2760 38bd
00000200: 82c8 53be 4d4e 5b3d 9dfe dfbd 2561 363f
00000210: 0228 00bf 542b b63e d369 86be edc8 8dbd
00000220: 5bea 4dbc 0ae6 3e3e d160 de3d 53c7 7dbd
00000230: 6918 b9bd e76d d0be 41c1 2f3e 3d37 1e3e
00000240: c8a7 803d ee54 583e aebc a43e 7f03 403c
00000250: 9fdd 303e a9f1 243e 5871 b9bd 0a69 6dbe
00000260: 8518 09be cf92 65be b5e4 ba3d 709e c4bc
00000270: 709f 0f3f d924 ffbd 08f3 f33e f5be a63d
00000280: 9014 5a3e 16e9 3b3f 978b 08bc 0784 87bd
00000290: 3421 e3bb f3cf ba3e db22 603d faef aabd
000002a0: 0855 cbbe 90c3 87bd e57a 6c3d 3e55 8e3e
000002b0: e72d 113e c9a9 f53d c653 093e f605 a33d
000002c0: ab3a 183e aa82 7a3d d8ca 8bbd e971 cd3d
000002d0: 43ea 9e3e ffe8 60be 592f 2b3d abdd 8cbe
000002e0: 6ef1 d5bd a7d7 953d 40ba 1c3e 507a 4e3e
000002f0: f2f8 9abd 87cf cb3d 5f89 15be 760e 283e
00000300: e212 743e 39d3 8d3d 5fd4 f83e 92ad 873e
00000310: 244a 97be 465e 14bd 62c1 b3bd 6973 46bf
00000320: bb17 52bc 46bb d63e f43b 73be 0fb7 543e
00000330: 63aa ce3e dccf bb3e fac4 893e 12f4 543f
00000340: 9b75 c23e 94f9 963d 76db 98be c835 51be
00000350: 5780 643e 0ce0 e63a 5ffe 04bd 170a 3b3e
00000360: 4acc be3d 6389 a23e 3362 2b3f 8f89 e6be
00000370: 465f 673e 0207 c4bd 339d 88bd 5662 6a3f
00000380: 188b 073f 05e7 6cbe be5a cc3e 9262 2b3d
00000390: 4d7d 8abe c987 943e f90f 913e 2651 483c
000003a0: 1901 863e 9f7a 343f 9aae adbb 5fd0 043e
000003b0: 22d4 7c3e 65e0 92bd 6416 c9be 1c01 f33d
000003c0: d4ef 213e ce69 18bf e954 ac3e c495 2ebe
000003d0: f435 adbd b587 873e 529f 37bd 6f05 a53e
000003e0: ff74 323f 3e61 f03d 1205 053e e325 073e
000003f0: 36d4 cc3e 9b79 d23d 75cc 75bf 0480 f7be
-0.28873786 0.3536546 0.30470118 -0.62630266 -0.9467661 0.950399 -0.03895988 0.687481
-0.21639146 -0.20897347 -0.34921065 0.5518051 0.8660558 -0.1926053 0.7008027 0.03929084
-0.14124648 -0.048673294 0.11737238 -0.4578514 0.66846204 -0.23591445 -0.60553354 -0.20971705
0.05363195 0.13229027 -0.07931481 -0.23884664 0.14550772 0.6455503 -0.06255042 -0.20887935
0.17984635 -0.120743684 0.5982198 0.13208507 0.52947867 0.4682119 -0.3231727 0.37584803
0.0076363226 0.24506208 0.049010064 0.28875133 0.08243324 0.12160784 -0.25653186 -0.050107505
0.5023268 -0.24939184 -0.40294284 0.45591852 0.1504354 -0.13125335 -0.12929451 0.2560486
0.24942222 0.2199113 -0.61926913 0.33424976 -0.6436965 0.6331826 -0.71331716 0.1903819
-0.3660326 -0.45744032 0.06833351 -0.13378799 0.1759955 -0.3444384 0.41065735 -0.31545368
-0.16150226 0.15663734 -0.16974896 0.13970625 -0.5406912 -0.7029923 0.3723025 0.23376372
0.2426769 -0.30344737 -0.12380269 0.38062844 0.32734913 -0.48800936 -0.33360833 -0.39365736
0.7265801 -0.34253335 -0.4655148 0.7569809 -0.25131664 0.36069885 0.15135401 -0.54520327
0.58752215 0.28580707 -0.8918142 0.061122887 0.021610681 -0.29204053 0.40858927 -0.26588553
0.20932421 -0.24501738 -0.30729797 0.3756997 0.46882793 0.33261198 -0.7785849 -0.042185288
-0.32658547 0.31853557 0.5951038 0.39623615 0.31396326 -0.8335837 0.2289625 -0.28163436
-0.4687676 -0.83349097 0.29614833 0.39839682 -0.67401177 -0.12680684 -0.6086896 -0.045013573
-0.20681956 0.05354147 -0.109372355 0.7124198 -0.5006105 0.35579932 -0.26252612 -0.06923089
-0.012568082 0.1864244 0.1085831 -0.06195767 -0.09037859 -0.4070885 0.17163564 0.15450759
0.06282002 0.21126148 0.321752 0.0117195835 0.17272042 0.16107811 -0.09054822 -0.231846
-0.1338826 -0.22419284 0.09125654 -0.02400133 0.5610266 -0.124582 0.47646356 0.08141891
0.21296906 0.73402536 -0.008334062 -0.06616979 -0.0069314484 0.36486778 0.05472074 -0.08346553
-0.3971331 -0.066290975 0.05773439 0.2779941 0.14177667 0.119952746 0.13410863 0.07960121
0.1486613 0.061159767 -0.06825799 0.10031492 0.31038103 -0.21963881 0.0417932 -0.2751287
-0.1044644 0.07316523 0.15305424 0.20163846 -0.07567014 0.09951692 -0.14603184 0.16411766
0.23835328 0.06925053 0.48599526 0.2649961 -0.29548752 -0.03622272 -0.08777119 -0.7751985
-0.012823041 0.41939753 -0.23753339 0.20772956 0.4036437 0.36682022 0.26908094 0.8318492
0.3798035 0.07371822 -0.29854935 -0.20430672 0.22314583 0.0017614379 -0.03246915 0.18265568
0.09316309 0.31745443 0.66946715 -0.45026824 0.22594938 -0.09571649 -0.06670608 0.915563
0.52946615 -0.23135002 0.3991298 0.04184205 -0.27048722 0.29009846 0.283325 0.012226379
0.26172712 0.70499605 -0.005300355 0.12970112 0.24690297 -0.07171706 -0.39274895 0.11865446
0.15814143 -0.59536445 0.3365853 -0.17049319 -0.08457556 0.26470724 -0.044829674 0.32230708
0.6970977 0.117372975 0.12990215 0.13198046 0.40005654 0.10277101 -0.960151 -0.48339856

fc3.bias f4 [10]
00000000: 92dc debe 8a66 923f 3fb0 94be 6174 d0be
00000010: d553 e13e cbd5 30bf 4c19 bdbe 17aa 913f
00000020: e0e0 2fbf 5977 6c3e
-0.43527657 1.1437542 -0.29040715 -0.4071379 0.4400927 -0.6907622 -0.36933362 1.1380032
-0.68702507 0.23092403
