ckpt/1101_22/model_epoch15.pth (torch, 38276 bytes, 6 tensors)

fc1.weight f4 [64, 63]
1.7003114 1.3137002 -0.4438718 -0.6294719 -0.09360985 0.5814559 -1.3090364 -1.1210673
-0.06265623 -0.6235733 -1.098771 -0.31532443 -0.2824394 -1.5852625 0.19915363 -0.55940604
-1.1015453 0.04932178 1.7790295 2.0395215 -0.13901325 2.2474494 2.6057453 -0.09798735
1.5087388 2.834832 -0.030866886 -0.5860348 -0.52094346 0.35358387 -0.28858572 -0.90562445
-0.857045 -1.7336963 -1.3736793 -0.09890829 -2.1740448 -0.4014271 1.0604713 -0.29081798
0.024616571 0.30817455 -0.41486436 -1.249427 -0.8043281 -0.2834019 -1.9406972 -0.44769472
0.083826266 -1.1614574 0.587295 0.33675665 0.5853063 0.5124325 -0.12805381 0.19458404
-0.16778325 0.028515143 0.32332817 -0.2751031 0.35295057 1.3448938 -0.15312739 -0.2150823
1.8665065 -0.70595783 0.26053765 0.9151196 -0.17172645 -0.29444546 0.59393704 0.13180569
0.03443335 0.72290134 -0.43541345 0.3066049 0.37053064 -0.46202937 0.3782585 -2.0026808
0.5567923 0.18893506 0.2974054 -0.11947276 -0.11429499 1.0569991 -0.91468734 -0.7165198
1.9637767 -0.65279067 0.30009463 -2.0291054 0.4281592 -0.2771661 -0.9288382 0.8400477
0.21841285 -3.109991 1.460417 0.86386406 -4.6117353 1.5743281 0.059087593 -1.3823006
0.42314085 -0.33685532 0.52891755 -0.257521 -0.33075586 0.41388008 -0.74921393 -0.3024563
0.5919189 -0.6947367 -0.038120784 -0.74021184 0.29022416 0.45744747 0.5125241 -0.39618582
-0.12218626 1.3706731 -0.19186772 -0.38891524 2.2449858 -0.002320214 -2.003428 -1.2216445
-0.44884965 1.1395047 1.2219595 0.4380489 1.5767485 0.7357421 0.4576637 1.0051419
0.12883294 1.0791694 0.67267376 0.42586935 1.2723612 1.0766284 0.17672555 0.6409593
-0.6189326 -0.5176515 -0.9800979 -2.1594346 -1.0692545 -1.4896201 -2.7629933 -1.3520828
-2.4824514 0.12943341 0.26697645 0.40738848 0.32472274 -0.56765723 -1.2398245 0.71232814
0.14152765 0.21794167 0.22825333 0.39452106 1.9291446 -0.37097028 0.28437376 0.3047382
0.20979336 -0.038621962 -0.18486735 0.562992 0.3790918 0.6306507 0.021353807 0.084177345
1.2896558 -0.19826117 0.39586824 0.5812106 0.071708165 0.62056905 0.3471954 0.2514886
0.27384463 -0.2866885 -0.3033746 -0.13166767 -0.980068 0.08942088 -0.3484724 0.14896041
-0.39976802 1.0461725 -0.7835662 -1.002703 0.71713483 -0.306505 -0.016062193 -0.674994
0.1134333 4.132241 -3.7750983 1.0242473 0.32704204 -0.4433882 0.42810637 -0.11406717
0.06623345 0.6023545 -0.9023912 0.7741569 -0.114227995 -0.34510618 0.7727044 -0.31804746
0.6960583 -0.80617464 0.21267898 -0.57936484 0.3111412 -0.3351451 -1.0083741 0.5081905
-0.2105225 0.2864432 -0.19863148 -0.259083 0.7564441 -0.8454009 -0.043491546 -0.69315714
0.15861511 -0.21437524 -0.96764475 0.091804944 0.024684545 0.11855942 -0.45208183 -0.30778432
1.0674707 -0.45148993 -0.3764555 -0.47892535 0.7422102 0.08609467 -1.5824469 1.8998107
0.08920532 -2.0876358 2.4981444 0.29728454 0.12901446 -1.7933512 0.0061009224 0.2708666
00000000: cea3 d93f 5427 a83f 2a43 e3be 1225 21bf
00000010: 85b6 bfbd 4bda 143f 818e a7bf 227f 8fbf
00000020: e951 80bd 80a2 1fbf 87a4 8cbf 3472 a1be
00000030: e69b 90be e2e9 cabf eeee 4b3e 3c35 0fbf
00000040: 70ff 8cbf a305 4a3d 3db7 e33f 8587 0240
00000050: 7d59 0ebe 36d6 0f40 88c4 2640 97ad c8bd
00000060: 5a1e c13f e36d 3540 8ddc fcbc 6006 16bf
00000070: 8d5c 05bf f208 b53e 82c1 93be 01d7 67bf
00000080: 4d67 5bbf c3e9 ddbf b9d4 afbf 6e90 cabd
00000090: 8d23 0bc0 da87 cdbe 86bd 873f 18e6 94be
000000a0: b1a8 c93c 0ec9 9d3e 1a69 d4be 39ed 9fbf
000000b0: 72e8 4dbf 0e1a 91be c468 f8bf 3e38 e5be
000000c0: 1bad ab3d a3aa 94bf f758 163f 5e6b ac3e
000000d0: a2d6 153f c72e 033f 8a20 03be 0a41 473e
000000e0: 5fcf 2bbe 9798 e93c 458b a53e 50da 8cbe
000000f0: f0b5 b43e 7b25 ac3f 6dcd 1cbe 893e 5cbe
00000100: afe9 ee3f a7b9 34bf 3165 853e 4745 6a3f
00000110: 0fd9 2fbe 8ec1 96be 420c 183f 12f8 063e
00000120: fc09 0d3d 1010 393f 83ee debe 51fb 9c3e
00000130: 31b6 bd3e 1d8f ecbe 19ab c13e ec2b 00c0
00000140: f189 0e3f 3178 413e 8545 983e 22ae f4bd
00000150: 7e13 eabd bf4b 873f f328 6abf d76d 37bf
00000160: 095d fb3f 4a1d 27bf 01a6 993e dddc 01c0
00000170: af37 db3e b7e8 8dbe 57c8 6dbf 5e0d 573f
00000180: 9ea7 5f3e 180a 47c0 f2ee ba3f 3226 5d3f
00000190: 5693 93c0 9583 c93f d505 723d 3aef b0bf
000001a0: eba5 d83e 4d78 acbe 2467 073f cbd9 83be
000001b0: d558 a9be 17e8 d33e 7ccc 3fbf 8ddb 9abe
000001c0: ff87 173f 44da 31bf 8a24 1cbd 867e 3dbf
000001d0: 4398 943e 8e36 ea3e c834 033f ded8 cabe
000001e0: ca3c fabd 3772 af3f f978 44be e61f c7be
000001f0: d9ad 0f40 bb0e 18bb 2a38 00c0 d95e 9cbf
00000200: 9fcf e5be 4adb 913f 2b69 9c3f f247 e03e
00000210: e5d2 c93f 9859 3c3f e652 ea3e 7da8 803f
00000220: c8ec 033e 3922 8a3f 5934 2c3f 8c0b da3e
00000230: bbdc a23f f6ce 893f 8bf7 343e e915 243f
00000240: 5e72 1ebf cf84 04bf b2e7 7abf 2d34 0ac0
00000250: 55dd 88bf dfab bebf e2d4 30c0 0d11 adbf
00000260: 7ce0 1ec0 318a 043e 23b1 883e 3995 d03e
00000270: 0f42 a63e fc51 11bf 92b2 9ebf 235b 363f
00000280: a0ec 103e 1a2c 5f3e 3ebb 693e aafe c93e
00000290: 36ee f63f d1ef bdbe 7099 913e a506 9c3e
000002a0: 12d4 563e 1032 1ebd de4d 3dbe 3e20 103f
000002b0: 5218 c23e 5372 213f 2eee ae3c 2c65 ac3d
000002c0: 7113 a53f fa04 4bbe 3eaf ca3e 38ca 143f
000002d0: bbdb 923d 9ddd 1e3f 98c3 b13e 1dc3 803e
000002e0: 5d35 8c3e d6c8 92be ea53 9bbe e4d3 06be
000002f0: bde5 7abf 4b22 b73d f96a b2be 1489 183e
00000300: 65ae ccbe fbe8 853f cb97 48bf 9258 80bf
00000310: 2696 373f 39ee 9cbe dc94 83bc 68cc 2cbf
00000320: b84f e83d 513b 8440 369b 71c0 891a 833f
00000330: 0e72 a73e c703 e3be c230 db3e 0c9c e9bd
00000340: 67a5 873d e833 1a3f 1c03 67bf 262f 463f
00000350: 5ef0 e9bd c2b1 b0be f5cf 453f 1ed7 a2be
00000360: e030 323f 7661 4ebf 85c8 593e 4151 14bf
00000370: e64d 9f3e 2398 abbe 6712 81bf c618 023f
00000380: 3693 57be afa8 923e 0d66 4bbe 87a6 84be
00000390: 52a6 413f 326c 58bf 3124 32bd bf72 31bf
000003a0: 006c 223e 2f85 5bbe 91b7 77bf 3b04 bc3d
000003b0: 3e37 ca3c 48cf f23d 4577 e7be e895 9dbe
000003c0: e1a2 883f b029 e7be c6be c0be b435 f5be
000003d0: 7d01 3e3f 6752 b03d 9f8d cabf ff2c f33f
000003e0: 47b1 b63d d39b 05c0 99e1 1f40 ae35 983e
000003f0: 5e1c 043e 888c e5bf 3fea c73b 07af 8a3e

fc1.bias f4 [64]
0.8801454 -0.42511132 -0.6545993 -0.4657951 -0.60649306 0.3035099 0.49061435 -0.1875995
-0.023121083 -0.8661566 0.40303746 -0.10023918 0.08199769 -0.7016671 -0.7838829 0.38750207
-0.47393015 0.57502294 -0.23019043 -0.45112437 0.08562027 0.07195472 0.43782035 0.53348684
0.18543401 0.16961814 -0.06938397 -1.0733453 0.033018384 0.2076386 0.3143445 -0.59771514
-0.26076934 0.8098135 -1.2106429 -0.39951232 -0.18678086 -0.53235185 0.3610081 0.012219866
-0.22761586 -0.08159434 -0.07399311 -0.26574957 -0.12107219 -1.3405427 -0.5151405 0.22713952
-0.4425579 0.019223472 0.12564343 -0.36340064 0.31450754 -0.26472002 -0.13741247 0.48069102
0.37590253 -0.015903497 -0.13689724 -0.6817127 -0.5292559 0.01785876 -0.09905724 0.20080149
00000000: 3551 613f 31a8 d9be d293 27bf b27c eebe
00000010: 2143 1bbf a665 9b3e ce31 fb3e 151a 40be
00000020: 6d68 bdbc 70bc 5dbf ed5a ce3e 334a cdbd
00000030: 68ee a73d 74a0 33bf 8dac 48bf ac66 c63e
00000040: f9a6 f2be b434 133f 0ab7 6bbe c6f9 e6be
00000050: ae59 af3d ff5c 933d fd29 e03e 9892 083f
00000060: 6ae2 3d3e 61b0 2d3e 2f19 8ebd 6163 89bf
00000070: 493e 073d 379f 543e c3f1 a03e dc03 19bf
00000080: 8f83 85be f04f 4f3f 59f6 9abf e18c ccbe
00000090: 7b43 3fbe 3648 08bf 0ed6 b83e d535 483c
000000a0: 2214 69be ef1a a7bd b389 97bd 5410 88be
000000b0: b2f4 f7bd e796 abbf 3fe0 03bf 4397 683e
000000c0: f396 e2be 8b7a 9d3c aca8 003e a60f babe
000000d0: 2207 a13e 6289 87be dbb5 0cbe 221d f63e
000000e0: 4c76 c03e 0d48 82bc ca2e 0cbe b984 2ebf
000000f0: 517d 07bf 894c 923c 86de cabd e89e 4d3e

fc2.weight f4 [64, 64]
-0.18197781 -0.46012482 0.7032167 0.8968339 0.29723674 -0.8436692 0.13476948 -0.3345028
0.32084227 -0.37259457 -0.03433451 -0.07427594 -0.043680057 0.5488605 -0.0035575253 -0.7112404
0.06654287 -0.73647994 0.025163686 -0.13250692 0.7235668 0.016897134 -0.6042716 -0.33242008
-0.08547444 -0.3560395 -1.1418222 0.22927393 0.6949212 0.22142416 -0.13378918 -0.057076022
-0.08236411 -0.7491583 -0.25348052 -0.21075548 0.052651927 -0.16037762 0.23537552 0.51275253
0.20209841 -0.0726724 -0.38628364 -0.5031253 -0.4246816 0.089130975 -0.094893485 0.010769834
-0.4948284 -0.3080875 -0.57949364 -0.028985567 -0.4269226 -0.28241095 -0.46887204 0.24165392
-0.5178894 -0.030861132 0.40373066 0.19667852 0.22058941 -0.597483 -0.056105927 0.14183092
0.11069029 0.13291313 -0.4180671 -0.14076139 0.27539197 0.022536919 -0.93986124 -0.21852386
-0.22123954 -0.5404481 0.22107571 -0.094670966 -0.018250555 -0.10540808 -0.111269265 -1.1519899
0.2732293 0.2879732 -0.34245408 0.08083828 -0.4148099 0.10552277 -0.3156429 0.5099384
-0.16795307 -0.07459471 -0.15941097 -0.41474086 0.44207683 -0.30471104 -0.24352944 0.6382441
0.31338632 0.4199365 0.39598197 -0.59214514 0.48736253 0.5529627 -0.066895746 -1.1763078
0.31346124 -0.022969976 0.03888363 -0.13821632 -0.036227785 0.052136566 0.34279555 -0.54475117
0.27930173 0.24135445 -0.5807897 0.08545786 -0.76744246 0.932043 0.5757876 -1.4850453
-0.21636365 0.060265977 0.3032908 -0.2562439 0.6873814 -0.19685414 0.087264866 0.2148471
0.50710595 0.53309035 -1.0950164 0.6577229 -0.6649813 -0.03820338 -0.023880191 -0.05834235
0.19011895 -0.081546396 0.03710752 -0.04737427 -0.18665539 -0.10087894 0.37149376 0.3172699
0.013282924 0.3227963 -0.13766265 -0.5395963 0.034037102 0.02898046 -0.6239113 0.12008822
-0.6758392 0.03178933 0.059077077 0.37995356 -0.032211334 -0.46432045 0.11956033 0.3223555
0.6847421 -0.28484288 0.28216887 0.070087366 -0.6111791 -0.13740592 -0.19108556 0.55797327
0.076805346 -0.08172616 -0.09509898 0.2370003 -0.5423396 0.13764372 0.38153902 -0.02548984
-0.7885967 0.29280642 0.29800615 0.2085383 0.23682307 -0.9463159 -0.10295103 0.23692775
-0.13186738 -0.09785122 0.092846766 -0.54002357 -0.13277516 0.065072685 0.12162955 0.19407324
-0.06758378 0.1363198 -0.635935 -0.17689085 -0.82862234 0.37414563 -0.10358675 -0.636845
-0.0071975905 0.19106129 -2.0139353 -0.104599684 0.16573747 0.49979866 -0.30471522 0.12623236
-0.6912987 0.111119814 0.83103395 -0.9300819 0.44648916 -0.046571434 0.6135893 -0.6200016
0.16165893 -0.60475534 -0.41284236 -0.9431857 0.35849354 -0.020948416 -0.015822519 0.43792993
-0.5217836 -0.3965143 -0.46807906 -1.3247626 -0.05084208 0.15609479 -0.15210043 -0.9509932
-0.64606255 -0.032956198 0.41467184 0.8864625 -0.20906207 0.33694613 0.42298067 0.20085552
-0.059400152 0.6957662 0.74777365 -0.61629254 0.17049068 0.045246966 0.5791333 0.017844912
0.7696367 0.1300378 -1.8288462 -0.44952124 -0.9562182 0.68349916 0.05040866 -0.2845091
00000000: 6458 3abe 7b95 ebbe 0206 343f e896 653f
00000010: 6a2f 983e b4fa 57bf 0301 0a3e f343 abbe
00000020: 7045 a43e b7c4 bebe 58a2 0cbd fc1d 98bd
00000030: dce9 32bd 1f82 0c3f 5f25 69bb da13 36bf
00000040: a147 883d f389 3cbf 1324 ce3c e5af 07be
00000050: ac3b 393f dc6b 8a3c 8bb1 1abf f732 aabe
00000060: 390d afbd cf4a b6be 3b27 92bf c9c6 6a3e
00000070: 5be6 313f 04bd 623e 0800 09be 8cc8 69bd
00000080: 84ae a8bd d7c8 3fbf 33c8 81be 49d0 57be
00000090: 8ca9 573d 083a 24be 4806 713e c043 033f
000000a0: e3f2 4e3e 44d5 94bd f8c6 c5be d2cc 00bf
000000b0: de6f d9be 4d8a b63d 8457 c2bd f573 303c
000000c0: 265a fdbe a5bd 9dbe b259 14bf 2473 edbc
000000d0: 9995 dabe 2b98 90be ff0f f0be 2074 773e
000000e0: 6694 04bf 7cd0 fcbc c9b5 ce3e 1866 493e
000000f0: 31e2 613e a5f4 18bf 54cf 65bd 203c 113e
00000100: 97b1 e23d 611a 083e e40c d6be c123 10be
00000110: 2d00 8d3e 589f b83c bf9a 70bf b8c4 5fbe
00000120: 9e8c 62be cf5a 0abf ac61 623e dae2 c1bd
00000130: 3082 95bc 31e0 d7bd 24e1 e3bd 6874 93bf
00000140: b6e4 8b3e 3971 933e 2456 afbe 8a8e a53d
00000150: f761 d4be 521c d83d f29b a1be 538b 023f
00000160: e4fb 2bbe 1cc5 98bd a13c 23be ea58 d4be
00000170: e557 e23e 1603 9cbe c85f 79be f763 233f
00000180: 2c74 a03e eb01 d73e 26be ca3e d396 17bf
00000190: 9587 f93e f78e 0d3f a300 89bd 4191 96bf
000001a0: fe7d a03e 882b bcbc 7144 1f3d 9488 0dbe
000001b0: 9663 14bd 278d 553d e682 af3e d074 0bbf
000001c0: a300 8f3e 9f25 773e a2ae 14bf 8804 af3d
000001d0: 1c77 44bf 5f9a 6e3f d166 133f f715 bebf
000001e0: 6f8e 5dbe 75d9 763d ef48 9b3e 6732 83be
000001f0: 3af8 2f3f 2294 49be ecb7 b23d e100 5c3e
00000200: b2d1 013f 9c78 083f 7f29 8cbf 8760 283f
00000210: 373c 2abf 267b 1cbd 64a0 c3bc 63f8 6ebd
00000220: 8bae 423e cc01 a7bd 0efe 173d 860b 42bd
00000230: 9722 3fbe 9e99 cebd 6e34 be3e 3371 a23e
00000240: 9fa0 593c 8e45 a53e 70f7 0cbe fc22 0abf
00000250: 7d6a 0b3d 6e68 ed3c a7b8 1fbf d0f0 f53d
00000260: cc03 2dbf 8735 023d cefa 713d 4689 c23e
00000270: 08f0 03bd 69bb edbe 0cdc f43d c80b a53e
00000280: 424b 2f3f edd6 91be 7078 903e f789 8f3d
00000290: 3c76 1cbf 23b4 0cbe efab 43be 56d7 0e3f
000002a0: 1f4c 9d3d 0c60 a7bd 41c3 c2bd 35b0 723e
000002b0: c5d6 0abf 7af2 0c3e 1559 c33e 12d0 d0bc
000002c0: 79e1 49bf b9ea 953e 4394 983e 108b 553e
000002d0: bf81 723e c241 72bf fdd7 d2bd 309d 723e
000002e0: 3e08 07be 3866 c8bd 7226 be3d fc3e 0abf
000002f0: 36f6 07be d444 853d ea18 f93d 23bb 463e
00000300: 5d69 8abd 6b97 0b3e a3cc 22bf e022 35be
00000310: 9820 54bf 0490 bf3e 4a25 d4bd 4608 23bf
00000320: c4d9 ebbb 92a5 433e 51e4 00c0 5c38 d6bd
00000330: 15b7 293e 9ce5 ff3e a203 9cbe 0e43 013e
00000340: f4f8 30bf c992 e33d a4be 543f d919 6ebf
00000350: 3a9a e43e b0c1 3ebd 3014 1d3f 6db8 1ebf
00000360: eb89 253e 3fd1 1abf 1360 d3be 9e74 71bf
00000370: 778c b73e 039c abbc 3a9e 81bc 5a38 e03e
00000380: 9c93 05bf ec03 cbbe 0fa8 efbe d291 a9bf
00000390: c93f 50bd 50d7 1f3e 37c0 1bbe 4a74 73bf
000003a0: 5b64 25bf 14fd 06bd de4f d43e 35ef 623f
000003b0: 5e14 56be 3484 ac3e ec90 d83e 12ad 4d3e
000003c0: 934d 73bd bc1d 323f 186e 3f3f 59c5 1dbf
000003d0: 1c95 2e3e e254 393d 1442 143f 7e2f 923c
000003e0: e906 453f a128 053e a217 eabf a627 e6be
000003f0: b7ca 74bf cdf9 2e3f 5079 4e3d 2dab 91be

fc2.bias f4 [64]
-0.14455423 -0.2898332 -0.4244816 -0.21309018 -0.2514053 0.72774047 -0.45603192 -0.8767135
-0.6353258 2.3920572 -0.5527257 -0.6086239 -1.6417639 -0.90884453 -0.21169877 0.39550182
-0.8789433 -0.38307637 -0.32133994 -1.3850235 -0.37759393 -0.4781844 -0.26717678 -0.6761155
-0.017933138 0.08343543 -0.21276784 -0.37930512 0.024934327 -0.40370843 -0.13034426 0.43359646
0.5471789 0.06553592 -0.16688569 0.53644127 1.2117018 0.16273765 -0.16852514 -0.29317045
-0.5814172 0.8510555 -1.0023475 0.80562305 0.6264471 0.64143616 -0.018386088 0.15610106
-0.28524798 -0.509465 -0.33726475 -0.7094276 1.362768 -0.6185651 -0.24863364 0.2735766
0.005492053 0.43726695 -0.33356023 0.076045394 -0.30478847 -0.11260041 0.7653229 -0.06906484
00000000: 0606 14be 0465 94be a755 d9be 5034 5abe
00000010: 32b8 80be 334d 3a3f 047d e9be 4c70 60bf
00000020: b6a4 22bf 7717 1940 6e7f 0dbf c7ce 1bbf
00000030: 5225 d2bf 09aa 68bf 90c7 58be 377f ca3e
00000040: 6e02 61bf 9622 c4be ab86 a4be 7348 b1bf
00000050: fe53 c1be 96d4 f4be 65cb 88be e815 2dbf
00000060: 84e8 92bc 32e0 aa3d d0df 59be 4834 c2be
00000070: 1343 cc3c dfb2 cebe f778 05be 5b00 de3e
00000080: eb13 0c3f b237 863d 15e4 2abe 3754 093f
00000090: 0b19 9b3f b3a4 263e db91 2cbe 701a 96be
000000a0: c2d7 14bf c6de 593f ec4c 80bf 503d 4e3f
000000b0: d65e 203f 2935 243f 6c9e 96bc f5d8 1f3e
000000c0: 060c 92be 4c6c 02bf f7ad acbe 0c9d 35bf
000000d0: 2f6f ae3f 485a 1ebf d199 7ebe 3b12 8c3e
000000e0: aef6 b33b 74e1 df3e 68c8 aabe b0bd 9b3d
000000f0: 3c0d 9cbe 0b9b e6bd 34ec 433f de71 8dbd

fc3.weight f4 [10, 64]
-0.8610627 0.30472866 -0.32213157 0.15697023 -0.55489486 -1.0292072 0.5894401 -0.6247323
-0.7046163 -0.62602216 -0.1818104 -0.6025837 0.3659918 0.7348212 0.33477777 0.16191499
-0.10846066 0.12636471 0.48704067 -0.11384687 0.21008591 -0.20879263 -0.5479298 0.25332853
0.3140247 -0.7107598 0.21179771 0.2797236 0.34893316 -0.17351034 0.5209908 0.92638254
-0.20302856 0.4851165 0.059014343 -0.8783436 -0.7735372 -0.29872492 0.3254657 -0.4932008
-0.14481902 0.4352661 0.3679186 -0.01208926 0.18226697 0.10863934 -0.12117065 0.30469412
0.32354233 0.34593448 0.76304376 0.2691266 -0.14129466 -0.9339 -0.28925818 -0.5936673
0.55907255 -0.58710647 -0.99079055 0.6425007 0.13300599 -0.43534547 1.015452 0.4794623
0.28030804 0.17126295 0.096296 -0.48062927 -0.10847685 0.18672565 0.04584342 0.15005247
0.26494926 1.1214058 -0.050733663 0.16899121 -0.51406455 -0.06861649 0.35024598 0.4807208
-0.7438132 0.20493883 0.13560654 -0.25244606 -0.0636711 0.15517783 0.010851739 -0.047212437
-0.05240132 0.29382205 0.026286913 0.8855047 0.12941146 0.03681106 -0.013249756 -0.0122553725
0.24008429 0.05075703 0.14993885 0.4850599 0.87144226 0.36175513 0.3710598 0.4625692
-0.21830845 0.5038785 0.4360774 0.6767613 -0.07668876 0.27592203 0.04487556 -0.50752354
0.2109858 0.0033742678 -0.11868443 -0.62020284 0.4294423 -0.2206602 0.3834983 0.3781006
0.20134027 0.26371706 -1.0074753 0.26970524 -0.33587518 0.15047911 0.5351729 0.07305942
0.21122901 0.31172854 0.00212691 -0.9252595 1.1591499 0.11462126 0.07959969 0.17795977
-0.19681947 0.6763299 -0.23339595 0.5148714 0.2142461 0.043845568 0.3348812 0.42574802
0.2521447 0.23322584 0.43242857 0.066714995 0.44151288 -0.17402472 -0.5668741 0.5883626
0.1822496 0.44446462 -0.5119944 -0.15386163 -0.6953268 0.15172403 -0.6667617 -0.3048767
-0.75808823 -0.10080742 0.05487505 0.21417099 0.5932072 -0.28056464 -0.35600674 0.5807556
0.39526215 0.16667864 0.009512433 0.2386713 0.13901925 -0.24670409 -0.49597484 0.41821727
0.16394322 0.13818713 0.14544241 0.16188033 0.29179785 0.28402174 -0.29706475 0.4431584
0.5109289 0.35475037 0.7198309 0.32841164 0.09701369 0.2710835 0.3727327 0.09057619
0.030370113 0.55177426 0.42453122 0.46074322 0.2756184 0.1120422 -0.18295264 -0.10197541
-0.043249063 0.11463351 0.42230514 0.19954467 0.3237718 0.2070181 0.45486584 -0.30786207
0.04365297 0.2347516 -0.21078554 -0.32292536 0.3350512 -0.18449138 -0.13502009 0.43609786
0.46463728 0.69894546 0.96929693 -0.049995914 -0.08587105 0.0567214 -0.2912616 -0.44319418
-0.28897882 0.32893875 -0.28851745 0.73860216 -0.36294976 -0.14955531 0.15672812 -0.45529902
-0.282765 -0.7975348 -0.029469924 -0.96637225 -0.36425287 -0.12186183 0.2849244 -0.0948668
-0.091268554 -0.0017703018 -0.14071584 0.68220574 0.008449763 0.5948921 -0.10675127 0.29681912
-0.057485808 0.3268074 0.8764148 0.24688278 -0.24487129 -0.21714695 -1.2510563 -0.36104277
00000000: 9b6e 5cbf 6505 9c3e 6eee a4be cebc 203e
00000010: 970d 0ebf 10bd 83bf 8ce5 163f 75ee 1fbf
00000020: bc61 34bf fd42 20bf 812c 3abe ed42 1abf
00000030: 4763 bb3e 3e1d 3c3f fe67 ab3e 0bcd 253e
00000040: 9f20 debd c065 013e 655d f93e 8c28 e9bd
00000050: c320 573e bccd 55be 2145 0cbf 47b4 813e
00000060: d8c7 a03e 5bf4 35bf 80e1 583e ef37 8f3e
00000070: 5ea7 b23e b2ac 31be a75f 053f 6827 6d3f
00000080: b8e6 4fbe 3161 f83e 06b9 713d 20db 60bf
00000090: 8906 46bf 79f2 98be 71a3 a63e d184 fcbe
000000a0: 704b 14be 33db de3e d45f bc3e 0812 46bc
000000b0: 31a4 3a3e 4d7e de3d 5128 f8bd de00 9c3e
000000c0: 57a7 a53e 531e b13e d656 433f f6ca 893e
000000d0: 8caf 10be 1214 6fbf a619 94be 95fa 17bf
000000e0: 611f 0f3f 9c4c 16bf 73a4 7dbf ed7a 243f
000000f0: b932 083e 9ae5 debe 55fa 813f 157c f53e
00000100: 8984 8f3e 8e5f 2f3e d636 c53d 0a15 f6be
00000110: 1c29 debd 0235 3f3e 4fc6 3b3d 5ba7 193e
00000120: 6ea7 873e 3a8a 8f3f 1ace 4fbd 080c 2d3e
00000130: bc99 03bf cd86 8cbd 7153 b33e 0921 f63e
00000140: 8b6a 3ebf 7cdb 513e 71dc 0a3e 9c40 81be
00000150: fe65 82bd f0e6 1e3e 7ecb 313c d461 41bd
00000160: c4a2 56bd d86f 963e a757 d73c 70b0 623f
00000170: 7084 043e 32c7 163d 8115 59bc c2ca 48bc
00000180: a8d8 753e 9ae6 4f3d 9289 193e c559 f83e
00000190: d716 5f3f f837 b93e 8dfb bd3e dfd5 ec3e
000001a0: 408c 5fbe 2efe 003f 8945 df3e 3b40 2d3f
000001b0: ff0e 9dbd a745 8d3e 6fcf 373d 10ed 01bf
000001c0: a90c 583e d222 5d3b d310 f3bd 9dc5 1ebf
000001d0: dcdf db3e bff4 61be e459 c43e 6796 c13e
000001e0: 252c 4e3e ec05 873e f3f4 80bf ce16 8a3e
000001f0: d5f7 abbe 3217 1a3e 1701 093f 2da0 953d
00000200: 6b4c 583e e29a 9f3e a163 0b3b cedd 6cbf
00000210: 065f 943f 8dbe ea3d 2a05 a33d 163b 363e
00000220: 0b8b 49be f523 2d3f 59ff 6ebe 9dce 033f
00000230: 5463 5b3e 6997 333d 8c75 ab3e a5fb d93e
00000240: 1c19 813e c1d2 6e3e 4767 dd3e dfa1 883d
00000250: fa0d e23e 8933 32be a91e 11bf ee9e 163f
00000260: a49f 3a3e de90 e33e 1112 03bf e78d 1dbe
00000270: f000 32bf 8b5d 1b3e e5b0 2abf cc18 9cbe
00000280: 1212 42bf 1f74 cebd a9c4 603d a44f 5b3e
00000290: 6ddc 173f 2ba6 8fbe 8446 b6be 66ac 143f
000002a0: cd5f ca3e cead 2a3e 09da 1b3c 4066 743e
000002b0: 105b 0e3e ff9f 7cbe 6af0 fdbe 9320 d63e
000002c0: bbe0 273e ed80 0d3e dbee 143e f5c3 253e
000002d0: 8766 953e 4c6b 913e df18 98be a8e5 e23e
000002e0: 3dcc 023f d7a1 b53e d646 383f 9225 a83e
000002f0: 1daf c63d 75cb 8a3e d2d6 be3e 0280 b93d
00000300: beca f83c 1441 0d3f 285c d93e 89e6 eb3e
00000310: db1d 8d3e 6276 e53d f057 3bbe 7cd8 d0bd
00000320: ee25 31bd f9c4 ea3d 6138 d83e 7055 4c3e
00000330: 6bc5 a53e 8efc 533e 2de4 e83e 19a0 9dbe
00000340: 75cd 323d b962 703e 2ad8 57be 7956 a5be
00000350: d58b ab3e 4feb 3cbe b542 0abe 3848 df3e
00000360: f0e4 ed3e 17ee 323f d823 783f 84c8 4cbd
00000370: 29dd afbd b354 683d 3e20 95be 59ea e2be
00000380: 08f5 93be a96a a83e 8fb8 93be 0815 3d3f
00000390: 8dd4 b9be 0725 19be 567d 203e f41c e9be
000003a0: 93c6 90be 3e2b 4cbf e96a f1bc 2c64 77bf
000003b0: 5a7f babe b292 f9bd 9ce1 913e 8649 c2bd
000003c0: 02eb babd 7909 e8ba d017 10be 09a5 2e3f
000003d0: e070 0a3c d94a 183f 69a0 dabd adf8 973e
000003e0: 3d76 6bbd 4d53 a73e b85c 603f d7ce 7c3e
000003f0: 8abf 7abe c55b 5ebe 9d22 a0bf 99da b8be

fc3.bias f4 [10]
0.22696568 1.0413495 -0.8651968 0.15928839 0.12648374 -1.3242509 -1.0686252 1.9741873
-1.4209753 1.2113787
00000000: b169 683e f14a 853f 8a7d 5dbf 7f1c 233e
00000010: f484 013e 0e81 a9bf b6c8 88bf 2bb2 fc3f
00000020: 85e2 b5bf 750e 9b3f
