ckpt/1102_00/model_epoch7.pth (torch, 8506 bytes, 6 tensors)

fc1.weight f4 [16, 63]
00000000: 8b68 883f a536 183e fb2d 90bf f7ea 4bbe
00000010: 53cc f2bd 62f9 063f 01c9 c9bf c663 64bf
00000020: 5c40 e8bc 68ab a9bf 3cd2 963c c7a7 abbd
00000030: b3da 0bbf 2469 223f 976c 24bf 0227 80be
00000040: 6480 533e a2b7 c43e 1fc5 2840 2f9f 86be
00000050: 3cb1 a7bd c482 7940 0cd9 dfbd c91d 8c3f
00000060: 078f 7040 6b44 d83e 37bd 9d3f efac 79bf
00000070: 8f6c c93d 68a7 003f 1c0a 223f 5066 71bd
00000080: 1de3 8dbe 6cc7 6cc0 d8e3 fcbe 048a 81bf
00000090: 3a6e dbc0 0ded 073f 8baa 81bf 5cdf 8fbf
000000a0: 2b5e 373c 7fa8 073f 0e33 b83f 49d5 5bbe
000000b0: b9ec bdbf 3780 7b3f 90dc 1ebf eb7f 6bbf
000000c0: dd2e 6d3f 7ed3 1a3f 2fa2 203f c8fa 833d
000000d0: 3ca3 203e 3b5f 053f 7d65 ba3f 6b97 dc3e
000000e0: 6b74 293f b055 473e 7ba1 0fbe 0cf7 463e
000000f0: f5f1 8fbf 34af 08bf 6fe9 86bd fec1 fb3f
00000100: 7adc 30c0 b136 d23f f079 c0bd eac6 5ebf
00000110: a800 2440 88b3 88bf 4d39 e9bd ba79 3d3f
00000120: 03ea cbbe 12af 0dbf 569a 6d3e 6b3b 243f
00000130: f795 cc3b 6b8b 4d3e f696 9bbe 4075 0540
00000140: 958c f8bf 2efc 243c e8db 1a3e 0b32 2d3e
00000150: 44ba 6c3f 645f bdbf d68e 9f3f 9b43 063f
00000160: a37c abbf 7b97 c03f 9740 5dbe 6db3 c33f
00000170: 7db0 febf 7770 79bf fd0a adbe 98e5 613f
00000180: d2a0 65bf 8658 eb3e 27e9 21bf adef 49bf
00000190: f28d 0d40 3027 63c0 fc3a f1be 0751 7e3f
000001a0: d9a3 4dbf 0a73 493e d264 08bf 3218 103f
000001b0: 13cb c43e 88cd 763f 774d bebf e109 35bf
000001c0: f9cc 5c40 79c6 70c0 011d 94bf e1e6 1e3f
000001d0: 8648 b93f d9c5 b53e 05c4 8abe 1b65 85be
000001e0: 4936 0e3f 463c 86bf 8a26 a03f 9455 bc3e
000001f0: 851d 02c0 5f7f 2f40 abaf 61c0 c332 0b40
00000200: 42b2 ed3f c1d2 83bf b64c 6bbf 00f5 a1bf
00000210: 4d9a d73e 4dbb 363f 49cb 0e3e e543 3fbf
00000220: 34f0 003f 27d1 b13f 8ea1 0ec0 44f2 2cbf
00000230: e62a 2abf b1f7 b73f 8cb9 bfbf 11d5 92bf
00000240: 86e7 86bf 0d05 0a3f b434 cd3e ea68 2ec0
00000250: efe1 613f 0d15 ab3f a88f 9d3c 84e4 b73f
00000260: d832 bb3e 6834 2940 e67f 89bf 26bc f9be
00000270: 81a6 ffbe b240 cd3e e298 743e 9003 2740
00000280: 568c 37bf f29f 2fbf 2f12 cb40 5bc4 99bf
00000290: bd28 13c0 0acb b13f d712 92be b72e bc3e
000002a0: c829 86bf 90ed 4e3e af2f eb3e 6d6c ba3e
000002b0: 6ee4 8fbf 8c98 05be a51f 5f3f 806f 87bf
000002c0: 7b34 5ebe bb7b 9abe b2be 7dbc 07ea b23e
000002d0: cf55 143e bc7e e53e b4d7 ecbf 0d43 8bbf
000002e0: ba53 d23d 763b 5bbe 4a96 16c0 8a98 313f
000002f0: b9ba cd3f a3b1 7e3f cda0 a1bf 185b 37c0
00000300: f2f5 7cbf 3fdd c93f 50ed 0040 80a8 c5be
00000310: 98eb 913f 262d da3f f9dd 43bf 6577 c53e
00000320: 342a 0a3f 5014 5e3f 25e0 b8be 17c5 63be
00000330: de2a 643f 5a3b 0c3f 35b9 893f f693 9e3d
00000340: 02a5 b5bf ff79 9abe 8e1e 9bbf 4d73 dabf
00000350: 490a 36c0 24dd 74bf b31d 95bf ab7e 99c0
00000360: 400d 0d3e 5523 ca3e 3f4b 513e 7518 093f
00000370: 9e17 603e 661f 993f d6fe cd3e 8870 a53f
00000380: a1fc 1e40 4ea3 f63e f06d 1140 a995 8340
00000390: 27c0 68be abd7 863e f4fa 483c 900e da3f
000003a0: 70e6 0bbe 5f81 d6bf aa55 593f e87a 1cbf
000003b0: b544 a1bf fead 9bbe f02e 18bf 6338 363e
000003c0: 12cb 91bf da0a babd 36eb 083e 5b00 853e
000003d0: ff1d db3e 3157 debf a2f6 75be 9a8a 273d
000003e0: f34d debe 74b6 7abf 8226 a2bd 880c cd3f
000003f0: 6482 d93f 8a35 2a40 5026 1a3f 797a 973f
1.0656904 0.14864595 -1.1264032 -0.1991385 -0.11855378 0.5272428 -1.5764467 -0.8921474
-0.028351001 -1.3255434 0.018410794 -0.0838161 -0.54630584 0.6344168 -0.64228195 -0.2502976
0.20654446 0.3842135 2.6370313 -0.26293322 -0.08188102 3.8986063 -0.1093007 1.094659
3.7587297 0.422397 1.2323369 -0.975295 0.09835159 0.5025544 0.63296676 -0.058935463
-0.27712336 -3.6996717 -0.4939258 -1.0120244 -6.8572054 0.53096086 -1.013017 -1.1240039
0.011191885 0.5299148 1.4390581 -0.2146808 -1.4837867 0.98242515 -0.620553 -0.9199206
0.9264963 0.6047896 0.6274747 0.06444317 0.15687269 0.52098435 1.4562222 0.43084273
0.66193265 0.19466281 -0.14026444 0.19430178 -1.1245714 -0.5339234 -0.06587493 1.9668577
-2.7634568 1.642294 -0.09398258 -0.8702227 2.56254 -1.0679789 -0.113878824 0.74013865
-0.39826974 -0.5534526 0.23203406 0.64153165 0.006243463 0.20072715 -0.30388612 2.0852814
-1.9417902 0.01006989 0.1512295 0.16913621 0.9247172 -1.4794736 1.2465465 0.5244691
-1.3397411 1.5046228 -0.2160667 1.5289131 -1.989761 -0.9743723 -0.33797446 0.8824096
-0.8969852 0.45965976 -0.6324639 -0.7888134 2.2117887 -3.5492668 -0.47115314 0.9934239
-0.80328137 0.1967279 -0.5327884 0.5628692 0.38436183 0.96407366 -1.486739 -0.707182
3.4500105 -3.7621138 -1.1571351 0.62071043 1.4475257 0.35502508 -0.27102676 -0.260537
0.5555158 -1.0487144 1.2511761 0.3678404 -2.0330517 2.742149 -3.526347 2.1749732
1.8570025 -1.0298692 -0.91913927 -1.2652893 0.4210991 0.7137955 0.13944735 -0.74712974
0.5036652 1.3891953 -2.2286105 -0.6755717 -0.6647171 1.4372464 -1.49785 -1.1471273
-1.0539405 0.53913957 0.40079272 -2.7251534 0.8823537 1.3365799 0.01923354 1.4366612
0.36562228 2.6438236 -1.0742157 -0.48776358 -0.4993172 0.4008842 0.23886445 2.6095924
-0.7169851 -0.6860343 6.3459697 -1.2013048 -2.2993615 1.3890088 -0.2853 0.3675439
-1.0481501 0.2020781 0.45934817 0.36410847 -1.1241586 -0.13046473 0.8715766 -1.0580902
-0.21699707 -0.30172524 -0.01548736 0.34944174 0.14485858 0.44823253 -1.8503327 -1.0879837
0.10269876 -0.21409401 -2.352923 0.6937338 1.6072608 0.994898 -1.2627198 -2.864935
-0.9881278 1.5770644 2.0144844 -0.38605118 1.1400023 1.7045028 -0.7651058 0.38567653
0.53970647 0.86749744 -0.3610851 -0.22243153 0.8912791 0.54778063 1.0759646 0.07743065
-1.4190981 -0.301712 -1.21187 -1.7066437 -2.8443778 -0.95649934 -1.1649688 -4.7967124
0.13774586 0.3948008 0.2043886 0.53552943 0.21884009 1.1962707 0.40233487 1.2924967
2.4841692 0.48171467 2.272335 4.112019 -0.2272955 0.26336417 0.012266863 1.7035694
-0.13662124 -1.6758231 0.8489634 -0.6112504 -1.2599093 -0.30406183 -0.5944662 0.17794947
-1.1390097 -0.09084101 0.13370976 0.25976834 0.42796323 -1.7370359 -0.24019864 0.040903665
-0.43418846 -0.9793465 -0.07917501 1.6019449 1.6992917 2.6595178 0.6021471 1.1834251

fc1.bias f4 [16]
00000000: 63fe fe3e d055 42be e3dd 833e 5c7c 96bd
00000010: 2098 d2bd a673 26be 98c0 a83e aecf a5bf
00000020: b15d 7b3e 8e5c 243e da86 a2bf 08a9 003f
00000030: c7df 9dbf 4206 a93f fc94 b43d 2d77 06be
0.49803457 -0.18978047 0.25755224 -0.073479384 -0.10282922 -0.16255054 0.32959437 -1.2954004
0.24547459 0.16050932 -1.2697403 0.5025792 -1.2333916 1.3205035 0.08817479 -0.131314

fc2.weight f4 [16, 16]
00000000: c004 0ebf ef65 423f 584d 3b3f a27d 46be
00000010: 033c 763e 3a66 07bf d31f 23be b537 39bf
00000020: 9f6f 2dc0 c584 8e3e 039d 6d3f a1a9 32bf
00000030: d4df 57bf 5591 93be 39c1 053e 8354 693e
00000040: 55f3 adbe 7863 38be cd98 97bf 566f 3d3f
00000050: c887 edbd 5482 c4be 2846 793f c064 3bbe
00000060: 31e1 8a3e 2c64 04be 8cc8 13c0 3446 9f3d
00000070: fc42 83bd 2bbb 21be f4e9 2c3e 4ffe febc
00000080: e6c0 963f d526 0a3e ed68 3b3c ab84 c6bf
00000090: 2142 6f3f d5d4 b7bd 1064 efbf 1289 32be
000000a0: ebc5 53bf bc41 37bf a686 34be 501c 54be
000000b0: cd0e d1bc 3598 d2be 7ed3 0c3e 2dda 5dbe
000000c0: a3ab 23bf 5165 713f e0a7 b23f 52d2 9e3e
000000d0: a5ff ba3f 8fd7 993f 35d6 293f 3140 20bf
000000e0: ac07 aabf c5f8 7bbf 8278 69be 98ca 0abf
000000f0: 1db9 03bf bcdd 34bf 6456 cf3d 5f1f 85bd
00000100: 053d 1bbe 82b8 1bbe 86bc eebe 0e21 b53d
00000110: 09cc 2ebf 8f7f 76bd 3271 c03f 1d82 eebe
00000120: 54aa 6abc 07a5 853d 2c96 e63e 708c cdbd
00000130: 2941 733c be02 a93e 2d84 7d3e a0e6 f2bc
00000140: 7e4d 1b3f b19f 1bbf 8d60 5c3f e927 213f
00000150: 93f3 8f3e 1f52 74bf 51ab eb3e 1f7d 83bf
00000160: 19fa 693e 0bfc 08c0 7435 0dc0 f8e7 9dbf
00000170: 01fe 3abf d868 6bbf 229b 44be abf3 7a3e
00000180: 8596 4b3f 604e 7e3e b683 31bf e2c4 0f3e
00000190: 4d4a 383c dd5e 88be ad58 d03e 382b 21be
000001a0: 9af2 c0bd e19e 8dbe cfab 17bf d702 90be
000001b0: fdda f7be 9585 c1be ee1b 1ebe 1061 64be
000001c0: 5bf4 ab3e 6e8b a23e bca2 00bd 6779 91be
000001d0: e159 8c3e 215c 603f 59b2 7f3e 28be 42bd
000001e0: f703 acbf f6ce 0fbe 2745 5abf 06ab ddbe
000001f0: 329a be3b 5cb0 0f3f 39ab 6ebe fe76 da3d
00000200: fbba 98bf 9f79 ef3e e4c6 a03d 74a7 6cbf
00000210: cbd3 4f3f de12 233f c320 7cbf 889d 343e
00000220: 1386 56be 41c4 23bf 918b b3be 609b 3a3f
00000230: 1333 443f f2ed 113f 80c7 c0bc 9722 113e
00000240: bd18 543f b790 cdbf 4e66 43bf e26e 293f
00000250: 5246 ecbf 39d0 e1bf bcb9 8b3e 4429 f93e
00000260: 3c49 343f 146c cf3d d422 c7be c79e c63e
00000270: f8be d53d 5829 bb3e 376f 203d 9a8c 47be
00000280: 62ff f43d 21b5 debe 466c a93d 44bf 163e
00000290: 0ede 81be 66dc a93e 669b 75be 260b e63c
000002a0: d606 953f 5245 4b3f 4cad 92bd c10a fd3e
000002b0: e6c4 1c3f dca9 853f b30a e9ba 7a0b 763e
000002c0: fad4 f2bf 74dd bfbe 21a0 bdbe 0663 01c0
000002d0: 6279 b4be 9bdc a2be 5dfb 85be afff b13f
000002e0: 10fe 51bf eee8 36be 98f0 8a3e c389 ac3f
000002f0: da91 a53f 57d8 8f3f 51c9 6f3d 8785 7e3e
00000300: bb12 6ebf e025 6b3f bb51 2c3f f361 86be
00000310: 4131 d83f bdd1 81be 9282 5cbd 7beb c23e
00000320: 6824 093f aec1 a0be 823d 273f c815 6ebf
00000330: e109 d1be 9612 93bf 767c a03d e035 c73d
00000340: 7d98 ea3e ab03 663e 455a ddbd b60d 103f
00000350: ea6e 653d e7fa 8a3e abfd 87bc a910 b1bf
00000360: aefd 933e a5b9 663e 360c b2bc 2586 aabf
00000370: f4d7 a0bf 7f8f b0bf f38b 243e 4e70 3dbe
00000380: 14ad 673f 5d03 56bf 46e3 203f f7f0 833f
00000390: fba1 473d 85d7 8abe 0ebf 253f 09a7 7e3f
000003a0: 119d 39be 9091 08c0 ef0d f7bf 77a5 1c3f
000003b0: 13b4 623f 9003 6e3f fb90 f33d 1f5d 673e
000003c0: df87 0e3f 28be 013f d8b2 03bf 2b6e bc3f
000003d0: 41ed df3e d05e 7f3e 3432 b7bf 12a3 1f3f
000003e0: d994 883e 4999 353f cccc 073f 303e 313f
000003f0: 6cd1 a93e 3af9 b7bd a25f 9a3d afd4 2b3e
-0.55476 0.7593679 0.7316489 -0.19383863 0.2404633 -0.5289036 -0.15930109 -0.7235063
-2.7099378 0.2783567 0.92817706 -0.69790083 -0.8432591 -0.28821817 0.1306199 0.22786145
-0.3397471 -0.18006694 -1.1843506 0.7399801 -0.11598164 -0.38380682 0.97372675 -0.18300152
0.27124932 -0.12928838 -2.3091154 0.07777062 -0.06409261 -0.15794055 0.16886121 -0.031127123
1.1777618 0.13491376 0.0114385905 -1.5509237 0.9346028 -0.08976141 -1.8702412 -0.174351
-0.82723874 -0.7158468 -0.1762949 -0.20713925 -0.025519753 -0.4113175 0.13752553 -0.21665259
-0.6393377 0.9429522 1.3957481 0.31019837 1.4609267 1.2018908 0.6634248 -0.6259795
-1.3283591 -0.9842647 -0.22799876 -0.54215384 -0.51454335 -0.7065084 0.101238996 -0.06500124
-0.15159996 -0.15207103 -0.46628207 0.08844195 -0.6828008 -0.060180243 1.5034544 -0.46583644
-0.014322836 0.06525617 0.45036447 -0.10036552 0.014847078 0.33009905 0.24757452 -0.029650986
0.6066512 -0.60790545 0.86084825 0.62951523 0.2811552 -0.95437807 0.46029142 -1.0272559
0.22849311 -2.1403835 -2.2063875 -1.2336416 -0.7304383 -0.91956854 -0.19199803 0.24507014
0.7952655 0.24834585 -0.693416 0.14039949 0.011248183 -0.26634875 0.40692654 -0.15739143
-0.094212726 -0.27660277 -0.59246534 -0.28127167 -0.48409262 -0.37797228 -0.15440342 -0.22302651
0.33584866 0.31747 -0.031405196 -0.28412935 0.27412322 0.8764058 0.24970378 -0.04754463
-1.343871 -0.14043793 -0.8526177 -0.43294543 0.0058167214 0.5612848 -0.23307504 0.10667227
-1.1932062 0.46772477 0.078504354 -0.92443013 0.81182545 0.63700664 -0.9848749 0.17638218
-0.20949583 -0.63971335 -0.35067418 0.72893333 0.76640433 0.570037 -0.023532629 0.14173351
0.8285025 -1.6059788 -0.7632798 0.6618482 -1.845896 -1.764167 0.27290142 0.48664296
0.70424247 0.10128036 -0.3889376 0.38793012 0.10436815 0.3655498 0.039168563 -0.19487229
0.11962773 -0.43497565 0.08272605 0.147214 -0.25364727 0.33175963 -0.23985061 0.028081488
1.1642711 0.7940265 -0.0716196 0.49422267 0.61237943 1.0442462 -0.0017779678 0.24027815
-1.8971245 -0.37473643 -0.3703623 -2.021669 -0.35248858 -0.31808934 -0.26168337 1.3906153
-0.82028294 -0.17862293 0.27136683 1.3479542 1.2935135 1.1237897 0.0585416 0.24855624
-0.9299733 0.9185467 0.6731221 -0.26246604 1.6890031 -0.2535533 -0.05383546 0.38070282
0.53571177 -0.31397766 0.6532823 -0.93001986 -0.4082785 -1.1490047 0.07836239 0.09727073
0.45819464 0.22462337 -0.10808233 0.5627092 0.05601398 0.27144548 -0.01660045 -1.3833209
0.2890448 0.22531755 -0.021734338 -1.3322188 -1.2565904 -1.3793792 0.16069011 -0.18499872
0.9049847 -0.8359888 0.6284679 1.0307912 0.04873846 -0.27117553 0.6474465 0.99473625
-0.18126322 -2.1338844 -1.9301127 0.6118998 0.8855602 0.92974186 0.11892887 0.22594117
0.5567607 0.5068078 -0.5144477 1.472112 0.43735698 0.24938512 -1.4312196 0.623582
0.26676062 0.7093702 0.5304687 0.69235516 0.3316759 -0.08983083 0.07537772 0.16780351

fc2.bias f4 [16]
00000000: fd3a d73e 1bd7 ee3d cefc d83d 204f b8bf
00000010: ea95 e0bf e961 5440 69d9 44bd 48b8 4ebf
00000020: b44c 23c0 d34f 3740 f6c6 86c0 f42e 0ec0
00000030: d711 14c0 d457 ab40 1700 29c0 7545 7ec0
0.42037192 0.11662122 0.10595094 -1.4399147 -1.754575 3.318476 -0.0480589 -0.8074994
-2.5515566 2.864247 -4.211787 -2.2216158 -2.3135889 5.354471 -2.6406305 -3.9729893

fc3.weight f4 [10, 16]
00000000: 370d 3d3f 72d2 12bf a88c 3ebf 8f24 0ebf
00000010: 34d0 e83d be24 11bf e950 62be 9e76 7cbf
00000020: 15e2 6f3e 507e 5ebe 9243 b43e 0da3 3fbe
00000030: 510f babe 9d06 cb3e 3646 06bf 3ce8 dd3e
00000040: 34fa 52be d39b 2a3e 6dca 5bbe 06d9 80bf
00000050: 914f d73d bf55 ab3f 3790 8cbe 6fb9 9dbe
00000060: 2447 743f cd41 2f3f c546 ccbe 931a 92bd
00000070: 8719 89bd c547 6d3f 635f cb3d 3be4 36bb
00000080: e391 80bf 3190 5c3c 0737 fe3d 119f 473f
00000090: c420 5e3e 01b3 5b3f 66e1 1a3f eef6 993e
000000a0: fcc3 b3be c928 15bf 49d0 0c3e 6c77 96bd
000000b0: e260 57bd 29c2 433f 2e1b 7e3e 275f b33d
000000c0: a125 c13e 2764 18bd 97c2 e73e fa37 903f
000000d0: 3428 bb3e 8bd9 b2be dba8 c1bd dd6c 5a3f
000000e0: ee88 43be aa7c 56bf db55 253e feee 73be
000000f0: aa7b 8a3d 6e49 06bf 5525 a8be b321 1b3f
00000100: 9b63 00bf e5e5 053e 5116 633f 1c8a 853f
00000110: dd55 043e efb7 acbe 1a01 a9be 51ad 353f
00000120: eead 103e 5007 aabf a019 bbbf 3ca7 fd3b
00000130: 5eb8 42bf b9f7 f9bf d2dc d93e c2ec 64bf
00000140: e093 b9be 805c 8f3e f80a dbbe ecc1 2e3f
00000150: b2cc 21bf a541 b2bf e68e 243e 8a4f 453f
00000160: 9313 873f 5122 7ebf a250 0dbf 0828 883f
00000170: bc8e 6c3e 3844 bdbf cbd6 df3e 1d84 11bf
00000180: b68e 1cbf 51ac 90bf 3d5d ea3d cb1b b8be
00000190: 34d2 2e3f 351d b33e e26b 003f 9f15 5abd
000001a0: 817e 35be 7632 9b3f 7e46 003f 28b5 583f
000001b0: fddf 963e ee6a c4be b63d c0be 8239 77be
000001c0: d541 2f3f 3c36 043e a4ca 52bf 3fc5 06bf
000001d0: 1100 2abf 9621 f63d ae7f 74be 03f8 0abf
000001e0: 953e ecbe d087 8fbe 9f5d 223f d444 e8be
000001f0: 7732 f53e 6f74 5e3f 90e4 3ebe dbb5 0ebe
00000200: 4896 de3e ef4d 1b3d ac68 b63e 9192 15be
00000210: 6eed 223f 730b e03e c137 dfbe 822f 443e
00000220: 339c 18bf 1ede 833f 3ed9 143f 7d72 0b3e
00000230: 3f8c ac3e ac95 98bd 195f 4a3f 44f8 723e
00000240: b1d1 aa3e 7faf 2f3f 2a28 103d 1044 05bf
00000250: 16ef 4cbf c8ef 40be 8fb8 c5be 96f9 f6be
00000260: bdfb 36bf 2d29 933f ea66 333e 0d67 efbe
00000270: 6b87 d3bc cce1 ae3f 1b8d b5be 34ec 3ebc
0.7384829 -0.57352364 -0.74433374 -0.55524534 0.113678366 -0.5669669 -0.22101177 -0.98618495
0.23426087 -0.21727872 0.35207802 -0.18714543 -0.3633981 0.39653483 -0.52450883 0.43341243
-0.20603257 0.16661005 -0.21463938 -1.006623 0.10513223 1.3385543 -0.27453777 -0.30805537
0.9542105 0.6845978 -0.39897743 -0.07133975 -0.06694322 0.92687637 0.09930303 -0.0027907032
-1.0044521 0.013462112 0.124128394 0.7797709 0.21692187 0.85820013 0.6050018 0.30071205
-0.35110462 -0.5826536 0.1375133 -0.07346997 -0.05258263 0.7646814 0.24815056 0.08758383
0.3772402 -0.037204888 0.45265648 1.1267083 0.3655411 -0.34931597 -0.09456035 0.8532236
-0.19095203 -0.8378397 0.16146033 -0.23821637 0.06761868 -0.52455795 -0.32840982 0.60598296
-0.50151986 0.13075979 0.8870593 1.0432773 0.12923379 -0.3373408 -0.33008653 0.70967585
0.14128849 -1.3283482 -1.4617195 0.007740883 -0.7606257 -1.9528724 0.42551285 -0.89423764
-0.36245632 0.2800026 -0.42781806 0.6826465 -0.63202965 -1.3926283 0.16070136 0.7707449
1.0552849 -0.9927111 -0.5520116 1.0637217 0.23101324 -1.4786444 0.43718562 -0.56842214
-0.6115526 -1.1302587 0.11443565 -0.35958704 0.68289495 0.3498322 0.50164616 -0.053243276
-0.17724039 1.2124774 0.5010756 0.8465142 0.29467764 -0.3836283 -0.37547082 -0.24143031
0.68459827 0.12911314 -0.82340455 -0.52644724 -0.6640635 0.12018125 -0.23876831 -0.54284686
-0.46141496 -0.28033304 0.63424104 -0.45365012 0.47890064 0.86896414 -0.18641877 -0.1393656
0.4347403 0.03791612 0.35626733 -0.14606692 0.6364354 0.43758735 -0.43597224 0.19158748
-0.5961334 1.030216 0.58143985 0.13617893 0.3370075 -0.07450423 0.7905136 0.23727518
0.33363107 0.6862716 0.035194553 -0.5205698 -0.80052316 -0.1884147 -0.3861737 -0.48237294
-0.7147787 1.1496941 0.17519727 -0.4675831 -0.025821408 1.3662658 -0.35459217 -0.011652995

fc3.bias f4 [10]
00000000: ab8e 4c40 63a3 afbe 3996 3cbf bb13 f2be
00000010: 269b 1140 13a1 20c0 1301 e8be 195f 4b40
00000020: 16ef 30c0 40c3 b8bf
3.1962078 -0.34304342 -0.7366672 -0.47280678 2.2750945 -2.5098312 -0.4531332 3.1776793
-2.7645926 -1.4434586
