ckpt/1027_02/model_epoch6.pth (torch, 106682 bytes, 6 tensors)

fc1.weight f4 [128, 63]
000000 f8 a6 1d bf 75 2d 76 bb 35 56 b4 3f f9 83 0a 3d
       -0.615829 -0.0037563716 1.4088808 0.033817265
000010 7e ab ec bc 55 cb 08 3f 3f 15 c4 3d 33 ef 87 ba
       -0.028890368 0.5343526 0.09574365 -0.001037097
000020 20 14 d4 3e bd 16 c5 be c9 fe 2f be 52 d0 10 3f
       0.41421604 -0.3849391 -0.17187037 0.5656787
000030 8d 27 cd be f6 c8 d5 be a9 22 32 3f bb 65 c7 3e
       -0.40069237 -0.41754884 0.6958414 0.38944802
000040 b4 08 b9 bd b8 45 60 bf 81 b7 aa bd 48 4e 8c be
       -0.09034863 -0.8760638 -0.08335782 -0.27403474
000050 86 88 1b 3f 5b fa e5 bd 3e 9f 24 bd b6 ba 33 3e
       0.60755193 -0.11229392 -0.040190928 0.17551693
000060 01 45 23 bd 1e 43 53 3d 6a 36 46 bf 40 55 9a 3e
       -0.03986073 0.05157768 -0.7742678 0.30143166
000070 d1 e6 56 3b 66 b9 4f bf c7 19 6d be cd dd 6a be
       0.0032791386 -0.8114227 -0.23154365 -0.22936173
000080 75 88 58 3f 70 2e 47 be 04 07 60 bd f0 33 81 3e
       0.84583217 -0.19451308 -0.05469419 0.25234938
000090 a3 59 62 3e 3d 2b 14 3e 64 cc 55 bf 01 39 bd 3e
       0.22104506 0.14469619 -0.83515 0.36957553
0000a0 8a 29 65 3d c4 7b 03 bf 8b 1e 5f bf cc d3 62 be
       0.055947818 -0.51360726 -0.8715598 -0.22151107
0000b0 7f 0e ef 3f 50 c6 dd bc fb fa 5d bc ef 33 88 3c
       1.8676299 -0.027072102 -0.013548608 0.016626326
0000c0 e5 35 cb 3f c4 ee cc bd 10 7c 4d c0 92 b4 9a 3e
       1.5875822 -0.100064784 -3.2106972 0.3021589
0000d0 e6 2d 5d bd 11 20 4d be 65 6b d2 be 8f 45 32 bb
       -0.05399885 -0.20031764 -0.4109756 -0.0027202105
0000e0 e6 32 a3 3f 6b 13 1e be fc 1f 09 3e 38 a4 cc 3e
       1.2749908 -0.15437095 0.13391107 0.3996904
0000f0 61 04 2b 3e e7 b9 86 3e 03 2c a9 bf c0 90 65 bd
       0.16700889 0.26313707 -1.3216556 -0.056046247
000100 ac 2b 87 bd 57 9f 6f 3d 86 0c 20 3d 30 3d 2a 3d
       -0.066001266 0.058501568 0.039074443 0.04156226
000110 b9 07 57 bc 7f 20 7c bd a6 d1 a2 bd 14 18 70 3d
       -0.0131244 -0.06155443 -0.079501435 0.058616713
000120 20 7a 42 bb 21 31 ac bc 23 27 83 bc ea dc d1 3d
       -0.0029674843 -0.02101952 -0.016009873 0.10247214
000130 40 2d ef bd 06 02 84 bd 5a 55 98 bd 16 d3 33 3d
       -0.11678553 -0.064456984 -0.074381545 0.04390248
000140 d9 a7 80 bd 64 af 92 bc 70 7b 0a bd 9d 25 71 3d
       -0.062820144 -0.017905898 -0.033809125 0.05887376
000150 c8 ea b2 3d 28 1b 57 bd 47 f3 31 3d fe 58 51 bd
       0.08736187 -0.052516133 0.043444898 -0.05111026
000160 e9 98 c4 bd 22 de d3 bd d8 31 e6 bd ec 56 8f bd
       -0.09599478 -0.10345103 -0.11239976 -0.06999001
000170 2b bd fa bd 0d 96 b8 bb 8f e5 21 bd 99 e9 fc 3d
       -0.12243112 -0.005633122 -0.039525565 0.12349243
000180 42 33 73 3d f3 4c de bd b4 07 36 3d 0d b1 9f 3d
       0.059375055 -0.10854521 0.04444094 0.07797442
000190 38 32 ba 3b cb 1e b6 bc 66 64 90 3d 53 f6 07 bc
       0.005682256 -0.02223148 0.070503995 -0.008298474
0001a0 f2 67 ee bd 7e b0 7f bd b7 45 d6 bd 18 49 fd bd
       -0.1164092 -0.062424175 -0.10462516 -0.12367457
0001b0 aa 83 b9 3c 6e 3f ee bc b3 48 c5 3c 8c bb ce bd
       0.02264579 -0.02908298 0.024082517 -0.100943655
0001c0 33 e5 aa bd 4d 25 60 3d 40 15 50 3c f9 2d 57 bd
       -0.083444975 0.054723073 0.012700379 -0.052534077
0001d0 fb db 07 bd 89 ef f3 3d 5b 8c 8a bd ca 35 ff bc
       -0.033168774 0.11910922 -0.06765052 -0.031153578
0001e0 1a fa d0 bd ed 29 ef 3c 48 a9 92 3c 4c 54 fe bd
       -0.10203953 0.029194796 0.017902985 -0.12418422
0001f0 9f fa 97 bd b2 03 ed 3d 94 e0 67 be 42 3c 46 3f
       -0.07420849 0.115729704 -0.22644264 0.77435696
000200 14 8a a2 3e 79 90 33 3e 86 93 e0 3e a9 94 35 be
       0.3174597 0.1753558 0.4386255 -0.1773249
000210 2a 5e b5 3e 4b 51 3e 3e 6e 7e 54 be cf ad 43 bd
       0.35423404 0.18585698 -0.20751354 -0.04777318
000220 4a 84 90 3e 06 e6 48 bd 81 1f b7 3c c7 7e dd 3e
       0.2822593 -0.049047492 0.02235389 0.43260786
000230 ef 24 04 be ee c2 99 be c1 b1 bb be 1c f6 80 3d
       -0.12904714 -0.30031532 -0.36659053 0.06296942
000240 4a da b3 bd ac c2 dd bd f3 7d 93 bc ea 7b 2e 3e
       -0.0878187 -0.10828146 -0.018004393 0.17039457
000250 df ec 85 be a0 1b 8b be 51 b8 9d 3e f5 a3 1a bf
       -0.2615728 -0.27169514 0.30804685 -0.6040643
000260 d5 95 95 be 8a 42 c2 bd 1b ea 24 be 9e e0 94 b8
       -0.29215875 -0.094853476 -0.16104929 -7.099028e-05
000270 9a 96 ef be d2 7f 04 3f 8e c3 f9 3e 39 69 ae be
       -0.46794587 0.5175754 0.4878201 -0.34064654
000280 00 cf 53 3e 1d 4d 85 3e ce 75 d9 bc 8e 91 0f bf
       0.20684433 0.26035395 -0.026545431 -0.56081474
000290 73 a2 cf 3d 5a f1 3a 3e 5f e8 82 bd e4 17 7b be
       0.101384066 0.18256131 -0.063919775 -0.24520832
0002a0 3c 44 ec be a9 bf 6f 3f 08 53 43 3f f5 87 0e bf
       -0.4614581 0.93651825 0.7629857 -0.55676204
0002b0 e1 87 03 bf 43 1c 16 3f b1 f4 32 be b1 86 0b c0
       -0.5137921 0.58636874 -0.17476155 -2.180096
0002c0 ef cc bd bc 48 f1 4f 3f b3 1f 37 3e 2c f5 48 bf
       -0.023169009 0.8122754 0.17883186 -0.784991
0002d0 2d 2d 21 3e ab 2f 72 3f 34 25 6d be 9f e8 9a bd
       0.1573989 0.94603986 -0.23158723 -0.075639
0002e0 5f 68 94 3c 4c 84 f5 be ba 0e ac be ba e8 9c bf
       0.018116174 -0.47952497 -0.33604985 -1.2258523
0002f0 2d 17 25 bf 5d fe 4c 3d ae 29 30 3d 7c f0 a5 bd
       -0.6448849 0.050047267 0.0430085 -0.081025094
000300 72 a7 0b bd 93 98 fb bd da 5f f6 bd d4 d9 90 3c
       -0.034095235 -0.122849606 -0.12030001 0.017681994
000310 f6 3d 85 bd 21 7a da bd c3 d2 bd bd 90 5e e7 bd
       -0.06505959 -0.106678255 -0.09268715 -0.11297333
000320 f7 de 5a bc 4a 0d 81 3d c2 9f 2d 3c b2 1c 2f 3c
       -0.013358823 0.06301363 0.010597171 0.010687994
000330 b2 8e c3 bd ac 17 b3 3d ca 80 42 3d b5 f7 b1 bd
       -0.09548701 0.087447494 0.047486104 -0.086898245
000340 a9 e0 df bd 84 d7 41 3d 29 85 9b 3c 4d 19 1f 3c
       -0.109315224 0.047324672 0.018984394 0.009710622
000350 39 39 ea bc 9a af 9a bd 8a 16 e6 bd da 72 53 bd
       -0.028591739 -0.075530246 -0.11234768 -0.051623203
000360 40 9c 73 3d 39 23 24 3d 05 4d 58 bd 5c bb fb bc
       0.059475183 0.040072653 -0.052807827 -0.030728988
000370 2a 6a 6c bd f3 d3 f5 bd ec 38 b2 3c ed ec 28 3b
       -0.057718433 -0.12003317 0.021755658 0.0025775984
000380 ee cd 8b bc d4 b3 82 bd 68 4c a7 3d 7b 6e 49 bd
       -0.017065968 -0.06381956 0.0816887 -0.049177628
000390 02 8e dc 3d 31 43 9a bc c3 7e a5 3b 5d 47 2a bb
       0.10769273 -0.018830867 0.0050505116 -0.0025982477
0003a0 74 ac e0 bd ba 8c 17 bd 32 5d e7 3d 1f ee 91 3d
       -0.10970393 -0.03699944 0.112970725 0.07125496
0003b0 6d 39 07 bd 9b 6f 46 bd bb 75 46 bb 23 72 ac 3d
       -0.03301375 -0.04844628 -0.0030282575 0.08420207
0003c0 76 9d 32 3d a0 3d bf 3d 94 fe 3d bd c9 26 8d bd
       0.043607198 0.09337926 -0.046385363 -0.06892163
0003d0 ee 48 c0 3d 57 05 02 be aa 3f e2 bd 5a ae 4a bd
       0.0938891 -0.1269735 -0.11047299 -0.04948268
0003e0 b6 23 9d 3d 6b 4c bc bd 45 aa eb 3b 33 e9 d9 bd
       0.07672827 -0.09194263 0.0071919286 -0.10640182
0003f0 c0 3f a5 3e 52 c4 23 c0 fd 10 dd bf 69 f0 40 be
       0.322752 -2.5588574 -1.727081 -0.18841709

fc1.bias f4 [128]
000000 0c 04 2b bf c4 0c 90 3b 43 19 f9 bd 80 66 be 3d
       -0.6680305 0.004396053 -0.121630214 0.09296894
000010 ab 7d e5 bd e5 ce 02 be 31 5d 61 bf e2 76 97 be
       -0.1120561 -0.12774237 -0.88032824 -0.29582888
000020 f9 00 0a bf 85 c9 2b bb dd 1c 94 3e ea b2 2f 3e
       -0.53907734 -0.0026212644 0.2892827 0.17158094
000030 0f 66 49 bc 52 99 b8 be 20 3a fe bd 2a 4b 8c 3d
       -0.012292399 -0.36054474 -0.1241343 0.06850274
000040 0b da 1a be 75 8e 1d be 8d b4 30 bf ee 62 ba be
       -0.1512224 -0.15386374 -0.690255 -0.36403602
000050 d4 27 21 be 06 57 19 bf 1e e7 a1 bd 29 5f 0e be
       -0.1573785 -0.5989841 -0.0790541 -0.13903488
000060 af 94 0b 3d eb c9 8e bf 71 ca 41 bf 4f 3b 6a bf
       0.034077343 -1.115537 -0.75699526 -0.9149675
000070 c3 cb 10 be 66 91 b0 bd 4c e2 f6 bd 56 c5 42 bf
       -0.14140229 -0.086214826 -0.120548815 -0.7608236
000080 ab d6 1a 3d b1 c3 d9 3d 9c 79 c6 be 85 77 23 3e
       0.03780238 0.10633028 -0.38764656 0.15963562
000090 13 41 87 be d0 57 4b bd a4 32 8e bf ec 55 2e be
       -0.26416835 -0.04964429 -1.1109204 -0.17024964
0000a0 86 32 15 bf 2f b4 d3 3d bd 87 07 bd 1a c7 1c bf
       -0.5828022 0.10337102 -0.033088434 -0.61241305
0000b0 fc 86 a1 be 1a f7 46 bf 26 39 d9 be 93 48 fb be
       -0.31548297 -0.777208 -0.42426413 -0.49078807
0000c0 7c 7b 79 bd 04 f3 c6 ba ef 3c ca bd 5c c0 ac be
       -0.06090878 -0.0015178625 -0.098749034 -0.3374051
0000d0 08 63 00 3e 17 cd 3b be c7 7a 91 bd 9b b6 da be
       0.12537777 -0.18339954 -0.07103496 -0.42717442
0000e0 50 74 b1 bd a3 c3 86 3d b4 18 9a ba fc d4 20 bf
       -0.08664763 0.065802835 -0.001175663 -0.6282499
0000f0 aa 96 61 bd ac 05 1f bc 22 f5 bd be 5a 03 cf be
       -0.055075325 -0.009705942 -0.37101084 -0.40432245
000100 49 be f5 bd 30 58 d0 bd b5 47 9f bc e3 64 f7 bd
       -0.11999185 -0.101730704 -0.019443372 -0.120797895
000110 0d ec d7 3e 49 32 64 be c5 5c 68 bf 3e db 73 3e
       0.4217228 -0.22284807 -0.90766555 0.23814103
000120 fe ad 8c be 49 d3 03 bf cb a6 0c bf 81 24 48 3d
       -0.27476496 -0.5149427 -0.54942006 0.048862938
000130 16 a7 75 bf dc 78 d4 be 68 08 50 bf fd e3 1e bf
       -0.9595808 -0.41498458 -0.81262827 -0.6206663
000140 bb 52 08 bf 78 f0 0f bf 63 0b 7a be 4f 68 95 bf
       -0.53251237 -0.562263 -0.24418406 -1.1672457
000150 37 d6 12 3e 38 af af be 80 de 22 bc 9a 11 91 be
       0.14339529 -0.3431337 -0.009940743 -0.2833374
000160 6d 26 05 bd 66 0b 0c be 31 a0 8e bd 8d 70 d1 be
       -0.03250735 -0.13676223 -0.06964148 -0.40906182
000170 83 7b 35 3e 24 21 df be 05 f1 9e bc b4 9d 84 bf
       0.17722897 -0.43579972 -0.019402036 -1.0360627
000180 96 f7 30 bf ac 81 a3 be 3c c8 6f be 06 a3 e3 3d
       -0.69127786 -0.3193487 -0.23416227 0.11115079
000190 6c b4 0b bf 3a e7 1e bf cb 69 76 3c c7 da 39 3e
       -0.54572177 -0.62071574 0.015039871 0.18149863
0001a0 f1 51 ae be 0b 58 a5 3d 1b c5 e3 3e ef 89 a5 be
       -0.3404689 0.080734335 0.44486317 -0.32331797
0001b0 2d 67 87 bd 34 cc 28 bf 4d f8 5f bf 75 3d 34 bf
       -0.06611476 -0.6593659 -0.8748825 -0.70406276
0001c0 c5 8a 58 3d b1 c0 85 bd 02 cb a7 bf 76 00 04 bd
       0.052866716 -0.065308936 -1.3108828 -0.032227002
0001d0 16 6d a3 be ee 7a 63 be 43 ad f4 3d ff d3 10 3d
       -0.31919163 -0.22214863 0.119471096 0.035358425
0001e0 17 64 fe bc 50 54 dd 3d da 2b 33 be 5c a8 22 3f
       -0.031053586 0.10807097 -0.17497197 0.63538146
0001f0 c1 55 f6 be c4 a4 f7 3c ff 45 6b bf 48 00 a5 bf
       -0.481123 0.030229934 -0.9190368 -1.2890711

fc2.weight f4 [128, 128]
000000 40 42 9c bc 2e 7f e6 bb 08 bd 31 3d 43 fd 78 bd
       -0.01907456 -0.007034204 0.043393165 -0.060788404
000010 e6 06 b5 3d 59 d9 6d bd bf 8c 65 be 8d 04 a7 bd
       0.088392064 -0.058068607 -0.22416972 -0.08155165
000020 1d 35 1c 3e bd 6e 9d 3e 2c 8d e8 3e 13 e5 b8 be
       0.15254636 0.3074855 0.45420206 -0.3611227
000030 d9 41 08 3d 33 f7 5e 3e 75 50 53 be 62 df ee bc
       0.033265922 0.21773987 -0.2063616 -0.029159252
000040 26 43 82 bd fc d9 dc be b8 61 1e be 8e 64 3f 3c
       -0.06360464 -0.4313506 -0.15466964 0.011681689
000050 1a 76 92 be ca 76 ba bd b6 c6 9e 3e 20 c4 fa 3e
       -0.2860573 -0.091046885 0.3101098 0.48977757
000060 e3 4f 90 bd 8c 81 00 be 50 33 1d be e9 68 71 3e
       -0.07046487 -0.12549418 -0.15351605 0.23575176
000070 bf e3 c1 bd 6e 8b 1b bd 87 a3 65 bc a4 94 9a 3d
       -0.09467267 -0.037974767 -0.014016039 0.07547882
000080 b0 a1 ca bc 6f b9 2b bd b3 88 43 be b0 09 03 3e
       -0.024735302 -0.04192489 -0.19095115 0.12796664
000090 89 29 e6 bb e5 63 3d 3d 6d 0c 9a be 04 c9 2d be
       -0.0070239943 0.046237845 -0.30087605 -0.16971213
0000a0 c3 af 44 3d 35 89 58 3e b2 5b f1 3c 07 75 35 bc
       0.048019182 0.2114609 0.029462669 -0.011075265
0000b0 80 9b d9 3d 1c 86 cd 3d 06 a6 66 3d 84 f3 92 3e
       0.106253624 0.10035345 0.056310676 0.28701413
0000c0 97 fb f9 3d 35 10 b4 3c c5 9d 5c 3c cd 30 30 be
       0.1220619 0.021980384 0.01346535 -0.17206116
0000d0 69 44 08 be 5e a5 d4 3d 86 4a 95 3d e1 2b 05 be
       -0.13307346 0.10383104 0.07289605 -0.1300502
0000e0 75 f1 94 3b 5a c1 8d 3e 7d c2 b3 3d e1 24 07 3d
       0.0045453855 0.27686578 0.0877733 0.032994155
0000f0 7b 06 0e bd 3f 09 13 3e 3c 3e d8 3d 24 07 90 be
       -0.03467415 0.14358996 0.10558745 -0.28130448
000100 07 30 46 be fb db a5 be d7 a1 3f be 9d 4c b6 bc
       -0.19354258 -0.32394394 -0.18714081 -0.022253329
000110 c8 76 00 bf f2 06 ec b8 43 e6 99 bc 57 2f 3e 3e
       -0.50181246 -0.000112546506 -0.018786555 0.18572746
000120 d5 7c 3d bc 38 e4 84 bd b4 b9 28 bc 45 0d 50 3d
       -0.011565407 -0.06488842 -0.010298181 0.050793905
000130 b0 1d ca bd af 2d cb be b4 49 c6 3d 39 e1 d9 3b
       -0.09868944 -0.3968329 0.096820265 0.006649163
000140 61 8c 88 3e 62 3b 3d be 98 bb 01 be ea 53 1c bd
       0.266696 -0.18479684 -0.12669218 -0.038165964
000150 b3 1a 0f be b1 01 d3 bd bb b0 ab be 14 13 fb be
       -0.13975029 -0.10303057 -0.33533272 -0.49037993
000160 95 66 6d bc 0e c6 a3 be 64 3e ba 3c 5a cc 95 3e
       -0.0144897895 -0.3198704 0.022734828 0.2925747
000170 37 b4 ad 3e 6d 24 d0 3e 31 0e f6 bc 33 76 92 bd
       0.33926556 0.4065279 -0.030036064 -0.07151451
000180 e8 7b c2 38 3c 4a b5 be 91 d1 75 be 7b 61 f0 bd
       9.27372e-05 -0.354082 -0.24005724 -0.11737343
000190 87 35 bf be e5 9b be bd 0e 3a b1 bb 46 83 00 3f
       -0.37345526 -0.09307078 -0.005408532 0.5020031
0001a0 13 1b 9a be c6 6b 95 3d 5a 18 21 bf 62 d2 83 be
       -0.3009878 0.07295947 -0.6292778 -0.25746447
0001b0 b7 d6 3f 3d 20 e4 8c bd e4 86 2e be 41 6c 00 be
       0.046835627 -0.06879449 -0.17043644 -0.12541296
0001c0 c3 ac 95 bd 8f 3b 29 3d b7 84 94 be 08 ca 7e 3e
       -0.07308342 0.041316565 -0.29007503 0.24881756
0001d0 ab 47 e2 3d 14 a7 6e 3e 83 2f 65 3d 55 55 22 bd
       0.11048826 0.23305923 0.055953514 -0.03963216
0001e0 63 27 1c be 8a 84 9e bd 29 8f 3d bd 2f ca 14 bf
       -0.152494 -0.077401236 -0.046279106 -0.5812101
0001f0 e9 8e c6 bd 39 40 aa bd ff b7 89 be 60 79 8b be
       -0.09695227 -0.08313031 -0.2689819 -0.2724104
000200 9b f9 ae bd b6 c4 06 bd f7 12 a3 bd 74 84 0f bd
       -0.08543702 -0.032902442 -0.07962602 -0.035038427
000210 c1 b5 b2 3e 43 13 55 bd 03 16 c5 bc 2b 4c a2 bc
       0.34904292 -0.052020323 -0.024058348 -0.01981171
000220 5e b1 8c 3b 61 1a 69 3d 10 e1 4f 3e 49 d8 cb be
       0.0042936048 0.056909923 0.20300698 -0.3981345
000230 11 c6 4c be 15 7f ff bd cf e5 8c bd a1 18 81 be
       -0.19997431 -0.12475411 -0.0687977 -0.25214103
000240 e0 75 2c bc b2 fc 4f be b8 3d 52 3e ff 7a 36 bd
       -0.01052615 -0.2031124 0.20531356 -0.044550892
000250 f5 ca 37 be 6a 4b f8 3d 43 bf f7 3d 73 3c 08 be
       -0.17948516 0.12123759 0.12097027 -0.1330431
000260 84 d8 07 bd 9c a0 b7 3d 9f e6 2f 3e 5d e8 cc 3d
       -0.03316547 0.08966181 0.17177819 0.10005257
000270 65 f6 17 bf d0 26 26 3d ab 51 51 3e bc 87 80 3e
       -0.59360343 0.04056436 0.2044131 0.25103557
000280 a1 7e 0e 3d 2a 8d 11 3c 7c 2a b9 be f3 3e 09 3e
       0.03478873 0.008883754 -0.36165226 0.1340292
000290 7a c6 e6 bd ab 23 87 3d 49 cc 8a 3c 6b 33 ca 3e
       -0.11268325 0.065986 0.016943114 0.39492354
0002a0 38 ca c6 be 93 8b e0 3d 1d 6e f3 3b ef ec 90 3d
       -0.38826156 0.10964122 0.007428898 0.070764415
0002b0 6f b0 c5 be 49 a7 09 3e f9 76 11 3e b1 3f 89 bd
       -0.3861117 0.1344272 0.1420554 -0.06701601
0002c0 d2 92 e3 bd 41 a3 ae 3c f9 5b 34 bd ea 6e 1b 3e
       -0.11111988 0.02131808 -0.044033024 0.15179029
0002d0 45 59 b1 3d b1 91 95 3d 5a 8c a6 3c fe 75 87 3d
       0.08659605 0.07303179 0.020330597 0.06614302
0002e0 d0 9f 6b 3e 47 e1 7b bd 98 66 49 bd 5b 4e 10 be
       0.23010182 -0.061494138 -0.049170107 -0.1409239
0002f0 70 26 74 bd e8 a0 80 be 6c c0 b6 3d bc 8f 37 3c
       -0.05960697 -0.25122762 0.0892342 0.011203703
000300 6b 84 d7 be 96 60 bf be cd 26 c8 3e 13 ea dd be
       -0.42093214 -0.37378377 0.39092103 -0.43342647
000310 84 3b 52 be 45 c8 b9 3d 42 70 9c 3e 5f f0 b0 3d
       -0.20530516 0.090714015 0.30554396 0.08639597
000320 3b 3c b6 bd f9 22 e4 3d 5b 7a 61 be ef c3 56 3d
       -0.08898207 0.11139483 -0.22019331 0.05243295
000330 99 4f ca bd 57 c6 dd be 09 5c 8a bc 7b 94 0e be
       -0.09878463 -0.43315384 -0.016889589 -0.13923828
000340 cb d6 73 be 52 1b 11 3e 5a e9 75 3e 44 97 4e 3e
       -0.23812406 0.14170578 0.24014798 0.20174891
000350 54 a2 e9 3d 7f 75 13 be ae 0d 5c 3e d9 cd a8 be
       0.11407915 -0.1440029 0.21489593 -0.3296955
000360 c3 8f 33 bd 60 e1 91 be 50 d3 b4 3d 70 52 ef bc
       -0.043838274 -0.2849226 0.08829367 -0.029214114
000370 0a 19 a2 3e b7 33 0a 3d 44 38 7f 3d 63 c6 9a bd
       0.31659728 0.033740725 0.06230952 -0.075573705
000380 6e ce 88 3d fe 85 08 be 9d a9 b3 be f3 fb 6d 3d
       0.06679998 -0.13332364 -0.35090342 0.058101606
000390 df 82 ca be 32 42 0d bc 8e 17 2a be 3a a5 9e 3d
       -0.39552972 -0.008621739 -0.16610548 0.07746358
0003a0 d4 70 06 be c3 ea 5f 3c 6a 55 8a be 0a f5 11 3e
       -0.13128978 0.013666811 -0.2701829 0.14253631
0003b0 ea 9a bc 3c 0d bc 14 3e 83 0f fc bb c6 d5 5d bb
       0.023023088 0.1452486 -0.007692279 -0.0033849343
0003c0 23 fb 9d 3d 70 55 26 bd 9c 46 8f bd b0 bf 14 3e
       0.07713916 -0.040608823 -0.069958895 0.14526248
0003d0 18 c2 55 3e 99 ef 29 3f 28 59 2e bd 3b c3 4b 3d
       0.20874822 0.6638122 -0.042565495 0.049746733
0003e0 9f 05 c4 be d5 b7 d8 3e ba fe 81 3d 99 af ee be
       -0.3828554 0.42327753 0.06347413 -0.46618345
0003f0 c4 8a 14 3e 43 37 6e bd 9c 1f 2b bb 8b 82 50 be
       0.1450606 -0.05815817 -0.002611137 -0.20362298

fc2.bias f4 [128]
000000 80 91 2d bf 87 b7 85 bf 75 d9 85 3e 63 fa c5 3d
       -0.6780014 -1.0446633 0.2614247 0.09666898
000010 11 e9 b2 bf 53 14 a9 bf 5b 59 fd be 2f 20 55 3f
       -1.3977376 -1.3209327 -0.49482235 0.83252233
000020 93 24 39 3e 08 e5 9b bf 3b 45 b1 bf 17 9e 22 3e
       0.18080358 -1.217927 -1.3849252 0.15880619
000030 39 ca 00 3e 93 a9 00 3f 4d af de be e6 ba 5a bf
       0.12577142 0.5025875 -0.4349312 -0.85441434
000040 49 fd 16 3e 4a ec 61 bf 85 6e 19 bf 00 d1 a9 be
       0.14745058 -0.88251173 -0.59934264 -0.33167267
000050 3f 2b 82 be 2a 6a a7 be 34 23 28 3d 8a 8e 04 be
       -0.2542362 -0.32698184 0.041049197 -0.12945
000060 11 44 ff be 68 77 48 3d 8d 1a 31 be 51 2a 67 bf
       -0.49856618 0.048942 -0.17295285 -0.90298945
000070 c6 fc c0 bc 7b 00 ea 3d 24 e5 c2 3e ed dd 87 3e
       -0.023558032 0.11425873 0.38065445 0.26536503
000080 59 88 1f 3f f0 c0 e8 bd f9 73 ee 3e b1 49 ba be
       0.62317425 -0.11364925 0.46572855 -0.36384347
000090 4c 52 3f 3f 53 68 af bf 9c 9c 7e 3f cb 15 bd be
       0.7473495 -1.3703712 0.99457717 -0.3693069
0000a0 db ac 80 3e 16 15 ab be 33 93 31 3f 32 d7 2c be
       0.25131878 -0.33414525 0.69365233 -0.16878965
0000b0 11 99 a7 bd ab a6 20 3f 5d a0 17 3f 44 c2 90 bf
       -0.08183492 0.62754315 0.5922907 -1.1309285
0000c0 b4 19 ec be 68 7c 5b bb 80 f6 e1 3e ca 82 27 bf
       -0.4611336 -0.00334909 0.44133377 -0.65433943
0000d0 b2 d2 0a bf 34 ac da 3d 1f ca 6c 3d 12 67 33 bf
       -0.54227746 0.106773764 0.057809945 -0.7007915
0000e0 74 38 4a bf 8a 18 a2 be eb 6d 5f 3e a6 af 46 3f
       -0.7899239 -0.31659347 0.21819274 0.7761177
0000f0 af fb 0c 3f 88 3a 9f bd e0 e1 80 be e4 a3 06 bf
       0.5507154 -0.07774836 -0.2517233 -0.5259383
000100 6e 40 51 bd 3a 27 58 3e 59 3f 3a 3e 85 f2 84 3e
       -0.051086836 0.21108714 0.18188228 0.25966278
000110 8f 78 c2 bd 21 fb f3 be d2 e8 c1 be a4 33 86 bd
       -0.09495651 -0.47652534 -0.3787294 -0.065528184
000120 99 f7 22 3e 1c 39 6a be 5f b7 e2 bd 87 32 63 be
       0.15914764 -0.22873348 -0.110701315 -0.22187243
000130 7a 33 ec be d9 ef 87 bf c4 fa fa be a2 9b e0 be
       -0.46133024 -1.0620071 -0.49019444 -0.43868738
000140 bf d6 59 be de 85 4d 3e d4 90 e4 be 45 08 98 3e
       -0.21273325 0.20070598 -0.44641745 0.2969381
000150 26 ad a0 be 69 e2 d5 be e7 20 59 bf 72 d1 42 3e
       -0.31382102 -0.417743 -0.8481583 0.1902521
000160 21 6a 0b 3e 33 06 e4 3d ce 5a 64 3f 84 63 22 bd
       0.13614704 0.11133995 0.89201057 -0.039645687
000170 f0 03 93 3d 97 a0 32 3f 28 b2 47 3f 86 b7 4d 3e
       0.071784854 0.6977629 0.7800622 0.2008954
000180 63 82 6d be 29 dd a3 be a4 6d a4 3e 5e a6 84 bf
       -0.2319427 -0.3200467 0.321149 -1.0363271
000190 26 b9 34 be f4 48 09 be a4 63 ba be 62 d0 74 bf
       -0.17648754 -0.13406736 -0.36404145 -0.95630467
0001a0 79 10 60 bf 18 57 73 bf f1 54 4b 3e 7b 95 97 bf
       -0.87525135 -0.9505477 0.19856621 -1.1842493
0001b0 bb 57 b3 bd 22 47 71 bd 6c d7 3f bf 5a ca 09 bd
       -0.08756968 -0.05890573 -0.7493808 -0.033640243
0001c0 f0 68 06 bf 0e 21 01 bf 47 7d c0 3e 24 66 d8 be
       -0.5250387 -0.5044106 0.3759558 -0.42265427
0001d0 53 cd 86 be 82 27 11 3f c5 d5 e7 be 40 31 48 3f
       -0.26328525 0.5670091 -0.4528028 0.7820015
0001e0 bc 16 ae 3d 6c e2 7f bf 61 aa 5e bf 11 5f 4e 3f
       0.0850043 -0.9995487 -0.8697873 0.8061381
0001f0 96 df 7e 3e ff ce 9a 3e ad 38 62 3e d9 fb 1c bf
       0.24889979 0.3023605 0.22091933 -0.6132179

fc3.weight f4 [10, 128]
000000 96 52 f4 3e 67 c7 89 3e 8e 79 6d be 5b 85 04 be
       0.47719258 0.26909944 -0.231909 -0.12941496
000010 5f 82 d9 bc 52 85 98 3e 9e 27 67 be 85 fd bd bd
       -0.026551424 0.29789215 -0.22573707 -0.09276871
000020 5e a1 56 3e 3d 96 90 3e 68 6d 74 3e 26 c3 13 be
       0.20959994 0.28239623 0.2386986 -0.14429912
000030 7e b2 22 3e 99 92 b4 be 9c dd a2 3e 84 7e b4 be
       0.15888402 -0.35268095 0.318097 -0.35252774
000040 5a b7 9f 3e 81 be a8 3e ca 5a 85 be f7 81 f9 bd
       0.31194574 0.32957843 -0.2604583 -0.12182992
000050 c8 98 d6 bd 93 2e bc 3c af 59 6b 3e fb 52 1a 3d
       -0.104783595 0.022971427 0.2298343 0.037676793
000060 f6 e1 15 3d c9 f4 16 3f e4 2f 81 3e b3 e2 41 3e
       0.036592446 0.5896726 0.2523185 0.18934135
000070 12 55 59 b9 2d 65 3a bd 56 b9 21 bd 07 f6 18 3e
       -0.00020726424 -0.045506645 -0.03948339 0.14937602
000080 8d 36 57 be 36 7e b4 be ab fb df 3d 87 35 fd 3d
       -0.21016903 -0.3525254 0.10936674 0.12363725
000090 2d 4a 52 3d 99 7a a7 3d ad f6 83 be 7a 9d 77 bd
       0.05134027 0.081776805 -0.25774136 -0.060452916
0000a0 ad ac 9e be fe 87 bc be 90 63 2b bd f1 bb bc 3e
       -0.30991116 -0.36822504 -0.041842997 0.36862138
0000b0 04 64 ed be 64 91 74 be 9b 12 c2 3d 72 52 86 3e
       -0.46365368 -0.23883587 0.09476205 0.26234776
0000c0 a2 ca d3 3d cc e7 de 3e 81 2d ec be 04 a0 d6 be
       0.103413835 0.43536222 -0.46128467 -0.41918957
0000d0 d4 05 f6 be e9 e0 6e 3e 86 21 17 3e 55 43 70 be
       -0.48051322 0.23327984 0.14758882 -0.23463185
0000e0 04 9c 97 be 76 2d c8 be 0c bf 12 bf 25 15 aa be
       -0.29611218 -0.39097184 -0.57322764 -0.33219257
0000f0 1c b4 7e be ee 3b ab 3d 94 a2 c4 be 34 65 f4 3d
       -0.24873394 0.0836104 -0.38405287 0.119333655
000100 ec 6b e4 3e ce 46 fa bd 44 18 8c be c0 36 9d be
       0.44613588 -0.12220536 -0.27362263 -0.30705833
000110 29 b3 d5 3e 71 78 9e 3e 4f 60 e5 bd 0c a5 be 3e
       0.4173825 0.30951265 -0.1120001 0.37235296
000120 f6 19 aa bd 75 1b a7 bd 9e f9 ee 3d 4b 57 77 3e
       -0.08305733 -0.08159534 0.116687045 0.24154393
000130 09 54 a0 be 17 e6 94 3e 04 65 60 be 2c c0 3d be
       -0.31314114 0.29081795 -0.21913534 -0.18530339
000140 69 d5 c6 3e c2 81 54 be f2 5f 34 3e 5e 24 9e 3d
       0.38834694 -0.20752624 0.17614725 0.0772178
000150 01 dc 44 be 42 1e 9f 3e ac ab a3 be ee 6c 94 3e
       -0.1922455 0.31077772 -0.31966913 0.28989357
000160 09 af 36 be 5c 72 01 be 1c 6c 93 be 15 b1 85 3e
       -0.17840208 -0.12641281 -0.28793418 0.26111665
000170 f6 eb 5f 3e 90 7a ad ba 7f 77 ee bd a8 aa ec bd
       0.21867356 -0.0013235379 -0.11643886 -0.115559876
000180 c7 a3 ed 3e 82 6f f1 bd f9 02 4f be 96 99 8a 3e
       0.46414015 -0.117888466 -0.20215978 0.27070302
000190 bb c0 b4 3e 2c 85 6a 3d df a1 c1 3e 98 d9 4b 3e
       0.35303292 0.05725591 0.3781881 0.19907224
0001a0 a0 f5 40 3e c8 a3 a7 be 75 ab 14 be fd cb cc bd
       0.18843699 -0.32742143 -0.1451853 -0.09999845
0001b0 1d 9f 8b 3e 8a 45 dc bd b5 d5 0b bf 71 f8 36 be
       0.2726983 -0.10755451 -0.54622966 -0.1786821
0001c0 d0 ae 99 be 4a cf 92 be 76 55 9b 3e 17 c5 39 3e
       -0.30016184 -0.28673774 0.3033864 0.1814159
0001d0 f3 32 f8 be 4f c5 82 be 8f 3a cb 3d 92 a5 21 be
       -0.4847637 -0.2554116 0.099232785 -0.15785816
0001e0 97 b9 4b be ca c4 76 be 95 24 d3 bc 9e b4 d2 bd
       -0.19895016 -0.24098507 -0.02577428 -0.10288356
0001f0 a3 b2 4d bd 79 17 71 be 2c 4a c9 be 81 f2 90 be
       -0.05021919 -0.2354411 -0.393144 -0.28310016
000200 83 0e fc 3d 51 2f 5d 3b 6f 77 be bd d7 c5 be 3e
       0.123074554 0.0033750127 -0.09300124 0.37260315
000210 e8 e7 ef 3a 69 27 c8 3d 76 fa 38 3e 06 be 90 3e
       0.0018303366 0.09773142 0.18064293 0.28269976
000220 71 fb d9 bd 0c 7b 8b 3d d7 06 35 3d 97 a9 58 3d
       -0.10643662 0.06810579 0.044195976 0.05289611
000230 e6 e3 d3 3e e9 87 ff 3e 2d ec 8c 3b 10 a8 a8 3c
       0.4138481 0.4990838 0.0043006153 0.020587951
000240 78 90 1a be ab f2 4c 3c 04 12 58 3b 60 fc 5d 3e
       -0.15094173 0.012509028 0.0032969723 0.21678305
000250 44 67 45 be 55 6d 5b be 7d 30 d3 bd 12 36 02 be
       -0.19277674 -0.21428426 -0.10311983 -0.12715939
000260 ce 78 6c 3e e2 05 a7 3e cd 1e b1 bd c7 9c ac 3d
       0.23092958 0.32621676 -0.08648453 0.084283404
000270 20 ce 96 3e 4d 77 2a bd cf 03 e7 3e 78 b6 ad 3c
       0.29454136 -0.04161768 0.45120093 0.021205172
000280 4a 00 91 bd 07 16 be bd 6f d7 9d 3e 3a a5 c4 3d
       -0.07080133 -0.09281545 0.30828425 0.09601827
000290 ae 6b 3f 3e 84 85 8d bd 75 c7 85 3e 34 b4 4e bb
       0.1869342 -0.06910232 0.26128736 -0.0031540515
0002a0 09 14 83 bc 14 2d 2e be 02 74 b8 3e f1 db 15 3d
       -0.016000764 -0.17009383 0.36026007 0.036586706
0002b0 f3 6b 9a 3e 13 f5 c8 3e 53 9f 5e be 3b bd 28 3e
       0.30160484 0.39249477 -0.21740465 0.16478436
0002c0 ec 3b 26 3d 57 5b 05 bc fb f1 e8 3e 5a 07 af 3d
       0.04058449 -0.008139453 0.45497116 0.08546324
0002d0 4d e1 9a 3e 9e ca 0c 3e 4e 52 99 3e a4 7c 31 3e
       0.30250016 0.13749167 0.29945606 0.17332703
0002e0 45 6c 22 3d e7 d5 a1 3e 9c bd c4 3e 9a f6 98 3e
       0.039654035 0.31608507 0.3842591 0.29875642
0002f0 02 96 1c bd 8d cb 5f bc 97 ed 46 3e d7 c9 95 be
       -0.038228996 -0.01365937 0.19426571 -0.29255554
000300 87 eb 2c 3e 3a 46 f4 bd d3 e6 b3 bd a7 07 98 be
       0.16886722 -0.11927457 -0.087842606 -0.29693338
000310 17 f6 21 3c 56 92 48 3d 40 8d 2e 3e 1d bb 4c be
       0.009885333 0.04896768 0.1704607 -0.19993253
000320 a0 3c 17 3e 6a c2 5b 3e bc 1c cd bd 05 ba fe 3d
       0.1476922 0.21460882 -0.10015246 0.12437824
000330 30 e5 81 bd 3c a8 52 3e a6 b2 f5 bd 78 8b 86 bd
       -0.06342542 0.20571989 -0.11996965 -0.0656957
000340 fc 55 fe bc bf f7 5b be 92 1e 27 be 70 3a d2 3e
       -0.03104686 -0.21481226 -0.16320255 0.4106021
000350 40 68 69 3d 2b b4 99 3d 44 d2 31 3e 2e 1b f1 bd
       0.056984186 0.075050674 0.17365366 -0.11772762
000360 3d 81 72 3e d9 86 d5 bc 0c 36 99 3e 39 01 e4 3d
       0.23682113 -0.026065277 0.29924047 0.11133046
000370 8c bc f0 bd 1d 4a f2 3e b5 e7 83 3e 5f 87 a0 3e
       -0.117547125 0.4732217 0.25762716 0.3135328
000380 cb c6 c9 bb b6 c9 89 3e d5 1d d8 3e 51 68 f8 3d
       -0.006157731 0.26911706 0.4221026 0.12129272
000390 1c 3c 9c 3e 52 78 0c 3c 43 62 b1 be b5 fe 5a be
       0.3051461 0.0085736085 -0.3464528 -0.21386226
0003a0 fd 2a 86 3e 69 c1 87 3e 34 15 a5 bd 1a c5 05 3e
       0.26204672 0.26514748 -0.08060685 0.1306347
0003b0 c2 2d 3e 3d dc f8 72 3e 2b f3 1b 3d b3 a9 ea 3c
       0.046430357 0.23727745 0.0380737 0.028645372
0003c0 e6 67 23 bd cc 40 ee 3e 62 27 dd 3e 90 2d de bc
       -0.039894007 0.4653381 0.4319411 -0.027121335
0003d0 db a5 c6 3c e6 72 ab bd f8 e3 bd bd 9b 8a c5 3e
       0.024249008 -0.083715245 -0.09271997 0.3858231
0003e0 b7 6e bc bd d2 66 16 3e 15 a8 24 3d c4 2d 43 3e
       -0.09200805 0.1468766 0.040199358 0.19060427
0003f0 29 c8 18 be aa 6b e5 3d c7 ee 6e 3d f6 ed 51 3e
       -0.14920105 0.11202176 0.058333185 0.20500931

fc3.bias f4 [10]
000000 0d 07 90 3f b6 5c 08 bf a6 5a ad bf fa a0 5a 3f
       1.1252152 -0.53266466 -1.3543289 0.8540188
000010 a9 da 57 3f fa ee 79 bf c1 74 00 bf fb 6d 8d 3f
       0.84318024 -0.97630274 -0.5017815 1.1049188
000020 2c cf 05 bf ec f3 a2 3e
       -0.52269244 0.31826723
