ckpt/1027_02/model_epoch7.pth (torch, 106682 bytes, 6 tensors)

fc1.weight f4 [128, 63]
00000000: 416e 2cbf 1b1a 88be fa2f bc3f 0329 e73c
00000010: c5da 99be e0f0 013f 728f 073e dc70 e2bd
00000020: 166a c03e 9b8a 82be d06c e4bd 5d0f 153f
00000030: d83c 15be 61de 9abe 4adb 3f3f c8da c43e
00000040: e736 80bd 5f5e 7fbf b5f9 7cbd 73a3 74be
00000050: 3c0d 213f 6317 8abd 985b 6cbb b81b 623e
00000060: d988 073d 745d db3d 22c8 39bf fcff 9c3e
00000070: e70d 3c3d 94ad 6abf 0964 8dbe 679c 26be
00000080: d37d 5e3f b420 b9be 1455 b13c 6034 813e
00000090: 1341 12bd ba2b 833e 8342 62bf 29ea cc3e
000000a0: 18ee 693d 56de 18bf e67f 79bf 71d6 4fbe
000000b0: 6670 fb3f a8a6 2cbe 9fb2 793c 53a3 a8bd
000000c0: d9d8 bc3f 47dc 04bd 5fee 63c0 61cf c23e
000000d0: 5010 02be 2709 82be e1e9 ecbe c788 96bd
000000e0: 43e4 b23f 846d 83be b414 e93d 4f79 023f
000000f0: d776 733d 471e a03e f6a5 a4bf c090 65bd
00000100: ac2b 87bd 579f 6f3d 860c 203d 303d 2a3d
00000110: b907 57bc 7f20 7cbd a6d1 a2bd 1418 703d
00000120: 207a 42bb 2131 acbc 2327 83bc eadc d13d
00000130: 402d efbd 0602 84bd 5a55 98bd 16d3 333d
00000140: d9a7 80bd 64af 92bc 707b 0abd 9d25 713d
00000150: c8ea b23d 281b 57bd 47f3 313d fe58 51bd
00000160: e998 c4bd 22de d3bd d831 e6bd ec56 8fbd
00000170: 2bbd fabd 0d96 b8bb 8fe5 21bd 99e9 fc3d
00000180: 4233 733d f34c debd b407 363d 0db1 9f3d
00000190: 3832 ba3b cb1e b6bc 6664 903d 53f6 07bc
000001a0: f267 eebd 7eb0 7fbd b745 d6bd 1849 fdbd
000001b0: aa83 b93c 6e3f eebc b348 c53c 8cbb cebd
000001c0: 33e5 aabd 4d25 603d 4015 503c f92d 57bd
000001d0: fbdb 07bd 89ef f33d 5b8c 8abd ca35 ffbc
000001e0: 1afa d0bd ed29 ef3c 48a9 923c 4c54 febd
000001f0: 9ffa 97bd b203 ed3d 4b9b 93be 40c5 423f
00000200: a4ed b63e 6fb0 903d ff9a eb3e c91e 7cbe
00000210: e145 623e 03ab 873e d181 8dbe af04 38be
00000220: 1e0d f73e a0c3 35bd a5a0 c3bd cc31 3d3f
00000230: 2f29 bdbd fd44 e5be 7fcc 1abf 96ec 3c3e
00000240: d31b 3bbe c311 0cbe a2fe 213d 95ab 243e
00000250: 386c 05be 5deb afbe 36f6 c83e f0c6 b0be
00000260: 7cce d8be f75c 48be ba98 b7be df9d d93d
00000270: c32f 0dbf 7652 0d3f c10c 183f 9793 a5be
00000280: 7f3c 883e aa83 a63e ffeb de3d b6a4 0ebf
00000290: 5254 333e f146 023e 6c1b 3bbe fd62 57be
000002a0: 2ef1 00bf 9850 843f 92bd 4e3f 892f dabe
000002b0: a964 10bf f662 163f ad02 0c3e 5166 1dc0
000002c0: 1213 a6bc f0cd 4c3f 6016 203e 8974 56bf
000002d0: 2563 083e 6a83 8a3f 2b01 9bbe 3d5e 17bd
000002e0: 9240 e23d 644f 0abf 5632 58be 1ac7 9fbf
000002f0: 0b32 2bbf 5dfe 4c3d ae29 303d 7cf0 a5bd
00000300: 72a7 0bbd 9398 fbbd da5f f6bd d4d9 903c
00000310: f63d 85bd 217a dabd c3d2 bdbd 905e e7bd
00000320: f7de 5abc 4a0d 813d c29f 2d3c b21c 2f3c
00000330: b28e c3bd ac17 b33d ca80 423d b5f7 b1bd
00000340: a9e0 dfbd 84d7 413d 2985 9b3c 4d19 1f3c
00000350: 3939 eabc 9aaf 9abd 8a16 e6bd da72 53bd
00000360: 409c 733d 3923 243d 054d 58bd 5cbb fbbc
00000370: 2a6a 6cbd f3d3 f5bd ec38 b23c edec 283b
00000380: eecd 8bbc d4b3 82bd 684c a73d 7b6e 49bd
00000390: 028e dc3d 3143 9abc c37e a53b 5d47 2abb
000003a0: 74ac e0bd ba8c 17bd 325d e73d 1fee 913d
000003b0: 6d39 07bd 9b6f 46bd bb75 46bb 2372 ac3d
000003c0: 769d 323d a03d bf3d 94fe 3dbd c926 8dbd
000003d0: ee48 c03d 5705 02be aa3f e2bd 5aae 4abd
000003e0: b623 9d3d 6b4c bcbd 45aa eb3b 33e9 d9bd
000003f0: ca50 fb3e 3201 31c0 5d1e debf 430e b1bd
-0.67355734 -0.26582417 1.4702141 0.028217798 -0.3004972 0.5075817 0.13238314 -0.110566825
0.37580937 -0.25496373 -0.11153567 0.5822657 -0.14573991 -0.30247787 0.74943984 0.38448167
-0.06260472 -0.99753374 -0.061761577 -0.23890476 0.6291082 -0.06742742 -0.0036065336 0.22080886
0.033089492 0.10711184 -0.72571003 0.3066405 0.045911696 -0.9167111 -0.27615383 -0.162706
0.8691074 -0.36157763 0.021647014 0.2523527 -0.03570659 0.25619298 -0.8838274 0.400224
0.05711183 -0.5971426 -0.9746078 -0.20296647 1.9643676 -0.1686045 0.0152403405 -0.082342766
1.4753677 -0.032436635 -3.561424 0.38048843 -0.12701535 -0.25397608 -0.46272185 -0.07350307
1.397591 -0.2566949 0.11380902 0.5096635 0.059439506 0.312731 -1.2863147 -0.056046247
-0.066001266 0.058501568 0.039074443 0.04156226 -0.0131244 -0.06155443 -0.079501435 0.058616713
-0.0029674843 -0.02101952 -0.016009873 0.10247214 -0.11678553 -0.064456984 -0.074381545 0.04390248
-0.062820144 -0.017905898 -0.033809125 0.05887376 0.08736187 -0.052516133 0.043444898 -0.05111026
-0.09599478 -0.10345103 -0.11239976 -0.06999001 -0.12243112 -0.005633122 -0.039525565 0.12349243
0.059375055 -0.10854521 0.04444094 0.07797442 0.005682256 -0.02223148 0.070503995 -0.008298474
-0.1164092 -0.062424175 -0.10462516 -0.12367457 0.02264579 -0.02908298 0.024082517 -0.100943655
-0.083444975 0.054723073 0.012700379 -0.052534077 -0.033168774 0.11910922 -0.06765052 -0.031153578
-0.10203953 0.029194796 0.017902985 -0.12418422 -0.07420849 0.115729704 -0.28829417 0.7608223
0.3572818 0.07064902 0.4601669 -0.24621119 0.22096969 0.2649766 -0.27638105 -0.17970537
0.48252195 -0.044376016 -0.09552125 0.7390411 -0.09236371 -0.44779196 -0.60468286 0.18449625
-0.18272333 -0.1367865 0.039549477 0.16081078 -0.13029563 -0.34359255 0.39250344 -0.34526777
-0.42345035 -0.19566713 -0.3585871 0.10625815 -0.55151004 0.5520395 0.5939446 -0.32339165
0.26608655 0.32522327 0.108848564 -0.5572008 0.17512634 0.12722374 -0.1827218 -0.21033855
-0.5036801 1.0337095 0.8075801 -0.4261439 -0.56403595 0.5874475 0.13672896 -2.45937
-0.020272765 0.80001736 0.15633535 -0.8377157 0.1331907 1.0821354 -0.3027433 -0.036955107
0.11047472 -0.5402739 -0.21112952 -1.2482636 -0.66873235 0.050047267 0.0430085 -0.081025094
-0.034095235 -0.122849606 -0.12030001 0.017681994 -0.06505959 -0.106678255 -0.09268715 -0.11297333
-0.013358823 0.06301363 0.010597171 0.010687994 -0.09548701 0.087447494 0.047486104 -0.086898245
-0.109315224 0.047324672 0.018984394 0.009710622 -0.028591739 -0.075530246 -0.11234768 -0.051623203
0.059475183 0.040072653 -0.052807827 -0.030728988 -0.057718433 -0.12003317 0.021755658 0.0025775984
-0.017065968 -0.06381956 0.0816887 -0.049177628 0.10769273 -0.018830867 0.0050505116 -0.0025982477
-0.10970393 -0.03699944 0.112970725 0.07125496 -0.03301375 -0.04844628 -0.0030282575 0.08420207
0.043607198 0.09337926 -0.046385363 -0.06892163 0.0938891 -0.1269735 -0.11047299 -0.04948268
0.07672827 -0.09194263 0.0071919286 -0.10640182 0.49085075 -2.765698 -1.7353016 -0.08645298

fc1.bias f4 [128]
00000000: f229 3fbf c40c 903b 876d 1fbe 8066 be3d
00000010: b0d3 05be e5ce 02be b9fa 72bf ebe2 a7be
00000020: 102e 17bf 8fa0 d4bc 4cf9 b33e 389e 303e
00000030: 4b9b da3c 9a8f b4be 3c14 89be 7864 a43d
00000040: 13b2 59be 8802 c4bd 44e6 45bf a855 a7be
00000050: 80c4 bbbe d68e 27bf 4803 f9bd fc03 45be
00000060: af94 0b3d a5a7 96bf 2a57 4bbf 98bf 7fbf
00000070: bb97 5dbe 6691 b0bd 52c0 28be c1d7 51bf
00000080: abd6 1a3d baf1 d73d ee57 b6be 95b6 ca3d
00000090: 1669 96be d057 4bbd 240e a2bf f4dd 78be
000000a0: 2631 3ebf 74c5 0d3e bd87 07bd 29a8 2dbf
000000b0: b2dc b7be 4768 63bf 84e9 cfbe 9060 0bbf
000000c0: 9993 75bd 76f1 9b3d ef3c cabd b4b8 e2be
000000d0: a142 043d c9f7 89be c77a 91bd 7528 e2be
000000e0: f290 e6bd e434 ce3d b418 9aba 95d0 07bf
000000f0: aa96 61bd 6a4b a6bc 058d d2be 1a5b fabe
00000100: f2ae 68be 9086 17be d646 11bd f331 40bc
00000110: 79ab ab3e 1f6b 6dbe 539a 61bf 5820 c93e
00000120: 05af 9ebe bdfd 06bf a866 1abf 8124 483d
00000130: 7e7d 7dbf e3da c8be bd07 65bf d960 3ebf
00000140: e8ea 1dbf ca31 0cbf 2a19 c2be fffb 9bbf
00000150: 39c4 033e 27f7 a7be 1ab9 52be 0a72 68be
00000160: 3419 44bd e961 d7bc 31a0 8ebd 5ca4 02bf
00000170: c634 bf3d 42e5 00bf 05f1 9ebc 0a6f 91bf
00000180: af2f 4fbf dbf4 72be 266e 8ebe a578 2d3e
00000190: b1b0 fcbe 632b 1dbf f575 25bd 042a 883e
000001a0: 1fd3 bdbe 0b58 a53d 577a 013f 3fb0 a1be
000001b0: 9e42 8bbd b260 2bbf 33d5 81bf 925a 46bf
000001c0: c58a 583d b1c0 85bd c05c b9bf 7600 04bd
000001d0: c6eb abbe 2453 c8be 43ad f43d ffd3 103d
000001e0: dc31 403d ebb7 edbb da2b 33be aa0d 243f
000001f0: 6a41 01bf c4a4 f73c d9d7 78bf db0b adbf
-0.7467338 0.004396053 -0.15569125 0.09296894 -0.13069034 -0.12774237 -0.9491382 -0.32790312
-0.5905466 -0.025955467 0.35151136 0.17247856 0.026685378 -0.3526581 -0.2677325 0.080269754
-0.21259336 -0.09570795 -0.7730448 -0.32682538 -0.36673355 -0.65452325 -0.12158829 -0.19239801
0.034077343 -1.1769911 -0.79429877 -0.99901724 -0.21639912 -0.086214826 -0.16479614 -0.8196984
0.03780238 0.105441526 -0.3561396 0.09898106 -0.2937705 -0.04964429 -1.2660565 -0.24303418
-0.74293745 0.13844854 -0.033088434 -0.6783472 -0.35910565 -0.8883099 -0.40607846 -0.5444422
-0.059955213 0.076144144 -0.098749034 -0.44281542 0.032290105 -0.26946858 -0.07103496 -0.4417149
-0.11258115 0.10068682 -0.001175663 -0.53052646 -0.055075325 -0.020299632 -0.41123214 -0.4889763
-0.22722986 -0.14797425 -0.035467945 -0.011730659 0.3352926 -0.23185395 -0.88126105 0.3928249
-0.30992904 -0.52730924 -0.6031289 0.048862938 -0.9901961 -0.39229497 -0.8946493 -0.7436653
-0.61686563 -0.5476347 -0.37909824 -1.2186278 0.12867822 -0.3280575 -0.20578423 -0.22699752
-0.047875598 -0.026291804 -0.06964148 -0.5103204 0.093362376 -0.5034982 -0.019402036 -1.1362011
-0.80932134 -0.23726217 -0.27818412 0.16940553 -0.49353555 -0.6139433 -0.040395696 0.26594555
-0.37075135 0.080734335 0.505773 -0.31579778 -0.067998156 -0.6694442 -1.0143188 -0.7748195
0.052866716 -0.065308936 -1.448143 -0.032227002 -0.33578318 -0.3912593 0.119471096 0.035358425
0.04692255 -0.0072545907 -0.17497197 0.6408335 -0.5049044 0.030229934 -0.9720436 -1.3519243

fc2.weight f4 [128, 128]
00000000: 0cec bdbd 2e7f e6bb e21d 0abd 43fd 78bd
00000010: cae2 333e 59d9 6dbd e668 6ebe 7dbd 9dbd
00000020: 79c2 0b3e 3107 463e 4517 7a3e 1429 bdbe
00000030: 80df f6bd 2bce 023e b4dd 88be b6a9 90bd
00000040: e7bc 77bb fa84 f0be f956 41be d95f 173d
00000050: aecb 6fbe 3f0b 0abe c2b8 383e d921 0e3f
00000060: e34f 90bd 9a95 23be 27c6 edbd d19f 213e
00000070: fdee b6bd 6e8b 1bbd 327b 29bd 1ee8 993d
00000080: b0a1 cabc 6fb9 2bbd 3bfe 01be b767 353e
00000090: 5148 a93d e563 3d3d 874e b0be b55c 29be
000000a0: 546c bdbc 0abc b13e b25b f13c e3ee 0f3c
000000b0: be4a 1c3d 16d1 e63d 2e54 c3bd 385d adbd
000000c0: de53 683e ab7d 69bc c59d 5c3c 8b5e 1abe
000000d0: d56a 08be 5ca3 0e3e 864a 953d e12b 05be
000000e0: 244a 9e3c a65b 003e 7dc2 b33d 8f7f ccbd
000000f0: 7b06 0ebd 6826 f43d e5a1 e03d d687 b6be
00000100: d3e5 29be 683c cdbe e902 3bbe cbe8 b2bd
00000110: b536 02bf f206 ecb8 13a6 78bb 5a60 d03e
00000120: 1604 5e3d 4d7f f1bd b6d2 933d 450d 503d
00000130: d952 68be 7a9b efbe 728f 5c3d 6532 07be
00000140: 8ab8 cf3d f30d e1bd 8de9 1ebe 35b8 e63c
00000150: 033e 9abd 8471 9fbd a197 abbe 923e f7be
00000160: 72cc b1bd 6a65 b6be 643e ba3c a2c8 073f
00000170: 959a a43e d023 b83e 310e f6bc b7d0 c7bb
00000180: 4fbf 15bd f5c9 bbbe 5d39 8dbe 210b 55be
00000190: 7e33 b5be fdde 12be 70c5 ac3c 9fa3 cc3e
000001a0: 1b7b acbe c66b 953d 062a 23bf fdbe 1ebe
000001b0: 5cd8 3f3d c406 c4bd 5164 44be ac9b ffbd
000001c0: c3ac 95bd 8f3b 293d fb1d 72be 08ca 7e3e
000001d0: 439d e5bd b059 4e3e 832f 653d 5555 22bd
000001e0: 496c 90bd 433e 033e 298f 3dbd 782b 22bf
000001f0: d1cf 9dbd 3940 aabd 1135 80be 9695 a2be
00000200: cd07 81bd b6c4 06bd 930f a53b 7484 0fbd
00000210: 94db fb3e 4313 55bd babc 443d 6337 b2bd
00000220: 315b f5bc dfc8 a73e dcef 0b3e 127d d5be
00000230: b185 66be 2215 27bd a5c2 9fbd 9014 63be
00000240: 87fe 21bd 2c51 7dbe a2ee aa3e 39b7 70bd
00000250: db8b 4fbe b9e8 e8bc 0569 0f3c 7b05 17be
00000260: 84d8 07bd 1bf5 803d 0203 a93e b8e0 253e
00000270: dfd1 18bf d026 263d a394 4a3e e853 873e
00000280: a17e 0e3d 2a8d 113c c242 d7be 1af0 593e
00000290: afbd bdbd ab23 873d becf 8e3d 465e 913e
000002a0: 5e7f cdbe 421f 623d 1d6e f33b e008 17bc
000002b0: 2695 a1be c445 a93e 163f c13c fdc0 cfbd
000002c0: 561e eabd 72ac a93c f95b 34bd cea1 9a3e
000002d0: ad87 3a3e 4d3a 0dbe 5a8c a63c fe75 873d
000002e0: 0e53 073e 68da f2bd 9866 49bd d851 35be
000002f0: 7026 74bd 5c82 8abe 5bb2 b73d b658 743c
00000300: c42d d0be 18e3 bebe 79ef 9d3e 9bd7 e2be
00000310: 39bc 82be 45c8 b93d 8a60 6b3e 033c 49bc
00000320: 5150 5bbe 87ed 853e 6b0a 13be efc3 563d
00000330: fa7a 04be e300 ddbe 7148 943c cd56 30be
00000340: 3c6c 63be 8266 223e 92f2 a63d 25b1 1c3e
00000350: dc84 97bd 33ba 4abe e601 153e dc62 aabe
00000360: e6e4 debd 03fd 9ebe 50d3 b43d a6d4 d03d
00000370: 4bf8 b43e be09 08be 4438 7f3d 8d24 43bc
00000380: d499 8b3e c39a c0bd d378 8abe a136 cabb
00000390: 8ff9 c2be 6382 86bd d318 4dbe 4254 c03d
000003a0: e90c 2abe c3ea 5f3c 9210 35be 3731 643d
000003b0: ea9a bc3c 69ac 403e 73e8 94bc 16e4 99bc
000003c0: 23fb 9d3d 7055 26bd 638a c8bc b0bf 143e
000003d0: 7c29 933e d354 273f 2859 2ebd 3bc3 4b3d
000003e0: eecd bbbe 722d 813e bafe 813d 92bc eebe
000003f0: e907 943e 4337 6ebd b760 c43d 3033 1cbe
-0.09273538 -0.007034204 -0.033719905 -0.060788404 0.17566982 -0.058068607 -0.23282203 -0.07702158
0.13648404 0.19338681 0.24422939 -0.36945403 -0.12054348 0.1277396 -0.26731646 -0.0706362
-0.0037801804 -0.46976453 -0.18880834 0.03695664 -0.23417541 -0.13480853 0.1803923 0.555204
-0.07046487 -0.15975037 -0.1161006 0.15783621 -0.08932302 -0.037974767 -0.041377254 0.07514976
-0.024735302 -0.04192489 -0.12694637 0.17715345 0.082657464 0.046237845 -0.34434912 -0.16539271
-0.023122944 0.34713775 0.029462669 0.008784982 0.038157217 0.11270349 -0.095375404 -0.08465046
0.22688243 -0.014251153 0.01346535 -0.15075128 -0.13322003 0.13929504 0.07289605 -0.1300502
0.019322462 0.12534961 0.0877733 -0.09985267 -0.03467415 0.11921388 0.10968379 -0.3565051
-0.16591577 -0.4008515 -0.18262829 -0.08735808 -0.50864726 -0.000112546506 -0.0037940785 0.4069851
0.054203115 -0.11791859 0.07217924 0.050793905 -0.22687854 -0.46798307 0.053847738 -0.13202818
0.1014262 -0.10988989 -0.1551878 0.028164009 -0.07531359 -0.07785323 -0.3351412 -0.48289925
-0.08681573 -0.35624248 0.022734828 0.53040516 0.32149187 0.35964823 -0.030036064 -0.006097879
-0.0365594 -0.36677518 -0.27582827 -0.20805027 -0.35390848 -0.14342876 0.02109024 0.39968583
-0.33687672 0.07295947 -0.63736 -0.15502544 0.046837196 -0.09571603 -0.19178893 -0.12480864
-0.07308342 0.041316565 -0.23644249 0.24881756 -0.11211636 0.201514 0.055953514 -0.03963216
-0.07051904 0.1281672 -0.046279106 -0.6334758 -0.077056535 -0.08313031 -0.25040486 -0.3175475
-0.06300316 -0.032902442 0.005037257 -0.035038427 0.49190962 -0.052020323 0.048031546 -0.087019704
-0.02995071 0.3277044 0.13665718 -0.41696984 -0.22511937 -0.04079164 -0.078007974 -0.22175813
-0.039549377 -0.24737996 0.33385187 -0.058768485 -0.20268194 -0.028431283 0.008753066 -0.14748184
-0.03316547 0.0629675 0.33010107 0.16199005 -0.5969524 0.04056436 0.19783263 0.26431203
0.03478873 0.008883754 -0.4204312 0.21282998 -0.09264695 0.065986 0.069732174 0.28392237
-0.40136236 0.05520559 0.007428898 -0.009218425 -0.31559104 0.3306104 0.023589652 -0.101442315
-0.11431567 0.020712111 -0.044033024 0.30201572 0.18215819 -0.13791771 0.020330597 0.06614302
0.13215277 -0.11858064 -0.049170107 -0.17707002 -0.05960697 -0.2705258 0.089695655 0.014913728
-0.40659916 -0.37282634 0.30846766 -0.4430512 -0.25534227 0.090714015 0.22986045 -0.012282374
-0.21417357 0.2615778 -0.14359443 0.05243295 -0.12937537 -0.4316474 0.018100949 -0.17220612
-0.22209257 0.15859416 0.08151735 0.1530195 -0.07398388 -0.19797592 0.14551505 -0.3327855
-0.10883503 -0.31052408 0.08829367 0.101968095 0.35345683 -0.13284966 0.06230952 -0.01191057
0.272658 -0.094045185 -0.27045307 -0.006171063 -0.38081023 -0.06567838 -0.20029001 0.09391071
-0.16606487 0.013666811 -0.17682102 0.055710997 0.023023088 0.1881577 -0.018177247 -0.018785518
0.07713916 -0.040608823 -0.02448005 0.14526248 0.28742588 0.65363806 -0.042565495 0.049746733
-0.3668055 0.25229985 0.06347413 -0.46628243 0.28912285 -0.05815817 0.095887594 -0.15253901

fc2.bias f4 [128]
00000000: 9d0c 36bf 1862 93bf 15bf 433e e380 8e3e
00000010: 5790 b2bf 26d1 a5bf 5e09 8fbe 26cf 603f
00000020: 383f 0a3e a1d2 abbf 665c c6bf 64ee 853d
00000030: 5f4d 6cbd f0f4 d43e 670e 0cbf 5a3d 6fbf
00000040: d65b a33d 77c8 59bf b806 1abf 58f6 d5be
00000050: c29e 62be b820 ffbe 9065 dcbc 244e 84be
00000060: 6de3 10bf f6af 453c 102e 96be 726b 85bf
00000070: 7c59 0d3e 992c 263e d69a e43e deac 333e
00000080: d5b5 333f 77c0 593c 96ee d53e 9d21 49be
00000090: a785 423f dfe0 bbbf e183 323f 65a7 a7be
000000a0: 9f13 343e 48dd 00bf 66c1 593f e6f5 55bb
000000b0: 76dc bbbd 8252 293f 32b1 093f 9182 92bf
000000c0: a029 42bf 7595 3dbe 6483 063f 6042 32bf
000000d0: 0a7e f3be df02 983e d06b d13d 1a8d 25bf
000000e0: 2e19 26bf a288 e7be c451 0d3e 77ee 443f
000000f0: a43e 3e3f 2dfa 40bd 048a 2c3d 465d 13bf
00000100: 6c90 35bd 39bf da3c 3f58 a33e 7760 9f3e
00000110: 2f22 6dbe e18a d6be d5cb aebe 9755 b9bc
00000120: f05a 663e 6737 60be c74e 20be 181e 8dbe
00000130: 5815 17bf 84f5 91bf 8e46 22bf bcb4 cbbe
00000140: e625 c0bd bddc d13e 6b93 14bf 08df fa3e
00000150: bb7c 26be a71b bfbe e4cf 77bf 78ef 253e
00000160: ca70 bc3c 7da5 8e3e 8d18 873f 0df4 98be
00000170: 6dbe 8cbd ee92 593f 4352 573f d259 3c3e
00000180: 08e7 aabd a883 9cbe a2ad 913e 2bec 9dbf
00000190: d33c 8ebe 60dd c2bd d5f5 c9be 6d8c 74bf
000001a0: f9e5 5cbf 6b81 88bf 5461 433e 9223 99bf
000001b0: 2b6d 06be 3f82 a4ba ad13 59bf 0ee4 4dbb
000001c0: beb5 febe 32ea e5be ab29 c93e 3e73 f7be
000001d0: 1937 b2be 4813 5c3f 32a4 0abf f278 613f
000001e0: 58e3 b33e e7a3 9fbf b1b0 61bf 38ae 673f
000001f0: 6d27 ae3e 991a 8d3e 8d74 673e 0087 f4be
-0.71112996 -1.1514311 0.19115861 0.27832708 -1.3950299 -1.2954452 -0.27936834 0.87816083
0.13500679 -1.3423654 -1.5496948 0.0653961 -0.057690974 0.41593122 -0.54709476 -0.9345299
0.07976501 -0.8507151 -0.601665 -0.41789508 -0.22130874 -0.4982965 -0.026903898 -0.25840867
-0.56597024 0.012065878 -0.29332018 -1.0423415 0.13803667 0.1622795 0.4464938 0.17546412
0.7019933 0.013290516 0.4178359 -0.19641729 0.7598519 -1.4678 0.6973248 -0.327449
0.1758561 -0.5033765 0.8506073 -0.0032647788 -0.09172909 0.6614152 0.53786004 -1.1446096
-0.75844765 -0.18514045 0.52544236 -0.6963253 -0.47557098 0.2968969 0.10225642 -0.6466843
-0.6488217 -0.4522143 0.13800722 0.7692637 0.7431433 -0.047113586 0.04212381 -0.575642
-0.044327185 0.02670251 0.31903264 0.31128284 -0.23157571 -0.4190283 -0.34139886 -0.02262382
0.22495627 -0.21896134 -0.15655051 -0.27562022 -0.5901694 -1.140305 -0.6338891 -0.39786327
-0.093822286 0.40988722 -0.5803744 0.48998284 -0.16258518 -0.37325785 -0.9680159 0.16204631
0.023003 0.27860633 1.0554367 -0.29873696 -0.06872258 0.8498982 0.84109896 0.18393639
-0.08344847 -0.30569196 0.28452784 -1.2337698 -0.2778078 -0.0951488 -0.39445367 -0.9552677
-0.8628841 -1.0664495 0.19080096 -1.196398 -0.13127582 -0.0012551023 -0.8479565 -0.0031416449
-0.49748033 -0.4490524 0.39289603 -0.4833011 -0.3480766 0.8596692 -0.5415679 0.8807517
0.35134387 -1.2471894 -0.88160235 0.9050021 0.34014454 0.27559355 0.22603054 -0.47759247

fc3.weight f4 [10, 128]
00000000: 77fc c63e 5bf5 643e 0699 4abe db54 10be
00000010: 1302 8ebd 861e a83e bd6a a3be d34e 5c3c
00000020: bcf0 b23d 30f5 073e bd89 393e 3812 09be
00000030: a1dd 923e 1501 babe e1d3 a93e a452 42be
00000040: 8759 4a3d 50e2 be3e f21e 98be 5deb 77bd
00000050: 7c0c 2dbe 3bd7 a8bd 5644 293e a231 ca3d
00000060: fb29 0b3e d2d9 073f dd4b 443e 560b 373e
00000070: 5f42 c1bd af78 1bbd 2cec adbc 1645 e83d
00000080: e853 7cbe f8c5 dfbe d48e 1d3e 5687 7e3d
00000090: 9c77 9fbc 5637 583c 64bd 19be e744 e3bd
000000a0: 6a71 a3be 5821 e6be 659e 90bd dbaa bd3e
000000b0: 4af1 ddbe c0d8 afbe c2b6 de3d 870c 6b3e
000000c0: e7a4 843e 1376 c63e 95bd b1be bf4b f8be
000000d0: 701c fbbe b615 833e 3100 f63d 4645 95be
000000e0: 4a38 b8be af60 f4be c663 1bbf d797 91be
000000f0: f257 7bbe 06fd d63d 6092 96be 2f22 413e
00000100: c151 c53e d488 34be c158 cdbe 84dd 6cbe
00000110: e740 d83e 8295 863e 3339 e6bc 0609 883e
00000120: 4d6b 74be 0409 f5bd 5f77 4e3e 30d4 893e
00000130: 3abb 0ebe 6215 9c3e d5f7 2dbd 4cee fabd
00000140: 5edf 9d3e dbd8 6fbe fa96 56bc 6d94 123d
00000150: 4a01 8dbe 703b 6f3e 1cf6 92be 6c5c 9a3e
00000160: 9349 57be 8216 dbbd 5e49 4bba 123e ca3e
00000170: 9382 8a3e adbd 5bbd e82a c5bd 133c a4be
00000180: f046 943e efe0 a9be 2461 55be 79b9 cd3e
00000190: 8623 d43e 1d70 8e3d 0d4f b13e f457 6a3e
000001a0: c335 9e3e 6c33 98be 888d 97be db82 a4bd
000001b0: f339 a43e 4e7c 1bbe 54bd 17bf 48f2 67be
000001c0: 42b8 94be a900 73be b458 4b3e 9b5e 753e
000001d0: 3674 d8be b343 38be 9d84 eebc 3dd9 c9bd
000001e0: b9fc fcbd 5b50 44be 3731 09be fe27 45be
000001f0: 381d 0fbe aed3 15be e64d b5be cb51 95be
00000200: 0a7a ef3d ed2f 423d 772b acbd 6e07 c53e
00000210: d5f9 4c3c 2381 a43d 214a 3d3e d79b b73e
00000220: bc81 0ebe c2aa ba3c 2b3d 76bd e60b f03d
00000230: cad9 003f 96e1 e23e ff2f 37bd ca87 0fbe
00000240: 1e2b b9b9 8d1f 9a3c 6bd9 013d 94b6 cf3e
00000250: 1fa8 2abe ad36 52be 9f9b c3bc 94ad a0bd
00000260: 4236 023e 12c0 ab3e 7b42 c5bd 32a9 1dbe
00000270: 7624 023f 015c eebd 421d f53e 13d0 e13d
00000280: 34c9 b9bd 75c2 ee3d 4b3c ab3e 5d7f 2e3d
00000290: 83d9 883e db45 b6bc 2c32 7f3e df1e ab3d
000002a0: 8053 56be 046a 48be b25e 3e3e af52 983d
000002b0: 9c21 bd3e 3122 fa3e a6a6 5dbe 81e5 5c3e
000002c0: 8d41 253e d2d6 af3d cbce a53e 4528 863d
000002d0: ba46 9f3e f817 213d 210b 9d3e 5cef ae3e
000002e0: 022a 43be 5de3 ca3e 3df6 983e 8bc9 cc3e
000002f0: 6222 55bd 623d 9dbd 340b 713e fcfa a1be
00000300: ea6d a83d f6fe cebd 0ce9 5dbe dd2d 07be
00000310: acf0 683c 52ca 5a3e 2dc4 623d ffb9 4bbe
00000320: 59e5 09bc d7ee 573e 2e6f f9bd a434 173e
00000330: f9c2 2ebe 1178 743e 124c d1bc ebbc e63d
00000340: 3f73 673d f863 a6bd 5aa3 47bd 20ad c33e
00000350: c1d3 58bd 65ee 2b3d 2c34 493e fd90 093d
00000360: 5608 603e 10a1 273e 5aa8 ac3e 9f51 1b3e
00000370: 399e 863b d26b cb3e 8fcd ce3d 99d7 a53e
00000380: 2c08 06bc e225 953e d584 a53e 624c 263d
00000390: 117f b33e 4a44 6ebe 11f2 dabe 8516 2dbe
000003a0: 433d 233e 3631 5d3e a37f 013c 77dd df3d
000003b0: d8aa f43c 2e45 2e3e 4035 dcbd 37b7 4bbe
000003c0: 6380 1a3e 16ec ae3e 96a6 1c3f 6522 5d3d
000003d0: 3151 84bd 8fa7 08be 7005 263d 8bad d63e
000003e0: 8491 9bbe f0ed 2f3e 85d5 cf3d 0e77 693e
000003f0: b87b 49be 8c41 ea3d 0e7a ffbd d541 813e
0.3886449 0.2235922 -0.19784936 -0.1409487 -0.069339894 0.32835788 -0.31917372 0.0134465275
0.08737323 0.13277125 0.18118949 -0.13385856 0.28684714 -0.3632895 0.33169463 -0.18976837
0.049401786 0.37282038 -0.2971111 -0.060527194 -0.16899294 -0.08244177 0.16529974 0.09872748
0.13590233 0.5306674 0.19169565 0.17875418 -0.094364874 -0.03795689 -0.02123078 0.11341302
-0.24641383 -0.43705726 0.15386516 0.062140785 -0.019466214 0.013196787 -0.15013653 -0.110971265
-0.31922466 -0.44947314 -0.07061461 0.37044415 -0.4334815 -0.34345055 0.10874702 0.22953998
0.2590706 0.38761958 -0.34714952 -0.4849529 -0.49045134 0.25602502 0.12011755 -0.29154414
-0.35980445 -0.47730014 -0.6069912 -0.28436157 -0.24545267 0.10497479 -0.2940855 0.18860696
0.38538936 -0.17630321 -0.40106776 -0.23131377 0.42237017 0.2628594 -0.028103447 0.26569384
-0.23869057 -0.1196461 0.20162724 0.269197 -0.13938609 0.30485064 -0.04247268 -0.12252483
0.30834478 -0.23422568 -0.013097519 0.03578608 -0.27540046 0.23362517 -0.28703392 0.30148637
-0.2102416 -0.106976524 -0.0007754768 0.3950048 0.27052745 -0.053647686 -0.09627324 -0.32077083
0.2896037 -0.33179423 -0.20837837 0.40180567 0.41433352 0.06954978 0.34630623 0.22885114
0.30900392 -0.29726732 -0.29600167 -0.08032771 0.32075462 -0.15184137 -0.59273267 -0.22651017
-0.29046828 -0.2373072 0.19858056 0.2396187 -0.42276162 -0.17994575 -0.02911597 -0.09855888
-0.123528905 -0.19171278 -0.1339768 -0.19253537 -0.1397599 -0.1463153 -0.35410994 -0.29163966
0.11693199 0.047408987 -0.08406728 0.3848223 0.0125107365 0.080324434 0.18485309 0.35861084
-0.13916677 0.022786502 -0.060116928 0.117210194 0.5033232 0.44312733 -0.044723507 -0.14016643
-0.00035318075 0.018813873 0.031701487 0.40568984 -0.16665696 -0.2052867 -0.023877917 -0.078456074
0.1271601 0.33544976 -0.09631821 -0.15396574 0.50836885 -0.11638642 0.47873884 0.11026015
-0.090715796 0.116581835 0.33444437 0.04260193 0.26728448 -0.022250107 0.24921483 0.083554976
-0.2093029 -0.19571692 0.18590811 0.07437646 0.36939704 0.4885421 -0.21645603 0.21571924
0.16138287 0.085858956 0.32384333 0.065506496 0.31108648 0.0393295 0.30672553 0.34166992
-0.19058993 0.3962659 0.29875365 0.39997515 -0.052034743 -0.076777235 0.2353943 -0.31636798
0.082240894 -0.10107224 -0.21670932 -0.13201089 0.014217537 0.21366242 0.05536287 -0.1989517
-0.008416497 0.21087204 -0.12179409 0.14766175 -0.17066564 0.23873927 -0.025548968 0.11266502
0.05650639 -0.08124536 -0.04873977 0.3821802 -0.05293632 0.041975398 0.19648808 0.033585537
0.2187818 0.16370034 0.33722192 0.15167855 0.004108217 0.39730698 0.10097801 0.3239105
-0.008180659 0.29130465 0.32327905 0.040600188 0.3505788 -0.23268238 -0.42762807 -0.16903122
0.15941338 0.21600804 0.007903966 0.10930913 0.02986662 0.17018577 -0.10752344 -0.1989411
0.15088038 0.34164494 0.6119169 0.05398788 -0.064607985 -0.13345169 0.04053253 0.41929278
-0.30384457 0.1718061 0.101481475 0.22799322 -0.19676101 0.11438283 -0.12474452 0.25245538

fc3.bias f4 [10]
00000000: fdaf 893f b710 ecbe 7460 bbbf 09a2 6b3f
00000010: 72ba 2e3f 0e48 56bf 2d4c fcbe 17c8 943f
00000020: 93a8 2abf bfab e03e
1.0756832 -0.46106502 -1.463881 0.9204412 0.6825324 -0.83703697 -0.49276868 1.1623563
-0.66663474 0.43881032
