ckpt/1026/model_epoch10.pth (torch, 106183 bytes, 6 tensors)

fc1.weight f4 [128, 63]
00000000: a68c 1ebe adca e73d 957f 0b3e 8bc8 283d
00000010: 38da 4cbe 7414 0dbe f75e 063e 382e 40bd
00000020: 7470 903d b69f 0a3e 6ed0 a7bd a3c1 423e
00000030: d61d 783e 54ee 193d 15be aa3e 256a 1b3d
00000040: 8b65 b4bd 4f31 983d 020b 833d b0d5 d73d
00000050: a451 013e 9984 1dbe 20a5 a03d 6b4c 4bbd
00000060: b4d5 acbe 7045 273e f1ce debe fda5 3abd
00000070: 222b b5bd 2e8c 633b 166a e63d fabf bf3d
00000080: 6a42 183d 97af da3c bbad c1bd 57e0 bf3c
00000090: b80b 95bd 5fdc 13be ff4d f33b 86c7 d0bb
000000a0: 42a5 bd3d 2a6d df3d 35fd a93c a7c2 b6bd
000000b0: c28c 20bc 37ce 53bc a329 03be 63cd 0b3d
000000c0: 2281 a83d 6c72 98bd 26a9 a6bc d4e9 ffbc
000000d0: ea41 cf3d 74d8 9fbd cc15 e6bd 7a4c 24be
000000e0: 8f06 b7bd c066 bb3d b5ef f5bd 2e3b cfbd
000000f0: efde 7a3e 4297 2fbb fd0b da3d b95a eebe
00000100: d9cd 41bf 96ba 113e a864 bfbe 7817 bbbd
00000110: 82b9 dd3c af62 853d 40ad 6e3e acdd d8bd
00000120: 9161 663e 4b32 493e 218f d2bd 4333 a93e
00000130: a421 853d 2782 05ba e586 773e 4656 e63e
00000140: 59fe c6bc a6db 183f 3cca ff3e 9a3c 40bd
00000150: 2af5 1d3e f93b a6bd 1b37 a1ba ecad 1cbf
00000160: 12b7 cbbe ebb0 173e 257f 593e dfbb a53e
00000170: 0351 4fbe cb2a 963e 5960 e73d c367 02be
00000180: a163 ccbb 5ac8 a5bc 5cea cdbc 5ac8 24be
00000190: 378f d5be 3e22 263d a15d ee3d 57c8 913e
000001a0: 65af 18be 3afa c83d bc66 1b3c 662f 8abd
000001b0: c653 0ebe 6ead e6be 84f2 f2bb ad57 7abe
000001c0: e77f 39bf 78a2 873c f212 3abd 9174 6f3e
000001d0: 2de4 bf3d 3945 12be edd3 5e3e 342d 18bd
000001e0: e10e 0f3d b06a 6e3e 01cc ccbd ca2a 493e
000001f0: fbb1 f03e 6c1f 643d 260b eabd 3d64 a8be
00000200: b4f6 bb3e ead2 bdbd 92e8 8ebe 7558 913e
00000210: 8274 963d 5533 81be 56bd 4f3e 983b e0bc
00000220: 3a9a 81bd 6c75 7f3d 6d8c fb3d 0f10 bb3d
00000230: 347f 533c 2729 353e b3cd b3bd 21e2 923c
00000240: f45a b1bd a73b 703d 59aa 113d 7adc 28bd
00000250: 34a8 24be 4f76 943d 9358 c2bd 911b 8ebe
00000260: 9768 2f3d 4cbd 063c 739f 913d 82e9 b5bd
00000270: d57d 84bd 0e4c a1bd 10fc 573e 1904 123d
00000280: cb27 c7bc b76a cabd bd88 143c 0e0b 213e
00000290: 9c2f 14bf 8db1 1e3e 08b2 8c3d 81fc cf3d
000002a0: 221b f23d 4df8 003e 44e5 c93d 445e 68be
000002b0: 5fc0 563e df30 3dbe aa8f 99be ea31 d83e
000002c0: 69b3 a2be 0a6f 97bc 2d7e 713d aef4 493d
000002d0: 79ef 9f3d 5538 babd a44e 1c3d 0318 84bd
000002e0: 0388 29bd 58a6 7d3e f1d8 d1bd 5280 7abc
000002f0: d8b9 bd3d 4226 393e 1db9 b9be 3578 a8bd
00000300: 8c3e 52be 13bf 99be 78b0 ba3d f5dd a3bd
00000310: fd0a 3d3d 089c 293d 7649 81be 6241 3b3e
00000320: 2bd9 a3be 022a 52be be18 c83e 7175 6abe
00000330: d4a8 83be 838a 093e 9eda aa3e b286 49bd
00000340: 8eeb a33e 01e0 bbbd 2a79 52bd 09e7 8b3d
00000350: 963c 0bbe 49f9 853d e753 d7be a4cd 26bd
00000360: 8dbb e7bb 3357 d43a 5b5a 3e3e c76e 4ebe
00000370: 80d4 303e ba1c 10be e7ce cdbd 2bbe 8c3c
00000380: 15be 75be 821e 823e c77f 1bbe 61f9 90bc
00000390: d5b2 1c3e a2fa ce3d 7231 443e b5bd 133e
000003a0: 17d8 a03e 2892 56be 6857 963d bd6c 6c3e
000003b0: d58b 7cbe 2329 2a3e de09 b23c 2358 93bd
000003c0: 114b 253e ea08 a83c 12e1 363e e12f a0bd
000003d0: 7b8e 713e cba0 7bbe 0413 513d c602 e4bd
000003e0: 0841 e3bb 42bc 24be d0b5 9dbe 8595 9b3e
000003f0: d086 bebd 67d1 eabd 8869 843c f57e f53d
-0.1548334 0.11317954 0.13622887 0.041206878 -0.20005119 -0.13777333 0.13122164 -0.046919078
0.07052699 0.13537487 -0.08194052 0.19019179 0.24230132 0.037580803 0.33348146 0.037943024
-0.0880843 0.0743128 0.06398584 0.105388045 0.126288 -0.15382613 0.07843995 -0.049633425
-0.33756793 0.16335082 -0.4351726 -0.045568455 -0.088461176 0.0034721005 0.11250703 0.093627885
0.037172712 0.026695056 -0.094569646 0.023422403 -0.07277626 -0.14439534 0.0074250693 -0.0063714413
0.09260036 0.10909493 0.020750621 -0.08923846 -0.009799184 -0.012927583 -0.12808852 0.03413142
0.08227755 -0.07443699 -0.020344328 -0.031239428 0.10119994 -0.07804957 -0.11234626 -0.16044798
-0.08936798 0.091504574 -0.12008611 -0.101187095 0.24499105 -0.0026793038 0.10646818 -0.4655359
-0.75704724 0.14231333 -0.37381482 -0.09135336 0.027065996 0.06512963 0.23308277 -0.105891556
0.22498156 0.19648091 -0.10281206 0.33046922 0.06500557 -0.00050929416 0.24172552 0.44987696
-0.024291204 0.59710157 0.4995898 -0.046932794 0.15425554 -0.081169076 -0.0012299748 -0.61202884
-0.3978811 0.14813583 0.21239908 0.32369897 -0.20245747 0.29329523 0.11297674 -0.12734894
-0.0062374626 -0.020237137 -0.025136165 -0.16092053 -0.41710827 0.04056 0.11638952 0.2847316
-0.14910658 0.09813352 0.009484943 -0.06747322 -0.13899145 -0.4505419 -0.007414164 -0.24447508
-0.7246079 0.016556963 -0.045428224 0.2338431 0.09369693 -0.14284219 0.21760531 -0.037152484
0.0349263 0.23282886 -0.09999848 0.19645229 0.47010788 0.05569403 -0.11427908 -0.32888976
0.36711657 -0.09268744 -0.27911812 0.283878 0.07346441 -0.25234476 0.2028707 -0.027372167
-0.063282445 0.06236784 0.122826435 0.09133922 0.012908746 0.1769148 -0.087794684 0.017930092
-0.08659926 0.05865064 0.035562847 -0.041225888 -0.1607979 0.07249128 -0.094895504 -0.27755406
0.042824354 0.008223843 0.07110491 -0.08882429 -0.06469313 -0.078758344 0.21092248 0.03564844
-0.024310967 -0.098836355 0.009065804 0.15726873 -0.57885146 0.15497418 0.06869894 0.10155583
0.118215814 0.12594719 0.09858182 -0.2269221 0.20971821 -0.18475674 -0.2999242 0.4222558
-0.31777504 -0.018485565 0.05895822 0.04930561 0.07809348 -0.09092776 0.038160935 -0.06449892
-0.041389477 0.24770486 -0.102464564 -0.015289383 0.092639625 0.18081 -0.36274043 -0.08226053
-0.20531672 -0.3002859 0.0911569 -0.08001319 0.046153057 0.04140857 -0.2525136 0.1828666
-0.32001624 -0.20523837 0.39081377 -0.22896363 -0.25714743 0.13431744 0.33369917 -0.04920072
0.3201565 -0.09173585 -0.051385082 0.06831176 -0.1359733 0.06541688 -0.420562 -0.040723458
-0.0070719183 0.0016200304 0.18589155 -0.20159446 0.17268562 -0.14073458 -0.10049229 0.017180523
-0.23998292 0.254139 -0.15185462 -0.017697038 0.15302594 0.10106398 0.19159487 0.14427836
0.31414863 -0.20954192 0.0734089 0.23088355 -0.24662717 0.16617255 0.02173322 -0.07194545
0.16141917 0.020512063 0.17859295 -0.07821632 0.23589508 -0.24573056 0.051043525 -0.111333415
-0.0069352426 -0.1608744 -0.30802774 0.30387512 -0.09303057 -0.114657216 0.016163602 0.11987106

fc1.bias f4 [128]
00000000: 215d fcbb a227 92be 24cb a13d d143 e53c
00000010: a19d c4bd d063 ed3d d129 0dbe 0473 703c
00000020: d837 02bd bef4 98bd d90e 43be 2665 933d
00000030: 2381 5d3b 5c75 1bbe a0f9 eb3d 556e 1d3d
00000040: 7c43 7ebd fb05 323e 4b32 dc3d e1a6 b2bd
00000050: 5e2a 13be 5323 49bb a300 e4bd 387a ea3c
00000060: 8256 28bd 276d ec3d bcd9 b9bb d9f8 06bd
00000070: 1de9 b3bc f60c b13d 852e efbd 9c57 5ebd
00000080: 928f 183e d55a 8fbb 2a5b 883e 549e 8ebd
00000090: 1423 3f3e a11d 893d c8f8 df3d a7be 623a
000000a0: 3751 e6bc e1b3 093d 2119 a5bd 7e6f e03d
000000b0: 63ad fc3d 3f71 81bd 35b9 8f3d b9d2 a5bd
000000c0: e5cc babd 71d8 68be 8787 35be d53e b7bd
000000d0: 4830 5ebd 9e82 8cbd 63eb cdbd f9ec a5be
000000e0: b2f6 a13c d49f e33d 32c4 80be b0a7 563d
000000f0: a89c 823d 1c14 f33d a008 113d a5b8 02be
00000100: 6ae1 c93b 3fdb ac3d 9226 483c 7884 283d
00000110: 9ba6 383e 35f1 873c c8d9 d1bd 1b16 9dbd
00000120: bdf4 ddbd 26c6 b43c e3ac 0f3e a84f 80be
00000130: cb46 e93d 8621 a43e 8f70 083e 000c c9bd
00000140: 18f8 963d 6475 dc3d 7160 4fbe 446a 0f3e
00000150: 60bf 773e 0cdc e9bc 914f 6fbd cdbd 293e
00000160: 6cdf d7bc cfd1 783d 695f f9bd 4222 77be
00000170: 8030 043d c017 0e3c 1244 aa3d 1421 55bd
00000180: 9ec6 fb3c 6b19 06be 4588 853d f6bb adbd
00000190: 718f 4bbd d572 b03d 48b7 a8bd 4f4e bc3d
000001a0: e5ef 253e 802e c63d b191 293e 04b3 9ebd
000001b0: 17c3 6b3d 806a 20bd d2cf 203d f64e 663e
000001c0: 6846 163e 285c 47bc 8fe6 a63d 9997 ae3c
000001d0: c59e c63d 5a1d 9e3c fda2 83bd d588 463e
000001e0: 7186 fb3c f737 d43d f783 34bd 3d5d 0f3e
000001f0: 2582 8abd 7c5a ef3d 7a66 d1bd 508a 52bd
-0.0077015315 -0.28545862 0.07900074 0.027986439 -0.09600378 0.11591303 -0.13785483 0.014675859
-0.031791538 -0.07468556 -0.19048633 0.07197027 0.0033798895 -0.15181488 0.115222216 0.0384353
-0.062076077 0.17385094 0.1075178 -0.08723236 -0.1437163 -0.003069122 -0.11132934 0.028622732
-0.041098125 0.11544257 -0.005671708 -0.032952163 -0.021961743 0.0864505 -0.11678795 -0.05428277
0.14898518 -0.0043748417 0.26632053 -0.069637924 0.18665725 0.066951044 0.10936123 0.0008649625
-0.028114898 0.03361881 -0.080614336 0.109587654 0.123377584 -0.06320428 0.07017747 -0.08096833
-0.09121112 -0.22738816 -0.17727481 -0.08947531 -0.054245263 -0.06860851 -0.10054662 -0.32407358
0.019770954 0.11114469 -0.25149685 0.052406013 0.06377536 0.1186907 0.035408616 -0.12765749
0.0061609047 0.084402554 0.012216227 0.041141957 0.18032305 0.016594509 -0.102466166 -0.07670232
-0.10837696 0.02206714 0.14030795 -0.25060773 0.11390456 0.32056826 0.13324188 -0.09816742
0.07371539 0.10764578 -0.20251633 0.14005381 0.24194098 -0.02854731 -0.05842549 0.1657631
-0.026351653 0.060746964 -0.12176401 -0.24134162 0.032272816 0.008672655 0.08313765 -0.0520335
0.030734356 -0.13095634 0.06520132 -0.08483116 -0.049697343 0.086156525 -0.08238083 0.09194624
0.16204794 0.09676838 0.16559483 -0.07748988 0.0575591 -0.039164066 0.039260693 0.22491059
0.14675295 -0.012167968 0.08149444 0.021312522 0.09698252 0.019301105 -0.06427572 0.19388135
0.030703755 0.10362237 -0.044071164 0.14000411 -0.06763104 0.116871804 -0.10224624 -0.051401436

fc2.weight f4 [128, 128]
00000000: a347 36bc 48f4 893d d789 aabc 637e 663d
00000010: c746 6ebc 9268 103d 8cab 7ebd e79e f1bc
00000020: 3fd3 073c a48a 8f3d 8f98 e5bc 8e73 7a3c
00000030: 639d 1abd d27a 883d bd1c 1abd 8e6c 9dbc
00000040: ee53 a33d 911b fdbc 7cf5 5ebc 03d2 a33d
00000050: b0d6 96bd efff bb3c aa22 7f3d 7c99 a5bd
00000060: 693c 743d cafc 22bb 6fff 81bd 0cdb 6b3d
00000070: fa89 afbd f0c8 653c 56ac 0b3d d8fd d73c
00000080: ef49 9dbc 04c4 91bc b965 af3d 7d59 0e3d
00000090: cea6 3b3d 4176 953d 27dd 10bd f045 bc3a
000000a0: 4743 99bd 9ba0 9f3d fee7 86bd be9e 0dbd
000000b0: 22c8 c63d f537 91bd 1f64 26bd 5c09 d5bb
000000c0: 41f4 7cbd 9311 a13d 2b3f 983d 7f8a 32bc
000000d0: d79d a6bc 65a6 acbc 3c0f a1bc 0d65 10bd
000000e0: 73d0 9dbd 20f4 4ebd 3566 40bd 0159 973d
000000f0: 5e5f dabc ce47 73bd 45a8 bbbc 4c91 b5bc
00000100: 3cd0 a6bd 0ce8 f8bc 3aa2 573d af73 b2bd
00000110: 8c89 663d ada3 293c 2e0a 023d 152c d4bc
00000120: ba46 ae3d 8469 82bc b105 32bc 9211 993b
00000130: 8400 2abd 9771 8ebd fa6e 92bb 347d 783c
00000140: 208f c4bc e12d abbd 8f94 79bd d565 12bd
00000150: b532 8dbd 2155 323d 0cd9 0b3d dec6 f03c
00000160: aab2 fd3c 0dfc f9bc 7942 0dbd 431a 7d3d
00000170: c1ca b2bd 3a30 653d a6ee a43b 4130 993d
00000180: 5f2f 923c 4203 b4bd 6e06 cd3d 1091 83bd
00000190: 9495 823b 1ce6 6b3d a785 89bd ad6a 873d
000001a0: 946c e73c 3738 b2bc 41dc 43bd 1746 ce3c
000001b0: b7e4 aabd 6ddc 0c3d 952a 903d 7c3e 643c
000001c0: aa86 39bd 74c0 87bd feea b43c 8224 d0bb
000001d0: d26a 6bbd b073 e53c 032b b6bc 312a 733d
000001e0: 93f6 91bd bb6f b039 d42a 9bbd 1bac 803a
000001f0: 980e ab3d adac 983d 42c4 8d3c 6ce2 773b
00000200: d244 3dbd 2cbb 1b3d acb6 da3d 3d8e f2bd
00000210: 0923 4ebe 3058 9bbc 11a8 19be e0c6 39be
00000220: 447d 8b3d cc7b 4abe 3abb d9bd 3d30 713d
00000230: c9aa 3b3e e9b9 3cbe 23b3 a33d 4b04 fdbd
00000240: 0dd6 f13d 90a3 4c3d 400e 9c3b c90d a1bc
00000250: 9c80 c53d c921 073e 8057 5abc 0409 3ebd
00000260: 1b89 803d af78 483e e1f2 a8bc f4e7 383d
00000270: ef6c 94bc acda f53c f8b6 fbbc 52c5 6e3d
00000280: da9f ed3d ed3a 1f3d 9ad8 5c3e 12e9 a03d
00000290: 4ed2 a33d c052 ca3b e235 c7bc 7641 cd3b
000002a0: e07f 1f3e 3193 e3bb 9f69 d53d c7a7 f23c
000002b0: 528c 4a3e 3518 303d c7ee 673d e035 4c3e
000002c0: 2a5a b53d 4ea8 833e a0fd 37bb 8ce7 e83d
000002d0: e5a0 ff3b 2e20 8bbe 6803 cb3d e673 1dbe
000002e0: 9240 203e ea97 ae3d 8a7c 18be fdec 39be
000002f0: 7d2c 4cbc b8c6 c63c 8267 a0bb f526 a2bd
00000300: 8280 0b3d ebd2 fbbc d192 35bc da76 0d3d
00000310: 5c92 b73e 6c9c dabd e6e0 93bd 79b5 ffbd
00000320: b863 e8bd 5a28 b13d 7a7b 5a3d d5ba 29be
00000330: a96d d0bc 4551 59bd 82a0 623c 2c41 00bb
00000340: 8ec8 7e3d f305 643d d1cb 57be f958 cb3d
00000350: 254d c63d f57b 7a3d bd5a 91bb f8d5 cbbc
00000360: 5d67 d23d d97c dfbd 670e a2bd 1bc3 0bbe
00000370: 8a85 233e a5cb 8f3d 13ad 47bb 7073 b43c
00000380: a717 a73d c79d f63c 3507 1f3e 3a08 83bd
00000390: 36c7 8e3b a812 24be 9855 66bd e4d0 373d
000003a0: 1482 143e 5c0c d13d fc93 ffbb 0a9b f4bb
000003b0: fa91 573d 0095 f13d 11cf 8cbd f668 58bd
000003c0: 23b5 323d f6fe 633d 6e61 b5bd ca9b d7bd
000003d0: 07d9 5bbc eab1 f03c 500a 96bd 7039 673d
000003e0: da23 123e 2cf8 f4bc 2e76 a3bd 3e7d a83e
000003f0: c286 14be 404e 003e b1ca 8f3d 7cbb 9a3d
-0.011125478 0.06736046 -0.02081768 0.056272876 -0.014543242 0.035255976 -0.06217532 -0.029494716
0.008290111 0.070088655 -0.028026847 0.015286339 -0.037747752 0.06664051 -0.037625063 -0.019216802
0.07974993 -0.030896934 -0.013608333 0.07999041 -0.07365167 0.022949187 0.062288918 -0.080859154
0.059627924 -0.0024869912 -0.06347548 0.057581946 -0.08571239 0.014024958 0.0340999 0.02636616
-0.019200293 -0.017793663 0.08564324 0.03475331 0.045813374 0.07297946 -0.035367157 0.0014364105
-0.07483535 0.07794305 -0.06587218 -0.034575216 0.09706141 -0.07090751 -0.040622827 -0.00650136
-0.061756376 0.0786468 0.07433923 -0.010897278 -0.020338936 -0.021075437 -0.019660585 -0.03525262
-0.07705774 -0.050525784 -0.046972472 0.07390023 -0.026656803 -0.05939465 -0.022907386 -0.02216401
-0.08145186 -0.030384086 0.052644946 -0.08713471 0.05628352 0.010353965 0.03174799 -0.025899926
0.08509584 -0.015919454 -0.010865615 0.004671284 -0.041504398 -0.06955259 -0.004468796 0.0151665695
-0.023994029 -0.0835836 -0.060932692 -0.035741646 -0.06894437 0.043538217 0.03414254 0.029391702
0.030968983 -0.030515695 -0.03448722 0.061792623 -0.087300785 0.055954196 0.005033332 0.07479907
0.017844854 -0.08789684 0.10010992 -0.06424153 0.0039851163 0.057592496 -0.06714945 0.06612144
0.028250016 -0.021755321 -0.047817472 0.025179906 -0.08344405 0.034389902 0.07039372 0.013930913
-0.04529444 -0.066285044 0.02208471 -0.0063520083 -0.05747492 0.028009266 -0.022237306 0.05936641
-0.071271084 0.00033652582 -0.07576528 0.0009816916 0.08352393 0.0745481 0.017305497 0.0037824167
-0.04620821 0.038020298 0.10679373 -0.11843536 -0.20130552 -0.01896295 -0.15005518 -0.18142271
0.06811002 -0.19773787 -0.10631414 0.058883894 0.18326868 -0.18430294 0.07993152 -0.123543344
0.11808405 0.049960673 0.004762441 -0.019659894 0.09643671 0.13196482 -0.013326526 -0.046395317
0.06276151 0.19577287 -0.020623626 0.045143083 -0.01811835 0.030011497 -0.030726895 0.058293648
0.11602755 0.038874555 0.21567002 0.07856955 0.07999097 0.0061744153 -0.024317686 0.006263907
0.15576124 -0.006945037 0.10420536 0.029621018 0.1978009 0.042991836 0.0566242 0.19942427
0.08855088 0.25714344 -0.0028074756 0.11372289 0.0078011625 -0.2717299 0.09912759 -0.15376243
0.15649632 0.08525069 -0.14891258 -0.1815681 -0.012461779 0.024264678 -0.0048951516 -0.07917587
0.0340581 -0.030740222 -0.011082367 0.034537174 0.3585385 -0.10674366 -0.0722063 -0.12485785
-0.11347145 0.086502746 0.053340413 -0.16575177 -0.025442915 -0.05305602 0.013832213 -0.0019570095
0.062202983 0.055669736 -0.21073844 0.099290796 0.09682683 0.06115337 -0.0044358657 -0.024882302
0.10273621 -0.10912485 -0.07912903 -0.13648646 0.1596891 0.07021264 -0.003046815 0.022027701
0.08158808 0.030104531 0.15530093 -0.063980535 0.004357244 -0.16022742 -0.056233972 0.044876948
0.14502746 0.102074355 -0.0077996235 -0.007464771 0.05262945 0.117959976 -0.06875432 -0.052834474
0.043629777 0.05566307 -0.08856474 -0.10527761 -0.013418443 0.029381711 -0.07326186 0.05645126
0.14271489 -0.029903494 -0.07981525 0.32908052 -0.14504531 0.1252985 0.07021082 0.07555291

fc2.bias f4 [128]
00000000: 16e8 5b3d 9ce3 0d3e 3588 f7bb 6334 123c
00000010: c5ae 223e 6547 edbc 0c9e e2bc 2db0 90bd
00000020: 44bc 0cbd 0f1e 9b3e 5093 453e c4a1 59bd
00000030: d3ec a93d 3474 5d3d a724 e23b 454a d33d
00000040: ec42 693e 149f 06bc 55cc c0bd 2e01 8f3d
00000050: 9cdb 8fbd 9631 a4bc 8f33 493d 8f20 c9bd
00000060: 373c a5bd c608 7f3b 07f8 1c3e 5c68 82bd
00000070: 3b5e 363e e98e ac3d fbe8 b33d 3b32 c73d
00000080: 2bfd a0bc 833e bdbc 4bde 2f3d 1126 9c3b
00000090: 8ab8 aabd 92b7 77bd 29fc 153c 3643 1ebd
000000a0: d13b 7e3d 9a3d 6b3d 2cf2 443d 096c a7bd
000000b0: 18b8 85bc bcc7 98bd a2a5 0e3e c0f8 79bd
000000c0: 12d3 ac3c bdb3 483d 0c9e 8b3d 99a7 02be
000000d0: dfc6 1f3e b4e4 543d 6bf8 ed3c 3a19 163d
000000e0: c993 c23c 27f4 eb3c 2507 5e3c 5903 2c3d
000000f0: 5000 19bd b3f7 713d a779 3a3e a271 113e
00000100: 0adc 463d 33d0 ce3d 20df ba3d 3fa4 903d
00000110: d4ab a73d 3624 b1bd f8d8 843d 9b30 0d3d
00000120: 1bee 83bd 5906 13bd 7f42 333d 4134 f43d
00000130: 8e13 133e d876 34bc 1de7 7ebd 71e4 c93d
00000140: a24c fbbc 9bda 433d 7f35 ba3d b3f1 e53d
00000150: cce5 a63d affd 103e b5d9 bfbc bdaf bcbc
00000160: e51f 043e 786d cdbc d7b1 a93d a92b 1d3e
00000170: c08b 34bc a23d f83b b120 82bc 0c68 33bd
00000180: c44a b1bd 4aca 3c3d 50e0 443d df63 f23d
00000190: a0b0 573c 83bb 0b3d a671 d63d b49a 573e
000001a0: 2d3e afbd d572 143e dd4d f13d 1b5a 523e
000001b0: 2c13 fbbd bd3a e83c bd4b 5c3d aab4 9fbc
000001c0: 7594 86bc 7763 263d ae09 3cbc 4093 203e
000001d0: aa6c 273d 8845 953d 869b 1bbd 3dfb 0dbc
000001e0: 89c0 4cbd 0e5e 413a 8150 813d b84a 663d
000001f0: b897 63bc 0f4a e5bc a0e4 aabd 5a5e dc3d
0.05368813 0.13856357 -0.007554079 0.008923623 0.15886982 -0.028964708 -0.027663253 -0.07064853
-0.03435923 0.3029637 0.19294477 -0.053132787 0.08297124 0.054065898 0.006901342 0.103169
0.22779435 -0.008216638 -0.09413973 0.06982647 -0.07024309 -0.020043176 0.049121436 -0.09820663
-0.08068126 0.0038915141 0.1532899 -0.06367561 0.17809384 0.084256954 0.08784672 0.097263776
-0.01965197 -0.023101097 0.042936604 0.00476528 -0.08335979 -0.0604778 0.009154358 -0.038638316
0.062068764 0.057431795 0.048082516 -0.08174903 -0.016323134 -0.07459971 0.13930371 -0.061028242
0.02109674 0.048999537 0.068172544 -0.12759246 0.15603207 0.05197592 0.029049119 0.03664515
0.02375211 0.028802944 0.013551508 0.04199538 -0.037353814 0.059074115 0.18210469 0.14203504
0.04854969 0.100983046 0.09124589 0.070625775 0.081870705 -0.08649485 0.06486696 0.034470182
-0.064418994 -0.035894725 0.043764587 0.11924029 0.14362928 -0.011014663 -0.062232126 0.09858025
-0.03067619 0.0478159 0.09092235 0.11227741 0.08149299 0.14159273 -0.02341924 -0.023033017
0.12902792 -0.025076613 0.082858734 0.15348686 -0.011019647 0.0075757066 -0.01588473 -0.0438004
-0.086568385 0.046091355 0.048065484 0.11835455 0.013164669 0.034114372 0.104708955 0.21055108
-0.08556781 0.1449693 0.11782429 0.20542185 -0.12259516 0.028348321 0.053783167 -0.019495327
-0.016428212 0.0406222 -0.011476917 0.15681171 0.040875115 0.07288653 -0.037990116 -0.008665857
-0.049988303 0.0007376381 0.06314183 0.0562236 -0.013891153 -0.027989415 -0.08344388 0.10760184

fc3.weight f4 [10, 128]
00000000: 0d55 c7bd 6e51 f5be f822 a3bd 6b45 8b3d
00000010: e88a 1abf e7ed 3a3f 5485 acbb 3a5b 15bd
00000020: a6b1 d23d bcf4 31bf 4d92 3dbf cb2c a7bd
00000030: 9478 353f 58ac 99be cfe5 423e beb1 3e3f
00000040: b4ef a33e b32b 04bf 203e 153d 65ac a93d
00000050: 50d3 863e 0f27 b13e e3a2 99be 72d4 bc3e
00000060: b0de de3e e6be 56bd 37eb 243e e51d 693c
00000070: c33a c7be 6b2b 24bf c11e 9ebe 7003 923b
00000080: 3991 81bd 2c48 1b3f f2ad 30bd 83cc 9bbd
00000090: 280f a13d 33d3 183e 5478 593d 4937 12bf
000000a0: d757 a2bd 83c4 093f b209 2c3e 77e1 c93d
000000b0: 8d6a 073f 5a38 9e3c 2b1b 0e3b f4a1 31be
000000c0: cb94 103d da24 36bd a38e cdbc 17a5 55bd
000000d0: 2ebe 763e a24c 2e3d da40 a83e 73e0 ff3d
000000e0: eaa4 a33d 10cc adbe 3ea8 4bbd 7a52 90be
000000f0: 8537 dcbd 08f9 21be bfda 153f 94b6 c23e
00000100: f22e 913d e1cd d3be 3afe 51be cfe9 7f3c
00000110: 91c3 bfbd 6eed 583c 28cf e9bd dc3a 01bf
00000120: 5853 a73d 75bf 9a3d 3802 41be 5f4a 6cbf
00000130: b055 08bf 33ec 8c3e 2135 b1bd 91f8 133f
00000140: 732d cfbd 94d3 903d b848 aebe 09cb f63c
00000150: 74aa 063f d147 c9be 277d e23d d4f7 0fbe
00000160: 4114 2f3f cf5f 61bb f7bb 68be 3c17 fe3e
00000170: 5482 e33e 00bf c7bd 05ce 22be 7a63 493f
00000180: bd78 a9bd cfff 20bf 96e1 cebe e8a5 ee3e
00000190: 4ad4 b7bd 4ab7 5c3c 16ea 9b3e d226 d93e
000001a0: 531c c43e ca91 a63d 4d29 0cbe 2db4 aa3e
000001b0: bbd2 d43d f2cc 203e 2eaa f13e cd36 02bf
000001c0: 5a79 a73e d8a0 a63e f105 c63d ea52 303d
000001d0: 3a6c b43e b1c8 e1bc 4896 92be 30d4 c03d
000001e0: 61c1 463f 0308 bd3c 4c7b 1b3f db91 44be
000001f0: 0272 20be 3858 f73e 2945 6c3d 5768 a13c
00000200: 7aa6 30bd 35d4 693e 1314 b73d e109 4b3d
00000210: e90c 9d3e 8470 e5be 9166 6b3d 6c18 a0bd
00000220: 8d67 24bd 8733 303f 3133 2d3f 9183 a7bd
00000230: ecf9 aabd a5d5 d83d c84a eb3d f1b4 1cbd
00000240: da15 383f 85d9 c0be 07f0 bcbd 5d06 593e
00000250: 6bc0 c5be 3c33 20be 3a62 823e 0f6c ddbc
00000260: 302d 6a3e 41e6 81bd 6501 843d 892b d7bd
00000270: a54e aabe 9a65 c63e 11de 8c3d 5924 3a3c
00000280: 5086 9bbd 934d 843d 4aa5 6bbe 22c2 e2bc
00000290: b426 0f3b 9025 99be 0d55 afbd 3974 d3be
000002a0: 7eac d73e 3f0b acbd c1a6 48be 2d7e 47be
000002b0: 1152 46be a2d9 e7bd 0dad a5be 77a7 b7bd
000002c0: 3a9a fcbb f6e0 993d a7f4 93be 554a 9fbe
000002d0: 389c 8f3e f3f1 c1bb 2a6c 76be 3af2 df3d
000002e0: 0bf8 7fbd 01cd 75be eb99 273e 2a7d 16be
000002f0: 5ddb e0bc 005d fcbd 4bd3 da3e 6ad1 fb3d
00000300: 9bc0 7bbd da6c 74bc bd55 b13e e6b8 27bf
00000310: 51d4 823e dfb5 23be 964e ac3e 5d4b 1f3f
00000320: 3c95 2dbd 5079 2e3e 26d4 acbe 1f57 6a3f
00000330: 6747 be3d b2c1 cebd e12f 1abe 0d1d 59be
00000340: 9a04 1d3e 1014 b3b9 01f9 0d3f 8a13 90bd
00000350: 2635 d3bd f06b 9c3e 9b0a 503d 7b36 73bc
00000360: 2bf1 57be b8ca c1bc aa00 bfbe 8446 e93e
00000370: 3fd6 1ebf bf43 0fbf 634d 28be 2cfa e0be
00000380: 924a 88bd 96d7 633e 71c4 703e 3738 493e
00000390: bd77 8abd 3260 ee3c 8bd6 5e3e e215 893e
000003a0: 033b 76be 608f 0f3e 4fc0 4a3d 7fc5 093f
000003b0: 2bbf 56be cc7a adbd d68f 4abe 75ba 37be
000003c0: d655 413e 57be 413e d9a8 603d e1ec 303f
000003d0: 5556 bc3d 1428 953d 3400 6e3e 1548 30be
000003e0: a797 afbc cc8f 0c3d 0932 e6be 40b8 b3be
000003f0: f094 e43c 62ed eebe 3deb f6bc eff0 f93e
-0.09733019 -0.47913688 -0.07965654 0.0680035 -0.60368204 0.7301926 -0.0052649174 -0.036463954
0.1028779 -0.6951406 -0.7405136 -0.081628405 0.7088711 -0.300143 0.19032978 0.74489963
0.32018816 -0.5162918 0.0364362 0.08284835 0.26333094 0.34600112 -0.30007085 0.36880833
0.43529272 -0.05242815 0.16105352 0.014228319 -0.3891202 -0.6412875 -0.30882838 0.004455976
-0.06326527 0.60657 -0.043134637 -0.07607367 0.07864219 0.14924316 0.05309327 -0.5711561
-0.0792691 0.5381548 0.16800573 0.09857457 0.5289696 0.01931398 0.0021683674 -0.17346936
0.03529815 -0.04446874 -0.025092429 -0.052159395 0.24095985 0.04255355 0.32861978 0.12493982
0.07990439 -0.3394475 -0.049720995 -0.28187925 -0.10752777 -0.15817654 0.58536905 0.3802992
0.07089032 -0.4136801 -0.20507136 0.015619709 -0.09363473 0.013240201 -0.11416465 -0.5048044
0.081701934 0.07556049 -0.18848503 -0.9230098 -0.5325575 0.27523956 -0.08652712 0.5780116
-0.101160906 0.07071605 -0.34039855 0.030126112 0.5260384 -0.39312604 0.11059027 -0.14059383
0.6839028 -0.0034389382 -0.22727953 0.496271 0.4443537 -0.09753227 -0.15898903 0.78667414
-0.08274982 -0.6289033 -0.40406483 0.4661095 -0.08976038 0.013471434 0.3045203 0.4241243
0.3830286 0.08133276 -0.1368763 0.33340588 0.10391756 0.1570318 0.4720015 -0.5086487
0.3270977 0.3254459 0.09669102 0.043047823 0.3523882 -0.027561517 -0.2863028 0.094154716
0.7763882 0.02307511 0.6073501 -0.19196264 -0.1566849 0.48309493 0.057683144 0.019703073
-0.043127514 0.22834857 0.08939376 0.049569968 0.30673912 -0.44812405 0.05747086 -0.07817158
-0.040137816 0.68828624 0.67656237 -0.08179391 -0.0834845 0.105876245 0.11488873 -0.038258497
0.7190834 -0.37665954 -0.09225469 0.21193834 -0.38623366 -0.15644544 0.25465566 -0.027029065
0.228688 -0.063427456 0.064455785 -0.105063505 -0.33263126 0.3874939 0.06878293 0.011361205
-0.075939775 0.064601086 -0.23012272 -0.02768046 0.0021843137 -0.2991147 -0.08561144 -0.41299608
0.4212379 -0.084005825 -0.19594862 -0.19481726 -0.19367243 -0.11320807 -0.3235859 -0.08967488
-0.007708815 0.07513611 -0.28897592 -0.31111398 0.28048873 -0.005918735 -0.24064699 0.10934873
-0.06249241 -0.24003984 0.16367309 -0.14696184 -0.02744835 -0.12322426 0.4273933 0.12295802
-0.06146298 -0.01491853 0.34635726 -0.6551651 0.2555261 -0.15987347 0.33653706 0.6222437
-0.04237865 0.17038465 -0.33755606 0.91539186 0.09290963 -0.10095538 -0.15057327 -0.21202488
0.15333787 -0.00034156488 0.55458075 -0.07034977 -0.10312872 0.305511 0.050791364 -0.014844532
-0.21088092 -0.023656234 -0.37305194 0.45561612 -0.62045664 -0.5596275 -0.1643577 -0.43940866
-0.06654848 0.22250208 0.23512436 0.1965035 -0.067611195 0.029098604 0.21761529 0.26774508
-0.24045949 0.14019537 0.049499806 0.5381698 -0.20971362 -0.08470687 -0.19781432 -0.17942221
0.188804 0.18920265 0.054848526 0.6911145 0.09196154 0.07283035 0.23242265 -0.17214997
-0.021434618 0.034316823 -0.4496005 -0.3510151 0.02790305 -0.46665484 -0.030141467 0.4881663

fc3.bias f4 [10]
00000000: d1af 3a3e b0f7 7a3e c840 c43d ff8c 52bb
00000010: 616d c43d 103f 15be 96fa 4bbc b7da ddbd
00000020: 9cb9 d1bb c862 f0bd
0.18231131 0.24508548 0.095826685 -0.0032127497 0.09591175 -0.14574838 -0.012449881 -0.10832732
-0.0064003 -0.11737591
