ckpt/1026/model_epoch15.pth (torch, 106183 bytes, 6 tensors)

fc1.weight f4 [128, 63]
000000 68 09 73 be ca a1 0a 3e fc 63 89 3d a9 54 1a 3d
       -0.23734057 0.1353828 0.06708524 0.037678394
000010 17 6a 6d be 64 22 19 be 68 c4 1e 3e 64 37 a4 bd
       -0.23185001 -0.14954525 0.1550461 -0.080183774
000020 34 00 a8 3d 68 e5 3d 3e cb 14 bc bd 35 86 6e 3e
       0.08203164 0.18544543 -0.091836534 0.23293383
000030 31 32 94 3e 8a 4e 69 3d 84 69 d2 3e 47 b5 5d 3d
       0.28944543 0.056959666 0.41096127 0.054127958
000040 e0 48 0d be 1a 04 b0 3d f8 c3 b1 3d 80 27 bf 3d
       -0.13797331 0.08594532 0.08679956 0.09333706
000050 60 5b 01 3e 09 05 42 be 16 86 b0 3d 6e 7e be bd
       0.12632513 -0.18947233 0.08619325 -0.09301458
000060 7e 49 ea be 9e 4f 4b 3e 34 01 09 bf 02 95 93 bd
       -0.45759195 0.1985459 -0.5351746 -0.07206155
000070 89 1e eb bd fb 93 ef 38 db 6f 0a 3e d2 dc bb 3d
       -0.114804335 0.000114239716 0.13519232 0.091729775
000080 52 50 e7 3c d3 da 19 3d 2a dc b3 bd 9e b5 a4 3c
       0.028236542 0.037562203 -0.08782227 0.020106133
000090 22 81 f3 bd bd 31 e7 bd 24 be 4f 3c a5 23 55 bd
       -0.118898645 -0.11288784 0.01267961 -0.052035946
0000a0 9f e2 9b 3d e0 16 bd 3d 25 04 38 3d 4d 4f f9 bd
       0.07611584 0.09232879 0.044925828 -0.121733285
0000b0 8f a7 41 ba ad 26 bb 3c ab 72 10 be 03 58 1a 3d
       -0.0007387334 0.02284559 -0.14106242 0.03768159
0000c0 2f 64 a3 3d 86 0f 4b bd a6 d5 0e bd 6b 94 8d bd
       0.07978093 -0.04957535 -0.03487172 -0.06913074
0000d0 a1 c2 9b 3d 22 90 c7 bd a2 bd ca bd 7a 97 52 be
       0.07605482 -0.09744288 -0.09899451 -0.20565596
0000e0 fe 21 60 bd e7 dd 0c 3e 49 75 14 be a3 64 33 bd
       -0.054719917 0.13756524 -0.14497866 -0.043797147
0000f0 fc bc 93 3e 44 b1 73 3c 39 4a 30 3e 2c 56 e5 be
       0.2885512 0.014873806 0.17215814 -0.44792306
000100 09 aa 4d bf ab 64 2e 3e 77 69 b4 be b8 03 65 bd
       -0.8033758 0.1703059 -0.35236713 -0.05591175
000110 88 98 c6 3c 02 6b 86 3d 93 0d 8b 3e 60 a3 d6 bd
       0.024242654 0.06563379 0.27158794 -0.1048038
000120 75 bd 6f 3e fd 14 57 3e 7d 7d f2 bd 25 76 b9 3e
       0.23412116 0.210041 -0.11840341 0.3622295
000130 c3 ef 2c 3b 74 de 61 3c 01 69 54 3e d6 98 e1 3e
       0.0026388026 0.013785947 0.20743181 0.44061917
000140 cc 1c 34 bd 94 2b 1c 3f 36 83 ff 3e df 75 3c bd
       -0.043972775 0.61003995 0.49904794 -0.046010848
000150 b4 96 36 3e df cf 74 bd 88 fc 4b 3b a1 f9 21 bf
       0.17830926 -0.059768554 0.0031125862 -0.6327153
000160 d3 44 c9 be 8d 13 2c 3e 87 5b 53 3e e4 ca a9 3e
       -0.3931032 0.16804333 0.20640384 0.33162606
000170 4c 1a 6f be 63 75 8e 3e b3 4b 1a 3d e7 82 fd bd
       -0.23349875 0.27823934 0.03766985 -0.12378483
000180 11 a4 d5 bb c4 8e d7 bc 85 c4 30 3c 6f a6 33 be
       -0.0065198024 -0.026313193 0.010789041 -0.17543958
000190 7d 2d bf be 8a 23 93 3d 4c f3 00 3e 61 cf 9c 3e
       -0.37339392 0.07184513 0.1259281 0.30626968
0001a0 94 f2 31 be 94 98 a8 3d de a1 48 bc ba e1 8c bd
       -0.17377692 0.08232227 -0.012245623 -0.068789914
0001b0 8a a7 15 be 8a 06 f8 be 21 ed a2 3c a7 76 72 be
       -0.14614692 -0.4844249 0.019888462 -0.23678075
0001c0 18 33 4a bf c1 6a 33 3d dd 14 fa bc ef 53 92 3e
       -0.7898421 0.04380298 -0.030527527 0.2857966
0001d0 b3 b3 c2 3d 8a 5a 2c be c7 48 85 3e 64 7b 6e bd
       0.09506931 -0.16831413 0.26032087 -0.058223143
0001e0 0b c8 39 3c 88 66 90 3e b9 ff f2 bd df 22 44 3e
       0.011339198 0.28203225 -0.118651815 0.19153927
0001f0 38 ae 08 3f ca 3b 57 3d 47 b8 c3 bd 4a ea e3 be
       0.53390837 0.052547254 -0.095566325 -0.44514686
000200 85 84 c8 3e 1b e4 ba bd 30 95 9b be 55 0e 97 3e
       0.39163604 -0.09125539 -0.3038726 0.29503122
000210 29 21 b2 3d db 7c 8d be 6b e8 4e 3e 70 e4 8f bc
       0.08697731 -0.2763432 0.20205848 -0.017564982
000220 b3 51 80 bd 22 71 88 3d de 2a d9 3d e2 24 05 3e
       -0.06265583 0.06662203 0.106038794 0.13002351
000230 0e b5 4b bc 9d aa 43 3e 97 f0 5c bd c0 fe 90 bc
       -0.0124333035 0.19108053 -0.05394038 -0.0176996
000240 89 ec ce bd d7 98 ca 3d e8 70 e8 3b e3 c0 5f bd
       -0.10103709 0.09892433 0.0070935376 -0.05462731
000250 90 0d 4b be 08 0f f2 3d 59 4d b4 bd 79 97 b9 be
       -0.19829392 0.11819273 -0.088038154 -0.36248377
000260 81 e6 00 3e fe 23 ab 3c 90 73 c9 3d 24 35 e6 bd
       0.1258793 0.020891186 0.09836495 -0.112406045
000270 31 b0 a9 bd 28 1b ed bd e4 05 82 3e 99 3a b1 3c
       -0.08285559 -0.11577445 0.2539512 0.021634387
000280 11 c2 b6 bd c0 42 4e bd 26 89 9e bb 00 40 d5 3d
       -0.08923734 -0.050356627 -0.0048381267 0.10412598
000290 99 0f 13 bf b1 46 22 3e 82 ae a8 3d ef 1f d2 3d
       -0.57445675 0.15847279 0.0823641 0.10259997
0002a0 44 79 0f 3e b3 58 09 3e 2f 6f bc 3d 98 f0 62 be
       0.14011103 0.13412742 0.09200894 -0.22162092
0002b0 87 cf 8b 3e e1 1d 5a be cc 80 a9 be 1e 2d 0c 3f
       0.27306768 -0.2130046 -0.33106077 0.54756343
0002c0 29 6b c1 be c0 11 ea bc 53 57 78 3d eb 52 93 3d
       -0.3777707 -0.028572917 0.060630154 0.0719355
0002d0 a2 4c e4 3d 42 30 e0 bd 28 15 7c 3b db 5b fc bc
       0.11147429 -0.109467044 0.0038464759 -0.030805519
0002e0 13 64 b8 bd 5f 17 7f 3e 21 f5 a9 bd 10 6e 7f bd
       -0.09003463 0.24911259 -0.08298708 -0.062360823
0002f0 78 cc f1 3d aa 6a 17 3e 3f 78 c9 be 6b c4 0e bd
       0.118065774 0.14786783 -0.39349553 -0.034855288
000300 cd 06 4e be 2d cf 9a be 72 47 18 3e 40 de 5b bd
       -0.20119782 -0.30236188 0.14871004 -0.05367875
000310 1e ff 45 3d fe 6a 65 3d ee cf 7c be 05 51 4e 3e
       0.048339 0.05601024 -0.24688694 0.20148094
000320 94 f6 ac be 7a 6b 37 be bd 13 e4 3e d0 7e 6b be
       -0.33781874 -0.17912093 0.4454631 -0.22997594
000330 99 5f 88 be 75 22 a7 3d 8a e2 a6 3e 3c 46 f2 bc
       -0.26635435 0.08160869 0.3259471 -0.029574506
000340 e2 fc ae 3e 3c 5e 1f be fe 69 01 bd bc 22 57 3d
       0.3417731 -0.15563291 -0.031595223 0.05252336
000350 3c d8 48 be f0 5e 93 3d 2c 5e fa be fe eb b5 bc
       -0.19613737 0.07195842 -0.48899972 -0.022207256
000360 56 0f f3 bc 44 be 09 bd 1e 5f 32 3e 3d 27 5c be
       -0.029670399 -0.033628717 0.17419097 -0.21499343
000370 0f 29 36 3e 7f df 3e be 27 9f bd bd 3e 3c 92 3b
       0.177891 -0.18639944 -0.092588715 0.004462748
000380 a5 69 85 be 94 ba 8b 3e 1d 83 2b be 45 da e1 3c
       -0.26057163 0.27290785 -0.16749234 0.0275699
000390 06 c3 03 3e a2 b6 aa 3d b6 ff 2f 3e f8 e2 15 3e
       0.12867364 0.08335616 0.1718739 0.14637363
0003a0 84 1f b3 3e ec 1e 8a be 79 a6 b0 3d b9 54 88 3e
       0.34984982 -0.26976717 0.08625502 0.26627138
0003b0 3e b2 98 be 8c e9 2d 3e 77 f4 95 3d a3 95 a6 bd
       -0.29823488 0.16983622 0.073220186 -0.0813401
0003c0 98 5c 10 3e 08 be 98 3c 90 53 24 3e 8e d4 aa bd
       0.14097822 0.018645301 0.16047502 -0.08341323
0003d0 7e 95 85 3e fc a3 95 be dc fb 5c 3d af 01 02 be
       0.26090616 -0.29226673 0.05395113 -0.12695955
0003e0 72 40 05 bb e1 dd 24 be 7a 82 bc be 87 c1 c7 3e
       -0.0020332602 -0.16100265 -0.36818296 0.39014837
0003f0 95 24 8d bd 8a 90 d1 bd c5 d8 6d 3d 37 cd 13 3e
       -0.06891743 -0.10232647 0.058068056 0.14433752

fc1.bias f4 [128]
000000 d8 8b 16 bd 80 a8 95 be 3b 2a 9c 3d 56 08 14 3d
       -0.03675446 -0.29230118 0.07625242 0.036140762
000010 a3 d4 ca bd 06 01 35 3e 83 97 18 be f7 75 da 3c
       -0.099038385 0.17676172 -0.14901547 0.026667578
000020 37 8c 01 bd 30 4a 99 bd c4 c9 67 be 62 de 43 3d
       -0.03162786 -0.07484853 -0.22635561 0.047819503
000030 e2 92 e7 bc 7c c6 4b be 6b 25 f9 3d c9 4b da 3c
       -0.028268281 -0.19899935 0.1216534 0.026647465
000040 35 8e 71 bd dd a1 3e 3e 63 22 ec 3d 7a 10 de bd
       -0.05897351 0.18616433 0.11529996 -0.108429864
000050 ce 3c 22 be 90 ca 64 bc a3 00 e4 bd 9a 50 26 3c
       -0.15843508 -0.01396431 -0.11132934 0.010151053
000060 c1 2f 70 bd 8b c0 b6 3d b2 5d cf bc 3e 16 b8 bc
       -0.05863929 0.089234434 -0.025313232 -0.022471543
000070 10 23 2c 3c 23 82 c4 3d 85 2e ef bd 9c 57 5e bd
       0.010506406 0.09595134 -0.11678795 -0.05428277
000080 18 7a 26 3e f0 a4 38 bc 13 61 88 3e 6c 1c 8f bd
       0.16257513 -0.011269793 0.26636562 -0.06987843
000090 6f dd 4d 3e 24 92 cd 3d 21 78 d5 3d 4a e7 16 3a
       0.20104001 0.1003764 0.104233034 0.00057565107
0000a0 44 a9 50 bd 9b 95 ba 3c b3 bd c1 bd 4d cc e9 3d
       -0.050942674 0.022776416 -0.094600104 0.114159204
0000b0 5d 1f 11 3e e3 7d 81 bd 37 6c 67 3d 1b 0e c9 bd
       0.1417212 -0.06322839 0.056499686 -0.098171435
0000c0 00 99 f6 bd eb ab 91 be df 6b 6a be 71 f7 ca bd
       -0.12040901 -0.28451476 -0.22892712 -0.09910477
0000d0 90 de 8d bd f6 4e 84 bd 6b 45 db bd 7e 7a af be
       -0.06927216 -0.06460373 -0.107066 -0.34273142
0000e0 19 3a 24 3c 6a 40 dd 3d 96 c3 90 be b4 36 64 3d
       0.010023617 0.10803302 -0.2827422 0.05571623
0000f0 0c 0a 82 3d 14 58 0d 3e f0 c7 ec 3c ed 43 0d be
       0.063495725 0.1380313 0.028903931 -0.13795443
000100 68 d3 9b 3b 3b d7 c3 3d be 7e 2e bc 26 8d 28 3d
       0.004755426 0.09562536 -0.010650335 0.041150235
000110 42 a4 36 3e 3a e7 06 3d c8 d9 d1 bd 7a 67 a5 bd
       0.17836097 0.03293536 -0.102466166 -0.08076377
000120 96 c7 0b be 34 d3 6a 3c 15 f9 0a 3e e3 04 8c be
       -0.13650355 0.014332581 0.1357158 -0.27347478
000130 f5 f0 af 3d ba fe bb 3e 61 f2 1a 3e 1e 51 d9 bd
       0.08590881 0.36717778 0.15131523 -0.10611175
000140 a5 fc a2 3d a2 05 db 3d 35 7f 3e be 18 96 01 3e
       0.07958344 0.10694434 -0.18603213 0.12654912
000150 4e 4d 75 3e 8b e5 e9 bc cc 85 44 bd 0c 06 2f 3e
       0.2395527 -0.028551837 -0.04797916 0.1709215
000160 b7 5f dc bc bf 2c 86 3d c3 18 fa bd 44 dc 7a be
       -0.02690111 0.065515034 -0.12211754 -0.24498087
000170 c2 17 ac 3c c0 17 0e 3c b7 c0 98 3d 14 21 55 bd
       0.021007422 0.008672655 0.074586324 -0.0520335
000180 9b 4d 09 3d de e9 04 be 0d 26 3d 3d f6 bb ad bd
       0.033521276 -0.12979838 0.046178866 -0.08483116
000190 e6 95 42 bd 2d b9 d1 3d 4f 7d a9 bd d2 7c bc 3d
       -0.047506236 0.102403976 -0.08275854 0.09203495
0001a0 37 af 49 3e 85 f0 a7 3d 25 92 34 3e 55 30 96 bd
       0.19695745 0.08200172 0.17633875 -0.07333437
0001b0 0b c7 76 3d e9 cf 93 bd d1 71 10 3d 1d a7 68 3e
       0.060248416 -0.0721739 0.035264794 0.22719999
0001c0 16 21 28 3e 28 5c 47 bc 7a db a2 3d a4 b4 60 3d
       0.16418871 -0.012167968 0.07952018 0.054859772
0001d0 6c f9 cb 3d 7e 85 9e 3c 2f 36 7e bd 0d 80 3d 3e
       0.09959683 0.019350763 -0.062063392 0.18505879
0001e0 90 4e ae 3c 77 39 f1 3d 43 2c 5c bd c7 a6 12 3e
       0.021277696 0.11778539 -0.05375315 0.14321433
0001f0 c7 da e1 bd 95 d2 15 3e 66 95 d2 bd 9d 0c 9c bd
       -0.110280566 0.14631112 -0.10282402 -0.07619593

fc2.weight f4 [128, 128]
000000 66 eb 84 bc 24 9e 8e 3d f7 78 ee bc 25 69 5d 3d
       -0.016225528 0.06963757 -0.029110415 0.05405535
000010 eb 13 5b bc 33 48 29 3d f6 5f 8a bd f0 64 f7 bc
       -0.013371448 0.04132862 -0.06756584 -0.030199498
000020 9b cb 07 3c 66 1d 89 3d 12 47 ce bc b2 b0 01 3c
       0.008288289 0.066950604 -0.025180373 0.007915663
000030 3f 68 2e bd 69 02 8a 3d de a2 2d bd 2f a3 a9 bc
       -0.042579886 0.06738741 -0.04239165 -0.020707695
000040 6f b1 a4 3d 63 b1 f9 bc b5 01 ab bc 50 ea 9b 3d
       0.08041655 -0.030480092 -0.020874837 0.07613051
000050 83 c8 91 bd 9a 5a bf 3c aa 22 7f 3d dc d4 9e bd
       -0.07118323 0.023358632 0.062288918 -0.077554435
000060 19 e7 7c 3d 5d f8 66 ba ad 3e 84 bd 5e de 75 3d
       0.06174383 -0.0008810813 -0.06457267 0.06002652
000070 eb 9a b6 bd 58 33 0e 3c 56 ac 0b 3d d8 fd d7 3c
       -0.08916267 0.0086792335 0.0340999 0.02636616
000080 45 9a b1 bc 7b 4f 2d bc 2f 3f af 3d e3 82 0e 3d
       -0.021680007 -0.010578032 0.08556973 0.034792792
000090 3a 08 3f 3d da 7b 92 3d 04 bd 0f bd ec fb bb 3a
       0.046638705 0.07152529 -0.03509237 0.0014342046
0000a0 a0 f7 9d bd 92 98 97 3d 55 39 8f bd 7f e4 13 bd
       -0.07713246 0.07402147 -0.06993357 -0.036106583
0000b0 29 8e d5 3d 6c 39 91 bd 04 ab 26 bd 34 03 13 bc
       0.104275055 -0.070910305 -0.040690437 -0.008972932
0000c0 28 eb 81 bd d1 a9 a3 3d 50 59 9d 3d 7a 29 48 bc
       -0.063436806 0.07991374 0.07683051 -0.01221692
0000d0 95 d8 c5 bc 16 6f c8 bc 40 d9 a3 bc 07 0d 09 bd
       -0.024151126 -0.024467032 -0.020001054 -0.03345969
0000e0 b4 b4 a3 bd 16 f7 50 bd 6b 9d 49 bd 17 56 98 3d
       -0.07993451 -0.05101689 -0.04922239 0.07438295
0000f0 14 39 da bc 4b fe 7c bd 93 d3 ce bc 61 53 9a bc
       -0.026638545 -0.06176595 -0.02524737 -0.018838586
000100 c3 db 9e bd 77 23 fb bc a6 b2 72 3d b3 73 b2 bd
       -0.0775676 -0.03065656 0.059252404 -0.08713474
000110 29 64 6c 3d 03 62 0e 3c 2e 0a 02 3d 66 44 f2 bc
       0.057712708 0.00869036 0.03174799 -0.02957363
000120 0f e0 bc 3d 0b 56 7d bc 76 dc 81 bc 77 6f 98 3b
       0.09222423 -0.015462409 -0.015852194 0.0046519595
000130 3f 55 2c bd b8 88 91 bd 48 58 06 bc a4 ec 78 3c
       -0.042073485 -0.07106155 -0.008199759 0.015193138
000140 c1 45 c4 bc d4 a5 b7 bd 66 be 85 bd 26 18 14 bd
       -0.023959043 -0.08967176 -0.06530456 -0.036155842
000150 8f 1c 96 bd 1c 59 32 3d c1 74 26 3d 94 06 d9 3c
       -0.07329666 0.043542013 0.04063869 0.026492395
000160 e2 0a e4 3c 2a bf df bc 69 44 0d bd aa ec 56 3d
       0.02783722 -0.027312834 -0.03448907 0.052471794
000170 74 05 ba bd 3a 30 65 3d 4c 20 7f 3a 41 30 99 3d
       -0.09083071 0.055954196 0.00097322906 0.07479907
000180 0c bb 4d 3c f7 0a b4 bd 94 86 d6 3d 10 91 83 bd
       0.0125568025 -0.08791154 0.104748875 -0.06424153
000190 c2 96 82 3b 86 cc 65 3d 61 90 89 bd 05 6b 87 3d
       0.003985257 0.056103252 -0.06716991 0.06612209
0001a0 65 c9 ac 3c ab ee 69 bc 0f 17 3f bd 4e 24 a8 3c
       0.021092126 -0.014278094 -0.04665285 0.020525124
0001b0 0f 62 ad bd 03 0e 13 3d b6 e5 97 3d 4c 94 29 3c
       -0.08465969 0.035902034 0.07416861 0.010350298
0001c0 5d 74 34 bd 74 c0 87 bd d8 4a d4 3c 1d 4b 05 bc
       -0.044056285 -0.066285044 0.025914595 -0.008135584
0001d0 57 55 6f bd b0 73 e5 3c a5 b4 c9 bc 3f 35 80 3d
       -0.058430996 0.028009266 -0.02462227 0.06260156
0001e0 cf 09 9c bd cf b8 a7 bb 41 83 92 bd e7 44 03 b9
       -0.07619058 -0.0051184664 -0.07153941 -0.00012518802
0001f0 b6 cd ab 3d 5d 97 9d 3d ee c4 8d 3c 60 6f f3 3a
       0.083888456 0.07694886 0.017305817 0.0018572621
000200 82 1c 57 bd 01 61 85 3d 19 1f d1 3d a9 1d f4 bd
       -0.05251742 0.06512643 0.102110095 -0.1191972
000210 00 6c 51 be eb 27 fb bc 75 fe 3c be 6f 75 6b be
       -0.20451355 -0.030658683 -0.18456443 -0.22994016
000220 e9 53 8b 3d 5f 4a 3f be d1 03 d9 bd e0 57 67 3d
       0.06803114 -0.18680714 -0.10596431 0.05648029
000230 b3 b0 4c 3e 84 e0 46 be d9 b7 7e 3d 00 1b eb bd
       0.1998928 -0.19421583 0.06218705 -0.11479759
000240 05 04 0b 3e 2d 93 89 3d fb 18 b8 bb 34 ab c1 bc
       0.13575752 0.06717525 -0.0056182123 -0.023641206
000250 96 44 bc 3d 10 91 06 3e 80 57 5a bc 99 3e 20 bd
       0.09192769 0.13141274 -0.013326526 -0.039122198
000260 58 c0 93 3d c1 24 56 3e 7d 48 13 bc a6 de 68 3d
       0.07214421 0.20912458 -0.0089894505 0.05685296
000270 42 41 8a 3b 22 9e 02 3d f8 b6 fb bc 52 c5 6e 3d
       0.004219205 0.03188909 -0.030726895 0.058293648
000280 b9 91 02 3e a6 39 38 3d c2 96 56 3e d2 2b a1 3d
       0.12750901 0.044976853 0.20955947 0.07869686
000290 8a 62 94 3d dd 31 ac 3c 45 c7 a0 bc 8c 95 d3 3b
       0.07245357 0.02101987 -0.01962627 0.0064570364
0002a0 64 b1 1d 3e 98 70 d5 39 94 7a ac 3d e7 f7 1a 3d
       0.153997 0.00040710415 0.084218174 0.037834074
0002b0 8f 97 6a 3e 8b f6 2f 3d d4 09 38 3d 0b 58 53 3e
       0.22909378 0.04295973 0.044931248 0.20639054
0002c0 da da ce 3d 5b 12 86 3e f2 7c 83 3b a4 aa d8 3d
       0.101003364 0.2618588 0.0040126974 0.10579422
0002d0 a5 ae b0 ba aa a9 99 be ab e1 04 3e 4d 63 20 be
       -0.0013479783 -0.30012256 0.1297671 -0.1566288
0002e0 06 b9 20 3e 8b 24 b0 3d 8c 57 27 be 13 c6 4a be
       0.15695581 0.0860072 -0.1634199 -0.19802122
0002f0 8f cf 4a bc c1 6f 98 3c 1b cf 7c ba 85 91 a1 bd
       -0.012378587 0.018607976 -0.0009643898 -0.07889084
000300 7c a3 4a 3d 89 96 68 bd 7d 40 40 bc 10 78 0d 3d
       0.049472317 -0.056784187 -0.011734125 0.03453833
000310 6c aa c6 3e 26 ca 02 be e6 e0 93 bd aa de 10 be
       0.38801897 -0.12772426 -0.0722063 -0.1414744
000320 82 8d fa bd 8c ca af 3d e5 0c 2d 3d 31 25 34 be
       -0.12234022 0.085835546 0.042248625 -0.17592312
000330 52 00 96 bc f0 4b 8c bd 32 c2 86 3c c7 51 e5 3b
       -0.0183107 -0.068504214 0.016450021 0.006998274
000340 b4 bf 81 3d 0f d8 93 3d cc 84 60 be db 03 b8 3d
       0.063353926 0.07218944 -0.21925658 0.0898511
000350 82 7c b7 3d b2 c7 7a 3d 23 86 b7 bc 0a b8 eb bc
       0.08959295 0.0612256 -0.022402829 -0.02877428
000360 3c 81 db 3d 36 df ee bd 65 12 a2 bd a5 ff 02 be
       0.10718009 -0.11663668 -0.07913665 -0.12792833
000370 9b b0 41 3e a5 cb 8f 3d 53 6f 05 bc 70 73 b4 3c
       0.18915026 0.07021264 -0.008144218 0.022027701
000380 5b 9a 8d 3d a0 5d fa 3c 14 ad 36 3e 3a 08 83 bd
       0.069142066 0.030562222 0.17839462 -0.063980535
000390 0d 18 9a 3b a9 2b 33 be c9 eb 63 bd 06 f3 37 3d
       0.004702574 -0.17497124 -0.055644784 0.0449095
0003a0 bc cf 1d 3e 56 47 e6 3d 11 33 2b bc 47 a7 9f 3a
       0.15411276 0.11244075 -0.010449187 0.001218059
0003b0 3d 7a 8e 3d f5 de f1 3d f1 cc 8c bd d7 df 81 bd
       0.06956909 0.11810104 -0.06875027 -0.06341522
0003c0 f9 3e 44 3d f6 fe 63 3d b6 c1 b2 bd c5 4b c1 bd
       0.047911618 0.05566307 -0.08728354 -0.0943828
0003d0 8f 3c 13 bd d0 b0 f0 3c aa b6 9d bd ef 65 67 3d
       -0.035946425 0.029381186 -0.07700856 0.056493696
0003e0 a1 46 12 3e f3 12 70 bc b0 ac 6c bd 59 14 b9 3e
       0.14284755 -0.014652955 -0.057781875 0.36148337
0003f0 78 ce 0c be c8 a1 03 3e 9e cb 8f 3d 21 c2 80 3d
       -0.13750637 0.12854683 0.07021259 0.06287027

fc2.bias f4 [128]
000000 44 85 4d 3d 6b fe 0e 3e de 09 13 bc 20 3f cc 3b
       0.05017592 0.1396424 -0.0089745205 0.006233111
000010 17 0b 32 3e 6f a1 2a bd 1a a0 94 bc b4 46 91 bd
       0.17387043 -0.04165786 -0.018142749 -0.07093564
000020 8e 96 fd bc 36 79 a8 3e e7 67 5c 3e 9b ed 59 bd
       -0.03095558 0.32904977 0.2152401 -0.053205114
000030 b0 83 a6 3d 40 32 57 3d 6a 47 ad 3c a2 88 d8 3d
       0.08130586 0.052538157 0.021152217 0.10572936
000040 20 04 7c 3e c1 60 e6 bc e6 f1 c8 bd 6a e2 94 3d
       0.24610949 -0.028122308 -0.098117635 0.072697476
000050 41 71 a2 bd f1 39 79 bc 60 b6 3c 3d ff 51 c5 bd
       -0.07931758 -0.015211568 0.046072364 -0.0963478
000060 ef 67 aa bd e0 9d a6 3b 4e 2a 20 3e 2c 4e 72 bd
       -0.08320605 0.005084738 0.15641138 -0.05915658
000070 e6 17 49 3e e1 cb b1 3d 39 b1 b8 3d 92 6f a8 3d
       0.19638023 0.08681465 0.090181775 0.08224405
000080 e6 66 ae bc 63 7c be bb f4 3d 14 3d d2 bb a7 3b
       -0.0212893 -0.005813168 0.036191896 0.0051188255
000090 70 6d aa bd 2c 0d 80 bd 1f 89 f0 3b d6 e6 51 bd
       -0.08321655 -0.06252512 0.007340565 -0.051245533
0000a0 50 33 93 3d 59 8b 8c 3d c3 90 42 3d 23 3d a9 bd
       0.071875215 0.06862516 0.047501337 -0.08263614
0000b0 69 94 7b bc ea b9 a5 bd 46 00 0c 3e 93 86 78 bd
       -0.015355208 -0.08092101 0.1367198 -0.060675215
0000c0 f1 fa f8 3c 25 b2 40 3d 49 1a a1 3d 8d 72 0c be
       0.030393096 0.047044892 0.078663416 -0.13715573
0000d0 fb 26 27 3e 5b 76 73 3d 67 2e a3 3c ae a1 10 3d
       0.16323464 0.059439044 0.019919587 0.03531044
0000e0 bc e7 c0 3c 47 98 9b 3c 6f 4d 8d 3c d1 ae 4a 3d
       0.023548 0.01899351 0.017248837 0.049483124
0000f0 44 4a 12 bd aa b5 6d 3d b6 de 49 3e 31 8c 14 3e
       -0.035715356 0.058034576 0.19713864 0.14506604
000100 09 84 41 3d ee f1 d5 3d 2f 24 f6 3d e8 93 57 3d
       0.04724506 0.10446535 0.1201862 0.05263129
000110 2d 76 a1 3d fc 41 cf bd b4 34 99 3d f6 94 22 3d
       0.07883868 -0.101200074 0.074807554 0.03969284
000120 91 e2 80 bd 80 ef 14 bd 7f 50 3c 3d 05 46 0c 3e
       -0.06293214 -0.036361217 0.045975205 0.13698585
000130 f4 57 31 3e b7 ab 90 bb 09 56 81 bd 30 86 c8 3d
       0.17318708 -0.0044150013 -0.06315238 0.09791219
000140 90 d8 cc bc 9c fc 3b 3d 9a 2f e2 3d 52 b1 01 3e
       -0.025005609 0.045895204 0.110442355 0.12665299
000150 4b 6f 94 3d a2 95 1d 3e e5 b8 4c bc a0 18 a2 bc
       0.0724779 0.15389112 -0.012495254 -0.019787133
000160 a6 da 08 3e 19 4e d2 bc 7e 19 b3 3d f3 de 34 3e
       0.13364658 -0.025672005 0.087450966 0.17663173
000170 e4 05 85 bc e8 de a1 ba b2 47 24 bc fc de 54 bd
       -0.01623816 -0.0012349756 -0.010026859 -0.051970467
000180 96 db b0 bd 1e 56 6c 3d c9 52 67 3d b1 0c 0c 3e
       -0.08635633 0.057699315 0.056475434 0.13676716
000190 87 4d 3b 3c 26 11 06 3d cf f3 f1 3d 4d b8 60 3e
       0.011432058 0.032731198 0.11814081 0.21945305
0001a0 6c 3d bf bd 89 97 17 3e 89 2b 00 3e 59 26 62 3e
       -0.09337887 0.148039 0.12516607 0.22084941
0001b0 b7 c7 ff bd a1 76 b6 3c 21 c3 83 3d f0 f1 27 bd
       -0.124892645 0.022273364 0.06433702 -0.041002214
0001c0 4a a8 44 bc c6 6c 12 3d f3 0f 0c bc 07 d8 2c 3e
       -0.012003014 0.035748266 -0.008548724 0.16879283
0001d0 27 03 21 3d 9d af 94 3d 64 e1 16 bd a7 00 31 bc
       0.039309647 0.07260058 -0.036836043 -0.010803378
0001e0 8b c0 58 bd a9 c8 87 b9 1a 7b 62 3d b7 e1 5b 3d
       -0.052918 -0.0002589871 0.05529318 0.053682055
0001f0 21 ea 16 bc ba 43 95 bc ac 3b ad bd 17 14 e5 3d
       -0.009211094 -0.018220771 -0.08458647 0.111854725

fc3.weight f4 [10, 128]
000000 43 34 d5 bd 9c 2b 04 bf 7f 46 ce bd af f0 83 3d
       -0.10410359 -0.5162904 -0.1007204 0.06442391
000010 a6 f2 1e bf 6a 99 44 3f b6 0c 31 3b 1d ea ab bd
       -0.62089 0.7679659 0.0027015633 -0.08394263
000020 de 43 e1 3d db 69 3a bf f6 51 48 bf 1c ab a6 bd
       0.10999273 -0.7281777 -0.7825006 -0.08138105
000030 21 ec 41 3f f6 84 83 be 6f 0e 66 3e f4 d5 44 3f
       0.7575093 -0.2568738 0.22466443 0.76888967
000040 56 5c af 3e e0 27 10 bf 93 ee 2e 3d 55 75 d6 3d
       0.34250134 -0.56310844 0.04270799 0.10471598
000050 86 db 8b 3e 83 c2 bd 3e c1 ab b5 be d0 4c cd 3e
       0.2731592 0.37062463 -0.354826 0.40097666
000060 80 0b ee 3e bd 97 8b bd 3e 46 5a 3e d5 d6 4a 3b
       0.4649315 -0.06816051 0.21315858 0.0030950804
000070 11 2f d0 be 17 74 31 bf 6a b8 9e be 08 4c 19 3c
       -0.4066091 -0.69317764 -0.31000072 0.009356506
000080 e5 a8 8a bd d0 35 20 3f 3a c3 4c bd dc 33 bc bd
       -0.06770495 0.6258211 -0.04999087 -0.09189579
000090 1f 0f a1 3d 98 a8 2b 3e 19 59 6e 3d dc 97 24 bf
       0.07864212 0.16763532 0.05819044 -0.6429422
0000a0 5f dd 82 bd 31 09 0a 3f 66 4d 11 3e 53 f7 c5 3d
       -0.063898794 0.53920275 0.14189681 0.09666314
0000b0 c8 fb 10 3f 83 5a 89 3c 87 5a 09 bc 02 fd 63 be
       0.5663419 0.016766792 -0.0083834 -0.22264484
0000c0 21 83 4f 3d 93 f4 37 bd f7 1a 65 bb 52 1d 94 bd
       0.050662164 -0.04491098 -0.00349587 -0.07232155
0000d0 b2 86 8d 3e 75 d3 ad 3d 85 f7 ab 3e f1 1f 47 3e
       0.27641827 0.08487598 0.3358728 0.19445778
0000e0 25 0e a0 3d 9b 7c b6 be b0 ea 54 bd ca 0c 95 be
       0.07815198 -0.3564194 -0.051981628 -0.2911132
0000f0 fa 8c 01 be 78 45 36 be 01 db 1b 3f 90 fd b9 3e
       -0.12651435 -0.17799938 0.6088105 0.36326265
000100 6c da 8e 3d e3 d0 e1 be 22 6b 67 be 62 77 6c bc
       0.069752544 -0.4410468 -0.22599462 -0.01443276
000110 d2 3f ce bd 04 37 fc ba d0 35 10 be 07 8d 00 bf
       -0.100707665 -0.001924247 -0.14083028 -0.5021519
000120 8f 66 b6 3d b0 be 9c 3d a4 2a 42 be 65 1a 6b bf
       0.0890628 0.07653558 -0.18961579 -0.9183715
000130 a9 03 0c bf f6 a3 95 3e ae 8c 9e bd d1 c5 15 3f
       -0.54693085 0.29226655 -0.07741676 0.5850497
000140 e9 da 03 be 3e f3 90 3d c4 49 a9 be 56 54 63 3d
       -0.12876476 0.07077645 -0.3306409 0.05550035
000150 b0 e3 1d 3f f3 ef cd be 42 2f 2d 3e fb 7c 28 be
       0.6167555 -0.4022213 0.16912559 -0.16453926
000160 f8 de 34 3f b5 a7 fd ba 8d 6c 81 be a4 ca 0b 3f
       0.70652723 -0.0019352349 -0.2527813 0.5460608
000170 e2 6a eb 3e 3b 6d 18 be b3 d4 22 be 30 ce 56 3f
       0.45979983 -0.14885418 -0.15901451 0.8390837
000180 b6 7b b6 bd 83 16 1f bf ef 83 e0 be e2 40 fe 3e
       -0.08910315 -0.62143725 -0.43850657 0.49658877
000190 58 84 b7 bd db a5 5c 3c e8 4a a0 3e 6f 6b d8 3e
       -0.089607894 0.013467277 0.3130715 0.42269465
0001a0 d8 62 dc 3e 82 b1 65 3d 87 21 37 be 8d 3f b8 3e
       0.43044162 0.056077488 -0.17883883 0.35985985
0001b0 a6 8f c8 3d e9 e0 2e 3e 13 8f 05 3f c9 3b 0c bf
       0.09793024 0.17077984 0.5217144 -0.54778725
0001c0 fd 84 ab 3e fa 35 ae 3e 1b c2 ce 3d 45 7d 92 3d
       0.334999 0.34025556 0.100956164 0.071527995
0001d0 39 b5 bb 3e 59 c9 e1 bc d1 7e a2 be b9 87 93 3d
       0.366617 -0.02756183 -0.31737378 0.072036214
0001e0 d4 24 59 3f a6 35 98 3c fa 8a 1b 3f 34 0a 48 be
       0.8482182 0.018580269 0.60758936 -0.19535142
0001f0 4a e0 35 be 84 86 02 3f 39 7e 6c 3d a2 13 eb 3b
       -0.1776134 0.50986505 0.057737563 0.0071739713
000200 7b c9 61 bd ec 3a 5b 3e 15 6c cf 3d d6 72 49 3d
       -0.055123787 0.21409196 0.10128037 0.04918178
000210 f8 ec a4 3e e2 98 ee be 75 c6 90 3d 84 e7 d4 bc
       0.32212043 -0.46601015 0.07069103 -0.025989302
000220 62 fc 08 bd 8e 39 2d 3f 6a 26 23 3f 04 3c a8 bd
       -0.033443816 0.67665946 0.6373049 -0.08214572
000230 08 31 15 3e db d8 0a 3e f0 60 fd 3d 0e 39 b4 3b
       0.14569485 0.13559286 0.12372005 0.0054999655
000240 41 b5 3d 3f a4 d1 c8 be bf 3c e9 bd ff 63 72 3e
       0.74104697 -0.39222443 -0.113885395 0.23670958
000250 c8 53 c5 be fb c9 27 be 97 70 93 3e eb 72 07 bc
       -0.38540483 -0.16385643 0.28796837 -0.008267145
000260 0a ac 80 3e 57 2d 78 bd 17 e6 b8 3d ac 04 03 be
       0.25131255 -0.060590114 0.09028261 -0.12794751
000270 b1 47 aa be 23 59 af 3e 25 dc 84 3d ec 31 77 bc
       -0.3325782 0.34247693 0.06487302 -0.015087586
000280 03 9e 92 bd bd 3f e4 3d 8b df 7c be e5 99 f9 bc
       -0.071590446 0.111449696 -0.2469465 -0.03046889
000290 b1 b6 0c 3b f6 dd 8d be 7a 2a 6f bc 79 0e e3 be
       0.0021471197 -0.27708405 -0.01459753 -0.4434698
0002a0 d0 a9 00 3f f8 31 57 bd 3d 03 3a be 54 5d 57 be
       0.50259113 -0.05253789 -0.18165298 -0.21031696
0002b0 83 f3 44 be 31 c7 e0 bd 27 20 9f be 57 1b ef bd
       -0.19233517 -0.10975493 -0.31079218 -0.116751365
0002c0 5a 05 84 3c a9 8f 99 3d 83 e4 8a be 4a e7 a8 be
       0.016115833 0.07498104 -0.27127466 -0.3298896
0002d0 fb 08 93 3e 3b a0 59 b9 36 07 40 be 7f 5f f3 3d
       0.2871779 -0.00020754423 -0.18752751 0.11883449
0002e0 d0 ab 79 bd 50 50 7e be 51 96 53 3e 58 16 1f be
       -0.06095487 -0.24835324 0.2066281 -0.15535867
0002f0 0c 49 90 bc 1c 6d 01 be ac 73 e9 3e 29 05 3a 3e
       -0.017612956 -0.12639278 0.45596063 0.18166031
000300 cb db 7b bd db c4 a4 3b 09 68 ba 3e a0 89 28 bf
       -0.061488908 0.00502835 0.36407498 -0.65835
000310 e1 81 78 3e 00 43 36 be 8d c7 bd 3e 60 28 46 3f
       0.24268295 -0.17798996 0.37066308 0.7740536
000320 e1 51 34 bd cf bd 40 3e 35 36 92 be 1d d5 85 3f
       -0.0440234 0.18822406 -0.28556982 1.0455662
000330 5e 91 09 3e 1c a3 bc bd 5f d9 3a be d5 56 3f be
       0.1343436 -0.09210798 -0.18246983 -0.18685468
000340 30 37 30 3e 31 50 d5 39 53 34 0b 3f 24 fb 02 bd
       0.17208552 0.00040686273 0.54376715 -0.031977788
000350 e1 fe 06 be e2 f6 a0 3e 94 51 d6 3d 60 c4 ce bb
       -0.13183166 0.31438357 0.104647785 -0.006310031
000360 21 2e 04 be 7b 9c be bc c2 22 bc be cb 3a 00 3f
       -0.12908222 -0.023267975 -0.36745268 0.5008971
000370 28 af 19 bf e7 4b 16 bf c0 ea 4d be f2 3d e9 be
       -0.6003289 -0.5870957 -0.20109081 -0.45555073
000380 50 01 8e bd b1 c5 4e 3e 3b 3b 65 3e 1b f1 6d 3e
       -0.06933844 0.20192601 0.22385876 0.23236506
000390 51 85 8a bd 3d 26 eb 3c 83 a0 78 3e 52 4b 89 3e
       -0.06763709 0.028704757 0.2427998 0.26815277
0003a0 71 99 88 be a7 ce 13 3e 15 9c a6 3d 6d 22 0b 3f
       -0.26679567 0.144343 0.08135239 0.54349405
0003b0 d3 ad 57 be f0 50 b5 bd f6 81 53 be 97 81 6c be
       -0.21062402 -0.08853328 -0.20655045 -0.2309631
0003c0 37 0c 5c 3e b3 51 4f 3e a8 41 70 3d 28 8d 37 3f
       0.21489035 0.2024601 0.058656365 0.7169976
0003d0 b3 74 e1 3d e6 2a 95 3d f0 cb 69 3e ad c2 16 be
       0.11008587 0.07283573 0.22831702 -0.147227
0003e0 4f b6 4e 3d 58 b4 18 3d 59 9f e4 be a0 3e be be
       0.05046683 0.037281364 -0.44652823 -0.37157154
0003f0 5b 11 64 3c a4 16 de be 17 89 f6 bc be 70 02 3f
       0.0139201535 -0.43376648 -0.030094666 0.5095328

fc3.bias f4 [10]
000000 f3 de 33 3e d4 09 8e 3e 9d 01 c8 3d ab 8d 84 bc
       0.17565517 0.27741873 0.09765933 -0.016180834
000010 08 a0 dd 3d 5e ce 19 be 19 91 8c bc 02 58 04 be
       0.10821539 -0.15020129 -0.017159032 -0.12924197
000020 32 b4 a6 bc 7f 35 cd bd
       -0.020349596 -0.10019969
