ckpt/1026/model_epoch14.pth (torch, 106183 bytes, 6 tensors)

fc1.weight f4 [128, 63]
0	0xbe6220af	-0.2208278
1	0x3e0a4ef4	0.1350668
2	0x3dad0d02	0.08449747
3	0x3d25e968	0.040505797
4	0xbe6acee2	-0.22930482
5	0xbe1342f4	-0.1438101
6	0x3e1cd1bf	0.15314387
7	0xbda307b9	-0.07960457
8	0x3daaa15c	0.08331558
9	0x3e34566e	0.17611095
10	0xbdc278c1	-0.09495688
11	0x3e67cb45	0.22636135
12	0x3e8fbe1e	0.28074735
13	0x3d4c9812	0.049949713
14	0x3ecb6c2b	0.39730963
15	0x3d664143	0.056214582
16	0xbe065c4a	-0.13121143
17	0x3db846f7	0.089979105
18	0x3daff49f	0.0859158
19	0x3dbd0acf	0.09230577
20	0x3e07bee3	0.13256411
21	0xbe3997d5	-0.18124326
22	0x3da6d925	0.08146886
23	0xbda6e1d4	-0.08148542
24	0xbeddd287	-0.43324682
25	0x3e422ac0	0.1896162
26	0xbf043207	-0.51638836
27	0xbd803691	-0.06260408
28	0xbddbe20f	-0.10736477
29	0x3bb11450	0.0054040328
30	0x3e05c56a	0.13063589
31	0x3dc31db6	0.09527151
32	0x3d0df1a1	0.034654263
33	0x3d0cca03	0.03437234
34	0xbdb2a70a	-0.087232664
35	0x3ccf1350	0.025277764
36	0xbde17e7d	-0.11010454
37	0xbdf1a55d	-0.11799119
38	0x3c7b3dde	0.0153345745
39	0xbd228e80	-0.03968668
40	0x3db0b1cd	0.08627663
41	0x3dc852f5	0.09781448
42	0x3d225dde	0.0396403
43	0xbddb02ef	-0.10693919
44	0xb9dd8f3b	-0.0004225912
45	0x3c90791f	0.01763588
46	0xbe095005	-0.13409431
47	0x3d27b9e2	0.040948756
48	0x3daedc7b	0.08538147
49	0xbd57fed4	-0.052733257
50	0xbce2daae	-0.027692165
51	0xbd707e95	-0.058714468
52	0x3dbb6da1	0.091517694
53	0xbdc2c41f	-0.095100634
54	0xbdce124d	-0.10062084
55	0xbe3ced76	-0.18449959
56	0xbd80e377	-0.062933855
57	0x3e072e9f	0.13201378
58	0xbe05c0f1	-0.13061883
59	0xbd6138ec	-0.054985926
60	0x3e92bc03	0.28659067
61	0x3c98481f	0.018589078
62	0x3e240d57	0.16020714
63	0xbeea5631	-0.45768884
64	0xbf4bbf3f	-0.79588693
65	0x3e3130b5	0.17303737
66	0xbeb9f307	-0.36318228
67	0xbd66f82e	-0.056389026
68	0x3cd5b2a6	0.026086163
69	0x3d7d5fc8	0.061858922
70	0x3e8960c2	0.26831633
71	0xbddcb374	-0.107764155
72	0x3e709b34	0.23496705
73	0x3e5606ee	0.20901081
74	0xbdf098f7	-0.11747926
75	0x3ebab5ba	0.3646677
76	0x3c8ce0f7	0.017197115
77	0x3c270e6a	0.010196308
78	0x3e509dab	0.20372646
79	0x3ee62b68	0.4495499
80	0xbd3a9077	-0.04554793
81	0x3f1afccf	0.60542005
82	0x3f01fe18	0.5077834
83	0xbd505935	-0.050866324
84	0x3e35da6d	0.17759104
85	0xbd672bd7	-0.056438293
86	0x39b9adb3	0.00035415366
87	0xbf1ea98a	-0.61977446
88	0xbec6da1b	-0.38838276
89	0x3e283b30	0.16428828
90	0x3e50c963	0.20389323
91	0x3eaa4de1	0.33262542
92	0xbe6b1650	-0.2295773
93	0x3e9191e5	0.2843162
94	0x3d4a8456	0.04944261
95	0xbdfee673	-0.124462985
96	0xba925a24	-0.001116578
97	0xbcf5b59f	-0.02999383
98	0x3c14fd12	0.00909354
99	0xbe29a5a5	-0.16567095
100	0xbec4d7a3	-0.38445768
101	0x3d99a2eb	0.07501777
102	0x3e017cbc	0.12645239
103	0x3e9a01bf	0.30079457
104	0xbe2ba1f4	-0.16760999
105	0x3dbfb019	0.0935976
106	0xbc63e04c	-0.013908457
107	0xbd870345	-0.065924205
108	0xbe0dc2da	-0.13843861
109	0xbef7ac58	-0.48373675
110	0x3c99ebc6	0.018789183
111	0xbe6e6274	-0.23279744
112	0xbf47fccc	-0.7812011
113	0x3d34a70b	0.044104617
114	0xbcd848d0	-0.026401907
115	0x3e8b4c05	0.27206436
116	0x3dcb6707	0.0993176
117	0xbe1d7154	-0.15375262
118	0x3e7be547	0.24599181
119	0xbd53ebe3	-0.05173863
120	0x3cbb1b72	0.022840235
121	0x3e88f627	0.267503
122	0xbdea6428	-0.114448845
123	0x3e4a5119	0.19757499
124	0x3f04e674	0.51914144
125	0x3d5732cb	0.052538674
126	0xbdd35a8f	-0.10320007
127	0xbed6b2fd	-0.41933432
128	0x3ec3e118	0.3825767
129	0xbdc4f971	-0.0961789
130	0xbe9a5119	-0.30139998
131	0x3e95d53a	0.2926424
132	0x3da5920b	0.08084496
133	0xbe8cb5bb	-0.274824
134	0x3e4edab7	0.2020062
135	0xbcab5674	-0.020915247
136	0xbd8a697a	-0.06758399
137	0x3d860755	0.06544367
138	0x3ddf7394	0.10910717
139	0x3dea0177	0.11426061
140	0xbbeb4265	-0.0071795457
141	0x3e3d7111	0.18500163
142	0xbd717692	-0.058950968
143	0xbc3cf6b8	-0.011533432
144	0xbdce2930	-0.1006645
145	0x3db8611a	0.09002896
146	0x3c82e22d	0.01597699
147	0xbd5709b8	-0.052499503
148	0xbe4768ec	-0.19473618
149	0x3deccafc	0.11562154
150	0xbdb30577	-0.08741277
151	0xbeb49aa7	-0.3527424
152	0x3deffb60	0.11717868
153	0x3c9481a8	0.018128231
154	0x3dc152be	0.0943961
155	0xbddeb6fd	-0.10874746
156	0xbda1e04b	-0.079041086
157	0xbde409e8	-0.11134702
158	0x3e7eab54	0.24870044
159	0x3ccd272e	0.025043096
160	0xbdaa3454	-0.08310762
161	0xbd6aaec9	-0.057295594
162	0xba019214	-0.0004942727
163	0x3dd7ff4b	0.1054674
164	0xbf13042e	-0.5742825
165	0x3e23cdff	0.1599655
166	0x3da2f31d	0.079565264
167	0x3dd365f7	0.103221826
168	0x3e0be795	0.1366256
169	0x3e03e579	0.12880506
170	0x3dc8de71	0.09808052
171	0xbe67af5c	-0.22625488
172	0x3e84bc3b	0.25924858
173	0xbe50dca1	-0.20396663
174	0xbea98107	-0.33106253
175	0x3f05eb28	0.52311945
176	0xbeba9ca3	-0.3644763
177	0xbcb471b5	-0.022026876
178	0x3d6a8403	0.057254802
179	0x3d915714	0.07096687
180	0x3de03f3c	0.10949561
181	0xbde50abc	-0.11183688
182	0x3c87e617	0.016589208
183	0xbd1365ec	-0.035985872
184	0xbdaacefc	-0.083402604
185	0x3e821a9d	0.2541093
186	0xbdb30fd8	-0.08743256
187	0xbd5aa77c	-0.05338238
188	0x3df0c319	0.11755962
189	0x3e18f4db	0.14937155
190	0xbec1e0eb	-0.3786691
191	0xbd103cf2	-0.035214372
192	0xbe53584b	-0.2063915
193	0xbe9b8943	-0.3037816
194	0x3e11a231	0.14222027
195	0xbd73f2f6	-0.059557877
196	0x3d2ff691	0.042959753
197	0x3d619646	0.055074953
198	0xbe7ce001	-0.24694826
199	0x3e479285	0.19489487
200	0xbeab5474	-0.3346287
201	0xbe3a40e8	-0.18188822
202	0x3ede1cd9	0.43381384
203	0xbe6bf2e7	-0.23041879
204	0xbe869473	-0.26285133
205	0x3dc4a502	0.09601785
206	0x3eaa481a	0.33258134
207	0xbcf32cad	-0.029684389
208	0x3eac8b61	0.33700088
209	0xbe0fd0dc	-0.14044517
210	0xbd027edd	-0.031859268
211	0x3d560b20	0.052256703
212	0xbe3b479a	-0.18289033
213	0x3d9a3a83	0.075306915
214	0xbef63e25	-0.48094288
215	0xbcd1a8a1	-0.025593104
216	0xbcb3bdb8	-0.02194105
217	0xbc9f98cd	-0.01948204
218	0x3e3c0c4a	0.18364063
219	0xbe571de8	-0.21007502
220	0x3e38aebe	0.18035409
221	0xbe327de9	-0.17430843
222	0xbdbf34b9	-0.09336228
223	0x3c252ae5	0.010081028
224	0xbe8328b2	-0.25616986
225	0x3e8a38e9	0.26996544
226	0xbe22d141	-0.15900137
227	0x3c8d3ac4	0.017239936
228	0x3e0d655d	0.13808198
229	0x3dc14140	0.094362736
230	0x3e3daf05	0.18523796
231	0x3e1ae07b	0.15124695
232	0x3eb191e1	0.3468161
233	0xbe814c16	-0.2525336
234	0x3db2727e	0.08713244
235	0x3e8781e4	0.26466286
236	0xbe9343d3	-0.28762683
237	0x3e2fbd76	0.17162117
238	0x3d9416d3	0.07230916
239	0xbda8f2c0	-0.08249426
240	0x3e19d222	0.15021566
241	0x3cccab2c	0.024983965
242	0x3e3424a8	0.17592108
243	0xbd9a7f65	-0.0754383
244	0x3e837309	0.25673702
245	0xbe8cd652	-0.27507263
246	0x3d73bf3e	0.059508555
247	0xbdff4623	-0.124645494
248	0x3b253998	0.002521133
249	0xbe1f0248	-0.15528214
250	0xbeb69923	-0.3566371
251	0x3ec11f29	0.37719086
252	0xbd7d222c	-0.061800167
253	0xbdc04cdb	-0.09389659
254	0x3d4fdda3	0.05074848
255	0x3e1569e7	0.1459118

fc1.bias f4 [128]
0	0xbce455be	-0.027872916
1	0xbe92a1ef	-0.2863917
2	0x3d9cc821	0.07655359
3	0x3d2e08ad	0.042488743
4	0xbdcb801e	-0.09936546
5	0x3e29c63b	0.16579525
6	0xbe1be351	-0.15223433
7	0x3c9c45a7	0.019076182
8	0xbd020efd	-0.031752575
9	0xbd8a064a	-0.06739481
10	0xbe5d6e82	-0.21624187
11	0x3d282740	0.041053057
12	0xbc97c02b	-0.01852425
13	0xbe4712ca	-0.19440761
14	0x3df3e3eb	0.11908706
15	0x3d040d42	0.032239206
16	0xbd60e53f	-0.054906126
17	0x3e3b2826	0.18277034
18	0x3de4cfc6	0.11172442
19	0xbdd24ad1	-0.10268176
20	0xbe1da833	-0.15396194
21	0xbbe9110e	-0.007112629
22	0xbde400a3	-0.11132934
23	0x3c08bed0	0.0083462745
24	0xbd735025	-0.059402604
25	0x3dd11cdf	0.10210585
26	0xbc47c0fa	-0.012192005
27	0xbca4e8e6	-0.020130586
28	0x3ad00d19	0.0015873044
29	0x3dca1e2e	0.098690376
30	0xbdef2e85	-0.11678795
31	0xbd5e579c	-0.05428277
32	0x3e228535	0.15871127
33	0xbc419ba9	-0.011816897
34	0x3e81f505	0.25382248
35	0xbd8f2ec4	-0.06991342
36	0x3e45d4e0	0.19319487
37	0x3dc37242	0.09543277
38	0x3dd11055	0.10208193
39	0x3a3b09e4	0.00071349577
40	0xbd3ca84d	-0.04605894
41	0x3cf71be2	0.030164663
42	0xbdbcc462	-0.092171445
43	0x3de75e62	0.11297299
44	0x3e0ae9d4	0.13565761
45	0xbd817c71	-0.063225634
46	0x3d60bced	0.054867674
47	0xbdc841b8	-0.0977816
48	0xbdf780ab	-0.12085088
49	0xbe8a57b4	-0.27020037
50	0xbe686437	-0.22694479
51	0xbdb8b050	-0.09018004
52	0xbd76cec7	-0.060255792
53	0xbd925112	-0.07144369
54	0xbde1d736	-0.11027376
55	0xbeacceb0	-0.3375144
56	0x3c3c2f84	0.011485938
57	0x3dd7f9c6	0.105456874
58	0xbe8bab42	-0.27279097
59	0x3d4e907e	0.050430767
60	0x3d8242a5	0.06360368
61	0x3e0d6537	0.13808142
62	0x3d076638	0.033056468
63	0xbe0ca0f5	-0.13733275
64	0x3c41c6ee	0.011827214
65	0x3dbf7982	0.09349348
66	0xbb8eefd8	-0.0043620877
67	0x3d2887cd	0.041145135
68	0x3e3158d7	0.17319046
69	0x3cfa1e70	0.030532092
70	0xbdd1d9c8	-0.102466166
71	0xbd8fcc51	-0.07021392
72	0xbe092c42	-0.1339579
73	0x3c857bb6	0.016294342
74	0x3e0c9b47	0.13731109
75	0xbe8c7734	-0.27434695
76	0x3dc10c06	0.094261214
77	0x3eb7f86e	0.35931724
78	0x3e1131d6	0.14179167
79	0xbde3ae2f	-0.11117207
80	0x3d9f76c5	0.07786325
81	0x3de23dba	0.1104693
82	0xbe42828b	-0.1899511
83	0x3e064c98	0.13115156
84	0x3e76f36b	0.24116294
85	0xbce97eaf	-0.02850279
86	0xbd5bcae0	-0.053660274
87	0x3e2fac18	0.17155492
88	0xbcecee8f	-0.028922347
89	0x3d8c52f1	0.06851757
90	0xbdf9fc17	-0.122062854
91	0xbe81009b	-0.25195774
92	0x3cd29a67	0.02570839
93	0x3c0e17c0	0.008672655
94	0x3da4cc55	0.08046786
95	0xbd552114	-0.0520335
96	0x3cf47a97	0.029843612
97	0xbe04dbd7	-0.12974487
98	0x3d44347b	0.04790161
99	0xbdadbbf6	-0.08483116
100	0xbd4476b1	-0.047964755
101	0x3dcc4c46	0.099754855
102	0xbda8eb24	-0.082479745
103	0x3dbc954a	0.09208162
104	0x3e4b32c0	0.19843578
105	0x3db0bc67	0.08629685
106	0x3e343da0	0.17601633
107	0xbd9e5ffe	-0.07733153
108	0x3d6bd767	0.05757847
109	0xbd8da3d2	-0.06916012
110	0x3d0fe69a	0.03513203
111	0x3e6cb38c	0.23115367
112	0x3e286dfe	0.16448209
113	0xbc475c28	-0.012167968
114	0x3dacd42e	0.084389076
115	0x3d45052e	0.048100643
116	0x3dca2168	0.09869653
117	0x3c9e752c	0.019342981
118	0xbd804efb	-0.06265064
119	0x3e40fa26	0.18845424
120	0x3c928b20	0.017888606
121	0x3ddea979	0.10872168
122	0xbd7305f3	-0.059331845
123	0x3e13c46c	0.14430398
124	0xbdbe6cf9	-0.09298129
125	0x3e0d90d4	0.13824779
126	0xbdd28a76	-0.102803156
127	0xbd9193f7	-0.071083

fc2.weight f4 [128, 128]
0	0xbc7796c4	-0.015111629
1	0x3d8f3545	0.06992582
2	0xbce48d7c	-0.027899496
3	0x3d605ef7	0.054778066
4	0xbc626ab8	-0.013819389
5	0x3d26d86a	0.040733732
6	0xbd8757db	-0.06608554
7	0xbcf38a1a	-0.029728938
8	0x3c07cb9b	0.008288289
9	0x3d8aa58d	0.067698576
10	0xbcd11f3f	-0.025527595
11	0x3c1b43ac	0.009476583
12	0xbd2b9bf7	-0.041896787
13	0x3d8abfbd	0.067748524
14	0xbd282ccc	-0.041058347
15	0xbca53a71	-0.020169469
16	0x3da42bb9	0.08016152
17	0xbcf490ad	-0.029854143
18	0xbc9e7520	-0.019342959
19	0x3d9db9a3	0.07701423
20	0xbd9265cc	-0.071483225
21	0x3cbf56d5	0.023356834
22	0x3d7f22aa	0.062288918
23	0xbda01fe9	-0.078185864
24	0x3d7ba0f3	0.06143279
25	0xba837ab1	-0.0010031072
26	0xbd8382e0	-0.06421447
27	0x3d744c52	0.059643097
28	0xbdb51c4e	-0.08843289
29	0x3c20dbf1	0.009818063
30	0x3d0bac56	0.0340999
31	0x3cd7fdd8	0.02636616
32	0xbcac3abb	-0.021024099
33	0xbc3fe1a3	-0.011711511
34	0x3dafefde	0.08590673
35	0x3d0e7c7c	0.034786686
36	0x3d40018b	0.04687647
37	0x3d931ebb	0.07183596
38	0xbd0eed10	-0.03489405
39	0x3abc0584	0.0014344906
40	0xbd9d1dd9	-0.076717086
41	0x3d9b5bb6	0.07585852
42	0xbd8cd138	-0.06875843
43	0xbd10e795	-0.035377104
44	0x3dd32bf7	0.1031112
45	0xbd9138fe	-0.070909485
46	0xbd254857	-0.04035219
47	0xbc075a25	-0.008261238
48	0xbd81ec4b	-0.063438974
49	0x3da35029	0.07974274
50	0x3d9cb57e	0.076518044
51	0xbc446ff3	-0.011989581
52	0xbcbf603b	-0.023361316
53	0xbcc17162	-0.023613635
54	0xbc9e331d	-0.019311482
55	0xbd09c354	-0.033633545
56	0xbda1a998	-0.078936756
57	0xbd508cbf	-0.050915476
58	0xbd47891e	-0.04871475
59	0x3d98d6b0	0.074628234
60	0xbcda40e7	-0.026642276
61	0xbd79a6e2	-0.060950167
62	0xbcc905c9	-0.024538891
63	0xbc9e87fd	-0.019351954
64	0xbd9fd90d	-0.07805071
65	0xbcfd52f5	-0.030923346
66	0x3d6d8be3	0.057994734
67	0xbdb273b6	-0.08713476
68	0x3d69d9f2	0.057092614
69	0x3c16bff1	0.009201036
70	0x3d020a2e	0.03174799
71	0xbceaf813	-0.028682744
72	0x3dbbc690	0.09168732
73	0xbc7ad973	-0.015310633
74	0xbc662c7c	-0.014048692
75	0x3b9a662f	0.0047118883
76	0xbd2b89f0	-0.041879594
77	0xbd90dd2c	-0.07073435
78	0xbbe6ad08	-0.00703967
79	0x3c76bcc6	0.0150596555
80	0xbcc47f2f	-0.023986427
81	0xbdb55dd8	-0.0885579
82	0xbd83efa7	-0.064421944
83	0xbd12d252	-0.03584511
84	0xbd93466c	-0.07191166
85	0x3d325870	0.04354137
86	0x3d21e1fb	0.039522152
87	0x3ce3f1f9	0.027825342
88	0x3cedabc1	0.029012563
89	0xbce5a2d1	-0.028031738
90	0xbd0d441e	-0.03448879
91	0x3d600012	0.054687567
92	0xbdb846d4	-0.089978844
93	0x3d65303a	0.055954196
94	0x3b4a4c28	0.0030868147
95	0x3d993041	0.07479907
96	0x3c617411	0.013760583
97	0xbdb4072e	-0.08790432
98	0x3dd4e978	0.10396093
99	0xbd839110	-0.06424153
100	0x3b823786	0.003973904
101	0x3d6785c1	0.056524042
102	0xbd898eba	-0.06716676
103	0x3d876af0	0.066121936
104	0x3cbb611d	0.022873456
105	0xbc814f75	-0.015784958
106	0xbd3fef51	-0.04685909
107	0x3cb461cb	0.022019288
108	0xbdad01d3	-0.084476136
109	0x3d131a03	0.03591348
110	0x3d96850c	0.073495954
111	0x3c3b9de0	0.011451215
112	0xbd35ef63	-0.04441775
113	0xbd87c074	-0.066285044
114	0x3ccf5fde	0.025314268
115	0xbbf11867	-0.0073576453
116	0xbd6dad95	-0.05802687
117	0x3ce573b0	0.028009266
118	0xbcc54877	-0.024082405
119	0x3d805f54	0.062681824
120	0xbd9a473f	-0.0753312
121	0xbb81b982	-0.003958882
122	0xbd93235e	-0.0718448
123	0xb7e695e1	-2.748793e-05
124	0x3dac27c3	0.084060214
125	0x3d9e2a51	0.07722915
126	0x3c8dc4f3	0.017305827
127	0x3b1837a0	0.0023226514
128	0xbd548cfa	-0.05189226
129	0x3d7c2ac5	0.061564226
130	0x3dd15182	0.102206245
131	0xbdf489ef	-0.11940371
132	0xbe53273f	-0.2062044
133	0xbce7cb55	-0.028295198
134	0xbe385a05	-0.1800309
135	0xbe61aa6d	-0.22037669
136	0x3d8b5d22	0.06804873
137	0xbe417abd	-0.18894477
138	0xbddc202f	-0.10748326
139	0x3d68568c	0.056723163
140	0x3e49d728	0.19710982
141	0xbe45a3d0	-0.19300771
142	0x3d8aa22f	0.06769215
143	0xbdeee3cf	-0.11664545
144	0x3e08230c	0.1329462
145	0x3d7ec398	0.06219825
146	0xbb875a21	-0.0041306172
147	0xbcb547e5	-0.022129009
148	0x3db97e2f	0.09057271
149	0x3e03c324	0.12867409
150	0xbc5a5780	-0.013326526
151	0xbd279f2e	-0.04092329
152	0x3d922470	0.07135856
153	0x3e5450e2	0.2073398
154	0xbc43063a	-0.01190334
155	0x3d63c1d8	0.055604786
156	0x3916607c	0.00014341058
157	0x3d00d3a4	0.031451836
158	0xbcfbb6f8	-0.030726895
159	0x3d6ec552	0.058293648
160	0x3e007c57	0.12547432
161	0x3d3eb9bd	0.046563853
162	0x3e5ac628	0.21364653
163	0x3da12251	0.078678735
164	0x3d9da464	0.07697371
165	0x3c8a612e	0.016892042
166	0xbca8f4d1	-0.02062455
167	0x3bd2840b	0.006424432
168	0x3e1ce0aa	0.15320078
169	0x3a2da27e	0.00066236395
170	0x3dafa645	0.08576635
171	0x3d0fb4a3	0.035084378
172	0x3e6601ff	0.22461699
173	0x3d2ffbab	0.04296462
174	0x3d3e02f4	0.046389535
175	0x3e52d03f	0.20587252
176	0x3dcc6ae4	0.09981325
177	0x3e8582d7	0.26076385
178	0x3b3847a6	0.0028118878
179	0x3ddcd358	0.10782498
180	0x39da87ee	0.00041681476
181	0xbe96fadb	-0.29488263
182	0x3e0051b8	0.12531173
183	0xbe1ffe5c	-0.15624374
184	0x3e20b75c	0.15694946
185	0x3db11441	0.08646441
186	0xbe23e0f8	-0.16003788
187	0xbe47867e	-0.19484898
188	0xbc4b3cb0	-0.012404606
189	0x3cad4b43	0.021154052
190	0xba8f5d20	-0.0010937788
191	0xbda09ca3	-0.07842376
192	0x3d418b3b	0.04725192
193	0xbd5d36cb	-0.054007333
194	0xbc306400	-0.010766029
195	0x3d0d7812	0.034538336
196	0x3ec4d9f0	0.38447523
197	0xbdfcbff0	-0.12341297
198	0xbd93e0e6	-0.0722063
199	0xbe0e370d	-0.13888188
200	0xbdfa7fe7	-0.12231427
201	0x3dadc3c3	0.08484604
202	0x3d320938	0.043465823
203	0xbe33dfc4	-0.17565829
204	0xbc9fbda6	-0.019499611
205	0xbd82abbc	-0.06380412
206	0x3c920957	0.01782672
207	0x3baf7bc8	0.005355332
208	0x3d810f31	0.06301726
209	0x3d8d6f0f	0.06905948
210	0xbe5fdc1e	-0.21861312
211	0x3db93072	0.09042443
212	0x3db6194b	0.08891543
213	0x3d7ab8ce	0.0612114
214	0xbcb1fe9f	-0.021727858
215	0xbced553a	-0.028971303
216	0x3dda5f9d	0.10662768
217	0xbdec4e25	-0.115383424
218	0xbda211d9	-0.079135604
219	0xbe04e67d	-0.1297855
220	0x3e3d5c15	0.18492158
221	0x3d8fcba5	0.07021264
222	0xbc049787	-0.008092768
223	0x3cb47370	0.022027701
224	0x3d90a530	0.07062757
225	0x3cf97b79	0.030454384
226	0x3e30e32c	0.17274159
227	0xbd83083a	-0.063980535
228	0x3b974a4d	0.0046170116
229	0xbe30015f	-0.17188023
230	0xbd644fc8	-0.055740148
231	0x3d37ec53	0.04490311
232	0x3e1b8f45	0.15191372
233	0x3ddd3403	0.10800936
234	0xbc21e65d	-0.009881583
235	0xbad2b977	-0.0016077001
236	0x3d876254	0.066105515
237	0x3df375cc	0.11887702
238	0xbd8da7e7	-0.069167905
239	0xbd7d737f	-0.061877724
240	0x3d45710d	0.048203517
241	0x3d63fef6	0.05566307
242	0xbdb2dd10	-0.087335706
243	0xbdc323ac	-0.09528288
244	0xbd01554a	-0.03157548
245	0x3cf0b0ff	0.029381273
246	0xbd9c16be	-0.07621525
247	0x3d5e4d13	0.054272722
248	0x3e1174ae	0.14204666
249	0xbc8d3688	-0.017237917
250	0xbd7a8c1c	-0.061168775
251	0x3eb571a5	0.35438266
252	0xbe0f6978	-0.14005077
253	0x3e022a04	0.1271134
254	0x3d8fcb96	0.07021253
255	0x3d86b3da	0.06577273

fc2.bias f4 [128]
0	0x3d548acc	0.05189018
1	0x3e0da35e	0.13831851
2	0xbc0a33c5	-0.008435194
3	0x3be022f3	0.006840104
4	0x3e310469	0.17286839
5	0xbd245f19	-0.040129755
6	0xbc9c1284	-0.019051798
7	0xbd93e1f4	-0.072208315
8	0xbd02dd78	-0.03194949
9	0x3ea7c33b	0.32766137
10	0x3e5b22d8	0.2140001
11	0xbd59f519	-0.05321226
12	0x3da5f9e9	0.08104307
13	0x3d63f297	0.055651274
14	0x3c8b5dcc	0.0170125
15	0x3dd258ff	0.10270881
16	0x3e799236	0.24372181
17	0xbcba2e05	-0.022727022
18	0xbdc5fc79	-0.09667296
19	0x3d92d641	0.07169772
20	0xbd9db667	-0.07700806
21	0xbc60a00c	-0.013710033
22	0x3d514d45	0.05109908
23	0xbdcabeac	-0.09899649
24	0xbda79ac3	-0.08183815
25	0x3b9231e1	0.0044615124
26	0x3e1f25fd	0.15541835
27	0xbd789fd2	-0.06069929
28	0x3e47e569	0.19521107
29	0x3db4d130	0.08828962
30	0x3db77178	0.08957189
31	0x3db1d119	0.0868246
32	0xbca86837	-0.020557506
33	0xbc22c9bb	-0.009935792
34	0x3d1d48f7	0.038399663
35	0x3bd00c53	0.0063491254
36	0xbdaa8249	-0.08325631
37	0xbd78c549	-0.06073502
38	0x3b5cd07f	0.003369361
39	0xbd3ed7a7	-0.04659238
40	0x3d979e4c	0.074032396
41	0x3d8440c5	0.06457666
42	0x3d3c22ec	0.04593174
43	0xbda9653b	-0.08271261
44	0xbc68f859	-0.014219367
45	0xbda39b00	-0.07988548
46	0x3e0f0cc5	0.13969715
47	0xbd849114	-0.06472984
48	0x3ce1381d	0.027492577
49	0x3d427967	0.04747906
50	0x3d9abab5	0.07555143
51	0xbe0d83fe	-0.13819882
52	0x3e28207d	0.16418643
53	0x3d703d76	0.058652364
54	0x3cab65f8	0.020922646
55	0x3d07e26a	0.03317491
56	0x3cc3a340	0.023881555
57	0x3cb59690	0.02216652
58	0x3c7f9673	0.015599835
59	0x3d4b2341	0.049594168
60	0xbd130348	-0.0358918
61	0x3d73f350	0.059558213
62	0x3e448731	0.19192196
63	0x3e135eb1	0.1439159
64	0x3d428741	0.04749227
65	0x3dd436d1	0.10362018
66	0x3de9a26f	0.11407935
67	0x3d571edc	0.052519664
68	0x3da2551e	0.07926391
69	0xbdc86adc	-0.09786007
70	0x3d954665	0.07288817
71	0x3d2a74d6	0.04161533
72	0xbd82bab6	-0.063832685
73	0xbd0f8dec	-0.035047457
74	0x3d338e5c	0.043836936
75	0x3e094d70	0.13408446
76	0x3e2ed359	0.1707281
77	0xbb8b3316	-0.0042480333
78	0xbd7e5178	-0.062089413
79	0x3dbf8ad6	0.09352653
80	0xbccf05a0	-0.025271237
81	0x3d3d45c8	0.046209127
82	0x3ddfb216	0.10922639
83	0x3dfeadf7	0.12435525
84	0x3d9c2c4d	0.07625637
85	0x3e1acccf	0.15117191
86	0xbc8b975f	-0.017039953
87	0xbca39be3	-0.019971794
88	0x3e06c9c5	0.13162906
89	0xbcd1e930	-0.025623888
90	0x3db754b2	0.08951701
91	0x3e31b78d	0.17355175
92	0xbc82ea93	-0.015980994
93	0x3a183e99	0.00058076676
94	0xbc2ad985	-0.010427837
95	0xbd3afe62	-0.045652755
96	0xbdb07c73	-0.08617487
97	0x3d6425ea	0.05570022
98	0x3d62595a	0.055260994
99	0x3e08599c	0.13315433
100	0x3c417b96	0.01180925
101	0x3d07045a	0.032963134
102	0x3de992d9	0.11404962
103	0x3e5f9cdc	0.21837181
104	0xbdb9b353	-0.090674065
105	0x3e1753cf	0.14778064
106	0x3dfdcd7b	0.12392708
107	0x3e6005b1	0.21877171
108	0xbe01d06b	-0.12677161
109	0x3cc2363a	0.023707498
110	0x3d7641d8	0.060121387
111	0xbd070d1f	-0.032971498
112	0xbc458e26	-0.012057817
113	0x3d0f7a34	0.03502865
114	0xbc15266b	-0.009103398
115	0x3e2a176a	0.16610494
116	0x3d1d086a	0.038338102
117	0x3d94cb9c	0.07265398
118	0xbd1d0a60	-0.038339972
119	0xbc2de509	-0.010613688
120	0xbd576a47	-0.05259159
121	0xb95365b7	-0.0002016042
122	0x3d643ce6	0.05572214
123	0x3d5cb580	0.05388403
124	0xbc193ec0	-0.00935334
125	0xbcaab0cb	-0.020836255
126	0xbdacb224	-0.08432415
127	0x3de3178a	0.11088474

fc3.weight f4 [10, 128]
0	0xbdd454ac	-0.103677124
1	0xbf0239b1	-0.5086928
2	0xbdc7aa40	-0.097492695
3	0x3d851d36	0.06499712
4	0xbf200586	-0.6250843
5	0x3f43c14e	0.76466835
6	0x3a74a244	0.0009332041
7	0xbda5e87d	-0.08100984
8	0x3de1b960	0.110216856
9	0xbf39ea7d	-0.72623426
10	0xbf468ae3	-0.77555674
11	0xbda6f0fb	-0.08151432
12	0x3f3fec28	0.7496972
13	0xbe8954ec	-0.26822603
14	0x3e5f3b93	0.2180007
15	0x3f43a742	0.7642709
16	0x3eac7a18	0.336869
17	0xbf0f3717	-0.55943435
18	0x3d2a9c0a	0.041652717
19	0x3dcd68e4	0.10029772
20	0x3e899e09	0.26878384
21	0x3ebc6d0e	0.36801952
22	0xbeb0310b	-0.34412417
23	0x3eca6258	0.39528155
24	0x3eea74ca	0.45792228
25	0xbd874858	-0.06605595
26	0x3e48dc7d	0.1961536
27	0x3b9d46d3	0.0047997027
28	0xbed29979	-0.41132715
29	0xbf2fd5fb	-0.68685883
30	0xbe9f9ddf	-0.31175134
31	0x3c23c782	0.009996297
32	0xbd889bf7	-0.06670373
33	0x3f1fcb26	0.62419355
34	0xbd49bafa	-0.04925058
35	0xbdb69ec6	-0.089170024
36	0x3da10f21	0.07864214
37	0x3e25f7d2	0.16207817
38	0x3d69b867	0.057060625
39	0xbf22a9be	-0.63540256
40	0xbd88d735	-0.066816725
41	0x3f0a3da6	0.5400032
42	0x3e121aa1	0.1426797
43	0x3dc8229c	0.09772226
44	0x3f0ff872	0.5623847
45	0x3c8765ba	0.016528
46	0xbc2c8ea8	-0.010532059
47	0xbe598a8b	-0.21244256
48	0x3d351162	0.04420603
49	0xbd37b54c	-0.044850633
50	0xbc1702a5	-0.009216939
51	0xbd8ee13c	-0.06976554
52	0x3e8a9429	0.27066162
53	0x3d9e5ec7	0.07732921
54	0x3eaaaef2	0.33336598
55	0x3e37d782	0.17953303
56	0x3da0fe20	0.078609705
57	0xbeb7898c	-0.35847127
58	0xbd565532	-0.052327342
59	0xbe941eb9	-0.2892969
60	0xbdfaa513	-0.12238517
61	0xbe34c369	-0.17652668
62	0x3f1b3853	0.6063282
63	0x3ebd81aa	0.37012988
64	0x3d8f4136	0.0699486
65	0xbee0abe1	-0.43881133
66	0xbe643ade	-0.22288081
67	0xbc5eb42c	-0.013592761
68	0xbdcaaf36	-0.098967
69	0xb98a481b	-0.00026375134
70	0xbe0f4b38	-0.13993537
71	0xbf00be63	-0.5029051
72	0x3db30d36	0.08742754
73	0x3d9b2eca	0.07577284
74	0xbe45ad58	-0.19304407
75	0xbf6baa6c	-0.9205692
76	0xbf0d0f38	-0.55101347
77	0x3e94de00	0.29075623
78	0xbda280d9	-0.07934732
79	0x3f15731f	0.58378786
80	0xbdfcfb6e	-0.12352644
81	0x3d90b4fc	0.0706577
82	0xbeab1122	-0.3341151
83	0x3d4d1db9	0.050077174
84	0x3f196b96	0.5992979
85	0xbecf9d59	-0.40549734
86	0x3e203f56	0.1564916
87	0xbe249f27	-0.16076337
88	0x3f331b74	0.69963765
89	0xbb082aa9	-0.002077738
90	0xbe8242ac	-0.25441492
91	0x3f09c5b2	0.53817284
92	0x3ee943ab	0.4555944
93	0xbe0e8aab	-0.13920085
94	0xbe220190	-0.15820909
95	0x3f5581e0	0.834013
96	0xbdb43993	-0.08800044
97	0xbf1f7a60	-0.62296104
98	0xbede3e55	-0.4340693
99	0x3efc525e	0.4928159
100	0xbdb7ed4d	-0.089808084
101	0x3c5c5ec3	0.013450327
102	0x3e9f731b	0.31142506
103	0x3ed9429a	0.42433625
104	0x3ed76458	0.42068744
105	0x3d748937	0.05970117
106	0xbe325f6b	-0.17419212
107	0x3eb65095	0.35608354
108	0x3dc20f78	0.09475607
109	0x3e2cacd4	0.16862804
110	0x3f035164	0.5129607
111	0xbf0aa33d	-0.5415533
112	0x3eac1d31	0.3361602
113	0x3ead15d0	0.33805704
114	0x3dcdc0a3	0.10046508
115	0x3d844afd	0.064596154
116	0x3eba03dd	0.36331072
117	0xbce1c919	-0.027561711
118	0xbea03d2e	-0.31296676
119	0x3d924706	0.07142453
120	0x3f564868	0.83704233
121	0x3c995be8	0.018720582
122	0x3f1be496	0.6089567
123	0xbe4a708e	-0.19769499
124	0xbe30b5c3	-0.17256837
125	0x3f012bfb	0.50457734
126	0x3d6c841a	0.05774317
127	0x3c09d373	0.00841223
128	0xbd5a04f4	-0.05322738
129	0x3e5e2655	0.2169431
130	0x3dcd9f9f	0.10040211
131	0x3d49d006	0.049270652
132	0x3ea3a141	0.31958964
133	0xbeeed45a	-0.46646386
134	0x3d8decee	0.069299564
135	0xbd1860fd	-0.03720187
136	0xbd11553e	-0.035481684
137	0x3f2e5783	0.6810228
138	0x3f24d881	0.6439286
139	0xbda80584	-0.08204177
140	0x3dcecac7	0.100972705
141	0x3e04b05a	0.12957898
142	0x3dfae519	0.12250728
143	0xba734c33	-0.0009281069
144	0x3f3cb4e6	0.7371353
145	0xbec6e2b4	-0.38844836
146	0xbde302a9	-0.11084492
147	0x3e6dd42e	0.23225471
148	0xbec55068	-0.38537908
149	0xbe270e10	-0.16313958
150	0x3e90815d	0.28223696
151	0xbc4b96a6	-0.012426054
152	0x3e7e9505	0.24861534
153	0xbd7ce336	-0.061740123
154	0x3db1f9bd	0.08690212
155	0xbdfcc9bf	-0.123431675
156	0xbeab614c	-0.3347267
157	0x3eb38462	0.35061938
158	0x3d870d80	0.06594372
159	0xbc442363	-0.0119713275
160	0xbd9359f0	-0.071948886
161	0x3dd0eed1	0.102018006
162	0xbe7983d3	-0.24366693
163	0xbcf60f6d	-0.030036652
164	0x3b0d60dc	0.0021572625
165	0xbe8f86b1	-0.2803245
166	0xbce05e15	-0.027388612
167	0xbee04719	-0.43804243
168	0x3ef86d12	0.48520714
169	0xbd6f20ed	-0.05838101
170	0xbe3c7318	-0.1840328
171	0xbe54f360	-0.20795965
172	0xbe46aa6d	-0.1940095
173	0xbde330a9	-0.110932656
174	0xbea09d2e	-0.3136992
175	0xbde7b832	-0.11314429
176	0x3c267d8a	0.010161767
177	0x3d99ae03	0.07503893
178	0xbe8c5f68	-0.2741654
179	0xbea777c5	-0.32708564
180	0x3e927b4e	0.286097
181	0x3980ebb6	0.0002458968
182	0xbe4ce945	-0.2001086
183	0x3ded7533	0.115946196
184	0xbd7b01c5	-0.061280984
185	0xbe7cd414	-0.24690276
186	0x3e4c3228	0.19941008
187	0xbe1e67bc	-0.15469259
188	0xbca2993f	-0.019848464
189	0xbe004217	-0.12525211
190	0x3ee54146	0.44776362
191	0x3e2d9eb1	0.16955067
192	0xbd7bdb2d	-0.06148832
193	0x3ac9ca73	0.0015395418
194	0x3eb83ece	0.35985416
195	0xbf28627f	-0.65775293
196	0x3e79b09e	0.2438378
197	0xbe33f1b1	-0.17572667
198	0x3ebb9f4c	0.3664497
199	0x3f3eeac0	0.7457695
200	0xbd33cb35	-0.043894965
201	0x3e3d6eca	0.18499294
202	0xbe96fd20	-0.29489994
203	0x3f82a6e9	1.0207187
204	0x3e03721f	0.12836502
205	0xbdc1c5fc	-0.09461591
206	0xbe350423	-0.1767736
207	0xbe4662a4	-0.19373566
208	0x3e2b5c0d	0.16734333
209	0x39b00375	0.00033571912
210	0x3f0bc490	0.54596806
211	0xbd2169f5	-0.03940769
212	0xbe02ec74	-0.12785512
213	0x3ea127cb	0.31475672
214	0x3dc10bed	0.09426103
215	0xbc0dee10	-0.008662716
216	0xbe12aff2	-0.1432493
217	0xbcbf9096	-0.023384374
218	0xbebdc0d6	-0.37061185
219	0x3efb0613	0.49028072
220	0xbf1b1a43	-0.6058695
221	0xbf15d126	-0.5852226
222	0xbe476682	-0.19472697
223	0xbee92f22	-0.45543772
224	0xbd8c4864	-0.06849745
225	0x3e51ff6d	0.20507593
226	0x3e66eaaf	0.22550462
227	0x3e65f6d3	0.22457437
228	0xbd8a8257	-0.067631416
229	0x3ceb6aca	0.028737444
230	0x3e7262a2	0.23670438
231	0x3e885114	0.26624358
232	0xbe85d5e5	-0.2613975
233	0x3e141772	0.14462069
234	0x3d9e3c16	0.07726304
235	0x3f0a16e6	0.5394119
236	0xbe568f62	-0.20953134
237	0xbdb740ac	-0.08947882
238	0xbe51a565	-0.2047325
239	0xbe630e29	-0.2217337
240	0x3e56ca49	0.20975603
241	0x3e4b3311	0.19843699
242	0x3d6b7595	0.05748518
243	0x3f36726f	0.7126836
244	0x3dd98904	0.10621837
245	0x3d952a4e	0.072834596
246	0x3e6c2cf9	0.2306403
247	0xbe1af765	-0.15133436
248	0x3d17bc3e	0.037044756
249	0x3d1473af	0.036243137
250	0xbee6a386	-0.45046633
251	0xbebbd91b	-0.36689076
252	0x3c674f49	0.014118024
253	0xbee2cc55	-0.44296518
254	0xbcf6bba1	-0.030118765
255	0x3f011e34	0.5043671

fc3.bias f4 [10]
0	0x3e337e33	0.1752861
1	0x3e8b0a44	0.2715627
2	0x3dcdcc66	0.100487515
3	0xbc55e85e	-0.013055889
4	0x3dd72865	0.105057515
5	0xbe18bd21	-0.14915897
6	0xbc786521	-0.01516083
7	0xbe0343d0	-0.12818837
8	0xbca673fb	-0.020318976
9	0xbdcea141	-0.100893505
